outputs/performance_test/checkpoint_epoch_2.pt (torch, 945821 bytes, 81 tensors)

encoder.lob_enc.conv_in.0.weight f4 [32, 2, 3, 1]
-0.11851512 0.30104962 -0.25068057 -0.082094684 -0.01730254 -0.21733788 0.0073714824 -0.09841723
-0.20351037 -0.33111528 -0.010461436 0.37010103 0.15193513 -0.31872723 -0.21341163 0.2614631
-0.1585505 -0.04431373 -0.20187105 0.19621506 -0.27710584 -0.38512385 -0.30367845 -0.34395573
0.048697546 0.07079035 -0.12292016 0.16047235 0.046245005 0.104556404 0.22053766 0.091630355
0.39896467 0.31209967 -0.21929084 0.29412794 -0.045701846 -0.024262773 0.033599276 -0.35883942
0.26646298 0.2648688 0.38569713 0.06392945 -0.12160669 -0.06999982 -0.14403042 -0.3794271
0.13688946 0.056033574 -0.13044368 -0.24200901 -0.09445102 0.108043544 0.31654802 0.17435531
0.29929745 0.33327958 -0.19429325 -0.01737602 -0.33258674 -0.22415663 0.16932295 0.16174951
0.19149266 0.36000976 0.15969792 -0.20640919 -0.09063768 0.024012333 0.20177247 -0.21610911
-0.16325997 0.16094954 0.14716327 0.38887134 0.34746215 -0.18497708 0.14953522 -0.24180079
-0.008671522 -0.024531376 0.10200042 0.36781967 -0.3302065 0.36480048 0.27413192 -0.20838073
-0.120894425 -0.10011601 0.25264248 -0.09897236 0.15447305 -0.15705238 0.3353529 -0.053846084
0.3941946 -0.29730353 -0.11907974 0.2685212 0.14089274 -0.20313118 -0.3377129 -0.3148872
-0.33792904 -0.23341452 -0.24380067 -0.1180101 0.34449494 -0.11744991 -0.2617092 0.19071203
-0.24931304 -0.21347561 -0.06368671 -0.04067605 -0.25169912 -0.31404987 -0.40781584 -0.1752101
0.19837466 0.02588461 0.31530574 0.06420964 -0.31580716 0.029331965 -0.11016428 0.22486223
0.105664335 0.39917913 -0.37043905 -0.20149162 -0.35686314 0.025962327 -0.27223375 -0.1795903
0.37886867 -0.14806211 0.19371162 0.26892072 0.30080703 0.32688758 0.2612324 0.044071395
0.3538689 0.3939727 -0.2730998 0.095093526 0.28971833 -0.26685715 0.1689363 0.26650992
0.004439721 -0.107675776 -0.03156288 0.3451909 -0.33369458 0.1519026 -0.23098773 0.2651784
-0.17795365 0.080359325 0.2530632 -0.04470218 -0.054809157 0.36325783 0.39061755 0.22893392
0.013201307 -0.013159529 -0.2449859 0.2836798 0.17776708 0.3360784 -0.27638766 0.08991925
0.069246 -0.13250367 -0.05398984 0.072204344 -0.11614422 0.38122013 -0.37075382 -0.063345164
-0.19830605 0.306738 -0.14490367 -0.091091365 0.35313755 -0.35497198 -0.13324083 0.3533223
00000000: 0eb8 f2bd 2d23 9a3e 3459 80be 4221 a8bd
00000010: 0ebe 8dbc d28d 5ebe 7a8c f13b f98e c9bd
00000020: 0665 50be f187 a9be 7166 2bbc e27d bd3e
00000030: e294 1b3e 3730 a3be 9488 5abe 7ede 853e
00000040: 105b 22be 5082 35bd 49b7 4ebe 9aec 483e
00000050: d1e0 8dbe f42e c5be be7b 9bbe f71a b0be
00000060: 1477 473d 88fa 903d 91bd fbbd dd52 243e
00000070: 676b 3d3d ab21 d63d a0d4 613e b2a8 bb3d
00000080: 1945 cc3e 87cb 9f3e c78d 60be f097 963e
00000090: dc31 3bbd b9c2 c6bc 659f 093d cdb9 b7be
000000a0: d66d 883e e29c 873e 187a c53e 72ed 823d
000000b0: ee0c f9bd 115c 8fbd b67c 13be 4544 c2be
000000c0: c02c 0c3e 7683 653d 0793 05be 36d1 77be
000000d0: 896f c1bd ef45 dd3d 9512 a23e 338a 323e
000000e0: 843d 993e 9fa3 aa3e cff4 46be 2858 8ebc
000000f0: cf48 aabe 5189 65be ff62 2d3e aaa1 253e
00000100: a716 443e 3353 b83e da87 233e ee5c 53be
00000110: 3fa0 b9bd 83b5 c43c 719d 4e3e b54b 5dbe
00000120: 9f2d 27be f5cf 243e f8b1 163e 251a c73e
00000130: 8fe6 b13e a26a 3dbe c31f 193e a09a 77be
00000140: 0013 0ebc 06f6 c8bc 99e5 d03d dc52 bc3e
00000150: d410 a9be 21c7 ba3e 055b 8c3e c261 55be
00000160: 7f97 f7bd 9f09 cdbd 5b5a 813e 05b2 cabd
00000170: 2f2e 1e3e 57d2 20be 60b3 ab3e b68d 5cbd
00000180: e0d3 c93e 2b38 98be 14e0 f3bd 9c7b 893e
00000190: 3046 103e 9f01 50be b5e8 acbe e538 a1be
000001a0: 0905 adbe 3704 6fbe e2a6 79be 48af f1bd
000001b0: a461 b03e 9489 f0bd c0fe 85be 044a 433e
000001c0: eb4b 7fbe 5a99 5abe 2e6e 82bd ee9b 26bd
000001d0: b5de 80be 25cb a0be 3dcd d0be 476a 33be
000001e0: ba22 4b3e f60b d43c c16f a13e 5880 833d
000001f0: 7ab1 a1be 9749 f03c cf9d e1bd 4942 663e
00000200: 8b66 d83d 3561 cc3e 30aa bdbe d253 4ebe
00000210: c4b6 b6be f2ae d43c 3962 8bbe 85e6 37be
00000220: 13fb c13e 989d 17be 575c 463e faaf 893e
00000230: 6103 9a3e cf5d a73e 41c0 853e 3584 343d
00000240: 4e2e b53e cab6 c93e bdd3 8bbe 65c0 c23d
00000250: f655 943e 80a1 88be a3fd 2c3e fd73 883e
00000260: 147b 913b 1e85 dcbd 1448 01bd ddbc b03e
00000270: 04da aabe 5b8c 1b3e 0c88 6cbe 77c5 873e
00000280: 7b39 36be 6e93 a43d 8091 813e a219 37bd
00000290: 917f 60bd eefc b93e 06ff c73e a76d 6a3e
000002a0: 4b4a 583c 119b 57bc 95dd 7abe 7b3e 913e
000002b0: 9308 363e 7812 ac3e af82 8dbe 9527 b83d
000002c0: d9d0 8d3d 0baf 07be 7324 5dbd dfdf 933d
000002d0: 05dd edbd 492f c33e 72d3 bdbe 1cbb 81bd
000002e0: be10 4bbe c30c 9d3e a161 14be 1c8e babd
000002f0: 72ce b43e e3be b5be 4970 08be a9e6 b43e

encoder.lob_enc.conv_in.0.bias f4 [32]
0.2868445 -0.1162671 -0.07681911 -0.1945634 0.08078922 0.1196789 0.27578956 0.17920211
0.20592275 -0.06501375 -0.2917657 0.22541586 -0.0070906943 -0.26713547 0.036527358 0.40393513
-0.03441965 -0.3410293 0.24655303 0.3035733 -0.260889 -0.35706726 -0.29209974 0.16785279
-0.16754705 -0.4010252 -0.029296037 -0.20742011 -0.12084599 -0.16112481 -0.1369876 -0.26581025
00000000: 48dd 923e 721d eebd 5653 9dbd a13b 47be
00000010: d274 a53d 361a f53d 4a34 8d3e c280 373e
00000020: 6add 523e ee25 85bd 5062 95be 6ad3 663e
00000030: 0e59 e8bb fbc5 88be b69d 153d 96d0 ce3e
00000040: 9efb 0cbd 649b aebe 6678 7c3e f66d 9b3e
00000050: 3e93 85be 85d1 b6be 198e 95be 9ae1 2b3e
00000060: 7491 2bbe 2d53 cdbe 3efe efbc f065 54be
00000070: 1a7e f7bd e7fd 24be 7a46 0cbe 4818 88be

encoder.lob_enc.conv_in.1.weight f4 [32]
1.0064902 1.0058454 1.0093356 1.004455 1.0045557 1.0048536 1.0041 1.0094553
1.0074127 1.008194 0.98870003 0.9884559 1.0076872 1.002101 0.99081844 1.0065163
0.994557 1.0098369 1.0093839 1.0006267 0.991433 0.99570954 1.0055878 0.9952428
1.005879 0.99743205 1.0095743 1.0109462 1.0044258 1.0027962 1.0075786 1.0075167
00000000: acd4 803f 8bbf 803f e931 813f fb91 803f
00000010: 4895 803f 0b9f 803f 5986 803f d535 813f
00000020: e6f2 803f 800c 813f 721b 7d3f 720b 7d3f
00000030: e5fb 803f d844 803f 47a6 7d3f 87d5 803f
00000040: 4a9b 7e3f 5642 813f 7e33 813f 8914 803f
00000050: 8ece 7d3f d2e6 7e3f 1ab7 803f 3bc8 7e3f
00000060: a5c0 803f b557 7f3f bb39 813f af66 813f
00000070: 0691 803f a05b 803f 56f8 803f 4ff6 803f

encoder.lob_enc.conv_in.1.bias f4 [32]
0.007366927 0.0049943444 0.009937113 0.002406199 -0.0034312173 0.0119581055 0.010072307 0.010240687
0.007767359 0.010087116 -0.011181724 0.00042967385 -0.0113350395 0.0068705454 -0.001300857 0.008659147
0.0063839485 0.008823007 0.009979972 0.0037839701 0.010514915 0.009168643 0.005707474 0.010976059
0.007525113 0.0015453252 0.010951806 0.010245121 0.010223743 -0.0019711487 0.010067393 0.009978421
00000000: 4366 f13b 99a7 a33b 46cf 223c 52b1 1d3b
00000010: 46de 60bb eeeb 433c 5106 253c 8ec8 273c
00000020: 5485 fe3b 6e44 253c 8d33 37bc d945 e139
00000030: 9ab6 39bc 5022 e13b 8581 aaba 18df 0d3c
00000040: 7130 d13b 608e 103c 0983 233c 7cfc 773b
00000050: c046 2c3c 1338 163c c305 bb3b eed4 333c
00000060: 3995 f63b 828c ca3a 346f 333c 27db 273c
00000070: 7c81 273c 632e 01bb b5f1 243c 887c 233c

encoder.lob_enc.conv_in.1.running_mean f4 [32]
-2.7526445e+08 -1.9312096e+08 -2.3830027e+08 -9.5513715e+08 2.2376413e+08 7.938585e+08 1.0175099e+08 -1.923119e+08
-1.19979816e+08 6.599305e+08 2.3462352e+08 -9.060015e+07 5.094462e+08 2.4668166e+08 -8.204298e+07 3.159987e+08
1.31584856e+08 -1.15531e+09 -2.2595598e+08 -9.141447e+08 2.2773995e+08 3.503531e+07 -3.9273325e+08 1.01756006e+09
4.3694314e+08 4.7007616e+08 -1.7651165e+08 8.2728736e+08 4.031166e+08 -1.6565827e+08 -4.025732e+07 -1.4981583e+07
00000000: 9e41 83cd ac2c 38cd c742 63cd f2b8 63ce
00000010: ea65 554d 4745 3d4e 1a13 c24c 2667 37cd
00000020: e5d7 e4cc f656 1d4e 22c1 5f4d 5bce accc
00000030: 42ec f24d 0441 6b4d 0c7c 9ccc 0fae 964d
00000040: 6bfa fa4c 43b9 89ce 097d 57cd f7f2 59ce
00000050: 9330 594d 2ca6 054c 1245 bbcd f09a 724e
00000060: c959 d04d 5826 e04d aa55 28cd 9d3d 454e
00000070: 9238 c04d eafb 1dcd ca91 19cc cf99 64cb

encoder.lob_enc.conv_in.1.running_var f4 [32]
1.0553439e+17 6.0802456e+16 9.072594e+16 1.07366774e+18 6.100945e+16 7.5617524e+17 3.557185e+16 7.109733e+16
2.1634141e+16 5.2521997e+17 9.065391e+16 2.2101148e+16 3.1576833e+17 8.350127e+16 3.8859756e+16 1.2496367e+17
6.050972e+16 1.5501114e+18 9.755144e+16 9.717871e+17 7.7366775e+16 2.336781e+16 2.1029498e+17 1.2030616e+18
2.6961626e+17 2.6529353e+17 4.9359375e+16 8.049882e+17 1.9856285e+17 4.388368e+16 2.2973119e+16 5.2439266e+16
00000000: 7c77 bb5b 8303 585b 6229 a15b f266 6e5d
00000010: c6bf 585b 96e7 275d d1c0 fc5a a596 7c5b
00000020: 46b8 995a 993e e95c a008 a15b c109 9d5a
00000030: b43a 8c5c fb53 945b be0e 0a5b e6fa dd5b
00000040: 45f9 565b d118 ac5d 4249 ad5b b3c7 575d
00000050: 566e 895b cc09 a65a 8bc7 3a5c 1191 855d
00000060: a477 6f5c c4a0 6b5c 175c 2f5b 48be 325d
00000070: f75b 305c f9e7 1b5b dc3b a35a 3c4d 3a5b

encoder.lob_enc.res_blocks.0.conv1.weight f4 [32, 32, 3, 1]
-0.03239587 -0.075078845 -0.02465586 -0.075268805 -0.004742359 0.062014956 -0.053607713 -0.024694128
-0.028785737 -0.045141574 -0.08158938 0.014794682 -0.019492393 -0.005384107 -0.031768516 -0.07360921
-0.045301545 0.04638152 0.062263858 -0.035496358 0.05786358 -0.069384046 -0.016138997 -0.1028745
-0.025637746 0.018945457 0.0521038 0.026336627 0.03803743 -0.02833355 0.09435511 -0.08572005
-0.02677281 -0.019039758 0.05776591 0.009814032 0.08852513 -0.07816088 0.027449856 -0.09111501
0.02511056 -0.050419502 -0.055681337 0.008025344 0.013647526 0.09123796 0.07249537 -0.00023928452
0.039249428 0.009000637 -0.028283797 -0.08504456 -0.09285921 -0.0011135566 -0.052228086 0.08229241
-0.056563936 0.01640239 -0.06022832 0.09064777 0.038351852 0.047650453 0.021154113 -0.021607246
-0.037878618 -0.05276355 -0.09897913 -0.027919633 -0.05200501 0.08238009 0.08817203 -0.07341521
-0.0041656154 -0.09429372 0.044748552 0.067168266 -0.06481861 -0.07678669 -0.029293457 0.07298667
0.061445568 -0.063517205 -0.005188786 -0.083816946 0.08515818 0.035126302 -0.04634733 0.03484818
-0.0040667253 -0.07217162 -0.10969223 0.06567832 -0.06729572 0.0601208 -0.031379085 0.058919307
0.034565758 0.053582005 -0.05445953 0.04826852 0.015126118 -0.006747905 -0.009987609 -0.0062366608
0.050764587 0.052406788 -0.04669019 -0.011092015 -0.01532575 -0.030128239 0.053832248 0.10256108
0.058261547 -0.016220026 0.070958175 0.10405545 0.019767229 0.0809657 0.024309838 -0.02879073
0.02686663 0.014792863 0.020890573 -0.018543083 -0.06698429 -0.08511402 -0.05695005 0.06547738
-0.016233256 -0.09154534 0.08291696 -0.10545106 0.024506813 0.09753606 -0.043213584 0.0063878284
0.103676744 0.09473897 0.07862959 -0.013498799 0.056818116 0.047810394 0.015221004 0.09821466
0.026671737 0.073764876 -0.07102691 0.022094332 -0.10294744 0.008147009 0.018641124 0.052644655
0.046596486 -0.054100648 0.051814396 -0.110723704 0.09070062 0.05258343 -0.00612816 0.030662512
0.06081751 -0.07159133 0.059431024 0.021432932 0.09018068 0.011774555 0.018241746 0.032329164
0.08604672 -0.075373344 0.060384773 0.06825527 -0.0027086486 -0.060772993 0.07027384 0.05207369
-0.031544954 0.025075734 -0.02325326 -0.0383923 0.10952486 0.04757191 0.014368858 0.06401827
0.063305505 0.046215374 0.056294724 -0.07684436 -0.032125887 0.09267047 0.0249149 0.037381638
-0.076143764 -0.059956618 -0.047774162 0.037903424 -0.049546797 0.07190919 -0.08289155 -0.027918024
0.0732004 -0.05244797 -0.008320036 -0.03986557 0.03175355 -0.056162845 -0.08093492 -0.04286946
0.037510116 -0.031218505 -0.07921697 -0.028183818 -0.047921386 0.08174131 -0.02519009 0.03260942
0.08799721 -0.079319835 0.033148956 0.009649739 0.08281707 -0.0016216878 0.023335053 -0.10201623
0.09331761 -0.068292126 0.06386256 -0.077381015 0.01741686 -0.0030548882 0.07182153 -0.1000226
0.08174378 0.09436252 0.024165424 0.08683698 0.078729495 0.0020727608 0.05333574 0.0020423094
0.024400115 -0.07510589 -0.033718925 -0.065467894 -0.07006501 -0.07517857 -0.05099349 0.0070777712
-0.016847078 0.036032215 0.034766562 -0.038837105 0.067758135 -0.073657535 -0.06289137 0.094751514
00000000: 88b1 04bd f0c2 99bd 16fb c9bc 8826 9abd
00000010: ca65 9bbb 6503 7e3d c393 5bbd 574b cabc
00000020: 11d0 ebbc 5fe6 38bd 5518 a7bd 6565 723c
00000030: 83ae 9fbc 2a6d b0bb b41f 02bd 6dc0 96bd
00000040: 1d8e 39bd 8cfa 3d3d 6308 7f3d a164 11bd
00000050: 5c02 6d3d 3919 8ebd ee35 84bc deaf d2bd
00000060: 4006 d2bc 8133 9b3c cb6a 553d e9bf d73c
00000070: 23cd 1b3d c31b e8bc 403d c13d fe8d afbd
00000080: a752 dbbc 44f9 9bbc f29b 6c3d 09cb 203c
00000090: aa4c b53d d012 a0bd 85de e03c 829a babd
000000a0: a9b4 cd3c ae84 4ebd 1d12 64bd bc7c 033c
000000b0: df99 5f3c f8da ba3d 7478 943d 73e8 7ab9
000000c0: 02c4 203d 6877 133c 6cb3 e7bc d82b aebd
000000d0: f82c bebd c2f4 91ba 1eed 55bd ec88 a83d
000000e0: 96af 67bd 4e5e 863c f9b1 76bd 8aa5 b93d
000000f0: d516 1d3d 1f2d 433d 644b ad3c ae01 b1bc
00000100: 9c26 1bbd 981e 58bd 92b5 cabd b7b7 e4bc
00000110: 3503 55bd e5b6 a83d 8a93 b43d b75a 96bd
00000120: b77f 88bb 111d c1bd 424a 373d 848f 893d
00000130: 9fbf 84bd 5742 9dbd d5f8 efbc 097a 953d
00000140: 59ae 7b3d 4f15 82bd b106 aabb 38a8 abbd
00000150: 6967 ae3d 99e0 0f3d b3d6 3dbd f7bc 0e3d
00000160: 2a42 85bb b7ce 93bd 52a6 e0bd 5b82 863d
00000170: 57d2 89bd 3a41 763d 5b87 00bd 5f55 713d
00000180: d394 0d3d ce78 5b3d f510 5fbd 36b5 453d
00000190: 8ad3 773c 881d ddbb 12a3 23bc e75c ccbb
000001a0: 87ee 4f3d 80a8 563d 363e 3fbd 48bb 35bc
000001b0: db18 7bbc 7fcf f6bc 347f 5c3d 8b0b d23d
000001c0: a9a3 6e3d dcdf 84bc 8552 913d 061b d53d
000001d0: e2ee a13c 58d1 a53d 6d25 c73c 89da ebbc
000001e0: 6817 dc3c c45d 723c b522 ab3c aae7 97bc
000001f0: 0f2f 89bd 4250 aebd 7544 69bd 0119 863d
00000200: 9bfb 84bc 207c bbbd 5ed0 a93d baf6 d7bd
00000210: 83c2 c83c fcc0 c73d ba00 31bd fd50 d13b
00000220: 7954 d43d 8106 c23d 8d08 a13d 112a 5dbc
00000230: 1dba 683d d5d4 433d 8561 793c c524 c93d
00000240: b07e da3c 0a12 973d 8e76 91bd 2cff b43c
00000250: 1cd6 d2bd 087b 053c 45b5 983c eca1 573d
00000260: f5db 3e3d a498 5dbd 553b 543d 1cc3 e2bd
00000270: 3fc1 b93d b961 573d bbce c8bb f32f fb3c
00000280: c81b 793d 7a9e 92bd f26d 733d 1e94 af3c
00000290: a6b0 b83d 10ea 403c b76f 953c 966b 043d
000002a0: 4339 b03d 575d 9abd 0656 773d 6bc9 8b3d
000002b0: 9583 31bb 1aed 78bd bbeb 8f3d 394b 553d
000002c0: 4835 01bd a06b cd3c 9f7d bebc 3f41 1dbd
000002d0: 924e e03d c3da 423d 5c6b 6b3c 031c 833d
000002e0: 51a6 813d 554c 3d3d 4c95 663d 9360 9dbd
000002f0: 6f96 03bd 04ca bd3d 551a cc3c 7d1d 193d
00000300: 43f1 9bbd 1295 75bd d7ae 43bd 9f40 1b3d
00000310: 95f1 4abd 2045 933d 0cc3 a9bd 57b4 e4bc
00000320: 17ea 953d afd3 56bd c350 08bc 144a 23bd
00000330: 0310 023d 030b 66bd 35c1 a5bd e397 2fbd
00000340: 35a4 193d f3bd ffbc 823c a2bd c0e1 e6bc
00000350: 3749 44bd fd67 a73d 735b cebc 7591 053d
00000360: e237 b43d 7072 a2bd 33c7 073d f019 1e3c
00000370: ff9b a93d d08e d4ba 2729 bf3c e3ed d0bd
00000380: 4e1d bf3d bedc 8bbd 60ca 823d f079 9ebd
00000390: cead 8e3c 8534 48bb 2b17 933d a6d8 ccbd
000003a0: 4869 a73d 2341 c13d 91f6 c53c 96d7 b13d
000003b0: ee3c a13d 28d7 073b 9476 5a3d 44d8 053b
000003c0: c0e2 c73c 1ed1 99bd db1c 0abd 0814 86bd
000003d0: 3e7e 8fbd 39f7 99bd 8dde 50bd a6ec e73b
000003e0: e202 8abc 8496 133d 6267 0e3d a813 1fbd
000003f0: c7c4 8a3d c3d9 96bd 31cd 80bd 150d c23d

encoder.lob_enc.res_blocks.0.conv1.bias f4 [32]
-0.017398918 -0.031354226 -0.019949501 -0.10562362 -0.11400408 -0.053407293 -0.10529489 0.034774754
-0.050181095 -0.05999661 -0.0044533466 0.0015278978 0.03723308 -0.016523791 0.016871773 0.006556417
0.073885664 0.010422471 0.020394798 -0.013718454 0.02697449 -0.019318365 -0.06444293 -0.07693717
0.044228293 -0.010793268 0.081593886 0.040957637 0.06884698 -0.0271624 0.04520912 -0.0012951145
00000000: 2d88 8ebc 4a6d 00bd 236d a3bc 3251 d8bd
00000010: f97a e9bd 9bc1 5abd d9a4 d7bd f96f 0e3d
00000020: b18a 4dbd 01bf 75bd 61ed 91bb be43 c83a
00000030: b781 183d e75c 87bc ac36 8a3c 36d7 d63b
00000040: 5e51 973d 03c3 2a3c fe12 a73c 5ec3 60bc
00000050: 9bf9 dc3c 8c41 9ebc a8fa 83bd 3c91 9dbd
00000060: ba28 353d 3fd6 30bc b21a a73d 32c3 273d
00000070: a5ff 8c3d ae83 debc 332d 393d d5c0 a9ba

encoder.lob_enc.res_blocks.0.bn1.weight f4 [32]
0.9978838 1.0033107 1.0069814 0.9938389 0.98803115 1.0038592 0.99410206 0.9953112
0.9962519 0.99900997 0.99376756 0.9967633 1.0002053 0.998501 0.99477893 1.0026464
0.99483883 1.0092233 0.98958886 0.98773485 1.002423 0.9905581 1.0112565 1.0088627
1.0090499 1.0043819 1.0075945 1.0053692 0.9923447 1.0096841 1.0126848 1.0083562
00000000: 5075 7f3f 7c6c 803f c4e4 803f 3a6c 7e3f
00000010: 9cef 7c3f 757e 803f 797d 7e3f b7cc 7e3f
00000020: 5d0a 7f3f 1ebf 7f3f 8d67 7e3f e12b 7f3f
00000030: ba06 803f c39d 7f3f d5a9 7e3f b856 803f
00000040: c2ad 7e3f 3b2e 813f b255 7d3f 31dc 7c3f
00000050: 664f 803f 3795 7d3f da70 813f 6a22 813f
00000060: 8c28 813f 968f 803f dbf8 803f f0af 803f
00000070: 4d0a 7e3f 543d 813f a89f 813f d111 813f

encoder.lob_enc.res_blocks.0.bn1.bias f4 [32]
0.009052007 -0.0024161616 0.0057869097 0.010611606 0.0062445607 0.01160371 0.007420415 0.006607296
-0.0080857305 0.010719107 -0.008179238 0.008023697 0.0031894364 0.009789762 0.007799045 0.005913785
-9.109375e-05 0.009742758 0.0069866064 -0.01109861 0.012644869 0.008352428 0.011322603 0.010660915
0.010660817 0.00079628616 0.010587939 0.007129432 -0.00086976186 0.012735279 0.012967138 0.010911306
00000000: df4e 143c 7758 1ebb 1ea0 bd3b 4ddc 2d3c
00000010: 2c9f cc3b 7d1d 3e3c f426 f33b 0482 d83b
00000020: 037a 04bc 329f 2f3c 3602 06bc d375 033c
00000030: dd05 513b 3d65 203c 228f ff3b 6dc8 c13b
00000040: 9609 bfb8 17a0 1f3c e7ef e43b f2d6 35bc
00000050: 6d2c 4f3c 9fd8 083c 7082 393c 1eab 2e3c
00000060: b5aa 2e3c dcbd 503a 0979 2d3c 039e e93b
00000070: bb00 64ba a2a7 503c 1e74 543c 56c5 323c

encoder.lob_enc.res_blocks.0.bn1.running_mean f4 [32]
-0.2680353 0.5330257 -0.34918734 -0.41412356 -0.21571667 -0.29178903 0.013552362 0.0984735
0.101065025 -0.007415736 0.42490596 0.40965554 -0.06524774 -0.054601595 -0.27433065 0.2592807
0.17937683 -0.01853557 -0.03397233 0.0017731071 0.009988318 0.2228632 -0.19831286 -0.14217567
0.069077 -0.50260884 0.06528789 -0.15692803 -0.05932216 -0.03380855 -0.061991572 0.13107377
00000000: ec3b 89be 5f74 083f afc8 b2be 0108 d4be
00000010: d5e4 5cbe 5f65 95be ba0a 5e3c 79ac c93d
00000020: 2efb ce3d b4ff f2bb 468d d93e 5fbe d13e
00000030: 9ba0 85bd eca5 5fbd 1175 8cbe 71c0 843e
00000040: 8fae 373e e8d7 97bc 9226 0bbd 9a67 e83a
00000050: 0ba6 233c 4036 643e 8712 4bbe 8096 11be
00000060: 3e78 8d3d f9aa 00bf a8b5 853d beb1 20be
00000070: cbfb 72bd d67a 0abd e0ea 7dbd 3438 063e

encoder.lob_enc.res_blocks.0.bn1.running_var f4 [32]
0.057901297 0.5793685 0.07386138 0.07509528 0.051705256 0.07396507 0.25456044 0.14256893
0.6120192 0.16133589 0.47121572 0.08371231 0.10126425 0.040923674 0.08473971 0.11693699
0.53921723 0.27003828 0.1491685 0.11383792 0.16278383 0.4454724 0.13972023 0.2155747
0.13837147 0.11636461 0.19422911 0.06649069 0.034111492 0.23798302 0.14428197 0.11503279
00000000: e929 6d3d 7e51 143f a344 973d 8ecb 993d
00000010: e4c8 533d 007b 973d bf55 823e 97fd 113e
00000020: 4aad 1c3f 3c35 253e 3043 f13e 5c71 ab3d
00000030: a263 cf3d 959f 273d 038c ad3d a97c ef3d
00000040: 240a 0a3f 7542 8a3e a1bf 183e db23 e93d
00000050: ceb0 263e f514 e43e d212 0f3e 9dbf 5c3e
00000060: 40b1 0d3e 9250 ee3d ffe3 463e 452c 883d
00000070: 7eb8 0b3d d2b1 733e a7be 133e 5096 eb3d

encoder.lob_enc.res_blocks.0.conv2.weight f4 [32, 32, 3, 1]
0.0167852 0.024744691 -0.06685619 0.087206416 0.032753766 -0.029398795 -0.08021645 -0.062206514
-0.016388757 0.011244446 0.031660803 0.09688093 0.06943272 -0.011276201 -0.02275304 0.079950556
-0.0016194117 0.014151832 -0.0028537815 0.09013138 0.062219698 0.042859174 0.03410683 -0.016843308
0.028309466 -0.07684414 -0.07189335 0.03366739 0.025040792 -0.06259571 0.036905546 0.040369797
0.053101998 -0.042818934 -0.048036307 0.0023747867 -0.011159241 -0.006386458 -0.07726596 0.07001991
0.09641393 -0.047665052 0.07393311 0.019653045 0.025685878 -0.005993225 0.094744705 -0.022206523
0.019820785 -0.0038412013 0.010225503 -0.044499874 -0.06321648 0.07118283 -0.099357806 -0.07617381
0.09105983 -0.052263517 -0.013864714 -0.09619781 -0.028265676 -0.046082016 0.038553108 0.049862735
0.09023041 -0.034123626 0.09383783 0.04359484 -0.07544168 -0.08813848 -0.011024917 0.09533154
0.0013066002 -0.05897124 0.06408117 -0.10686004 0.07069438 -0.0051296037 0.007790584 -0.033602674
0.018173 -0.0018159446 0.07517725 0.08531126 0.037101537 -0.016557153 -0.0037224519 -0.060480412
0.06424822 -0.020179247 -0.09888647 -0.030369515 -0.06842116 -0.0793611 0.019015828 0.010536364
-0.054613043 -0.07166904 0.034585156 0.023007745 0.06979755 0.054494582 -0.062007077 0.05695531
-0.08899693 -0.08538183 0.043491647 0.09843123 0.048024103 -0.003291464 -0.047074635 0.101022914
-0.06609591 0.09279853 -0.06611307 -0.09955337 -0.0049056886 0.031504586 -0.0826039 -0.029670449
-0.0035501993 -0.006651615 -0.048380777 0.0957444 -0.072437935 0.06705563 0.03032535 -0.041501973
0.045050032 -0.0840335 -0.069852665 0.056332536 -0.050653044 0.050908584 -0.09378113 0.018990252
-0.094561346 0.0483646 0.09969398 0.061203163 0.029234555 0.06568573 0.088367514 0.055177815
0.0451804 0.033335004 0.023672337 0.06443164 0.07524238 -0.035082586 0.018067557 0.05597782
-0.08324754 -0.07550698 -0.023924729 0.01778781 0.06675916 0.05274392 0.05233965 -0.021014696
-0.02598974 -0.0977606 -0.0065709064 -0.02689892 -0.08063051 0.04531702 0.058146503 0.02650194
-0.07449053 -0.029856274 -0.09333358 -0.0101111205 0.05632293 0.08656181 -0.08592541 -0.02179542
-0.052090377 0.07948547 0.10217495 -0.08680373 -0.040105544 0.0045269253 -0.09086863 -0.10215001
-0.06914187 0.071410045 0.019151108 -0.05375725 -0.016858628 0.09430388 -0.09508818 0.040509593
-0.015827246 -0.11118894 0.07646938 -0.05803954 0.07041577 -0.003153476 0.012529668 -0.025354829
-0.09312864 0.04005785 -0.045903336 0.027610576 0.083759226 -0.041552603 -2.8032714e-06 0.025046682
-0.043735724 0.034877747 -0.053842288 0.07053531 -0.02826266 -0.014231617 -0.04313322 -0.0007855548
0.060050797 0.008320948 -0.046288285 0.09770364 0.09392186 -0.03734421 -0.0673617 -0.082236126
0.0068660444 0.09559055 0.03128312 0.041335117 -0.10642553 0.03180102 0.044416577 -0.041789543
-0.075063996 -0.0246262 -0.09770872 0.08325782 -0.071926564 0.10143197 -0.0925089 0.07445561
-0.05144744 -0.089611895 0.01747126 0.10438022 -0.038251713 0.024933169 -0.0742746 0.055640876
0.08070481 -0.040712807 0.0850264 0.04021582 0.0033175226 -0.05476975 0.058012947 -0.0062815933
00000000: 1e81 893c 61b5 ca3c e6eb 88bd 4799 b23d
00000010: d028 063d bed5 f0bc 8648 a4bd 42cc 7ebd
00000020: b741 86bc a03a 383c c2ae 013d 8269 c63d
00000030: be32 8e3d d1bf 38bc 9564 babc 1ebd a33d
00000040: 7142 d4ba 16dd 673c 8206 3bbb cd96 b83d
00000050: 15da 7e3d 1a8d 2f3d 9ab3 0b3d fafa 89bc
00000060: 41e9 e73c 7660 9dbd d23c 93bd d1e6 093d
00000070: 5922 cd3c 2e32 80bd 452a 173d cd5a 253d
00000080: 7b81 593d e862 2fbd b8c1 44bd 4fa2 1b3b
00000090: 40d5 36bc 7e45 d1bb 9e3d 9ebd 9966 8f3d
000000a0: ab74 c53d 6e3c 43bd 3e6a 973d 6cff a03c
000000b0: 316b d23c d162 c4bb 8309 c23d 74ea b5bc
000000c0: 335f a23c aabc 7bbb de88 273c 8045 36bd
000000d0: a477 81bd 4ec8 913d 1b7c cbbd 0401 9cbd
000000e0: 937d ba3d 4512 56bd d328 63bc 5b03 c5bd
000000f0: 6b8d e7bc 7fc0 3cbd dde9 1d3d de3c 4c3d
00000100: b9ca b83d 37c5 0bbd 0c2e c03d 8190 323d
00000110: 2b81 9abd f381 b4bd daa1 34bc 2f3d c33d
00000120: 3a42 ab3a d48b 71bd fd3c 833d 70d9 dabd
00000130: 37c8 903d 3c16 a8bb 2848 ff3b f5a2 09bd
00000140: 8bdf 943c fd04 eeba 88f6 993d abb7 ae3d
00000150: c8f7 173d dea2 87bc 61f4 73bb 4fba 77bd
00000160: 9294 833d f34e a5bc fd84 cabd 7dc9 f8bc
00000170: 6520 8cbd 1388 a2bd 15c7 9b3c b7a0 2c3c
00000180: edb1 5fbd 38c7 92bd 2aa9 0d3d bd7a bc3c
00000190: 05f2 8e3d b635 5f3d 22fb 7dbd f949 693d
000001a0: 0644 b6bd abdc aebd 4c24 323d 5096 c93d
000001b0: ecb4 443d 9ab5 57bb 55d1 40bd 1ae5 ce3d
000001c0: 4b5d 87bd 280d be3d 4a66 87bd a3e2 cbbd
000001d0: e6bf a0bb f40a 013d 3c2c a9bd 710f f3bc
000001e0: 76aa 68bb caf5 d9bb ec2a 46bd a415 c43d
000001f0: 575a 94bd 7654 893d de6c f83c f9fd 29bd
00000200: 6286 383d c119 acbd ea0e 8fbd f2bc 663d
00000210: 9179 4fbd 8585 503d 5210 c0bd 7291 9b3c
00000220: 61a9 c1bd f519 463d 5b2c cc3d 2bb0 7a3d
00000230: 4e7d ef3c 3d86 863d 07fa b43d 2202 623d
00000240: 150f 393d 498a 083d 7dec c13c bcf4 833d
00000250: ad18 9a3d c2b2 0fbd 6a02 943c 0049 653d
00000260: b07d aabd 67a3 9abd cbfd c3bc beb7 913c
00000270: 07b9 883d 020a 583d 1a62 563d 0327 acbc
00000280: 6fe8 d4bc b636 c8bd c250 d7bb 205b dcbc
00000290: 9c21 a5bd 579e 393d 072b 6e3d 991a d93c
000002a0: 7e8e 98bd 2595 f4bc ad25 bfbd 1da9 25bc
000002b0: dfb2 663d 5147 b13d a9f9 afbd 4f8c b2bc
000002c0: b85c 55bd 47c9 a23d 1a41 d13d 27c6 b1bd
000002d0: b645 24bd 9a56 943b 5519 babd 0634 d1bd
000002e0: 419a 8dbd 6e3f 923d c9e2 9c3c 9030 5cbd
000002f0: 1b1b 8abc 6522 c13d 97bd c2bd 63ed 253d
00000300: 24a8 81bc 07b7 e3bd fa9b 9c3d deba 6dbd
00000310: 2536 903d 8caa 4ebb 3d49 4d3c eeb4 cfbc
00000320: 3aba bebd b313 243d 2305 3cbd 932f e23c
00000330: f589 ab3d 1033 2abd d61f 3cb6 b32e cd3c
00000340: 3b24 33bd f8db 0e3d bb89 5cbd d174 903d
00000350: 1887 e7bc ba2b 69bc 76ac 30bd b1ed 4dba
00000360: d3f7 753d 9654 083c c998 3dbd d918 c83d
00000370: 1b5a c03d 3ef6 18bd eef4 89bd 6a6b a8bd
00000380: 8efc e03b fac4 c33d bb22 003d 034f 293d
00000390: a1f5 d9bd c941 023d 28ee 353d 832b 2bbd
000003a0: 27bb 99bd e2bc c9bc 821b c8bd 1383 aa3d
000003b0: 3c4e 93bd 91bb cf3d 4e75 bdbd 2f7c 983d
000003c0: 8dba 52bd 7186 b7bd e31f 8f3c 4cc5 d53d
000003d0: d4ad 1cbd a540 cc3c 481d 98bd b0e7 633d
000003e0: 9048 a53d 79c2 26bd 5222 ae3d 58b9 243d
000003f0: cb6a 593b 3f56 60bd fc9e 6d3d d3d5 cdbb

encoder.lob_enc.res_blocks.0.conv2.bias f4 [32]
0.018666655 -0.027943455 -0.034636255 0.0022127677 -0.006830794 -0.020562321 -0.054466035 -0.061903454
-0.046537403 -0.08882012 -0.05833579 -0.019150501 -0.06348045 0.0032525663 0.037347317 0.0067486553
-0.050288223 -0.01110718 -0.06869458 0.064186096 0.06142447 0.072934784 -0.045366425 0.05914449
0.001930246 -0.038420342 0.050140128 -0.08013862 -0.10821451 0.07727178 0.023756439 0.039381925
00000000: d0ea 983c ace9 e4bc bfde 0dbd 1504 113b
00000010: dad4 dfbb 5072 a8bc c717 5fbd 7a8e 7dbd
00000020: 019e 3ebd 53e7 b5bd 82f1 6ebd 83e1 9cbc
00000030: 0a02 82bd 0229 553b 80f9 183d d323 dd3b
00000040: 06fb 4dbd e4fa 35bc beaf 8cbd 0074 833d
00000050: 3a98 7b3d d55e 953d 25d2 39bd 7e41 723d
00000060: 4f00 fd3a a65e 1dbd bc5f 4d3d b81f a4bd
00000070: 929f ddbd ab40 9e3d dd9c c23c f14e 213d

encoder.lob_enc.res_blocks.0.bn2.weight f4 [32]
0.9919049 1.0014949 1.0094098 0.99211484 1.008129 1.0036347 1.010148 1.0079881
1.0061798 1.0063516 1.0014336 0.99731886 1.0087928 1.0048794 0.9929174 1.0077986
1.0010705 1.0001864 1.0083835 1.0039827 1.001022 1.0086417 1.0011147 1.0084207
1.0071996 1.0025308 1.0095423 1.0092126 1.0073246 0.99418104 1.0076361 1.0094626
00000000: 7bed 7d3f fc30 803f 5734 813f 3dfb 7d3f
00000010: 5f0a 813f 1a77 803f 884c 813f c105 813f
00000020: 80ca 803f 21d0 803f fa2e 803f 4a50 7f3f
00000030: 1f20 813f e39f 803f d62f 7e3f 8bff 803f
00000040: 1423 803f 1c06 803f b612 813f 8182 803f
00000050: 7d21 803f 2c1b 813f 8724 803f ee13 813f
00000060: ebeb 803f ee52 803f af38 813f e12d 813f
00000070: 03f0 803f a682 7e3f 38fa 803f 1236 813f

encoder.lob_enc.res_blocks.0.bn2.bias f4 [32]
0.0062775984 0.00013633474 0.010175282 -0.003724026 0.008536898 0.0065934095 0.009836062 0.010006429
0.009213246 0.007670766 -0.0009877005 -9.5280135e-05 0.008575795 0.0055625886 -0.008677163 0.0073897443
0.0042941384 0.0004724405 0.009804212 0.00076666434 0.00020348273 0.009731971 -0.0047453297 0.008919731
0.008190954 0.003993535 0.010119957 0.009595756 0.008462294 -0.009460165 0.009290142 0.009577104
00000000: 50b4 cd3b 14f5 0e39 3ab6 263c ca0e 74bb
00000010: 58de 0b3c 870d d83b 6f27 213c 01f2 233c
00000020: 28f3 163c 0d5b fb3b bb75 81ba 22d1 c7b8
00000030: 7e81 0c3c 6046 b63b a92a 0ebc ab25 f23b
00000040: d8b5 8c3b e4b1 f739 d8a1 203c f9f9 483a
00000050: fb5d 5539 d872 1f3c b67e 9bbb 1024 123c
00000060: 5a33 063c 33dc 823b 2dce 253c 8537 1d3c
00000070: 6fa5 0a3c cffe 1abc ae35 183c 49e9 1c3c

encoder.lob_enc.res_blocks.0.bn2.running_mean f4 [32]
0.09809383 -0.051341265 0.007870352 0.09401905 0.028476445 0.37088767 -0.30407602 0.18757825
0.11994278 0.087634236 -0.23522925 0.010604098 -0.029193785 -0.13567388 0.28741783 -0.109360576
0.05221985 0.14547867 -0.17576449 0.13684338 -0.27387306 0.22990935 0.07052382 -0.014837927
-0.29015228 -0.03386632 0.0115824565 0.07348378 -0.1241939 0.15612812 0.07632459 0.11757942
00000000: 6be5 c83d 384b 52bd a6f2 003c 0f8d c03d
00000010: 6f47 e93c fde4 bd3e daaf 9bbe 8314 403e
00000020: 8fa4 f53d 9479 b33d f0df 70be d0bc 2d3c
00000030: ce27 efbc 18ee 0abe 6e28 933e 70f8 dfbd
00000040: 7be4 553d 5cf8 143e 9bfb 33be ac20 0c3e
00000050: 1739 8cbe 5b6d 6b3e cb6e 903d c71a 73bc
00000060: d78e 94be 69b7 0abd 58c4 3d3c aa7e 963d
00000070: 5f59 febd 0de0 1f3e 1150 9c3d 7bcd f03d

encoder.lob_enc.res_blocks.0.bn2.running_var f4 [32]
0.07027785 0.04412911 0.18703835 0.123963416 0.11963047 0.26595065 0.15017459 0.21596079
0.13016784 0.09265668 0.19414002 0.033862688 0.07937276 0.051042393 0.12649435 0.1522483
0.16996014 0.15156561 0.17125478 0.5412374 0.23271866 0.16917418 0.31253874 0.16359995
0.14603755 0.06138047 0.117440835 0.36512613 0.14678577 0.56093764 0.07856144 0.1340442
00000000: d5ed 8f3d bac0 343d fb86 3f3e 88e0 fd3d
00000010: d200 f53d af2a 883e 5ec7 193e d324 5d3e
00000020: b84a 053e c9c2 bd3d a4cc 463e 9ab3 0a3d
00000030: 308e a23d d411 513d bc87 013e fae6 1b3e
00000040: 080a 2e3e 0434 1b3e 6a5d 2f3e 898e 0a3f
00000050: cd4d 6e3e ff3b 2d3e 1405 a03e bf86 273e
00000060: de8a 153e 166a 7b3d d284 f03d d0f1 ba3e
00000070: 024f 163e 9c99 0f3f d2e4 a03d e242 093e

encoder.lob_enc.res_blocks.1.conv1.weight f4 [32, 32, 3, 1]
-0.09480009 0.018372646 0.042222414 -0.028383015 -0.069456436 0.07861383 0.027402712 0.057264
0.09699553 -0.08723808 0.07342474 -0.038050465 0.042185932 0.06935548 0.07521979 0.03487432
0.013710323 0.004144403 -0.025940668 0.05526717 0.0978821 0.006860682 -0.08025731 -0.017811816
-0.03237523 0.051836535 -0.07768164 -0.030298358 -0.044918943 -0.078742795 -0.052992545 0.062470004
0.02767524 0.07715816 -0.007895481 0.05244747 0.042489845 0.06777059 -0.007863791 0.08146238
-0.0062388605 -0.029491622 0.040328857 0.037405506 -0.06691125 -0.036104903 -0.09337446 0.09340956
0.026880005 0.08268295 -0.08586402 0.10016044 0.09743642 0.09535019 -0.06905052 0.09916494
-0.08458557 -0.07554389 -0.034440458 0.10138296 -0.027171493 0.03683245 -0.014979326 0.054247484
0.05098893 0.0880259 0.058434457 0.08618176 0.09146273 0.03583931 0.060452387 0.08433844
0.046327993 -0.03098411 0.07671178 0.022185769 0.066480584 -0.02731798 -0.09385043 -0.05951532
-0.0051683486 -0.0673817 -0.042479042 0.05192116 0.035971392 -0.028153053 -0.0018383473 -0.09757277
-0.0017842944 0.0014946577 -0.058914203 0.0959071 -0.051147103 0.009781794 -0.066615604 0.016385924
-0.08295506 -0.008927869 0.036346663 0.0777978 0.0133589115 0.013665101 0.008853822 -0.060130738
0.018802732 -0.09813726 -0.043595314 -0.008404264 -0.031990226 0.044706535 -0.06716992 0.029388351
-0.064799935 -0.086734295 -0.018656202 -0.014116224 -0.049443882 0.09482451 -0.037548896 -0.026908802
0.0056380094 -0.043384247 0.014035082 0.098629124 0.0005043325 -0.035047103 0.06637724 0.030263944
0.059403304 0.019364132 -0.050943866 -0.07492859 -0.04218959 -0.09441038 -0.09482457 0.059624128
-0.004686825 -0.00083731266 -0.07953229 0.049797766 0.07698038 0.07329945 -0.05062417 0.01864548
-0.053993486 0.045191318 0.052983817 -0.061274774 -0.08201123 -0.082179464 0.033318076 0.013755062
0.060478587 -0.021888947 0.07282268 0.08680208 -0.067631885 -0.00577581 0.023145527 0.06546538
-0.09472315 0.046343274 -0.0022137284 0.06534127 -0.09895997 0.075490594 0.07732453 0.004681607
-0.02572262 0.053527344 -0.023576258 -0.028024627 -0.06317906 0.08982389 0.059623856 0.005835357
-0.0028792727 -0.06845658 0.07961659 0.040696282 0.038244225 0.045914073 -0.08133679 -0.03861044
0.06560687 -0.036774233 0.08720637 -0.0684078 0.07821644 0.109759636 -0.07884922 0.08421686
0.017521715 0.039836504 -0.040570423 0.06367168 0.01132421 -0.08438095 0.09312567 -0.0020816682
-0.020080198 0.021841904 0.009381106 -0.09732981 0.09000691 -0.021887207 0.019367877 -0.028830437
-0.104543656 -0.09697541 -0.03578417 -0.032892417 0.08595681 0.012207436 0.101479195 0.08115318
0.006617282 -0.041525133 -0.0024826096 -0.046575535 -0.1118032 0.017401954 0.029593905 -0.04316075
0.08373743 0.0006684771 -0.01681124 -0.03086655 0.089382365 0.046767175 -0.079422526 -0.08735166
-0.093336694 0.08511051 0.07416285 0.041208185 0.040082082 -0.0796671 0.0636179 -0.01790302
-0.013468741 0.0017228062 -0.040037896 0.08588748 0.00422567 0.059848435 -0.062454917 -0.08920951
-0.030579966 0.021469437 -0.080399625 -0.06446022 0.02224359 0.08888931 0.07682832 0.088218875
00000000: 8d26 c2bd 3b82 963c 69f1 2c3d 7f83 e8bc
00000010: 2d3f 8ebd 4a00 a13d a77b e03c a88d 6a3d
00000020: 98a5 c63d e1a9 b2bd b65f 963d ceda 1bbd
00000030: 28cb 2c3d 3f0a 8e3d d50c 9a3d 60d8 0e3d
00000040: 43a1 603c c6cd 873b 8681 d4bc d45f 623d
00000050: 6976 c83d 92cf e03b f25d a4bd 16ea 91bc
00000060: e49b 04bd 8c52 543d 8d17 9fbd 4334 f8bc
00000070: edfc 37bd e743 a1bd b60e 59bd 8ce0 7f3d
00000080: 2fb7 e23c 1905 9e3d 0c5c 01bc 29d3 563d
00000090: d509 2e3d 4fcb 8a3d 21d7 00bc c0d5 a63d
000000a0: 5b6f ccbb 6a98 f1bc df2f 253d 8436 193d
000000b0: c408 89bd bce2 13bd 1c3b bfbd 834d bf3d
000000c0: 7533 dc3c ae55 a93d 7ad9 afbd eb20 cd3d
000000d0: bf8c c73d f646 c33d 5c6a 8dbd fd16 cb3d
000000e0: 333b adbd c1b6 9abd 7011 0dbd dfa1 cf3d
000000f0: c096 debc a0dd 163d d96b 75bc 9c32 5e3d
00000100: c5d9 503d ec46 b43d f858 6f3d 1080 b03d
00000110: d050 bb3d 3ecc 123d ec9c 773d a2b9 ac3d
00000120: 6cc2 3d3d 63d2 fdbc 111b 9d3d eebe b53c
00000130: f926 883d f5c9 dfbc a734 c0bd 56c6 73bd
00000140: 405b a9bb 6bff 89bd 81fe 2dbd 48ab 543d
00000150: bd56 133d 3ba1 e6bc b3f4 f0ba 3cd4 c7bd
00000160: fcde e9ba 64e8 c33a 0550 71bd f16a c43d
00000170: a07f 51bd d143 203c c36d 88bd c63b 863c
00000180: 58e4 a9bd 3246 12bc 3de0 143d 7454 9f3d
00000190: 56df 5a3c 96e3 5f3c 9f0f 113c a64b 76bd
000001a0: 3008 9a3c 30fc c8bd 0091 32bd 0ab2 09bc
000001b0: 2f08 03bd 331e 373d 6290 89bd d7bf f03c
000001c0: d4b5 84bd c0a1 b1bd e4d4 98bc bc47 67bc
000001d0: ab85 4abd 5a33 c23d dfcc 19bd d96f dcbc
000001e0: 0dbf b83b aeb3 31bd 67f3 653c 11fe c93d
000001f0: 2e35 043a 8d8d 0fbd caf0 873d 17ec f73c
00000200: e150 733d 87a1 9e3c 84aa 50bd 2974 99bd
00000210: fece 2cbd 3b5a c1bd 6233 c2bd 6e38 743d
00000220: f093 99bb 1a7f 5bba d3e1 a2bd bef8 4b3d
00000230: e4a7 9d3d 061e 963d 4a5b 4fbd 68be 983c
00000240: 4628 5dbd 881a 393d 8f05 593d 42fb 7abd
00000250: 81f5 a7bd b54d a8bd 8978 083d e95c 613c
00000260: 65b8 773d 7350 b3bc 0f24 953d 4ac5 b13d
00000270: 9682 8abd 0243 bdbb b09b bd3c b712 863d
00000280: 36fe c1bd 72d2 3d3d 3314 11bb a5d1 853d
00000290: 86ab cabd d09a 9a3d 535c 9e3d 2a68 993b
000002a0: 3eb8 d2bc 7d3f 5b3d ff22 c1bc e793 e5bc
000002b0: 0664 81bd 96f5 b73d 2538 743d 8636 bf3b
000002c0: 2eb2 3cbb f732 8cbd 060e a33d 25b1 263d
000002d0: faa5 1c3d 6510 3c3d e793 a6bd fb25 1ebd
000002e0: e55c 863d 94a0 16bd 4199 b23d 6319 8cbd
000002f0: f12f a03d a9c9 e03d b37b a1bd e479 ac3d
00000300: b389 8f3c 9a2b 233d 2c2d 26bd 4c66 823d
00000310: 2e89 393c ebcf acbd acb8 be3d 996c 08bb
00000320: 3a7f a4bc cbed b23c 36b3 193c da54 c7bd
00000330: 8b55 b83d cd4c b3bc 62a9 9e3c cf2d ecbc
00000340: fc1a d6bd 0b9b c6bd 6c92 12bd 33ba 06bd
00000350: 200a b03d b301 483c 53d4 cf3d a333 a63d
00000360: c9d5 d83b 4216 2abd 47b3 22bb fdc5 3ebd
00000370: 13f9 e4bd 8b8e 8e3c eb6e f23c 54c9 30bd
00000380: 887e ab3d bd3c 2f3a bab7 89bc d9db fcbc
00000390: 1a0e b73d f08e 3f3d 47a8 a2bd 6de5 b2bd
000003a0: 4f27 bfbd 6b4e ae3d b1e2 973d eac9 283d
000003b0: 1c2d 243d 8128 a3bd 1a4a 823d 5ba9 92bc
000003c0: ffab 5cbc c9cf e13a c7fe 23bd c6e5 af3d
000003d0: 7d77 8a3b a223 753d bad0 7fbd 7ab3 b6bd
000003e0: d682 fabc ace0 af3c 8fa8 a4bd b803 84bd
000003f0: 3038 b63c 990b b63d 2b58 9d3d 19ac b43d

encoder.lob_enc.res_blocks.1.conv1.bias f4 [32]
0.03276547 0.041364845 0.083281875 0.021452427 0.06555484 0.035441373 -0.059026267 -0.017857006
-0.066991106 0.059978165 0.011318455 -0.091012016 0.07457637 0.04018493 -0.013749821 -0.09272249
-0.06765882 -0.110695496 -0.0860752 0.07896926 -0.023407804 0.07156629 0.03471197 0.073301785
0.017592108 -0.07396823 0.07563506 -0.10451648 0.0075875064 0.012186707 0.052676085 -0.08932976
00000000: 1635 063d 2f6e 293d b08f aa3d 00bd af3c
00000010: 9e41 863d f92a 113d 87c5 71bd db48 92bc
00000020: a232 89bd aaab 753d 0b71 393c 8264 babd
00000030: 7fbb 983d f498 243d ee46 61bc 4ae5 bdbd
00000040: b590 8abd 52b4 e2bd 3248 b0bd a3ba a13d
00000050: b9c1 bfbc 5991 923d 232e 0e3d 3f1f 963d
00000060: 531d 903c a87c 97bd 8ee6 9a3d bc0c d6bd
00000070: 9ea0 f83b c1aa 473c e1c2 573d 85f2 b6bd

encoder.lob_enc.res_blocks.1.bn1.weight f4 [32]
0.99225694 1.0049704 0.99217594 1.000593 1.0101281 0.9964533 0.99270946 0.99319303
0.9947592 0.9895095 1.0114416 1.0089536 1.0005424 1.0108776 0.9990573 1.000045
1.0094614 1.0019698 1.0079905 0.9952175 0.99461323 1.002102 1.0006037 0.9960428
1.010932 1.0013863 0.99553216 1.002629 0.99011874 0.99530745 0.99282837 1.010044
00000000: 8d04 7e3f dfa2 803f 3eff 7d3f 6e13 803f
00000010: e14b 813f 9017 7f3f 3522 7e3f e641 7e3f
00000020: 8aa8 7e3f 7f50 7d3f eb76 813f 6425 813f
00000030: c611 803f 7064 813f 38c2 7f3f 7901 803f
00000040: 0836 813f 8c40 803f d505 813f 93c6 7e3f
00000050: f99e 7e3f e144 803f c813 803f a9fc 7e3f
00000060: 3866 813f 6d2d 803f 32db 7e3f 2656 803f
00000070: 6c78 7d3f 78cc 7e3f 002a 7e3f 1f49 813f

encoder.lob_enc.res_blocks.1.bn1.bias f4 [32]
-0.0070479377 0.00857351 0.0007022492 -0.001490902 0.011213459 -0.008763895 -0.0003678178 -0.0073066046
0.0055405386 -0.008196126 0.010308434 0.0065589156 0.011555137 0.009764884 0.0045981915 -0.008655832
0.008065087 0.0019052484 0.005651028 0.01029858 0.010173551 0.011647404 0.006464355 -0.0004127945
0.010354644 -0.003706976 0.009592115 0.006534078 -0.0093893595 0.0046068775 -0.0038182663 0.0075107105
00000000: 63f2 e6bb e877 0c3c 2517 383a 5f6a c3ba
00000010: a8b8 373c 7196 0fbc abd7 c0b9 3e6c efbb
00000020: 688d b53b 0b49 06bc b5e4 283c 2cec d63b
00000030: c251 3d3c e4fc 1f3c 6dac 963b 31d1 0dbc
00000040: 6d23 043c 87b9 f93a 422c b93b 60bb 283c
00000050: f7ae 263c c1d4 3e3c f1d2 d33b 576c d8b9
00000060: 86a6 293c bdf0 72bb 3f28 1d3c d21b d63b
00000070: d4d5 19bc 4af5 963b e13b 7abb 681c f63b

encoder.lob_enc.res_blocks.1.bn1.running_mean f4 [32]
0.5305849 0.07290862 0.026355537 -0.47461745 -0.097299516 -0.014063076 -0.24760173 0.7010933
-0.00092624564 -0.3321372 -0.41183493 -0.7777515 -0.63106424 -0.47473258 0.8014762 -0.30460057
-0.8157759 -0.41483408 -0.81745666 -0.47145742 -0.26423562 -0.07587374 -0.048696626 0.46303847
-0.5614069 -0.12575644 0.34624562 -0.35819116 -0.05877295 -0.19095166 -0.114806265 -0.34225577
00000000: 69d4 073f 1d51 953d 91e7 d73c 0f01 f3be
00000010: f844 c7bd d168 66bc 4f8b 7dbe da7a 333f
00000020: 4bcf 72ba e30d aabe 07dc d2be b91a 47bf
00000030: 6d8d 21bf 2610 f3be 8b2d 4d3f 9bf4 9bbe
00000040: b0d6 50bf 2265 d4be d744 51bf de62 f1be
00000050: e449 87be b163 9bbd 1d76 47bd 6113 ed3e
00000060: 5db8 0fbf 4cc6 00be 1b47 b13e d564 b7be
00000070: e8bb 70bd d588 43be 8c1f ebbd 263c afbe

encoder.lob_enc.res_blocks.1.bn1.running_var f4 [32]
0.6010647 0.30819765 0.3642659 0.15657145 0.40255064 0.26005393 0.10678737 0.5370274
0.46071887 0.3824303 0.20359486 0.14657876 0.20462994 0.13179322 0.52174777 0.09131414
0.21954149 0.3496041 0.26168904 0.10290083 0.26425076 0.59737265 0.20009933 0.7904579
0.2977254 0.4563843 0.8128737 0.2690682 0.25151372 0.44693267 0.4103104 0.34627616
00000000: 60df 193f 15cc 9d3e 0f81 ba3e 4454 203e
00000010: 1e1b ce3e ca25 853e 56b3 da3d a17a 093f
00000020: 58e3 eb3e e7cd c33e 2c7b 503e be18 163e
00000030: 838a 513e cdf4 063e 4391 053f e802 bb3d
00000040: 7ccf 603e 4fff b23e 1bfc 853e acbd d23d
00000050: e04b 873e 6aed 183f d7e6 4c3e 735b 4a3f
00000060: 776f 983e 34ab e93e 7e18 503f 4fc3 893e
00000070: 68c6 803e 5cd4 e43e 3414 d23e 1c4b b13e

encoder.lob_enc.res_blocks.1.conv2.weight f4 [32, 32, 3, 1]
0.037608057 0.01307922 -0.07308968 0.0074905446 -0.017113497 0.07444862 -0.10252207 0.0061932285
0.095266394 -0.07371976 0.09350677 -0.027849423 0.0894932 -0.01215039 0.08026909 -0.09229692
0.03659587 -0.05222169 0.03452412 -0.0927343 -0.04070951 0.0053894813 -0.07433341 0.06088697
-0.049589578 -0.018882949 -0.014089536 0.046751376 -0.04270499 0.02907492 -0.043023586 0.014348706
-0.084769025 -0.029505791 -0.08512111 -0.07967259 0.084886126 -0.102372 0.041894685 -0.04429036
0.09595228 -0.03760273 -0.038446076 0.042962782 -0.06799373 -0.062213957 -0.08511111 0.075249515
0.08426034 -0.059134208 0.06815841 -0.09984331 0.052855726 -0.10802856 0.11465081 -0.03266818
-0.042494982 0.027822776 -0.079926014 0.07844633 -0.022285845 0.045336705 0.06041825 0.03814401
-0.036276873 0.022954196 -0.10751518 -0.06672741 -0.100516476 -0.008661624 -0.055759005 -0.073133975
-0.03921246 -0.07288771 0.036207594 -0.023300048 0.09441735 0.061529968 -0.02590611 -0.011577651
-0.09492537 0.04396302 -0.0012440793 0.07945888 -0.09917934 0.0029463957 -0.055674534 -0.059816286
-0.0062045073 0.04507702 0.046451036 -0.042181466 -0.07099302 0.035399888 -0.07196031 -0.0041590505
0.09783171 -0.08974004 -0.050477616 0.0072541847 -0.037629966 0.003527758 0.058675632 0.0034125403
0.06199333 -0.08218952 -0.0866304 -0.094908856 0.016765969 -0.06655153 0.07865031 0.050235275
0.033053607 -0.011721784 -0.07701777 0.016158829 -0.086064726 -0.09580778 -0.048865028 -0.046811566
-0.07453464 0.011637017 -0.09625906 0.09632658 -0.034636408 -0.009634368 0.011827253 0.096204765
0.04492806 0.06476055 -0.020742208 -0.010519905 -0.015467781 0.06575592 0.047784936 0.06791076
0.060541373 -0.09753001 -0.048966363 0.048479963 0.034251183 -0.08757476 0.065197065 -0.0019103381
0.032494336 0.011448516 -0.06212023 0.04367178 0.018050458 0.085710965 0.095374234 -0.049958568
-0.010523123 -0.082882516 0.032113764 -0.07211921 0.04823071 -0.07106828 0.094658285 0.071257465
-0.08970816 -0.007354868 0.024460083 -0.016510453 -0.07014193 -0.0342409 -0.072251685 -0.023059735
0.08980108 -0.050908696 0.03920593 0.010526125 0.03659827 0.055045627 -0.0031066688 0.0015064275
-0.040083107 0.084158726 0.039743632 0.037702993 -0.006178231 -0.06939888 -0.08788127 0.043673996
0.020366726 0.07309738 0.080352984 -0.0038153597 0.06314497 -0.0308573 -0.08314231 0.019275583
-0.044421908 0.08101069 0.087990165 -0.05675992 0.00038127604 0.020373315 -0.09163527 0.036233965
0.026163083 0.012928587 -0.03986525 0.07371712 -0.072826244 0.04519756 0.013866576 -0.091808945
0.013564526 -0.04006447 -0.056826822 -0.038347397 0.061201144 0.0061456403 -0.050695702 -0.0037867841
-0.012518207 0.017022261 -0.0011461694 -0.049491238 0.058628794 -0.02400909 0.038087316 0.04805532
0.08096458 0.025276277 0.05254389 0.012648267 -0.009211067 0.088348515 -0.07166205 -0.06045645
-0.067874886 0.024982968 0.06433758 -0.11237621 -0.053966817 -0.07380983 0.0018650754 -0.0020479825
-0.017167097 -0.013775328 -0.08174767 0.07300515 -0.06084819 -0.011889358 -0.010943368 -0.0016031233
0.09486289 -0.06434411 -0.021766596 0.05933599 0.06254563 -0.055894986 0.04753242 0.08332223
00000000: e80a 1a3d 3a4a 563c 0bb0 95bd 3e73 f53b
00000010: 9b31 8cbc 8578 983d 17f7 d1bd 91f0 ca3b
00000020: 071b c33d 63fa 96bd 7a80 bf3d 7924 e4bc
00000030: 3648 b73d 6e12 47bc 1f64 a43d 2b06 bdbd
00000040: 8de5 153d 69e6 55bd 2a69 0d3d 7beb bdbd
00000050: 04bf 26bd 3f9a b03b 1d3c 98bd 9e64 793d
00000060: 711e 4bbd 6ab0 9abc ccd7 66bc 5f7e 3f3d
00000070: 6deb 2ebd 872e ee3c 8039 30bd d616 6b3c
00000080: 629b adbd 21b6 f1bc fa53 aebd 622b a3bd
00000090: c7d8 ad3d 69a8 d1bd c399 2b3d cf69 35bd
000000a0: a182 c43d 5205 1abd a279 1dbd bef9 2f3d
000000b0: 4c40 8bbd 10d4 7ebd bc4e aebd 6b1c 9a3d
000000c0: af90 ac3d b636 72bd a396 8b3d a67a ccbd
000000d0: 3f7f 583d 143e ddbd 0bce ea3d 12cf 05bd
000000e0: 380f 2ebd 97ec e33c 40b0 a3bd 78a8 a03d
000000f0: ce90 b6bc fbb2 393d 2079 773d e53c 1c3d
00000100: 0f97 14bd 700a bc3c eb30 dcbd 61a8 88bd
00000110: 95db cdbd 7ce9 0dbc 8e63 64bd 44c7 95bd
00000120: 3f9d 20bd 2746 95bd 6a4e 143d bedf bebc
00000130: e25d c13d d906 7c3d 0d39 d4bc 30b0 3dbc
00000140: 3b68 c2bd 9112 343d 6010 a3ba 56bb a23d
00000150: 8a1e cbbd 5118 413b fb0a 64bd ec01 75bd
00000160: 2e4f cbbb aea2 383d 7143 3e3d 79c6 2cbd
00000170: ca64 91bd 79ff 103d ed5f 93bd a548 88bb
00000180: fe5b c83d a0c9 b7bd 9ec1 4ebd 83b4 ed3b
00000190: e121 1abd f531 673b dc55 703d eda4 5f3b
000001a0: b8ec 7d3d fb52 a8bd 476b b1bd 935f c2bd
000001b0: c958 893c 2b4c 88bd 6a13 a13d 81c3 4d3d
000001c0: 3863 073d ba0c 40bc 7ebb 9dbd 855f 843c
000001d0: b442 b0bd df36 c4bd b226 48bd 7cbd 3fbd
000001e0: 9ea5 98bd 30a9 3e3c 7823 c5bd df46 c53d
000001f0: e8de 0dbd 78d9 1dbc 18c7 413c 0107 c53d
00000200: 7c06 383d 2ea1 843d 90eb a9bc ae5b 2cbc
00000210: 936c 7dbc 0aab 863d 23ba 433d cc14 8b3d
00000220: 3bfa 773d d0bd c7bd f490 48bd ed92 463d
00000230: f84a 0c3d 655a b3bd 0a86 853d 4f64 faba
00000240: c818 053d 8e92 3b3c c871 7ebd 2ee1 323d
00000250: 8ede 933c 3b89 af3d 9153 c33d 5ba1 4cbd
00000260: 2d69 2cbc 4fbe a9bd b989 033d 3db3 93bd
00000270: 918d 453d 3f8c 91bd 34dc c13d 6fef 913d
00000280: e9b8 b7bd 1b01 f1bb 8360 c83c ee40 87bc
00000290: 92a6 8fbd 3040 0cbd b1f8 93bd c5e7 bcbc
000002a0: a1e9 b73d a385 50bd 6696 203d c575 2c3c
000002b0: 11e8 153d 8677 613d 4199 4bbb 5273 c53a
000002c0: 2f2e 24bd 695b ac3d 38ca 223d 746e 1a3d
000002d0: c272 cabb 0021 8ebd 18fb b3bd 81e3 323d
000002e0: 1fd8 a63c 14b4 953d 1b90 a43d 1d0b 7abb
000002f0: 2652 813d 73c8 fcbc 8446 aabd d4e7 9d3c
00000300: bff3 35bd efe8 a53d 3034 b43d 177d 68bd
00000310: 01e6 c739 f0e5 a63c 46ab bbbd 116a 143d
00000320: f653 d63c 6dd2 533c bf49 23bd 00f9 963d
00000330: ed25 95bd 1421 393d a330 633c 5406 bcbd
00000340: bf3d 5e3c a41a 24bd 3ec3 68bd 2912 1dbd
00000350: 0dae 7a3d 5e61 c93b 4ca6 4fbd b22b 78bb
00000360: 2a19 4dbc 4572 8b3c 103b 96ba 53b7 4abd
00000370: bf24 703d b6ae c4bc 7201 1c3d a8d5 443d
00000380: c2d0 a53d 3210 cf3c 4338 573d ad3a 4f3c
00000390: 04ea 16bc 11f0 b43d 8ec3 92bd 2fa1 77bd
000003a0: fd01 8bbd 15a9 cc3c 6cc3 833d 8025 e6bd
000003b0: 4f0c 5dbd 9c29 97bd 8c75 f43a 7237 06bb
000003c0: 03a2 8cbc eab1 61bc 536b a7bd b983 953d
000003d0: f43b 79bd 95cb 42bc d04b 33bc e41f d2ba
000003e0: 7a47 c23d d8c6 83bd dc4f b2bc 4c0a 733d
000003f0: ec17 803d 24f2 64bd 5bb1 423d d8a4 aa3d

encoder.lob_enc.res_blocks.1.conv2.bias f4 [32]
0.021191759 0.025852785 -0.012617256 0.04422041 -0.082678504 -0.02870179 -0.050160363 0.036025412
-0.085783735 0.026625253 -0.057999372 0.05648392 -0.023245478 -0.0046548634 0.021597328 0.018243726
0.029497663 0.048794247 -0.043560322 -0.05843586 0.018589597 -0.11607423 0.005814155 0.028692383
0.059588395 0.059248786 -0.0724757 -0.092994094 -0.043223053 -0.09787922 -0.004931668 0.040699277
00000000: 579a ad3c 38c9 d33c 9bb8 4ebc 7620 353d
00000010: 5953 a9bd 0420 ebbc f474 4dbd 628f 133d
00000020: 62af afbd 341d da3c c090 6dbd af5b 673d
00000030: 4d6d bebc d387 98bb e1ec b03c de73 953c
00000040: 15a5 f13c 7adc 473d 4f6c 32bd 715a 6fbd
00000050: 3649 983c 53b8 edbd ab84 be3b 4a0c eb3c
00000060: f612 743d dbae 723d 246e 94bd b073 bebd
00000070: a80a 31bd e774 c8bd d499 a1bb 49b4 263d

encoder.lob_enc.res_blocks.1.bn2.weight f4 [32]
1.0076203 1.0006254 1.009199 0.99507236 1.0083529 1.0055598 1.0087408 1.0076877
1.0082052 1.0070703 0.9982917 0.99840397 1.0083418 1.0051072 0.99042356 1.0053607
1.0056696 1.0005487 1.0051703 1.0010854 1.0011467 1.0086879 0.99933815 1.0071769
1.0116163 1.0031748 1.0082573 1.0088738 1.0069995 0.9898034 1.0094826 1.0083263
00000000: b4f9 803f 7e14 803f 6f2d 813f 10bd 7e3f
00000010: b511 813f 2fb6 803f 6b1e 813f e9fb 803f
00000020: de0c 813f aee7 803f 0b90 7f3f 6797 7f3f
00000030: 5811 813f 5aa7 803f 668c 7d3f a9af 803f
00000040: c8b9 803f fb11 803f 6ca9 803f 9123 803f
00000050: 9325 803f af1c 813f a0d4 7f3f 2ceb 803f
00000060: a57c 813f 0868 803f 930e 813f c722 813f
00000070: 5ce5 803f c163 7d3f ba36 813f d610 813f

encoder.lob_enc.res_blocks.1.bn2.bias f4 [32]
0.008421123 0.0010147309 0.009853524 -0.0058011743 0.008652552 0.0071759373 0.009496892 0.008858771
0.009128595 0.008698793 -0.0022946824 -0.00014317328 0.008371886 0.0056517697 -0.0094146365 0.0072128046
0.0064768437 0.00064400496 0.009308255 0.00042015055 0.000620674 0.009700087 -0.0027043605 0.00844888
0.008868483 0.0032986929 0.00995382 0.008912791 0.008788657 -0.009433374 0.0094834985 0.009471936
00000000: c0f8 093c b800 853a ad70 213c c717 bebb
00000010: 6fc3 0d3c 2024 eb3b da98 1b3c 6124 113c
00000020: 1a90 153c 6285 0e3c 6262 16bb c920 16b9
00000030: 3c2a 093c 7b32 b93b d93f 1abc 6459 ec3b
00000040: b43b d43b 71d2 283a a781 183c a747 dc39
00000050: bab4 223a 1ded 1e3c a43b 31bb 2c6d 0a3c
00000060: 1d4d 113c e22e 583b 5915 233c f406 123c
00000070: 4dfe 0f3c 708e 1abc ad60 1b3c 2e30 1b3c

encoder.lob_enc.res_blocks.1.bn2.running_mean f4 [32]
-0.3302615 0.0702237 -0.10472133 0.087303884 0.045938764 0.15944494 -0.10420613 0.062243868
0.17427443 -0.18326822 0.15650976 -0.016587844 -0.20169593 -0.008199064 -0.19585991 0.19518065
0.013241691 0.24891153 0.03510325 -0.096990086 0.24291362 0.045023676 -0.3168802 -0.07882668
-0.4000173 0.02823366 -0.25193056 0.06968067 -0.060197946 -0.22228813 -0.3589273 0.34384957
00000000: 0918 a9be 71d1 8f3d 2378 d6bd 61cc b23d
00000010: 492a 3c3d 8945 233e 066a d5bd 6df3 7e3d
00000020: ff74 323e aaaa 3bbe 1844 203e 3be3 87bc
00000030: 6189 4ebe 5e55 06bc 808f 48be 70dd 473e
00000040: adf3 583c aae2 7e3e 6dc8 0f3d bda2 c6bd
00000050: 59be 783e bf6a 383d 1f3e a2be e26f a1bd
00000060: 11cf ccbe 474a e73c 0bfd 80be bdb4 8e3d
00000070: 1f92 76bd 809f 63be 52c5 b7be 0d0d b03e

encoder.lob_enc.res_blocks.1.bn2.running_var f4 [32]
0.20635675 0.2619501 0.07758702 0.17145371 0.48889726 0.114821635 0.13177724 0.14034295
0.122600086 0.067844085 0.16423304 0.06208507 0.10624862 0.07013996 0.071333684 0.099963024
0.049243767 0.13898061 0.07697784 0.121372335 0.124948405 0.123823866 0.31214166 0.1861846
0.09332578 0.07947683 0.17606254 0.13526656 0.07649437 0.084013596 0.18240862 0.10479392
00000000: 2f4f 533e 531e 863e f2e5 9e3d 9091 2f3e
00000010: be50 fa3e 9b27 eb3d 9df0 063e 10b6 0f3e
00000020: c115 fb3d d7f1 8a3d b52c 283e ea4c 7e3d
00000030: e098 d93d 8aa5 8f3d 6517 923d 6ab9 cc3d
00000040: d5b3 493d ef50 0e3e 8fa6 9d3d 0f92 f83d
00000050: f3e4 ff3d 5e97 fd3d 08d1 9f3e 2da7 3e3e
00000060: 9621 bf3d c0c4 a23d bd49 343e 5183 0a3e
00000070: 15a9 9c3d 520f ac3d 53c9 3a3e 329e d63d
