outputs/performance_test/checkpoint_epoch_5.pt (torch, 945821 bytes, 81 tensors)

encoder.lob_enc.conv_in.0.weight f4 [32, 2, 3, 1]
-0.119348735 0.30024427 -0.25149307 -0.08274346 -0.017900947 -0.21852338 0.00864033 -0.09780549
-0.20285279 -0.33009228 -0.009751869 0.3709689 0.15163767 -0.3184809 -0.21349867 0.261493
-0.1594274 -0.044674315 -0.20094234 0.20086263 -0.27748087 -0.38706678 -0.3035924 -0.34253266
0.048821405 0.07203412 -0.12308959 0.1590392 0.046653748 0.10406396 0.21693596 0.09092288
0.39929235 0.3136133 -0.21869655 0.293716 -0.045847334 -0.02463959 0.03339241 -0.35916066
0.26626238 0.2644387 0.3856199 0.063992105 -0.12147378 -0.069939144 -0.14400047 -0.37967154
0.13821319 0.056248687 -0.13024141 -0.24114825 -0.09392904 0.10826821 0.3151438 0.17806426
0.29995182 0.33044747 -0.19373837 -0.017072838 -0.33414724 -0.22511397 0.1686835 0.15963615
0.19005483 0.35904709 0.15955842 -0.20665139 -0.09091848 0.023741122 0.20152055 -0.21625717
-0.16306622 0.1594102 0.14789395 0.38852042 0.3483731 -0.18475397 0.15063028 -0.24156402
-0.009931413 -0.023774423 0.10183279 0.3675513 -0.33161992 0.36333612 0.27262244 -0.20986111
-0.12225243 -0.10148002 0.2508837 -0.10278389 0.15230875 -0.16010955 0.33482748 -0.05476765
0.39402443 -0.29777312 -0.11980392 0.26775154 0.14037201 -0.20336758 -0.33939257 -0.31526014
-0.3337266 -0.23644412 -0.24620979 -0.11930156 0.34505126 -0.116395876 -0.26124948 0.19164191
-0.24848695 -0.21305396 -0.06323786 -0.040384606 -0.25381017 -0.31544563 -0.4083108 -0.17378359
0.1973116 0.025590409 0.3161854 0.063382365 -0.31608057 0.028986715 -0.11054091 0.2249774
0.10442951 0.398734 -0.37055027 -0.20243 -0.35653794 0.02611255 -0.27114758 -0.17960958
0.37940902 -0.14770843 0.19359308 0.26839525 0.3008052 0.32711908 0.26049006 0.044500273
0.35427332 0.39258534 -0.272778 0.09542846 0.29096845 -0.2663892 0.17513213 0.26641697
0.001715079 -0.10593939 -0.030513072 0.34222212 -0.33345884 0.1524556 -0.23101664 0.2651869
-0.17778827 0.08056996 0.2514896 -0.04872284 -0.05312481 0.36337367 0.38958588 0.23048991
0.011250879 -0.013133256 -0.24631253 0.28127983 0.17913973 0.33505905 -0.27579445 0.090215564
0.069689885 -0.13270931 -0.053945787 0.072646625 -0.11742393 0.3799967 -0.37233853 -0.0646747
-0.19963564 0.30498102 -0.14504126 -0.091634825 0.3529817 -0.35516262 -0.13340062 0.3530503
00000000: 1c6d f4bd 9eb9 993e b3c3 80be 6775 a9bd
00000010: 02a5 92bc 98c4 5fbe 2c90 0d3c 3f4e c8bd
00000020: a4b8 4fbe db01 a9be 4ec6 1fbc a3ef bd3e
00000030: e846 1b3e ee0f a3be 659f 5abe 69e2 853e
00000040: f040 23be 6afc 36bd d4c3 4dbe efae 4d3e
00000050: f911 8ebe 9e2d c6be 7770 9bbe 7160 afbe
00000060: f4f8 473d a086 933d 6516 fcbd 2cdb 223e
00000070: 0018 3f3d 7c1f d53d 7624 5e3e c635 ba3d
00000080: 0c70 cc3e ec91 a03e fdf1 5fbe f261 963e
00000090: 6aca 3bbd f7d8 c9bc 7bc6 083d e8e3 b7be
000000a0: 8b53 883e 8264 873e f96f c53e 4b0e 833d
000000b0: 3fc7 f8bd 413c 8fbd dc74 13be 4f64 c2be
000000c0: c287 0d3e 0665 663d 015e 05be 91ef 76be
000000d0: de5d c0bd b9bb dd3d 875a a13e 7a56 363e
000000e0: 4993 993e 6930 a93e 5a63 46be 56dc 8bbc
000000f0: 5915 abbe 4784 66be 5ebb 2c3e a977 233e
00000100: bc9d 423e 05d5 b73e 4863 233e 6c9c 53be
00000110: 7833 babd be7c c23c 675b 4e3e 8572 5dbe
00000120: d5fa 26be 6d3c 233e 8371 173e 26ec c63e
00000130: f55d b23e 2530 3dbe d33e 1a3e 8f5c 77be
00000140: 5eb7 22bc 94c2 c2bc b68d d03d af2f bc3e
00000150: 16ca a9be 3107 ba3e 2b95 8b3e d5e5 56be
00000160: 7b5f fabd c2d4 cfbd d473 803e 5c80 d2bd
00000170: d3f6 1b3e c2f3 23be 826e ab3e 0b54 60bd
00000180: 92bd c93e b875 98be c25b f5bd bb16 893e
00000190: aebd 0f3e 973f 50be ddc4 adbe c769 a1be
000001a0: 37de aabe 681e 72be 6b1e 7cbe 6054 f4bd
000001b0: 8faa b03e f660 eebd 7ec2 85be c73d 443e
000001c0: 5d73 7ebe d12a 5abe da82 81bd 546a 25bd
000001d0: 68f3 81be 1782 a1be 1d0e d1be 53f4 31be
000001e0: 0d0c 4a3e faa2 d13c 0ee3 a13e 9dce 813d
000001f0: 50d5 a1be 8c75 ed3c 4663 e2bd 7a60 663e
00000200: 24df d53d dd26 cc3e c4b8 bdbe cf49 4fbe
00000210: 248c b6be fde9 d53c dbd3 8abe 93eb 37be
00000220: e641 c23e e140 17be 443d 463e 1a6b 893e
00000230: 2403 9a3e 277c a73e f45e 853e eb45 363d
00000240: 5063 b53e f200 c93e 8fa9 8bbe ff6f c33d
00000250: d1f9 943e 2a64 88be d655 333e ce67 883e
00000260: 80cc e03a c0f6 d8bd 8df6 f9bc bd37 af3e
00000270: 1ebb aabe 521d 1c3e a08f 6cbe 94c6 873e
00000280: 210e 36be dd01 a53d 3fc3 803e 9a91 47bd
00000290: 6799 59bd 1d0c ba3e cd77 c73e 8c05 6c3e
000002a0: 9b55 383c de2c 57bc 5a39 7cbe e903 903e
000002b0: 6870 373e dc8c ab3e ee34 8dbe f0c2 b83d
000002c0: 92b9 8e3d f3e4 07be 42f6 5cbd c1c7 943d
000002d0: f57b f0bd ed8e c23e 28a3 bebe 2b74 84bd
000002e0: 496d 4cbe 7926 9c3e b285 14be 0aab bbbd
000002f0: 04ba b43e e0d7 b5be 2c9a 08be 02c3 b43e

encoder.lob_enc.conv_in.0.bias f4 [32]
0.28684226 -0.11626654 -0.07681855 -0.19456229 0.080788665 0.11967834 0.27578732 0.17920099
0.20592164 -0.06501319 -0.29176345 0.22541474 -0.0070906593 -0.26713324 0.03652708 0.4039329
-0.03441937 -0.34102705 0.24655192 0.30357108 -0.26088676 -0.35706502 -0.2920975 0.16785167
-0.16754593 -0.40102297 -0.029295897 -0.207419 -0.12084543 -0.1611237 -0.13698648 -0.26580802
00000000: fddc 923e 271d eebd 0b53 9dbd 563b 47be
00000010: 8774 a53d eb19 f53d ff33 8d3e 7780 373e
00000020: 1fdd 523e a325 85bd 0562 95be 1fd3 663e
00000030: c358 e8bb b0c5 88be 6b9d 153d 4bd0 ce3e
00000040: 53fb 0cbd 199b aebe 1b78 7c3e ab6d 9b3e
00000050: f392 85be 3ad1 b6be ce8d 95be 4fe1 2b3e
00000060: 2991 2bbe e252 cdbe f3fd efbc a565 54be
00000070: cf7d f7bd 9cfd 24be 2f46 0cbe fd17 88be

encoder.lob_enc.conv_in.1.weight f4 [32]
1.006763 1.0060334 1.009631 1.0045503 1.0040796 1.0029597 1.003077 1.0098178
1.0076907 1.0073935 0.9853653 0.9883816 1.0075353 0.99923694 0.9912382 1.0062364
0.9929485 1.0100244 1.0092834 1.0008272 0.9907859 0.9949081 1.0057126 0.9948062
1.0072554 0.9972518 1.0090691 1.0109576 1.0042238 1.0027472 1.0074693 1.0073377
00000000: 9cdd 803f b4c5 803f 973b 813f 1b95 803f
00000010: ae85 803f fc60 803f d464 803f b641 813f
00000020: 02fc 803f 45f2 803f e640 7c3f 9406 7d3f
00000030: ebf6 803f fecd 7f3f c9c1 7d3f 5bcc 803f
00000040: df31 7e3f 7b48 813f 3330 813f 1b1b 803f
00000050: 25a4 7d3f 4cb2 7e3f 31bb 803f 9eab 7e3f
00000060: bfed 803f e54b 7f3f 2d29 813f 0f67 813f
00000070: 688a 803f 055a 803f c1f4 803f 71f0 803f

encoder.lob_enc.conv_in.1.bias f4 [32]
0.0072983033 0.005745915 0.01031739 0.0021831815 -0.0038118975 0.012310393 0.010152694 0.010385778
0.008203949 0.009863964 -0.013627324 0.001151734 -0.011882471 0.0059908503 -0.00037569008 0.009270378
0.0055696 0.0088786725 0.009907151 0.0038864766 0.01031169 0.0077794064 0.0065887775 0.011354183
0.008679475 0.0012364781 0.010785738 0.0103974035 0.010367125 -0.0016838078 0.010214084 0.009931797
00000000: 9b26 ef3b 3b48 bc3b 450a 293c b513 0f3b
00000010: 07d1 79bb 88b1 493c 7c57 263c 1c29 2a3c
00000020: db69 063c 779c 213c 2445 5fbc c8f5 963a
00000030: b2ae 42bc e54e c43b 45f8 c4b9 c9e2 173c
00000040: 3181 b63b da77 113c 9a51 223c 42b4 7e3b
00000050: 5df2 283c 64ea fe3b ace6 d73b e506 3a3c
00000060: 5b34 0e3c 5211 a23a aab6 303c df59 2a3c
00000070: e0da 293c 37b3 dcba f958 273c fab8 223c

encoder.lob_enc.conv_in.1.running_mean f4 [32]
-2.7920566e+08 -1.9055878e+08 -2.3973902e+08 -9.5142086e+08 2.2446496e+08 7.9267603e+08 1.0050875e+08 -1.9348835e+08
-1.1862177e+08 6.609998e+08 2.3114365e+08 -9.33875e+07 5.110868e+08 2.4854606e+08 -8.991514e+07 3.0849488e+08
1.2937381e+08 -1.1588352e+09 -2.2368216e+08 -9.1494125e+08 2.2463358e+08 3.0441974e+07 -3.9429907e+08 1.01741875e+09
4.3916534e+08 4.7278026e+08 -1.7688717e+08 8.2604e+08 3.9931622e+08 -1.6631462e+08 -4.807736e+07 -1.6826174e+07
00000000: b922 85cd 24bb 35cd 09a2 64cd 1fd6 62ce
00000010: 0411 564d 1bfd 3c4e 8ab4 bf4c 5e86 38cd
00000020: c940 e2cc 3a98 1d4e 8e6f 5c4d 5e1f b2cc
00000030: 86b4 f34d 3108 6d4d e07f abcc 111a 934d
00000040: cec2 f64c d824 8ace e751 55cd 9523 5ace
00000050: 2f3a 564d fb40 e84b 3604 bccd 5092 724e
00000060: 0d69 d14d 6f70 e14d 58b1 28cd 7bf1 444e
00000070: a868 be4d 289c 1ecd 8c66 37cc 9f5f 80cb

encoder.lob_enc.conv_in.1.running_var f4 [32]
1.0769812e+17 5.9489613e+16 9.128946e+16 1.06290215e+18 6.115645e+16 7.520714e+17 3.516947e+16 7.1309243e+16
2.1177389e+16 5.254886e+17 8.846224e+16 2.2577683e+16 3.1677926e+17 8.423581e+16 4.020702e+16 1.1935911e+17
5.95344e+16 1.5560282e+18 9.606586e+16 9.710848e+17 7.552808e+16 2.2971227e+16 2.1113973e+17 1.1999278e+18
2.707788e+17 2.6741446e+17 4.9480798e+16 8.003567e+17 1.9439689e+17 4.3971695e+16 2.3734122e+16 5.210048e+16
00000000: 6f4f bf5b 7d59 535b a429 a25b fe02 6c5d
00000010: 7845 595b 4ffe 265d e5e4 f95a 6157 7d5b
00000020: 7279 965a 235d e95c f823 9d5b 916c a05a
00000030: a2ad 8c5c 03a2 955b 12d8 0e5b 3d06 d45b
00000040: 3982 535b fbc0 ac5d b2a5 aa5b c89f 575d
00000050: 322a 865b 6b38 a35a 9e87 3b5c 0038 855d
00000060: f97f 705c 0283 6d5c 86ca 2f5b 03b7 315d
00000070: bca8 2c5c 0638 1c5b 1ea4 a85a 1c19 395b

encoder.lob_enc.res_blocks.0.conv1.weight f4 [32, 32, 3, 1]
-0.033312526 -0.07500575 -0.025107412 -0.077117994 -0.006104034 0.06104238 -0.05518732 -0.025766587
-0.028980542 -0.0461743 -0.08207025 0.014122784 -0.020311823 -0.005675509 -0.032059222 -0.074110806
-0.045715004 0.045831177 0.06177157 -0.03628274 0.056369375 -0.07139932 -0.016604548 -0.10266904
-0.027480211 0.018449582 0.051904183 0.025678258 0.037506662 -0.028714027 0.09422327 -0.08581006
-0.027310533 -0.02227162 0.057019938 0.010457321 0.08764824 -0.078727216 0.02721943 -0.09136206
0.025010787 -0.05079763 -0.055615086 0.007890809 0.009472711 0.09086036 0.07217349 -0.000233592
0.037437525 0.007979892 -0.027962953 -0.08592089 -0.09344565 -0.0017104521 -0.055002097 0.08133961
-0.056675833 0.015424471 -0.060818873 0.09003771 0.038005024 0.04701254 0.02037216 -0.02341674
-0.040457882 -0.053749897 -0.100004666 -0.028103748 -0.052591134 0.08174198 0.08773215 -0.07378267
-0.0051580225 -0.09469663 0.044732787 0.06684469 -0.06495219 -0.077410765 -0.029907642 0.0732561
0.061251894 -0.06429699 -0.0055813016 -0.08407861 0.084407546 0.034930836 -0.04664821 0.033334702
-0.00465752 -0.07419126 -0.10858083 0.07126607 -0.06621854 0.05824044 -0.033808436 0.054002535
0.03222408 0.050989702 -0.05617992 0.046273787 0.013608393 -0.00877737 -0.011056046 -0.007857284
0.048216514 0.050090063 -0.049238753 -0.013593199 -0.01456374 -0.029672353 0.05380683 0.10227578
0.05793969 -0.017629903 0.071819045 0.103777334 0.016075302 0.07934153 0.022399597 -0.032158308
0.024130058 0.012405751 0.018163634 -0.018748237 -0.06716101 -0.08614602 -0.05705475 0.06565175
-0.018220868 -0.09280151 0.08093506 -0.107553475 0.024869962 0.09752973 -0.043500237 0.0064498656
0.10424585 0.09299098 0.07849584 -0.01448506 0.055708807 0.047976278 0.01494681 0.09635991
0.028327934 0.075729966 -0.06917685 0.019680152 -0.10547616 0.0057055093 0.017909894 0.05168815
0.043606948 -0.056467194 0.04933255 -0.113196515 0.089460164 0.051333673 -0.007600201 0.030957885
0.061690077 -0.07107752 0.057231624 0.018408243 0.08837858 0.011897006 0.018058423 0.031223966
0.087169915 -0.07493905 0.06234737 0.06820165 -0.0035970877 -0.06278531 0.067854226 0.049133357
-0.0341885 0.025575602 -0.022962082 -0.039026838 0.1102927 0.04823441 0.014147408 0.062785015
0.061087277 0.044573516 0.05522887 -0.0788254 -0.033812385 0.09258749 0.025237132 0.03481046
-0.07629273 -0.060226824 -0.047762085 0.037840508 -0.04970293 0.07234609 -0.0834838 -0.028737951
0.072677046 -0.052736286 -0.008649871 -0.040108223 0.031380948 -0.05634415 -0.08109189 -0.04314573
0.037225943 -0.03151463 -0.07930197 -0.028610276 -0.04825881 0.080004506 -0.026435686 0.03158863
0.08772792 -0.07989203 0.033412565 0.009312438 0.08253743 -0.0018955228 0.023665862 -0.10198403
0.09304679 -0.06873641 0.06320399 -0.07843853 0.017210683 -0.003127556 0.07151798 -0.099957965
0.081429705 0.09416458 0.023162784 0.08715337 0.07854909 0.0019908138 0.052914653 0.0017964853
0.023999061 -0.07608929 -0.033930294 -0.06569075 -0.07030283 -0.075442575 -0.052637726 0.005675206
-0.017669447 0.035734512 0.034456745 -0.039155453 0.06740491 -0.07400064 -0.063209854 0.09402767
00000000: b772 08bd 9d9c 99bd 0fae cdbc 0af0 9dbd
00000010: 5904 c8bb 9307 7a3d 190c 62bd 7314 d3bc
00000020: 9a68 edbc 4321 3dbd 7214 a8bd 4063 673c
00000030: fb64 a6bc 9ff9 b9bb 8850 03bd 68c7 97bd
00000040: a83f 3bbd 79b9 3b3d 3004 7d3d 369d 14bd
00000050: 93e3 663d cf39 92bd 4306 88bc 2544 d2bd
00000060: 2e1e e1bc 9423 973c 7b99 543d 365b d23c
00000070: 96a0 193d ae39 ebbc 21f8 c03d 2fbd afbd
00000080: 57ba dfbc f972 b6bc bd8d 693d 2f55 2b3c
00000090: ec80 b33d bc3b a1bd 48fb de3c 081c bbbd
000000a0: 6ce3 cc3c 2d11 50bd a5cc 63bd 7448 013c
000000b0: 6e33 1b3c ff14 ba3d b2cf 933d 60f0 74b9
000000c0: 1758 193d 18be 023c 9012 e5bc 4bf7 afbd
000000d0: 6f60 bfbd 4031 e0ba e149 61bd 6295 a63d
000000e0: eb24 68bd ecb6 7c3c 361d 79bd b165 b83d
000000f0: 28ab 1b3d 3990 403d 84e3 a63c 77d4 bfbc
00000100: 2ab7 25bd da28 5cbd 3fcf ccbd d539 e6bc
00000110: cd69 57bd 5768 a73d eaac b33d 5e1b 97bd
00000120: a104 a9bb 4ff0 c1bd ba39 373d dee5 883d
00000130: a705 85bd 8989 9ebd df00 f5bc 4b07 963d
00000140: 44e3 7a3d 24ae 83bd 5ae3 b6bb 6831 acbd
00000150: dddd ac3d a313 0f3d 3212 3fbd f889 083d
00000160: 1c9e 98bb 96f1 97bd a05f debd f2f3 913d
00000170: 969d 87bd 878d 6e3d b77a 0abd c331 5d3d
00000180: 66fd 033d 94da 503d ea1c 66bd 9589 3d3d
00000190: bdf5 5e3c f5ce 0fbc 6b24 35bc d6bb 00bc
000001a0: ae7e 453d 3d2b 4d3d 93ae 49bd 02b6 5ebc
000001b0: c19c 6ebc 6f13 f3bc 8d64 5c3d f775 d13d
000001c0: 2b52 6d3d 966c 90bc dd15 933d 3689 d43d
000001d0: 5ab0 833c d07d a23d 5c7f b73c 6eb8 03bd
000001e0: 66ac c53c 7e41 4b3c e7cb 943c e795 99bc
000001f0: b68b 89bd 536d b0bd 3eb2 69bd 6d74 863d
00000200: ee43 95bc b80e bebd 48c1 a53d ff44 dcbd
00000210: 17bc cb3c abbd c73d 4e2d 32bd 6559 d33b
00000220: d97e d53d 0e72 be3d 6dc2 a03d bf52 6dbc
00000230: eb2e 643d c682 443d 77e3 743c 5858 c53d
00000240: fc0f e83c 5018 9b3d 98ac 8dbd 4538 a13c
00000250: e303 d8bd 48f5 ba3b c5b7 923c f4b6 533d
00000260: 339d 323d 254a 67bd ee10 4a3d 93d3 e7bd
00000270: e436 b73d 4243 523d 1b0b f9bb 649b fd3c
00000280: bcae 7c3d 1791 91bd b56b 6a3d e2cc 963c
00000290: d4ff b43d a9eb 423c 42ef 933c 67c9 ff3c
000002a0: 2486 b23d a579 99bd f55f 7f3d 4fad 8b3d
000002b0: 1ebd 6bbb 9695 80bd 28f7 8a3d 0f40 493d
000002c0: 3e09 0cbd ed83 d13c fa1a bcbc 9bda 1fbd
000002d0: 24e1 e13d 7291 453d 88ca 673c 6e95 803d
000002e0: a736 7a3d b892 363d ab37 623d 366f a1bd
000002f0: db7e 0abd 839e bd3d 1abe ce3c 6a95 0e3d
00000300: 5d3f 9cbd 67b0 76bd 2da2 43bd a6fe 1a3d
00000310: 4d95 4bbd 302a 943d 8ef9 aabd da6b ebbc
00000320: b4d7 943d 0102 58bd 30b8 0dbc 8548 24bd
00000330: 4f89 003d 20c9 66bd 8113 a6bd 94b9 30bd
00000340: 3b7a 183d 7c15 01bd 1269 a2bd 1960 eabc
00000350: 08ab 45bd 67d9 a33d a78f d8bc 1463 013d
00000360: b2aa b33d 6f9e a3bd 9ddb 083d 3293 183c
00000370: 6209 a93d 3173 f8ba e9de c13c 01dd d0bd
00000380: 518f be3d adc5 8cbd 1871 813d 61a4 a0bd
00000390: 6bfd 8c3c aff7 4cbb 0578 923d c3b6 ccbd
000003a0: 9ec4 a63d 5cd9 c03d e1bf bd3c 777d b23d
000003b0: 58de a03d 5078 023b 09bd 583d 0b78 eb3a
000003c0: ae99 c43c b4d4 9bbd 7efa 0abd df88 86bd
000003d0: eefa 8fbd a381 9abd a89a 57bd 14f7 b93b
000003e0: 84bf 90bc 5a5e 123d 8422 0d3d 7861 20bd
000003f0: 960b 8a3d a68d 97bd 2b74 81bd 9491 c03d

encoder.lob_enc.res_blocks.0.conv1.bias f4 [32]
-0.042955946 -0.057143927 -0.037650034 -0.122219175 -0.14447659 -0.08009292 -0.13323088 0.013200064
-0.07544855 -0.081377104 -0.028656019 -0.021311352 0.014732325 -0.044034865 -0.009884884 -0.016296344
0.047525562 -0.018125124 -0.004061978 -0.035779946 0.002011322 -0.045489974 -0.09722965 -0.09868496
0.024690477 -0.03949947 0.056226417 0.014686303 0.041931033 -0.050350543 0.021261087 -0.024519242
00000000: 93f2 2fbd c00f 6abd ec36 1abd 0c4e fabd
00000010: acf1 13be c207 a4bd ad6d 08be 1545 583c
00000020: c584 9abd 0aa9 a6bd 07c0 eabc 2595 aebc
00000030: da5f 713c e75d 34bd 35f4 21bc e97f 85bc
00000040: 2aaa 423d 247b 94bc 571a 85bb fe8d 12bd
00000050: 62d0 033b b253 3abd 5720 c7bd 571b cabd
00000060: af43 ca3c 32ca 21bd ac4d 663d d29e 703c
00000070: e0bf 2b3d 5f3c 4ebd bb2b ae3c 94dc c8bc

encoder.lob_enc.res_blocks.0.bn1.weight f4 [32]
0.99742657 1.0020388 1.0059344 0.99557084 0.98652256 1.0023636 0.9926287 0.9957604
0.9966142 0.99830127 0.994165 0.9993505 1.0000635 0.99798787 0.9962316 1.0049129
0.9950009 1.0105004 0.99023134 0.98647356 1.0026581 0.98912805 1.0121068 1.0084598
1.0093496 1.0050352 1.0066491 1.0051472 0.9922915 1.0086968 1.012051 1.0088053
00000000: 5957 7f3f cf42 803f 75c2 803f bbdd 7e3f
00000010: be8c 7c3f 734d 803f ea1c 7e3f 27ea 7e3f
00000020: 1c22 7f3f ac90 7f3f 9981 7e3f 6fd5 7f3f
00000030: 1502 803f 227c 7f3f 0909 7f3f fca0 803f
00000040: 61b8 7e3f 1458 813f cd7f 7d3f 8889 7c3f
00000050: 1a57 803f 7f37 7d3f b78c 813f 3615 813f
00000060: 5e32 813f fea4 803f e1d9 803f aaa8 803f
00000070: d106 7e3f fa1c 813f e38a 813f 8820 813f

encoder.lob_enc.res_blocks.0.bn1.bias f4 [32]
0.00900879 -0.0009911526 0.0042521427 0.010226716 0.0048619974 0.010250618 0.008365702 0.006998637
-0.0072642495 0.010482231 -0.008439295 0.009622148 0.0034327775 0.009256362 0.007517602 0.005493627
0.0016233121 0.009761171 0.0057141623 -0.011637866 0.013313541 0.006072763 0.011820982 0.011369585
0.011234851 -0.00031679837 0.010828481 0.009034002 -0.002090518 0.01344354 0.012162844 0.010655542
00000000: 9b99 133c 90e9 81ba 8f55 8b3b f58d 273c
00000010: 6451 9f3b 35f2 273c 4c10 093c d354 e53b
00000020: f108 eebb aabd 2b3c f844 0abc 37a6 1d3c
00000030: 73f8 603b ffa7 173c 3756 f63b e203 b43b
00000040: 51c5 d43a 52ed 1f3c de3d bb3b bfac 3ebc
00000050: 0a21 5a3c 07fe c63b cbac 413c 7f47 3a3c
00000060: 6112 383c f517 a6b9 f169 313c 5a03 143c
00000070: 1201 09bb 4b42 5c3c aa46 473c 9594 2e3c

encoder.lob_enc.res_blocks.0.bn1.running_mean f4 [32]
-0.33117878 0.4772146 -0.38585454 -0.44529903 -0.24321507 -0.38094693 -0.06925733 0.09184638
0.0937555 -0.042169757 0.42836714 0.42545637 -0.10613113 -0.09594881 -0.32375437 0.28505573
0.14178461 -0.00685997 -0.05459206 -0.061435383 -0.042493008 0.1863405 -0.22105573 -0.21703586
0.03262762 -0.52699614 0.002439025 -0.20181 -0.07725574 -0.108559355 -0.12459188 0.1122211
00000000: 4490 a9be 7955 f43e ba8e c5be 3cfe e3be
00000010: 5f0d 79be 7a0b c3be c9d6 8dbd f419 bc3d
00000020: e202 c03d 32ba 2cbd f052 db3e 6bd5 d93e
00000030: 475b d9bd cf80 c4bd 22c3 a5be d3f2 913e
00000040: fc2f 113e 99c9 e0bb ed9b 5fbd aba3 7bbd
00000050: 260d 2ebd 0bd0 3e3e 6f5c 62be a63e 5ebe
00000060: 8aa4 053d 38e9 06bf 0dd8 1f3b 48a7 4ebe
00000070: 4238 9ebd 5e54 debd 072a ffbd 2dd4 e53d

encoder.lob_enc.res_blocks.0.bn1.running_var f4 [32]
0.05083663 0.5916961 0.07131852 0.07051972 0.060959198 0.063125946 0.3029987 0.13168663
0.61446065 0.17794792 0.4913939 0.097918235 0.11781381 0.036058865 0.07776969 0.092416584
0.5539786 0.22092006 0.14093368 0.09894409 0.15636054 0.4135605 0.1061582 0.26117215
0.15070155 0.08562912 0.23568857 0.085396625 0.028334888 0.3237237 0.12891555 0.11401233
00000000: 123a 503d 6579 173f 720f 923d a56c 903d
00000010: 5ab0 793d 2d48 813d a522 9b3e dcd8 063e
00000020: 4b4d 1d3f fb37 363e fb97 fb3e 5b89 c83d
00000030: 5e48 f13d 76b2 133d b745 9f3d e844 bd3d
00000040: 8bd1 0d3f de38 623e eb50 103e 33a3 ca3d
00000050: fa1c 203e 34be d33e 7869 d93d 5bb8 853e
00000060: 8251 1a3e 525e af3d 5858 713e 6de4 ae3d
00000070: 911e e83c 1dbf a53e 7002 043e 4c7f e93d

encoder.lob_enc.res_blocks.0.conv2.weight f4 [32, 32, 3, 1]
0.016248645 0.025180623 -0.06756771 0.085931234 0.03162748 -0.03066582 -0.08043764 -0.06221966
-0.01667162 0.0108975 0.03132623 0.09684489 0.06915772 -0.011679002 -0.022865828 0.07923126
-0.0024799674 0.013468925 -0.0028350444 0.09030388 0.06216939 0.041283906 0.032517433 -0.017955698
0.027700447 -0.077670015 -0.07254984 0.033593297 0.024965936 -0.062634796 0.03580339 0.039057117
0.051617473 -0.043925934 -0.050499115 0.0009946717 -0.010960424 -0.00642266 -0.077966385 0.07038777
0.09574038 -0.047869436 0.07380345 0.019634303 0.025846519 -0.0061861714 0.0946241 -0.022269983
0.0185044 -0.0051096603 0.008695267 -0.044417 -0.06325281 0.0709583 -0.099479124 -0.07448233
0.091927156 -0.052373793 -0.014290462 -0.09702164 -0.02931479 -0.04639806 0.037538853 0.049015068
0.08928277 -0.035327863 0.09478812 0.043630503 -0.076650985 -0.088135555 -0.010859817 0.095170714
0.0014908412 -0.059044525 0.06383468 -0.107657045 0.07059473 -0.00619241 0.0077968044 -0.033571504
0.018149426 -0.0018335904 0.07503766 0.08533251 0.036979742 -0.017358026 -0.0039256336 -0.060703706
0.0641065 -0.020519037 -0.09882103 -0.0301641 -0.068254836 -0.07950474 0.018936729 0.010518111
-0.053979166 -0.07107742 0.035325073 0.023283724 0.07010266 0.054806735 -0.060766388 0.05826808
-0.087510824 -0.08427916 0.044516727 0.099127874 0.04894119 -0.0024603715 -0.04659769 0.10154189
-0.06529937 0.09340297 -0.06588724 -0.09914737 -0.004496096 0.031717665 -0.08238184 -0.029217985
-0.0031339678 -0.006242535 -0.047955334 0.09586956 -0.071868435 0.067753166 0.030576693 -0.04115682
0.04555096 -0.082568035 -0.06835692 0.05771565 -0.05059653 0.050647993 -0.0938323 0.018840946
-0.094369896 0.04903822 0.09977111 0.06188005 0.029460454 0.0663784 0.089495786 0.056119263
0.045299925 0.033724472 0.024217185 0.06439378 0.07565638 -0.034927513 0.01768571 0.05562536
-0.08323557 -0.07492947 -0.02349962 0.018090868 0.06696948 0.05327246 0.05292947 -0.020612236
-0.025581902 -0.097540446 -0.0064756167 -0.028377425 -0.082057655 0.045678437 0.058267906 0.026514653
-0.0736088 -0.02957871 -0.09337087 -0.010439449 0.05810852 0.087156065 -0.08613925 -0.021826392
-0.05242537 0.07823267 0.10119567 -0.08725106 -0.038776692 0.0056393673 -0.09039484 -0.10208264
-0.06907692 0.07154599 0.018854164 -0.05330659 -0.017465526 0.0944297 -0.09448573 0.041119784
-0.016611455 -0.11144293 0.07535212 -0.058585238 0.070205845 -0.0036085458 0.01280998 -0.025049562
-0.09299963 0.039989464 -0.04570089 0.027564654 0.08326739 -0.042077217 -0.00041674223 0.024858745
-0.04439112 0.03431862 -0.053857516 0.0703082 -0.02824295 -0.014948879 -0.0436872 -0.0015024468
0.0594952 0.007726762 -0.04670177 0.09794928 0.09383054 -0.03724086 -0.06756144 -0.08258085
0.006510866 0.09539749 0.031098792 0.041497964 -0.106608234 0.03150936 0.04391185 -0.04249005
-0.07561438 -0.02611976 -0.09717731 0.08344179 -0.0714545 0.10133598 -0.09283661 0.074608624
-0.051916253 -0.09010269 0.016992336 0.10435826 -0.038540754 0.025050877 -0.07445085 0.055697884
0.0801933 -0.041433524 0.08440842 0.03973833 0.0026753542 -0.05519147 0.05729332 -0.0068655307
00000000: e11b 853c 9847 ce3c f160 8abd b7fc af3d
00000010: d18b 013d e336 fbbc 7dbc a4bd 0bda 7ebd
00000020: ec92 88bc 6e8b 323c ef4f 003d 9d56 c63d
00000030: 90a2 8d3d 4959 3fbc 1e51 bbbc 0044 a23d
00000040: f386 22bb c4ac 5c3c 27cc 39bb 3ef1 b83d
00000050: 55a5 7e3d 5019 293d 0031 053d d417 93bc
00000060: 0cec e23c 7511 9fbd 0395 94bd 2099 093d
00000070: 5d85 cc3c ac46 80bd 93a6 123d 5bfa 1f3d
00000080: d86c 533d aeeb 33bd 29d8 4ebd a55f 823a
00000090: 5a93 33bc 2d75 d2bb d7ac 9fbd 7727 903d
000000a0: 8813 c43d be12 44bd 4326 973d 1ed8 a03c
000000b0: 14bc d33c 5eb5 cabb 48ca c13d 8a6f b6bc
000000c0: 8a96 973c f06e a7bb 9876 0e3c 9aee 35bd
000000d0: b08a 81bd 9652 913d b6bb cbbd 318a 98bd
000000e0: 4e44 bc3d e785 56bd 8b22 6abc 48b3 c6bd
000000f0: 9225 f0bc e40b 3ebd 57c2 193d 06c4 483d
00000100: e3d9 b63d f3b3 10bd 4620 c23d e6b5 323d
00000110: 31fb 9cbd 6a80 b4bd 60ed 31bc dde8 c23d
00000120: 5468 c33a acd8 71bd c2bb 823d 4c7b dcbd
00000130: f893 903d b3e9 cabb 567c ff3b 4682 09bd
00000140: 1bae 943c 1655 f0ba 58ad 993d d0c2 ae3d
00000150: 1278 173d 6b32 8ebc 9aa2 80bb 73a4 78bd
00000160: 454a 833d 8a17 a8bc ae62 cabd b41a f7bc
00000170: 31c9 8bbd 62d3 a2bd 3321 9b3c 2854 2c3c
00000180: 4219 5dbd 0a91 91bd 06b1 103d 82bd be3c
00000190: fc91 8f3d 077d 603d 2de6 78bd 83aa 6e3d
000001a0: e038 b3bd 8d9a acbd 2c57 363d 8e03 cb3d
000001b0: 8f76 483d 2f3e 21bb 38dd 3ebd 32f5 cf3d
000001c0: adbb 85bd 0e4a bf3d e4ef 86bd c70d cbbd
000001d0: fd53 93bb 62ea 013d cfb7 a8bd 8e5a efbc
000001e0: 4163 4dbb 2e8e ccbb d06c 44bd 4357 c43d
000001f0: c22f 93bd 2cc2 8a3d f97b fa3c 0e94 28bd
00000200: a593 3a3d 6e19 a9bd b6fe 8bbd 3f67 6c3d
00000210: 4f3e 4fbd 4574 4f3d 262b c0bd 5458 9a3c
00000220: 0145 c1bd 4ddc 483d cc54 cc3d ef75 7d3d
00000230: 0d57 f13c 66f1 873d 9149 b73d 50dd 653d
00000240: 6a8c 393d ac22 0a3d 1e63 c63c e3e0 833d
00000250: bbf1 9a3d 2710 0fbd 9fe1 903c 6bd7 633d
00000260: 6977 aabd 9f74 99bd 4682 c0bc 4d33 943c
00000270: 4b27 893d 3934 5a3d 92cc 583d feda a8bc
00000280: 2391 d1bc 49c3 c7bd 6931 d4bb c677 e8bc
00000290: d80d a8bd 5019 3b3d 54aa 6e3d 4235 d93c
000002a0: 36c0 96bd 0d4f f2bc 3a39 bfbd 390a 2bbc
000002b0: 3303 6e3d e17e b23d c669 b0bd 43cd b2bc
000002c0: fcbb 56bd 7338 a03d ad3f cf3d afb0 b2bd
000002d0: 4fd4 1ebd 71ca b83b ee20 b9bd b410 d1bd
000002e0: 3378 8dbd b486 923d 0c74 9a3c 0358 5abd
000002f0: dd13 8fbc 5c64 c13d bc81 c1bd 386d 283d
00000300: bf14 88bc 313c e4bd 3652 9a3d 13f7 6fbd
00000310: 15c8 8f3d 5a7d 6cbb f3e0 513c bd34 cdbc
00000320: 9776 bebd fecb 233d db30 3bbd 45cf e13c
00000330: 1888 aa3d 2959 2cbd 327e dab9 91a4 cb3c
00000340: 77d3 35bd ae91 0c3d b399 5cbd bffd 8f3d
00000350: c25d e7bc 25ec 74bc 59f1 32bd c0ed c4ba
00000360: 3db1 733d c730 fd3b 5b4a 3fbd a299 c83d
00000370: 3a2a c03d df89 18bd a75d 8abd 2620 a9bd
00000380: 1a59 d53b c25f c33d e5c2 fe3c c5f9 293d
00000390: 6b55 dabd f50f 013d e9dc 333d 0c0a 2ebd
000003a0: b6db 9abd 1bf9 d5bc e604 c7bd 87e3 aa3d
000003b0: bd56 92bd 3d89 cf3d 1f21 bebd 68cc 983d
000003c0: 23a6 54bd c287 b8bd 8333 8b3c c9b9 d53d
000003d0: e9dc 1dbd 7f37 cd3c b079 98bd 7723 643d
000003e0: 633c a43d 33b6 29bd 52de ac3d a9c4 223d
000003f0: ff54 2f3b 7310 62bd 66ac 6a3d 3ff8 e0bb

encoder.lob_enc.res_blocks.0.conv2.bias f4 [32]
-0.015792022 -0.056767102 -0.055555765 -0.02600382 -0.033676974 -0.05023761 -0.08131627 -0.08005557
-0.067233525 -0.11508292 -0.08335333 -0.04862972 -0.08799045 -0.023561994 0.007316793 -0.015022043
-0.08489317 -0.038028102 -0.094238535 0.032061607 0.03662649 0.04867425 -0.07039788 0.031039907
-0.024730904 -0.06527476 0.023671405 -0.11146767 -0.13200502 0.0454674 -0.008445833 0.019261949
00000000: 455e 81bc 9f84 68bd 718e 63bd f705 d5bc
00000010: def0 09bd f4c5 4dbd 2589 a6bd 2df4 a3bd
00000020: bbb1 89bd 98b0 ebbd 27b5 aabd f52f 47bd
00000030: 5634 b4bd 1505 c1bc b5c1 ef3b 041f 76bc
00000040: 78dc adbd 5bc3 1bbd 2200 c1bd 0853 033d
00000050: a905 163d a65e 473d c42c 90bd 6747 fe3c
00000060: 7798 cabc c6ae 85bd 89ea c13c 2949 e4bd
00000070: 532c 07be 063c 3a3d 6460 0abc 3ccb 9d3c

encoder.lob_enc.res_blocks.0.bn2.weight f4 [32]
0.99140185 1.0010315 1.0096877 0.99145603 1.0083611 1.0023724 1.0104623 1.0075451
1.0065892 1.0063238 1.0001031 0.99834603 1.0091578 1.0041395 0.9920748 1.0069132
1.0004425 1.0008603 1.0080407 1.0025618 0.9995928 1.0083096 1.0012633 1.0094182
1.0075042 1.0027124 1.009728 1.0090115 1.0073086 0.9955685 1.007206 1.009412
00000000: 83cc 7d3f cd21 803f 723d 813f 10d0 7d3f
00000010: fa11 813f bd4d 803f d456 813f 3df7 803f
00000020: ead7 803f 38cf 803f 6103 803f 9b93 7f3f
00000030: 152c 813f a587 803f 9df8 7d3f 88e2 803f
00000040: 800e 803f 311c 803f 7a07 813f f253 803f
00000050: 50e5 7f3f 4a10 813f 6529 803f 9e34 813f
00000060: e6f5 803f e158 803f c43e 813f 4a27 813f
00000070: 7def 803f 94dd 7e3f 20ec 803f 6a34 813f

encoder.lob_enc.res_blocks.0.bn2.bias f4 [32]
0.0064180605 5.2787535e-05 0.010522343 -0.0037818502 0.00894925 0.006348012 0.010057969 0.010438243
0.009640802 0.0077407057 -0.0026927644 0.00038612823 0.008124798 0.004836936 -0.008729715 0.0067667374
0.0039071273 0.0007892902 0.010031723 0.0011432598 -0.0012684972 0.009684094 -0.00434359 0.0093815215
0.0087222755 0.0046325875 0.009840388 0.009556001 0.008617671 -0.009667428 0.009228157 0.009852403
00000000: 984e d23b 2f68 5d38 e865 2c3c ebd8 77bb
00000010: e09f 123c fc02 d03b 2eca 243c 2a05 2b3c
00000020: 74f4 1d3c bfa5 fd3b 1779 30bb 4171 ca39
00000030: df1d 053c 297f 9e3b 1407 0fbc 82bb dd3b
00000040: 5c07 803b 5ee8 4e3a 195c 243c 6fd9 953a
00000050: b443 a6ba 09aa 1e3c ac54 8ebb f4b4 193c
00000060: e0e7 0e3c f6cc 973b 9439 213c c690 1c3c
00000070: 2231 0d3c 2264 1ebc b231 173c f96b 213c

encoder.lob_enc.res_blocks.0.bn2.running_mean f4 [32]
0.053798717 -0.050676003 -0.02216432 0.046546403 -0.035678387 0.2964451 -0.35879868 0.14278255
0.08957752 0.054481965 -0.2644752 -0.056787968 -0.027693728 -0.1699809 0.28614286 -0.14719966
-0.048376337 0.12949684 -0.2523255 0.034933716 -0.29463515 0.18187678 0.058641464 -0.05309226
-0.34363675 -0.09775429 0.015754411 0.027732974 -0.15916003 0.13611723 -0.0003940397 0.0824433
00000000: 0b5c 5c3d a491 4fbd f391 b5bc 71a7 3e3d
00000010: 8023 12bd a7c7 973e 76b4 b7be 9735 123e
00000020: 6b74 b73d 7b28 5f3d 4b69 87be 809a 68bd
00000030: f5dd e2bc 790f 2ebe 5181 923e 82bb 16be
00000040: 4426 46bd d29a 043e cf30 81be a816 0f3d
00000050: 6bda 96be e83d 3a3e 0832 703d 4577 59bd
00000060: 28f1 afbe 6733 c8bd 650f 813c 4330 e33c
00000070: d9fa 22be 5162 0b3e 1d97 ceb9 08d8 a83d

encoder.lob_enc.res_blocks.0.bn2.running_var f4 [32]
0.051977877 0.039761122 0.18099691 0.14049102 0.08866672 0.20770513 0.1655441 0.23745756
0.13463074 0.099451564 0.20871986 0.029467952 0.074536584 0.05012253 0.094630435 0.17721738
0.091353215 0.13439207 0.17319366 0.3706493 0.22124323 0.20385134 0.28225875 0.20385146
0.120297484 0.0718694 0.0972898 0.32550076 0.16581437 0.50629264 0.061391853 0.14678904
00000000: c1e6 543d 8fdc 223d 4157 393e e1dc 0f3e
00000010: e696 b53d a7b0 543e 6484 293e 1328 733e
00000020: a4dc 093e 43ad cb3d a9ba 553e c666 f13c
00000030: a3a6 983d 484d 4d3d 9acd c13d 7978 353e
00000040: 6517 bb3d 139e 093e ae59 313e bfc5 bd3e
00000050: 968d 623e 68be 503e 3884 903e 70be 503e
00000060: 875e f63d 4430 933d e03f c73d 09a8 a63e
00000070: 3ecb 293e 659c 013f 0676 7b3d de4f 163e

encoder.lob_enc.res_blocks.1.conv1.weight f4 [32, 32, 3, 1]
-0.09490245 0.017030714 0.042720065 -0.027971502 -0.06901201 0.0788799 0.025343403 0.054922856
0.09495079 -0.08886132 0.07202268 -0.039143324 0.04213091 0.06840152 0.0751006 0.034335162
0.012945946 0.0032192694 -0.027805366 0.054063987 0.096749835 0.0052687754 -0.08194976 -0.019610258
-0.03399267 0.050243687 -0.07903495 -0.0303683 -0.045646716 -0.07799679 -0.05257029 0.06495101
0.03214488 0.078680694 -0.005453715 0.054198585 0.0416609 0.06650785 -0.008554515 0.08103158
-0.0052380986 -0.030835131 0.040110335 0.03716858 -0.06585399 -0.034877278 -0.09282092 0.09457094
0.028379586 0.08256799 -0.08754389 0.10065976 0.09715817 0.09513884 -0.0695341 0.09807648
-0.08606667 -0.075292975 -0.03574135 0.10106495 -0.028395535 0.03765498 -0.016111493 0.05321014
0.050785165 0.08560563 0.05741595 0.08483758 0.092148304 0.036226805 0.05982586 0.08555277
0.0472522 -0.03215559 0.07544757 0.021347538 0.06663074 -0.027656054 -0.09560271 -0.06176222
-0.0067333765 -0.06741207 -0.04301877 0.051547486 0.036832333 -0.027665347 -0.0010798111 -0.09861668
-0.0030018839 0.00083169556 -0.05740912 0.09414479 -0.04953064 0.011640908 -0.064421274 0.020780304
-0.08565902 -0.010022178 0.034104463 0.076386 0.009058006 0.01202987 0.011235625 -0.055579808
0.020837748 -0.0966237 -0.04255232 -0.007020856 -0.034060054 0.043011226 -0.06946934 0.02764724
-0.06670908 -0.08881695 -0.015764993 -0.013389577 -0.04903824 0.097914286 -0.035522122 -0.024202095
0.0075606345 -0.041156862 0.01818087 0.09547875 -0.0027532803 -0.03982316 0.06460595 0.026365018
0.056874022 0.018628899 -0.052264746 -0.07534402 -0.043186136 -0.095043994 -0.0951096 0.05806194
-0.007300608 -0.0029123793 -0.082510054 0.048122507 0.07377484 0.07152821 -0.053864665 0.01553919
-0.055916104 0.043101892 0.051352706 -0.06311414 -0.084574856 -0.08354227 0.035844225 0.017042821
0.06280861 -0.023585526 0.07191365 0.085067704 -0.0704358 -0.00980861 0.020794224 0.064199336
-0.09551475 0.045257583 -0.0038746581 0.06401192 -0.10125975 0.072585 0.07018052 0.0009053216
-0.029643368 0.050916683 -0.02655943 -0.028563209 -0.06418274 0.09009945 0.06039085 0.008090061
-0.0013720216 -0.07163166 0.07642382 0.037810586 0.034343194 0.042622562 -0.08407048 -0.039837427
0.06460031 -0.038232423 0.08620879 -0.06975024 0.07491096 0.10800972 -0.08203683 0.080145545
0.017151276 0.039590504 -0.040391725 0.06545999 0.012252322 -0.083233245 0.095328376 -0.00016182977
-0.017915403 0.023177544 0.010982364 -0.09593164 0.090437345 -0.021292081 0.020120064 -0.027376303
-0.102890916 -0.095395304 -0.03510748 -0.032316037 0.086536065 0.013873368 0.10365459 0.083108
0.007999196 -0.03959972 -0.0006984393 -0.04604603 -0.11067951 0.018067796 0.028438762 -0.045046814
0.08194448 -0.002165828 -0.019248944 -0.033156127 0.09188198 0.04969492 -0.07636935 -0.08727251
-0.09379709 0.084667094 0.075363085 0.042815812 0.041793115 -0.07955403 0.06387367 -0.017845862
-0.012544719 0.0025050645 -0.03890183 0.088214956 0.006437509 0.06268309 -0.06187329 -0.088524885
-0.029800422 0.022593541 -0.07859592 -0.0627416 0.022572313 0.08837252 0.07652356 0.090145655
00000000: 375c c2bd ff83 8b3c 3cfb 2e3d 7e24 e5bc
00000010: 2b56 8dbd c98b a13d f89c cf3c caf6 603d
00000020: 8f75 c23d ecfc b5bd a080 933d c054 20bd
00000030: 7691 2c3d 1916 8c3d 58ce 993d 07a3 0c3d
00000040: 3c1b 543c 61fa 523b 14c8 e3bc 3372 5d3d
00000050: c724 c63d b1a5 ac3b 47d5 a7bd b1a5 a0bc
00000060: e63b 0bbd 53cc 4d3d 13dd a1bd f1c6 f8bc
00000070: 0df8 3abd c8bc 9fbd f253 57bd 0905 853d
00000080: 5aaa 033d 5823 a13d 14b5 b2bb 56ff 5d3d
00000090: 9fa4 2a3d 4535 883d 3d28 0cbc e3f3 a53d
000000a0: 5ba4 abbb f599 fcbc bc4a 243d 153e 183d
000000b0: 75de 86bd 7adb 0ebd e518 bebd 69ae c13d
000000c0: 4e7c e83c 6819 a93d 364a b3bd b426 ce3d
000000d0: ddfa c63d 27d8 c23d e567 8ebd 52dc c83d
000000e0: b943 b0bd 3433 9abd 8665 12bd 24fb ce3d
000000f0: c19d e8bc 1c3c 1a3d 40fc 83bc e0f2 593d
00000100: 1b04 503d 0152 af3d fd2c 6b3d 53bf ad3d
00000110: 40b8 bc3d 8f62 143d f60b 753d 4a36 af3d
00000120: 868b 413d 94b5 03bd 4184 9a3d 08e1 ae3c
00000130: b375 883d f38e e2bc 5bcb c3bd 62fa 7cbd
00000140: a8a3 dcbb 570f 8abd 7334 30bd 7523 533d
00000150: 80dd 163d 70a2 e2bc 7388 8dba 8bf7 c9bd
00000160: 41bb 44bb 2506 5a3a d325 6bbd fcce c03d
00000170: a4e0 4abd 82b9 3e3c 4def 83bd 753b aa3c
00000180: ff6d afbd 1034 24bc 1fb1 0b3d 4370 9c3d
00000190: 0868 143c ef18 453c a015 383c a7a7 63bd
000001a0: edb3 aa3c a5e2 c5bd 574b 2ebd 350f e6bb
000001b0: 8e82 0bbd 8a2c 303d f145 8ebd 777c e23c
000001c0: c59e 88bd a9e5 b5bd 9625 81bc f55f 5bbc
000001d0: 52dc 48bd 4987 c83d a57f 11bd 7943 c6bc
000001e0: 33bf f73b 1994 28bd 0cf0 943c 5d8a c33d
000001f0: 6170 34bb 9c1d 23bd 2050 843d 73fb d73c
00000200: bcf4 683d a29b 983c 8f13 56bd f74d 9abd
00000210: f2e3 30bd 6da6 c2bd d2c8 c2bd 5bd2 6d3d
00000220: f039 efbb 9edd 3ebb 08fb a8bd 1b1c 453d
00000230: 4317 973d 627d 923d 32a1 5cbd 1698 7e3c
00000240: 4908 65bd 9c8b 303d 3757 523d fc41 81bd
00000250: 9535 adbd 3618 abbd 65d1 123d 639d 8b3c
00000260: cda1 803d 6f36 c1bc 7747 933d fa37 ae3d
00000270: a540 90bd 4bb4 20bc a658 aa3c f17a 833d
00000280: 3d9d c3bd 0460 393d faed 7dbb ae18 833d
00000290: 4661 cfbd 72a7 943d ceba 8f3d 1b53 6d3a
000002a0: a6d6 f2bc 038e 503d 2993 d9bc 64fd e9bc
000002b0: 3e72 83bd 0f86 b83d 655c 773d 2d8c 043c
000002c0: 68d5 b3ba 9fb3 92bd 1784 9c3d 46df 1a3d
000002d0: 73ab 0c3d ff94 2e3d 252d acbd 922c 23bd
000002e0: 2b4d 843d 9a99 1cbd 3c8e b03d 37d9 8ebd
000002f0: eb6a 993d 3334 dd3d ed02 a8bd 5923 a43d
00000300: d580 8c3c a729 223d cb71 25bd e30f 863d
00000310: f7bd 483c 3176 aabd 863b c33d d9b0 29b9
00000320: 53c3 92bc d5de bd3c 60ef 333c cf77 c4bd
00000330: 3737 b93d bb6c aebc d5d2 a43c 4544 e0bc
00000340: 79b8 d2bd 9d5e c3bd dccc 0fbd d25d 04bd
00000350: d239 b13d 1f4d 633c dc48 d43d 8734 aa3d
00000360: 0f0f 033c 5133 22bd 7817 37ba c39a 3cbd
00000370: f0ab e2bd ea02 943c 68f8 e83c 0283 38bd
00000380: 82d2 a73d 90f0 0dbb f6af 9dbc b8ce 07bd
00000390: 9f2c bc3d e78c 4b3d 8967 9cbd eebb b2bd
000003a0: b018 c0bd f165 ad3d f657 9a3d a25f 2f3d
000003b0: 422f 2b3d 39ed a2bd 33d0 823d 7c31 92bc
000003c0: 5d88 4dbc 022c 243b 8657 1fbd 0baa b43d
000003d0: bdf1 d23b fe5f 803d d96e 7dbd 894c b5bd
000003e0: 0420 f4bc 1716 b93c e6f6 a0bd ab7e 80bd
000003f0: 92e9 b83c a7fc b43d 62b8 9c3d 499e b83d

encoder.lob_enc.res_blocks.1.conv1.bias f4 [32]
0.004137056 0.019966152 0.055619642 -0.010357416 0.037359443 0.00477817 -0.088962466 -0.045802012
-0.08904421 0.03458915 -0.023370188 -0.11987629 0.047143865 0.014592716 -0.04061103 -0.11497141
-0.090285674 -0.13989991 -0.11691151 0.054436922 -0.051466115 0.050306026 0.009676166 0.0422125
-0.0010512056 -0.10416138 0.046281397 -0.1322093 -0.021335436 -0.019797293 0.022277866 -0.11813069
00000000: 2490 873b 0e90 a33c 6cd1 633d 27b2 29bc
00000010: 3706 193d 3292 9c3b f431 b6bd e49a 3bbd
00000020: d05c b6bd 5aad 0d3d d672 bfbc b381 f5bd
00000030: ed19 413d 4916 6f3c c057 26bd 2176 ebbd
00000040: b2e7 b8bd ec41 0fbe 4d6f efbd 40f9 5e3d
00000050: 22ce 52bd b10d 4e3d c888 1e3c 04e7 2c3d
00000060: 9bc8 89ba 9052 d5bd 9091 3d3d e061 07be
00000070: a7c7 aebc ef2d a2bc 1280 b63c 81ee f1bd

encoder.lob_enc.res_blocks.1.bn1.weight f4 [32]
0.9926421 1.0018188 0.99360406 1.0020883 1.0097573 0.9955454 0.9920363 0.99348706
0.99444616 0.98869264 1.0120634 1.009235 1.0003706 1.0127136 1.0009072 0.9971231
1.0084586 1.0014615 1.0101709 0.9967046 0.9939224 1.0012772 0.99946016 0.9957447
1.010681 1.0007521 0.9960617 1.0022651 0.9897994 0.99486524 0.9943972 1.0093944
00000000: cb1d 7e3f 993b 803f d65c 7e3f 6e44 803f
00000010: ba3f 813f 10dc 7e3f 17f6 7d3f 2b55 7e3f
00000020: 0694 7e3f f61a 7d3f 4b8b 813f 9d2e 813f
00000030: 250c 803f 99a0 813f ba1d 803f 7643 7f3f
00000040: 2c15 813f e42f 803f 484d 813f 0828 7f3f
00000050: b371 7e3f da29 803f 9fdc 7f3f 20e9 7e3f
00000060: ff5d 813f a518 803f e6fd 7e3f 394a 803f
00000070: 7e63 7d3f 7daf 7e3f d190 7e3f d633 813f

encoder.lob_enc.res_blocks.1.bn1.bias f4 [32]
-0.0068455758 0.005981859 -0.00065946305 -0.0014177045 0.012307973 -0.009830885 -0.0026802926 -0.0049218438
0.0052377246 -0.00948844 0.009764999 0.0067778355 0.010913096 0.010403817 0.0043400624 -0.011257786
0.0071873157 -0.00084199733 0.003874925 0.013877755 0.0076605743 0.012369108 0.005785166 -0.00055996067
0.009856647 -0.0026311046 0.009491348 0.005964186 -0.011567372 0.0038148426 -0.0052523827 0.006200158
00000000: da50 e0bb 7803 c43b d1df 2cba 45d2 b9ba
00000010: 61a7 493c b811 21bc d9a7 2fbb 6b47 a1bb
00000020: 38a1 ab3b 6775 1bbc 60fd 1f3c 9b18 de3b
00000030: d8cc 323c c574 2a3c 1537 8e3b 9472 38bc
00000040: 9383 eb3b 7cb9 5cba 74f2 7d3b 865f 633c
00000050: 8e05 fb3b cda7 4a3c 7d91 bd3b 53ca 12ba
00000060: c67d 213c 9c6e 2cbb 9981 1b3c 386f c33b
00000070: 1385 3dbc 7002 7a3b 2e1c acbb b22a cb3b

encoder.lob_enc.res_blocks.1.bn1.running_mean f4 [32]
0.4965532 -0.02734552 0.01768267 -0.55095446 -0.1817409 -0.093351066 -0.35058358 0.6931522
-0.044401173 -0.37604395 -0.41615677 -0.81403023 -0.6911256 -0.57201546 0.77659875 -0.3111415
-0.7930393 -0.43509373 -0.86291957 -0.54684395 -0.2773601 -0.1854674 -0.14897601 0.43819365
-0.5885594 -0.2119 0.3793336 -0.44305837 -0.14720854 -0.2100603 -0.023142999 -0.36537597
00000000: 393c fe3e b603 e0bc 3fdb 903c 5a0b 0dbf
00000010: 491a 3abe d82e bfbd b17f b3be 6c72 313f
00000020: 01de 35bd d588 c0be 8012 d5be 4964 50bf
00000030: 9bed 30bf 9b6f 12bf 2dcf 463f f04d 9fbe
00000040: a004 4bbf 9bc4 debe 4ce8 5cbf f7fd 0bbf
00000050: 2502 8ebe 2beb 3dbe 2b8d 18be eb5a e03e
00000060: d4ab 16bf 50fc 58be 0338 c23e 8cd8 e2be
00000070: d6bd 16be 0c1a 57be 6396 bdbc 8f12 bbbe

encoder.lob_enc.res_blocks.1.bn1.running_var f4 [32]
0.5433471 0.3491878 0.30631545 0.13152486 0.40172753 0.23916337 0.09076579 0.49307126
0.47633317 0.40594637 0.15377259 0.13891536 0.20813502 0.1245018 0.43084106 0.08293913
0.24479479 0.2512866 0.15004423 0.1453549 0.16502692 0.7409502 0.21550101 0.7340218
0.2904806 0.4202299 0.765842 0.26717052 0.29922655 0.37294236 0.29690713 0.21899293
00000000: cc18 0b3f bec8 b23e 61d5 9c3e 74ae 063e
00000010: 3baf cd3e 3ee7 743e 6ae3 b93d d673 fc3e
00000020: f1e1 f33e 34d8 cf3e 9076 1d3e d43f 0e3e
00000030: 5921 553e cdfa fe3d 3397 dc3e fedb a93d
00000040: 7cab 7a3e a3a8 803e 32a5 193e ead7 143e
00000050: d1fc 283e eaae 3d3f 4cac 5c3e dae8 3b3f
00000060: e0b9 943e 6028 d73e 390e 443f 93ca 883e
00000070: 3934 993e 4df2 be3e 3604 983e af3f 603e

encoder.lob_enc.res_blocks.1.conv2.weight f4 [32, 32, 3, 1]
0.03640672 0.0121498965 -0.074060656 0.0075547816 -0.017756574 0.07333218 -0.104478106 0.003920516
0.092896126 -0.073453814 0.0945048 -0.027708413 0.08860211 -0.013295492 0.079291746 -0.09313174
0.035599325 -0.053243093 0.036742173 -0.09130256 -0.03837679 0.0044496874 -0.07494538 0.059739187
-0.05002813 -0.019307306 -0.014504316 0.04738672 -0.042012524 0.029840399 -0.040362276 0.017664263
-0.08242832 -0.029422445 -0.08438586 -0.079406604 0.08425798 -0.10313507 0.04116855 -0.041975886
0.09796199 -0.035461575 -0.039578978 0.041699752 -0.06930755 -0.06200433 -0.082675494 0.07563739
0.08468316 -0.05871163 0.06750264 -0.09956304 0.053174555 -0.1084175 0.11607024 -0.030498225
-0.039662708 0.028356073 -0.07909955 0.07964994 -0.022511167 0.0441648 0.05902828 0.037728127
-0.036590543 0.022701865 -0.10799589 -0.06876445 -0.10171635 -0.009670076 -0.057135098 -0.07404803
-0.039224066 -0.07323962 0.035488002 -0.024081267 0.09374027 0.060845803 -0.026564784 -0.012605495
-0.09612764 0.043414015 -0.0018060771 0.07894218 -0.09797046 0.003555409 -0.055547427 -0.06033944
-0.006687723 0.044731244 0.045663852 -0.043037 -0.0718858 0.032445557 -0.07439602 -0.00512429
0.09775342 -0.0896797 -0.050264485 0.0070573613 -0.03755729 0.0029656785 0.057770465 0.0023822398
0.06085348 -0.08181865 -0.08629525 -0.09455973 0.01513234 -0.06828813 0.07709565 0.049437888
0.03194431 -0.01280181 -0.076636806 0.017225455 -0.08497453 -0.09573319 -0.04876051 -0.046479117
-0.075104706 0.011091806 -0.09679449 0.095677264 -0.0352489 -0.0098205805 0.010045719 0.096701704
0.043278236 0.064620495 -0.020045554 -0.010946352 -0.015322723 0.06527084 0.047505684 0.06967588
0.06213325 -0.095870204 -0.04908186 0.04839312 0.034082014 -0.08642103 0.070665866 -6.961597e-05
0.03241714 0.011557887 -0.06337548 0.044402838 0.018992301 0.08633321 0.09629295 -0.049119413
-0.009798492 -0.08273993 0.03216215 -0.070873305 0.047921367 -0.07089454 0.09505198 0.07079504
-0.090108044 -0.007623408 0.025114879 -0.016667852 -0.07004708 -0.03360432 -0.07170604 -0.022564013
0.090257 -0.050665364 0.039276388 0.010179236 0.03624204 0.054814074 -0.002838996 0.0018307267
-0.03984449 0.083901465 0.03953925 0.037441064 -0.0070949346 -0.07068643 -0.08935693 0.0428489
0.019701052 0.07257174 0.08044119 -0.0037377474 0.06302202 -0.032362573 -0.08360258 0.018746339
-0.044253256 0.081093736 0.08803874 -0.056568652 0.00051554374 0.020663803 -0.09478686 0.032945562
0.022568952 0.013757054 -0.03912878 0.07475862 -0.07436718 0.043444056 0.011650865 -0.09298084
0.012346142 -0.041430105 -0.055497143 -0.037450146 0.06262815 0.006436594 -0.050375197 -0.003607067
-0.01399602 0.0155324135 -0.0025572062 -0.049386043 0.058711838 -0.023768673 0.039235048 0.048613787
0.0819018 0.026442498 0.053799897 0.014633976 -0.009001696 0.08853529 -0.07122579 -0.057266556
-0.066374026 0.0270278 0.062006872 -0.11467196 -0.056278367 -0.07072835 0.004622359 0.00070004654
-0.016386805 -0.0129713835 -0.080980055 0.07360929 -0.060059022 -0.011172652 -0.009885103 -0.0006792281
0.09599159 -0.06261903 -0.020895652 0.0600167 0.06368753 -0.054681703 0.04941223 0.08190697
00000000: 361f 153d 5c10 473c 1dad 97bd 1a8e f73b
00000010: 3c76 91bc 2f2f 963d 9ef8 d5bd ac77 803b
00000020: 5340 be3d f46e 96bd bc8b c13d c1fc e2bc
00000030: 0675 b53d 56d5 59bc b663 a23d dbbb bebd
00000040: 99d0 113d 6e15 5abd f67e 163d d6fc babd
00000050: fb30 1dbd afce 913b f77c 99bd 14b1 743d
00000060: 4cea 4cbd 5b2a 9ebc 83a3 6dbc 9418 423d
00000070: 5315 2cbd da73 f43c ea52 25bd a5b4 903c
00000080: 2ed0 a8bd 5707 f1bc 7ed2 acbd ee9f a2bd
00000090: 738f ac3d 7b38 d3bd 5aa0 283d e8ee 2bbd
000000a0: 4ca0 c83d 2840 11bd 911d 22bd 5ccd 2a3d
000000b0: 1ef1 8dbd 41f8 7dbd c551 a9bd c7e7 9a3d
000000c0: 5d6e ad3d 9b7b 70bd d33e 8a3d b5e7 cbbd
000000d0: 90cd 593d ff09 debd 3cb6 ed3d 6ad7 f9bc
000000e0: 5d75 22bd ff4a e83c f2fe a1bd 821f a33d
000000f0: 5769 b8bc 26e6 343d a3c7 713d cf88 1a3d
00000100: f7df 15bd 43f9 b93c f32c ddbd 60d4 8cbd
00000110: a950 d0bd 3d6f 1ebc 7e06 6abd 7ea6 97bd
00000120: 6aa9 20bd a7fe 95bd de5b 113d 1446 c5bc
00000130: e6fa bf3d 7339 793d 649e d9bc 4787 4ebc
00000140: 91de c4bd e5d2 313d e4b9 ecba 70ac a13d
00000150: bda4 c8bd dd01 693b b385 63bd 7d26 77bd
00000160: b024 dbbb 1c38 373d 050a 3b3d 9147 30bd
00000170: dd38 93bd a2e5 043d f15c 98bd a9e9 a7bb
00000180: f232 c83d fea9 b7bd 22e2 4dbd 7041 e73b
00000190: acd5 19bd d45b 423b b9a0 6c3d 5a1f 1c3b
000001a0: 8041 793d 8990 a7bd 90bb b0bd 88a8 c1bd
000001b0: a2ed 773c a6da 8bbd 53e4 9d3d 627f 4a3d
000001c0: 09d8 023d afbe 51bc c2f3 9cbd 661c 8d3c
000001d0: 2007 aebd c30f c4bd 1ab9 47bd e360 3ebd
000001e0: 7fd0 99bd 68ba 353c 313c c6bd 71f2 c33d
000001f0: 2761 10bd 80e6 20bc cd96 243c 8b0b c63d
00000200: 8544 313d c057 843d 9336 a4bc 5458 33bc
00000210: 290c 7bbc b8ac 853d 5295 423d 3ab2 8e3d
00000220: 6f7f 7e3d 9957 c4bd 0f0a 49bd dd37 463d
00000230: 9599 0b3d 82fd b0bd 44b9 903d cafe 91b8
00000240: d6c7 043d 4b5d 3d3c 01cb 81bd c0df 353d
00000250: be95 9b3c 77cf b03d 3d35 c53d 7031 49bd
00000260: db89 20bc 8d73 a9bd 75bc 033d 0626 91bd
00000270: 3249 443d 2831 91bd 9daa c23d fdfc 903d
00000280: 918a b8bd c8cd f9bb b8bd cd3c 058b 88bc
00000290: d874 8fbd afa4 09bd 9eda 92bd 2ad8 b8bc
000002a0: a9d8 b83d 7c86 4fbd 47e0 203d cfc6 263c
000002b0: 8972 143d b984 603d 730e 3abb fff4 ef3a
000002c0: fa33 23bd 88d4 ab3d e9f3 213d cd5b 193d
000002d0: a07c e8bb 0cc4 90bd c400 b7bd 5482 2f3d
000002e0: 1a64 a13c 7ea0 943d 5abe a43d fff4 74bb
000002f0: b011 813d 9e8e 04bd d437 abbd ec91 993c
00000300: e742 35bd 7914 a63d a84d b43d 88b4 67bd
00000310: 8e25 073a 2347 a93c 9d1f c2bd edf1 063d
00000320: 86e2 b83c 4465 613c 8045 20bd 0c1b 993d
00000330: d24d 98bd 65f2 313d 45e3 3e3c bd6c bebd
00000340: 7947 4a3c 9db2 29bd f950 63bd 5365 19bd
00000350: 3043 803d 10ea d23b 3956 4ebd 8b64 6cbb
00000360: 904f 65bc aa7b 7e3c cd96 27bb 0549 4abd
00000370: d37b 703d 85b6 c2bc eeb4 203d 401f 473d
00000380: 22bc a73d f09d d83c 485d 5c3d 58c3 6f3c
00000390: d97b 13bc fd51 b53d d4de 91bd 5690 6abd
000003a0: 1bef 87bd 6869 dd3c ebfa 7d3d 22d9 eabd
000003b0: 2584 66bd 06da 90bd 2877 973b 5483 373a
000003c0: 9f3d 86bc ed85 54bc dfd8 a5bd 78c0 963d
000003d0: 7300 76bd 800d 37bc 21f5 21bc 3a0e 32ba
000003e0: 3d97 c43d 683e 80bd 5c2d abbc 12d4 753d
000003f0: 9c6e 823d ecf9 5fbd 7a64 4a3d d7be a73d

encoder.lob_enc.res_blocks.1.conv2.bias f4 [32]
-0.0060323146 -0.002481713 -0.03904536 0.017705258 -0.102376975 -0.05083703 -0.07260349 0.0132912565
-0.10775301 0.00065013795 -0.086375415 0.024480227 -0.042871688 -0.026847633 -0.009320963 -0.006404178
-0.0017125185 0.02261819 -0.072651416 -0.08845085 -0.0027843148 -0.13819875 -0.015709957 0.010041832
0.030490948 0.030702176 -0.093633235 -0.11602751 -0.0714609 -0.12440698 -0.031804927 0.011843824
00000000: b9aa c5bb 3ca4 22bb 07ee 1fbd 9e0a 913c
00000010: 05ab d1bd 7d3a 50bd 23b1 94bd 92c3 593c
00000020: 9cad dcbd 056e 2a3a 98e5 b0bd c28a c83c
00000030: 399a 2fbd 91ef dbbc f4b6 18bc 24da d1bb
00000040: 9676 e0ba c849 b93c 44ca 94bd b825 b5bd
00000050: 0d79 36bb f983 0dbe 2bb2 80bc 7f86 243c
00000060: 27c8 f93c 2183 fb3c c8c2 bfbd d59f edbd
00000070: 185a 92bd 16c9 febd e245 02bd 990c 423c

encoder.lob_enc.res_blocks.1.bn2.weight f4 [32]
1.0081844 1.0004904 1.0098488 0.99606514 1.0085051 1.0061603 1.0087909 1.007844
1.0087115 1.0066845 0.99725574 0.9975248 1.0085037 1.0054203 0.9896215 1.0053879
1.005133 1.0001986 1.0045669 1.0004739 1.0016509 1.0086657 0.9992137 1.0082949
1.0149381 1.0044622 1.00797 1.0085164 1.007068 0.98987657 1.0093752 1.008397
00000000: 300c 813f 1210 803f ba42 813f 20fe 7e3f
00000010: b216 813f dcc9 803f 0f20 813f 0801 813f
00000020: 751d 813f 0adb 803f 274c 7f3f c95d 7f3f
00000030: a616 813f 9db1 803f d657 7d3f 8db0 803f
00000040: 33a8 803f 8206 803f a695 803f 870f 803f
00000050: 1936 803f f51b 813f 78cc 7f3f cf0f 813f
00000060: 7ee9 813f 3892 803f 2905 813f 1117 813f
00000070: 9be7 803f 8d68 7d3f 3533 813f 2713 813f

encoder.lob_enc.res_blocks.1.bn2.bias f4 [32]
0.008645678 0.000834805 0.010163435 -0.0057160743 0.009050108 0.007412711 0.009740782 0.009146389
0.009519284 0.009060808 -0.0030420518 0.00040661983 0.008008301 0.005141096 -0.010042228 0.007443013
0.006605378 0.00090286176 0.009395513 0.00043240594 3.4888446e-05 0.009769534 -0.0027895248 0.008858002
0.009710103 0.0037843566 0.009760719 0.008879218 0.009367855 -0.00935067 0.009490901 0.009718121
00000000: 9aa6 0d3c d1d6 5a3a 8984 263c e84d bbbb
00000010: e746 143c 54e6 f23b cd97 1f3c bcda 153c
00000020: c5f6 1b3c c973 143c 295d 47bb 972f d539
00000030: 4035 033c a476 a83b 2888 24bc 85e4 f33b
00000040: ed71 d83b 07ae 6c3a a3ef 193c 8bb4 e239
00000050: 2f55 1238 6510 203c 76d0 36bb 2721 113c
00000060: 2017 1f3c f802 783b 6ceb 1f3c 247a 113c
00000070: a27b 193c 8d33 19bc b97f 1b3c c138 1f3c

encoder.lob_enc.res_blocks.1.bn2.running_mean f4 [32]
-0.36804497 0.036305387 -0.14588082 0.00021749464 0.007634018 0.11842499 -0.14372751 0.008850624
0.1388756 -0.22162476 0.114552364 -0.08878913 -0.20214842 -0.021146731 -0.23921968 0.13336015
-0.055370733 0.22153842 -0.0057455986 -0.17542861 0.24233027 0.006013208 -0.35287318 -0.11660859
-0.43906778 -0.00548294 -0.2832983 0.037982676 -0.104576156 -0.2520437 -0.39270923 0.29810905
00000000: 6470 bcbe f5b4 143d c861 15be 460f 6439
00000010: c926 fa3b cd88 f23d 4e2d 13be 3502 113c
00000020: 6835 0e3e 9af1 62be 6e9a ea3d 13d7 b5bd
00000030: ffff 4ebe e93b adbc 01f6 74be 908f 083e
00000040: 6ccc 62bd f8da 623e 9345 bcbb 8fa3 33be
00000050: 6d25 783e 720a c53b cbab b4be 7cd0 eebd
00000060: 7ecd e0be 3caa b3bb 7a0c 91be b993 1b3d
00000070: 062c d6bd df0b 81be 2f11 c9be c0a1 983e

encoder.lob_enc.res_blocks.1.bn2.running_var f4 [32]
0.20559992 0.19560489 0.055076793 0.11020894 0.50173235 0.118880644 0.14108407 0.112773046
0.10505394 0.068405315 0.13152319 0.043352894 0.08380641 0.08236208 0.06311331 0.104280405
0.041967396 0.11514833 0.06908068 0.08358979 0.121175565 0.100368656 0.34098285 0.23920634
0.06686012 0.08693581 0.16189061 0.16364682 0.07285948 0.10879898 0.1505813 0.09538921
00000000: c988 523e a64c 483e 3498 613d 3ab5 e13d
00000010: 8871 003f b277 f33d 5878 103e 8ef5 e63d
00000020: 8526 d73d 1618 8c3d 04ae 063e ce92 313d
00000030: b2a2 ab3d 73ad a83d 8d41 813d f790 d53d
00000040: 01e6 2b3d e3d2 eb3d 2c7a 8d3d 2031 ab3d
00000050: e52a f83d 158e cd3d 4e95 ae3e 82f2 743e
00000060: f5ed 883d 670b b23d a7c6 253e 0893 273e
00000070: 5a37 953d 00d2 de3d fc31 1a3e 6b5b c33d
