outputs/performance_test/checkpoint_epoch_48.pt (torch, 945914 bytes, 81 tensors)

encoder.lob_enc.conv_in.0.weight f4 [32, 2, 3, 1]
000000 91 1c d3 bd 9b 9a a1 3e 23 61 77 be c7 b8 6b bd
       -0.10308183 0.31563267 -0.24158148 -0.057549264
000010 f3 1e 38 3b d2 08 55 be 67 46 79 3c 15 3f c0 bd
       0.002809462 -0.20804146 0.015214539 -0.09387032
000020 3f 35 4d be a1 7e a5 be 4f b8 b1 bb 54 72 c0 3e
       -0.20039843 -0.32323173 -0.0054235826 0.37587225
000030 d8 14 25 3e 56 cf 9d be cf c6 52 be 15 02 8b 3e
       0.16121233 -0.30822247 -0.20583652 0.27150026
000040 e6 f0 18 be ea 5f 13 bd 89 46 37 be a8 93 51 3e
       -0.14935645 -0.035980143 -0.17898001 0.20466483
000050 40 d6 89 be 59 1c c7 be a5 b6 af be a2 2b b2 be
       -0.26921272 -0.38888815 -0.34319034 -0.34798914
000060 22 18 65 3d f7 42 a7 3d 4a 74 05 be c4 e0 0e 3e
       0.055931218 0.081670694 -0.13032642 0.13952929
000070 9f 42 3b 3d 6b 89 b9 3d 5d 1e 51 3e 50 d9 b9 3d
       0.04571783 0.090594135 0.20421739 0.09074652
000080 11 e3 c5 3e dd a4 a2 3e 72 c7 5e be 1e 72 9c 3e
       0.386498 0.31766406 -0.2175577 0.30555815
000090 45 13 41 bd af 34 c0 bc f3 e8 12 3d 0f 62 b9 be
       -0.047137517 -0.023462621 0.03586669 -0.36207625
0000a0 ae 5b 87 3e 7d 31 85 3e 49 12 c7 3e 98 1e 91 3d
       0.26437134 0.2601432 0.38881138 0.070859134
0000b0 38 39 ec bd e9 0b 8a bd 5b b2 10 be 21 f9 c0 be
       -0.11534351 -0.06740553 -0.14130537 -0.3769007
0000c0 20 10 16 3e 49 00 7e 3d 8e 49 f0 bd 41 b8 6f be
       0.14654589 0.06201199 -0.117327794 -0.23410131
0000d0 1c d6 b8 bd ed 2d f3 3d d6 d2 9d 3e b0 94 4c 3e
       -0.09025213 0.11873994 0.30824918 0.19978595
0000e0 fe 51 98 3e 57 c6 a6 3e 9e ba 3e be c6 a7 7f bc
       0.29750055 0.32573196 -0.18625876 -0.015603965
0000f0 9c dd ab be 6b f8 67 be 2c 8f 2e 3e 1f 5c 20 3e
       -0.33567512 -0.22653358 0.17046803 0.15660141
000100 99 c6 3e 3e 1d 48 b7 3e 1f a4 27 3e 4f ba 4d be
       0.18630446 0.35797206 0.16371201 -0.20090602
000110 41 60 b9 bd 96 60 ef 3c 73 7a 51 3e a5 79 5b be
       -0.09051562 0.02922086 0.20456867 -0.21433122
000120 7f c6 24 be 8e 6b 14 3e 65 f6 1c 3e 33 4e cc 3e
       -0.16091345 0.14494154 0.15328367 0.3990341
000130 54 45 b5 3e 95 d4 2f be b9 6a 1b 3e fc 7f 6e be
       0.35404456 -0.17170937 0.1517743 -0.2329101
000140 54 e0 4c bb 52 eb 92 bc 50 d9 dd 3d 36 f0 c1 3e
       -0.003126164 -0.017934475 0.10832465 0.3787858
000150 90 bf a9 be 96 3d b9 3e 1b 1d 8b 3e f9 fd 58 be
       -0.33153963 0.361798 0.27170643 -0.21190633
000160 2f aa 00 be bf e6 d3 bd e5 68 7a 3e 7e 76 f2 bd
       -0.1256492 -0.10346746 0.24454077 -0.11839007
000170 49 21 12 3e 94 82 2a be 09 83 ac 3e 98 9d 14 bd
       0.1427051 -0.16651374 0.33693722 -0.036283106
000180 1f 4d ce 3e ed da 96 be 0b 45 f1 bd 64 ae 87 3e
       0.40293214 -0.29463902 -0.11780747 0.26500237
000190 7f 79 11 3e 1e 2d 4a be 5f 4b b3 be ed eb 9e be
       0.14206503 -0.19743773 -0.3501844 -0.31039372
0001a0 d1 9a a9 be 74 e6 81 be 48 80 82 be f3 85 f7 bd
       -0.33125928 -0.25371134 -0.25488496 -0.12086096
0001b0 50 62 b5 3e e2 4d d7 bd 37 49 82 be 75 78 4e 3e
       0.3542657 -0.10512902 -0.25446483 0.20163138
0001c0 10 72 73 be af 61 50 be 70 42 5c bd 6a f7 a3 bc
       -0.2377398 -0.20349763 -0.053774297 -0.020015437
0001d0 b7 bf 8a be 12 28 a8 be 98 d1 d0 be 63 88 34 be
       -0.27099392 -0.3284307 -0.40784907 -0.17630152
0001e0 20 39 45 3e d6 04 f7 3c 80 64 a3 3e 3a 2c 55 3d
       0.19260073 0.030153673 0.31912613 0.05204413
0001f0 0a f7 a2 be b4 fb 85 3c 07 ad dc bd c0 8a 68 3e
       -0.318291 0.016355373 -0.1077519 0.22709179
000200 c9 7c cd 3d bf 30 d0 3e de 3a ba be af 7c 4f be
       0.100335665 0.4066219 -0.36373037 -0.20262407
000210 3f 1d ab be d1 91 39 3d 36 53 81 be 66 ba 24 be
       -0.3342075 0.045305077 -0.25258797 -0.1608673
000220 29 28 cd 3e 5c 23 0b be 48 e9 42 3e a4 3e 88 3e
       0.40069702 -0.13587707 0.19034302 0.2661029
000230 d4 b4 9a 3e 9f 73 a4 3e 8d c6 86 3e 20 2e 3c 3d
       0.30216086 0.32119462 0.26323357 0.045942426
000240 a8 a0 b3 3e 09 7e c7 3e 8b 20 8b be af ee b9 3d
       0.35083508 0.38963345 -0.27173266 0.090787284
000250 be 00 90 3e c1 02 8d be 4e 7a 46 3e dc 34 85 3e
       0.28125566 -0.27541164 0.19382593 0.2601689
000260 65 4e 01 bc 38 52 d6 bd 4e 45 12 bd f0 e0 a7 3e
       -0.007892226 -0.10464901 -0.035710625 0.327888
000270 f5 b2 ab be 6d 80 1e 3e 1a 50 6d be 67 43 87 3e
       -0.3353497 0.15478678 -0.23175088 0.2641861
000280 71 69 33 be af 01 a2 3d 40 c7 78 3e d5 f8 49 bd
       -0.17520691 0.07910477 0.24294758 -0.04930957
000290 9a d1 0f bd f2 1b b3 3e 02 84 ca 3e 50 8a 74 3e
       -0.035112 0.34982258 0.3955384 0.23880887
0002a0 2c fb c1 3c a1 35 25 bc 36 0e 7c be cd 9d 90 3e
       0.023679338 -0.010083587 -0.24614796 0.28245392
0002b0 c6 06 21 3e 41 52 ad 3e 13 99 8a be 17 0c bd 3d
       0.1572524 0.33851817 -0.2706991 0.092308216
0002c0 21 5a 9a 3d f2 f6 08 be 37 65 4a bd 47 9d 9e 3d
       0.07536722 -0.13375452 -0.049412932 0.07744842
0002d0 19 63 f2 bd f7 97 c4 3e 70 f4 bd be 17 c1 83 bd
       -0.11835308 0.3839719 -0.37100554 -0.06433313
0002e0 e9 7e 49 be 25 16 9b 3e 27 13 10 be bf 66 b7 bd
       -0.19677319 0.30290332 -0.14069806 -0.08955144
0002f0 d2 53 b7 3e a2 ef b2 be f9 fd 03 be 3b fd b6 3e
       0.35806137 -0.3494845 -0.12889852 0.35740075

encoder.lob_enc.conv_in.0.bias f4 [32]
000000 c3 db 92 3e ed 1b ee bd d1 51 9d bd 1c 3a 47 be
       0.2868329 -0.1162642 -0.07681621 -0.1945576
000010 4d 73 a5 3d b1 18 f5 3d c5 32 8d 3e 3d 7f 37 3e
       0.080786325 0.119676 0.27577797 0.17919631
000020 e5 db 52 3e 69 24 85 bd cb 60 95 be e5 d1 66 3e
       0.20591696 -0.06501085 -0.2917541 0.22541006
000030 89 57 e8 bb 76 c4 88 be 31 9c 15 3d 11 cf ce 3e
       -0.007090513 -0.26712388 0.03652591 0.40392354
000040 19 fa 0c bd df 99 ae be e1 76 7c 3e 71 6c 9b 3e
       -0.0344182 -0.3410177 0.24654724 0.30356172
000050 b9 91 85 be 00 d0 b6 be 94 8c 95 be 15 e0 2b 3e
       -0.2608774 -0.35705566 -0.29208815 0.167847
000060 ef 8f 2b be a8 51 cd be b9 fc ef bc 6b 64 54 be
       -0.16754125 -0.4010136 -0.029295312 -0.20741431
000070 95 7c f7 bd 62 fc 24 be f5 44 0c be c3 16 88 be
       -0.12084309 -0.16111901 -0.1369818 -0.26579866

encoder.lob_enc.conv_in.1.weight f4 [32]
000000 27 c5 80 3f b6 ab 80 3f 90 20 81 3f 10 88 80 3f
       1.0060166 1.0052402 1.0088062 1.0041523
000010 06 d0 7f 3f ae e3 7f 3f c7 a2 7e 3f 72 7c 81 3f
       0.99926794 0.99956787 0.9946713 1.0116103
000020 18 a0 80 3f a0 b1 80 3f be d8 79 3f fa e2 7d 3f
       1.0048857 1.0054207 0.9759635 0.99174464
000030 a7 54 80 3f c9 d5 7c 3f 8f f8 7e 3f 6c 1e 80 3f
       1.0025834 0.9876371 0.9959802 1.0009284
000040 c0 31 7d 3f 31 3a 81 3f 12 e0 80 3f b5 ab 7f 3f
       0.9890404 1.0095884 1.0068381 0.9987138
000050 25 85 7d 3f 87 e0 7d 3f 10 9f 80 3f 58 39 7e 3f
       0.9903129 0.99170727 1.0048542 0.9930625
000060 67 93 80 3f 26 03 7f 3f e1 7a 80 3f 11 32 81 3f
       1.0044984 0.9961418 1.00375 1.0093404
000070 aa 69 80 3f 04 7e 7e 3f 7f e4 82 3f 43 a6 80 3f
       1.0032246 0.99411035 1.0225981 1.0050739

encoder.lob_enc.conv_in.1.bias f4 [32]
000000 35 84 27 3b c3 5c 38 3a 22 50 e4 3b 1a 90 85 ba
       0.002556098 0.00070328655 0.0069675604 -0.001019004
000010 38 a6 9d bb bf a6 cc 3b 1d 2c 18 3c e9 ce 9f 3b
       -0.0048110746 0.0062454636 0.009287861 0.0048769605
000020 2e e2 8d 3b 8a a3 03 3c db e5 0a bc 6e 13 0d bb
       0.0043299412 0.008034596 -0.008477653 -0.0021526474
000030 68 33 0d bc 13 d5 10 3a bf 40 65 bb d3 17 52 3c
       -0.008618213 0.00055249146 -0.0034981219 0.012823063
000040 54 20 4f 3b 30 39 be 3b 69 9e 62 3b 2d 4b 96 ba
       0.0031604962 0.005805157 0.0034579283 -0.0011466496
000050 ac df dd 3b 13 26 8f ba 96 fc d2 ba 4e 5c 0c 3c
       0.0067710485 -0.0010921381 -0.0016097005 0.008566929
000060 32 9d 3b 3c 50 35 1e 3b d3 79 2e 3b cd cf 0d 3c
       0.0114510525 0.0024140663 0.0026622906 0.008655501
000070 ff 21 0f 3c ba e6 1a bc bb 41 83 3c 48 96 08 3c
       0.008736133 -0.009454424 0.016022554 0.008336611

encoder.lob_enc.conv_in.1.running_mean f4 [32]
000000 34 4f 45 cd 9d 8e 20 cd 85 f2 3c cd ac 09 64 ce
       -2.0689389e+08 -1.683563e+08 -1.9812565e+08 -9.564598e+08
000010 00 40 44 4d 79 86 3a 4e b0 0c b5 4c 1f 4a 27 cd
       2.0578304e+08 7.8234374e+08 9.492211e+07 -1.7541579e+08
000020 3e b0 9e cc b7 c0 1f 4e 9b 7f 54 4d cb f9 94 cc
       -8.319845e+07 6.700518e+08 2.2282078e+08 -7.81062e+07
000030 d9 03 fa 4d 56 af 83 4d ca 82 ba cc fa c7 8b 4d
       5.2431952e+08 2.7616326e+08 -9.778542e+07 2.9314234e+08
000040 6e ec 07 4d 14 24 8c ce f1 a8 2c cd d4 75 59 ce
       1.4252618e+08 -1.1755873e+09 -1.8104706e+08 -9.1209446e+08
000050 07 5f 45 4d 2f 0c 1e 4c 76 e0 93 cd b9 4a 70 4e
       2.069587e+08 4.1431228e+07 -3.1012013e+08 1.0078572e+09
000060 46 29 c6 4d 5a 17 db 4d ab ea 27 cd 5c 79 45 4e
       4.155742e+08 4.594676e+08 -1.7607339e+08 8.2826624e+08
000070 26 b1 bc 4d 1e 50 0f cd e9 08 26 cc 6f d5 01 4a
       3.9571578e+08 -1.5027453e+08 -4.3525028e+07 2.1271958e+06

encoder.lob_enc.conv_in.1.running_var f4 [32]
000000 34 eb 6e 5b 66 93 31 5b ad 60 79 5b e0 e0 6e 5d
       6.7249653e+16 4.9983137e+16 7.0193565e+16 1.07581275e+18
000010 06 b4 38 5b 65 fb 22 5d d6 c5 ef 5a 18 81 61 5b
       5.1989334e+16 7.340057e+17 3.3745021e+16 6.347381e+16
000020 d2 f7 37 5a 50 50 ef 5c 21 da 95 5b 0c 0d 8b 5a
       1.29456e+16 5.388866e+17 8.435921e+16 1.9569683e+16
000030 89 d0 93 5c ee e8 b3 5b 00 c1 13 5b 80 22 c1 5b
       3.3284887e+17 1.0128026e+17 4.1589027e+16 1.0872521e+17
000040 1e 9d 60 5b bb 21 b2 5d 66 23 87 5b 5a f5 56 5d
       6.3223147e+16 1.6044683e+18 7.6076086e+16 9.680866e+17
000050 84 7b 6b 5b ed b8 a9 5a de ec fb 5b 87 f9 82 5d
       6.6282426e+16 2.38863e+16 1.41821315e+17 1.1797154e+18
000060 f9 c0 5b 5c 40 8a 60 5c ae f6 2d 5b 53 c6 32 5d
       2.4742078e+17 2.5280961e+17 4.89664e+16 8.051297e+17
000070 11 36 2a 5c 31 91 07 5b 8a 14 a3 5a 8b 92 36 5b
       1.9164077e+17 3.815876e+16 2.2951502e+16 5.138957e+16

encoder.lob_enc.res_blocks.0.conv1.weight f4 [32, 32, 3, 1]
000000 f4 ec 2a bd 28 ec 9d bd 09 fa b6 bc 5b 78 a4 bd
       -0.041729882 -0.07711059 -0.022336023 -0.080307685
000010 ce 15 2b bc ba 50 45 3d 6c 82 8d bd ae 7d 2d bd
       -0.01044221 0.04817269 -0.069096416 -0.042356186
000020 71 8f ff bc 84 41 4e bd 21 95 ad bd ec fa 69 3c
       -0.031196328 -0.05035545 -0.0847571 0.014281016
000030 b3 62 bc bc e4 8e ec bb 76 e1 03 bd ae c1 94 bd
       -0.022996282 -0.0072191823 -0.03219744 -0.07263504
000040 e6 54 41 bd 96 d1 3e 3d 97 4e 6f 3d 15 ed 21 bd
       -0.047200106 0.046586595 0.05842456 -0.03953274
000050 46 ac 49 3d e0 5b ad bd b4 84 b6 bc af 24 c4 bd
       0.04923656 -0.084647894 -0.022280075 -0.09577309
000060 06 c8 0e bd b4 48 55 3c eb 0b 31 3d 32 1e da 3c
       -0.034858726 0.013017822 0.043224256 0.026625726
000070 0f 1d 11 3d 22 66 e4 bc 93 7f be 3d 22 14 b0 bd
       0.035428103 -0.027880732 0.093016766 -0.0859759
000080 a8 3c ec bc 18 4c 0c bd 59 31 61 3d 0f 9d b8 3c
       -0.028837517 -0.034252256 0.054978702 0.022535829
000090 3e 39 ab 3d bb 6b a3 bd f3 e3 dd 3c 6d 18 b7 bd
       0.083605275 -0.07979532 0.027086234 -0.08940206
0000a0 0c 11 c1 3c 8b 0c 50 bd b5 b5 71 bd 05 13 bb 3a
       0.023567699 -0.050793212 -0.05901118 0.0014272636
0000b0 cf 22 64 bb 5e 17 bb 3d 82 46 95 3d 47 24 96 3a
       -0.0034810787 0.09135316 0.07288839 0.0011454903
0000c0 e1 b9 12 3d 6d 0f 12 bb fc f9 df bc cc fc b7 bd
       0.0358218 -0.0022287027 -0.027340882 -0.08983764
0000d0 3f c6 c5 bd b8 21 6e bb a9 9a 91 bd 0f f6 8d 3d
       -0.09656953 -0.0036336016 -0.07109577 0.069316976
0000e0 30 21 5a bd ad 85 36 3c fb d0 82 bd 11 65 b6 3d
       -0.053254306 0.011140269 -0.06387516 0.08905996
0000f0 0e f8 34 3d be 1c 36 3d b8 59 b3 3c da 9b d5 bc
       0.044181876 0.044461004 0.021893367 -0.026075292
000100 45 4e 62 bd 4a 8f 69 bd 8e 5d d3 bd 6a ce fa bc
       -0.055250425 -0.057021417 -0.103205785 -0.030616004
000110 8d a4 4e bd df 6e a5 3d be 18 b2 3d ee 22 96 bd
       -0.050449897 0.080777876 0.086961254 -0.07330881
000120 7f 88 20 bc 99 7b c2 bd a7 1f 34 3d 7a a9 8a 3d
       -0.009798168 -0.09496231 0.0439755 0.06770606
000130 c3 cc 83 bd ae 40 9e bd 38 2b 03 bd d7 3f 90 3d
       -0.064355396 -0.077271804 -0.03202364 0.070434265
000140 cd 4c 80 3d 8e b5 86 bd dd f0 df bb de e8 aa bd
       0.062646486 -0.065775976 -0.006834133 -0.08345197
000150 96 1a a8 3d 20 f5 09 3d 64 4b 3f bd 3d 71 02 3d
       0.08208196 0.033681035 -0.046702757 0.031846274
000160 97 de 2a bc bd 32 b2 bd 83 47 c3 bd 8a 58 b8 3d
       -0.010429046 -0.08701084 -0.09535124 0.090012625
000170 09 4c 81 bd 83 d6 5e 3d cd 1b 0c bd d2 eb 05 3d
       -0.06313331 0.054403793 -0.0342062 0.0326956
000180 90 52 d0 3c df 4f 1d 3d 18 1d 6f bd 3b b8 01 3d
       0.025429994 0.03840625 -0.058377355 0.031669836
000190 12 32 35 3c 76 e7 66 bc f2 d9 4d bc 9f 3e 6a bc
       0.011059301 -0.0140932705 -0.012564169 -0.014297157
0001a0 ff f0 0c 3d eb 8d 2f 3d aa 2f 71 bd ce 53 be bc
       0.03440952 0.042859953 -0.058883347 -0.02323332
0001b0 87 98 7c bc 41 4e 0e bd ec 52 5a 3d 29 da d0 3d
       -0.015417225 -0.034742597 0.053301737 0.10197861
0001c0 15 d8 49 3d 31 c7 bb bc 9b 7e 92 3d b8 b9 d6 3d
       0.049278338 -0.02292213 0.07153054 0.10484642
0001d0 63 c2 89 bc 04 ad 91 3d d4 2a 7f 3c 30 4c 2c bd
       -0.016816324 0.07113078 0.015574176 -0.042064846
0001e0 85 69 4d 3c d9 63 07 3b f9 b4 22 3c c4 ed a5 bc
       0.012537365 0.002065888 0.009930843 -0.020254977
0001f0 e9 3e 97 bd 41 b2 b5 bd 92 ef 75 bd 92 9d 6e 3d
       -0.07385046 -0.0887189 -0.060042925 0.05825574
000200 81 27 02 bd 50 68 fa bd 83 d0 a4 3d e4 6c 00 be
       -0.031775955 -0.12226927 0.08047583 -0.12541538
000210 bc 1b 9b 3c b5 64 c3 3d d6 ac 41 bd 8c f3 e9 3b
       0.018934123 0.09540693 -0.04728397 0.0071396288
000220 c7 90 b9 3d d7 22 a6 3d 55 70 a4 3d 6e 3e 4b bb
       0.09060817 0.08112114 0.08029238 -0.0031012553
000230 75 a7 73 3d 2c 67 29 3d b6 82 86 3c 66 c6 ab 3d
       0.05948587 0.041358158 0.01641975 0.08387451
000240 77 e0 d8 3c 1a 5c ac 3d ed cb 69 bd 4b 0b 3a 3c
       0.02647422 0.084160045 -0.057079244 0.0113552315
000250 83 3f eb bd b9 ec 83 bb d7 71 97 3c 07 e1 40 3d
       -0.11486723 -0.0040260223 0.0184869 0.047089603
000260 44 19 cf 3c 95 14 84 bd 7d 55 25 3d c0 3a fc bd
       0.025280602 -0.06449238 0.04036473 -0.12315893
000270 15 25 b7 3d 55 26 1b 3d 35 7c 2a bc 49 d2 ef 3c
       0.0894262 0.037878353 -0.01040559 0.029275076
000280 d9 e2 34 3d 94 d9 84 bd 95 82 3f 3d 5a bc f1 3a
       0.04416165 -0.06486812 0.046755392 0.0018442974
000290 6e cf a7 3d 4b 81 08 3c 45 e2 65 3c e8 6b d1 3c
       0.08193861 0.008331607 0.014030998 0.025564149
0002a0 31 79 aa 3d 76 ee 90 bd 32 2c 90 3d 58 3b 8a 3d
       0.08323897 -0.07076733 0.070396796 0.067496
0002b0 e0 1c 1b bc aa 10 92 bd 0f 30 61 3d b7 36 e8 3c
       -0.009467334 -0.07132085 0.054977473 0.028346403
0002c0 f9 21 52 bd 74 2f b6 3c 00 55 e4 bc a1 83 35 bd
       -0.05130193 0.022239424 -0.027872562 -0.044314984
0002d0 16 5d df 3d b3 70 28 3d c9 7f 24 3c 0e 40 73 3d
       0.109064266 0.041123103 0.010040232 0.05938726
0002e0 8b 78 84 3d 53 36 2e 3d 7d bd 2c 3d 3d 98 d8 bd
       0.06468304 0.042532276 0.042172898 -0.10575912
0002f0 b2 f4 53 bd 86 5f c0 3d 15 a1 f4 3c ae 05 bc 3c
       -0.05174703 0.0939322 0.029861966 0.022951927
000300 d1 29 92 bd 30 03 7e bd e6 94 1b bd 81 f5 33 3d
       -0.07136882 -0.06201476 -0.037983797 0.043935303
000310 06 5f 33 bd 95 fc a2 3d 5e c8 b7 bd d3 83 1b bd
       -0.043791793 0.079583324 -0.08973764 -0.037967514
000320 4a 72 81 3d 95 3c 39 bd 29 df 61 bb 40 70 03 bd
       0.06320627 -0.04522379 -0.003446529 -0.03208947
000330 6c 90 fc 3c f5 27 5c bd c0 44 a1 bd 0b 5f 38 bd
       0.030830584 -0.053749043 -0.07874441 -0.045012515
000340 82 21 13 3d ae 08 06 bd b2 50 a2 bd f9 5d ef bc
       0.035920627 -0.03272312 -0.07925548 -0.029219614
000350 d4 a0 3b bd db 1a b1 3d 1d 04 f8 bc c0 2b 06 3d
       -0.045807675 0.086477004 -0.030275399 0.032756567
000360 0c 0f cd 3d 52 98 98 bd bd 3b 2b 3d 04 7a c4 3b
       0.100126356 -0.07450928 0.041805018 0.0059959907
000370 ea 9f a2 3d 89 1d 87 bb c8 28 f1 3c 45 db c1 bd
       0.079406574 -0.004123394 0.029438391 -0.094656505
000380 b9 05 c7 3d 14 23 98 bd 5a 40 3c 3d aa 1d b8 bd
       0.097178884 -0.074285656 0.045959808 -0.08990033
000390 21 7e 8b 3c cf 6f 17 bb 30 fc 95 3d 79 e1 c8 bd
       0.017027916 -0.0023107415 0.073234916 -0.098086305
0003a0 ab d1 ac 3d 8b dc c5 3d ff 79 7d 3c d2 15 b1 3d
       0.084384285 0.09661206 0.015470981 0.0864674
0003b0 66 8a a5 3d ef ab 0d 3a d2 80 4e 3d bb 8b 25 3b
       0.08083038 0.0005404343 0.05041582 0.0025260288
0003c0 e6 9c 78 3c 0c ef ad bd ee db 16 bd c6 2b 77 bd
       0.015174126 -0.0849286 -0.036830835 -0.06034448
0003d0 b9 db 86 bd 9c 52 91 bd de ce 62 bd 92 3b 03 bc
       -0.065848775 -0.070958346 -0.055373065 -0.008009808
0003e0 c0 35 c9 bc 02 2c 2f 3d 76 5b 24 3d 28 5f 07 bd
       -0.024561763 0.04276658 0.040126286 -0.033049732
0003f0 b5 6d 7c 3d a2 88 a3 bd 06 23 8c bd 1f 44 b5 3d
       0.061628062 -0.07985045 -0.06842618 0.08850884

encoder.lob_enc.res_blocks.0.conv1.bias f4 [32]
000000 99 f9 41 be 5d a0 4d be 87 02 35 be c9 f0 8d be
       -0.1894287 -0.20080705 -0.17676745 -0.27722767
000010 bd 6b 91 be b7 42 6b be 29 2e 87 be 94 19 09 be
       -0.2840251 -0.22974668 -0.26402405 -0.13388664
000020 1a 2d 7e be 58 fe 4e be a5 48 38 be 7e a0 26 be
       -0.24821892 -0.20214212 -0.17996462 -0.1627216
000030 bd 7d cf bd 53 68 37 be 87 3b 1c be 1c 5a 2a be
       -0.101314045 -0.1791089 -0.15257083 -0.16635936
000040 80 ca de bd 05 88 1f be 5d b9 20 be 45 e4 37 be
       -0.108784676 -0.15579231 -0.1569571 -0.17958172
000050 f4 38 20 be a3 24 46 be 06 10 71 be 1e 01 66 be
       -0.15646726 -0.19349913 -0.23541269 -0.22461364
000060 e1 6f f1 bd f3 4e 32 be 46 69 b9 bd b8 5e e5 bd
       -0.11788917 -0.17412929 -0.090532824 -0.11199707
000070 ea e9 d5 bd c9 3d 3e be b3 26 11 be 9c 73 2c be
       -0.10445006 -0.18578257 -0.14174919 -0.16840976

encoder.lob_enc.res_blocks.0.bn1.weight f4 [32]
000000 0d d8 7d 3f 35 69 7f 3f cd 9a 80 3f a0 d4 7f 3f
       0.9915779 0.9976991 1.0047241 0.99933815
000010 ca 78 7b 3f 13 22 81 3f a9 e6 7d 3f df a0 7f 3f
       0.98231184 1.0088524 0.99180084 0.99854845
000020 43 7b 7e 3f 66 02 7f 3f 0d 50 7e 3f a3 03 80 3f
       0.9940683 0.99613035 0.993409 1.000111
000030 65 99 80 3f 61 c7 7f 3f 60 b7 7e 3f dc df 80 3f
       1.0046812 0.99913603 0.9949856 1.0068316
000040 4d 3a 7e 3f 09 59 81 3f 04 28 7f 3f 41 c8 7b 3f
       0.9930771 1.0105296 0.99670434 0.9835244
000050 01 f9 80 3f 3b be 7c 3f 88 35 82 3f 19 85 80 3f
       1.007599 0.9872777 1.0172586 1.0040618
000060 8d e3 80 3f 22 62 82 3f d1 95 80 3f 26 4a 82 3f
       1.0069443 1.0186198 1.004572 1.0178878
000070 f8 70 7e 3f b5 90 80 3f fc 62 81 3f 86 c9 80 3f
       0.99391127 1.0044161 1.0108333 1.00615

encoder.lob_enc.res_blocks.0.bn1.bias f4 [32]
000000 f3 a9 d3 3b 58 cc b2 3b 31 eb 84 3a 1a f8 05 ba
       0.0064594685 0.0054564886 0.0010140893 -0.00051105174
000010 4a 74 93 3a bd 49 34 3c 52 71 ed 3b 13 07 4b 3c
       0.0011249867 0.011003909 0.007246175 0.012391823
000020 d9 69 23 bb 9c 7b 1e bb 89 fd 15 bc a4 25 da 3b
       -0.0024934916 -0.0024182564 -0.009154686 0.006657319
000030 e3 7f 42 3c 61 83 a4 3b 68 02 6e 3b a1 5c 7f bb
       0.011871311 0.0050205444 0.0036317352 -0.0038965123
000040 06 17 fa 3a 79 f3 ca 3b 4d 91 f5 bb 12 5e 87 bc
       0.0019080348 0.006193575 -0.007494128 -0.016524348
000050 89 22 16 3c 49 38 a2 3a 5c 12 74 3c b8 a5 45 3c
       0.009163507 0.0012376393 0.014896955 0.012063436
000060 0d 3e c0 3b 0f 02 20 3c 06 ed f8 38 24 99 a6 3c
       0.005866772 0.009766116 0.000118697106 0.020336695
000070 06 b9 c7 bb f5 80 d7 3b a3 e1 e0 3b 64 04 37 b9
       -0.0060950546 0.006576652 0.0068628355 -0.00017453876

encoder.lob_enc.res_blocks.0.bn1.running_mean f4 [32]
000000 18 c7 0b bf f5 16 05 3e ae cd 05 bf 75 31 15 bf
       -0.5460067 0.12997039 -0.5226697 -0.5827859
000010 9e 65 b4 be 54 e0 06 bf da 78 6e be 74 36 1b bd
       -0.35233778 -0.5268605 -0.23288289 -0.037893727
000020 bb 75 86 be 87 44 03 be c4 d9 5e 3e 49 92 a6 3e
       -0.26261696 -0.1281911 0.21762758 0.32533482
000030 92 e1 a5 be 50 41 7e be b7 c7 e5 be 86 be 52 3e
       -0.3239866 -0.24829602 -0.44878933 0.20580491
000040 6f 4a 3e be a7 56 36 be de 62 89 bd 1e ff c5 be
       -0.18583082 -0.17806493 -0.067083105 -0.386712
000050 33 7d 7a be c1 b4 f9 bd 37 02 d5 be f1 2c 0a bf
       -0.24461822 -0.12192679 -0.41603252 -0.53974825
000060 84 6c 0c be e3 4b 35 bf 6c 57 0f be f6 a0 ae be
       -0.1371327 -0.7081892 -0.13998193 -0.34107178
000070 88 4b f6 bd 7f f4 5c be 4f c7 a6 be 40 0f 90 3d
       -0.12026125 -0.21577643 -0.32573935 0.07034159

encoder.lob_enc.res_blocks.0.bn1.running_var f4 [32]
000000 4d e8 58 3d b7 7a df 3e 3f bd a6 3d 31 ac 91 3d
       0.052955914 0.43648311 0.081415646 0.07112921
000010 cc 42 7f 3d 4d 75 54 3d 60 9b 87 3e f5 3f c7 3d
       0.06231956 0.05186968 0.2648573 0.09728996
000020 a8 bc ca 3d b7 60 09 3e 90 74 97 3e 17 a6 f7 3d
       0.098992646 0.134158 0.29581118 0.12092226
000030 71 ad 47 3e a0 6d 41 3d fb c3 ae 3d ed 55 80 3d
       0.19499756 0.047223687 0.08533474 0.06266389
000040 0e c5 70 3e 99 d2 84 3e 41 c3 af 3d 48 0a e4 3d
       0.2351267 0.25941923 0.085821636 0.111347735
000050 e7 3f 14 3d 64 17 56 3e 02 17 d4 3d 56 5f 19 3f
       0.036193755 0.2090736 0.10355951 0.59911096
000060 b4 c9 0f 3e e6 97 16 3e 4f da 07 3e 80 38 e2 3d
       0.14041787 0.14706382 0.13266872 0.11045933
000070 a3 c3 e6 3c 2d 92 92 3e 96 aa bc 3d d3 e7 8a 3d
       0.028169459 0.28627148 0.09212224 0.06782498

encoder.lob_enc.res_blocks.0.conv2.weight f4 [32, 32, 3, 1]
000000 04 2d a5 3c e2 1b fe 3c ec da 83 bd ad f3 a3 3d
       0.020163067 0.031019155 -0.064382404 0.08005462
000010 62 db d5 3c c4 b6 13 bd bb 82 a2 bd 6c 9d 81 bd
       0.026105586 -0.03606297 -0.07935091 -0.06328854
000020 be 24 97 bc a0 8f 8b 3c 07 40 1d 3d bc 9f d2 3d
       -0.018450137 0.01703626 0.03839114 0.10284373
000030 24 93 8d 3d f2 e5 dc bb 78 4a 98 bc df eb aa 3d
       0.069128305 -0.006741279 -0.018590197 0.0834577
000040 4f cf 23 bb e4 7f 5d 3c e8 1b 51 ba 37 0e b7 3d
       -0.0024995392 0.013519261 -0.00079768756 0.08938258
000050 ec 48 75 3d 44 e2 fe 3c b4 4a b0 3c 26 49 c7 bc
       0.059883997 0.031113751 0.021519996 -0.024326872
000060 ae 48 cf 3c 8c ce a6 bd a4 d8 9c bd a3 a5 ef 3c
       0.025303211 -0.081448644 -0.076585084 0.029253786
000070 c6 10 ac 3c 08 7e 84 bd 7e 80 07 3d e1 aa 06 3d
       0.021004092 -0.06469351 0.033081524 0.032877807
000080 8f 90 31 3d 31 cc 3f bd 7e 02 76 bd a3 0e bc bb
       0.043350752 -0.04682559 -0.06006097 -0.0057390495
000090 a1 68 48 bc 71 55 6e bc 5f ad a9 bd dd 11 a9 3d
       -0.012231977 -0.014546738 -0.08285021 0.0825536
0000a0 af dc b5 3d 79 97 41 bd e0 36 a1 3d 93 23 b6 3c
       0.08879983 -0.047263596 0.07871795 0.02223376
0000b0 f4 bf ec 3c 50 cb da bb 37 e6 be 3d 26 6d bd bc
       0.028900124 -0.006677069 0.09321254 -0.023123335
0000c0 a3 c0 63 3c b0 c6 54 bc c4 1e cc b9 92 a3 34 bd
       0.013900909 -0.012986824 -0.00038932834 -0.044101305
0000d0 bd 10 8b bd 34 da 88 3d dc 50 b6 bd 8f b7 80 bd
       -0.06790302 0.06682244 -0.089021415 -0.06285011
0000e0 d2 17 be 3d 98 bb 4f bd 1e fd 1e bc df 04 c7 bd
       0.09281887 -0.050716013 -0.0097039025 -0.09717726
0000f0 c4 7f ef bc 72 dd 36 bd c6 b6 0e 3d b3 6a 2e 3d
       -0.029235728 -0.04464478 0.034842275 0.042582225
000100 be 9e ad 3d bc ff 27 bd 17 75 c6 3d fe 6b 1c 3d
       0.08477543 -0.04101537 0.09690302 0.038188927
000110 5c c6 ba bd dc 67 aa bd 44 d5 3e bc d9 f0 b8 3d
       -0.09119865 -0.08320591 -0.011647526 0.09030313
000120 94 a8 6e 3b 55 f1 7c bd c7 92 6f 3d 92 d8 d8 bd
       0.0036416398 -0.06175359 0.058489587 -0.105881825
000130 af 95 97 3d ef fe 3f bc 19 0c 24 3c 9e be 07 bd
       0.07401597 -0.011718496 0.01001265 -0.03314077
000140 65 18 90 3c 54 63 98 ba 52 e8 9b 3d 10 4b b4 3d
       0.017589757 -0.0011626282 0.07612671 0.088033795
000150 ef 78 34 3d 8e 4c 6a bc 9a 5a e7 bb 6d ac 7f bd
       0.044060644 -0.014300479 -0.007060361 -0.062420297
000160 cd 11 83 3d 13 91 b5 bc ad b7 c5 bd 2d 93 f4 bc
       0.063998796 -0.022163903 -0.09654174 -0.029855335
000170 4d 85 99 bd 99 49 a5 bd ee c3 99 3c 4c 69 24 3c
       -0.07496128 -0.08070678 0.018770184 0.01003487
000180 97 35 4f bd b4 a5 8c bd 34 de 27 3d 30 7c bf 3c
       -0.050588217 -0.06867543 0.040983394 0.023374647
000190 14 2b 91 3d 64 23 67 3d 1a a3 3f bd c9 9a 89 3d
       0.070882946 0.056430236 -0.046786405 0.06718976
0001a0 fa b4 97 bd 4f 1e aa bd 71 1d 4f 3d 1f f0 c7 3d
       -0.074075654 -0.08306562 0.050565187 0.09762596
0001b0 2c 87 56 3d 9d 02 2d 3b f7 0c 2e bd 10 d8 dd 3d
       0.052375004 0.0026399263 -0.042492833 0.10832226
0001c0 4b 9e 70 bd e2 7c c8 3d 94 47 8e bd 03 0d ce bd
       -0.05874471 0.097894445 -0.06947246 -0.100610755
0001d0 0b ce ce bb 1a 33 09 3d 7a 62 aa bd 72 fc f1 bc
       -0.0063111833 0.033496 -0.08319564 -0.02953932
0001e0 75 8f 05 bb d0 bd 16 bc 04 74 47 bd 0c 03 bf 3d
       -0.0020379697 -0.009200528 -0.048694625 0.09326753
0001f0 53 cc 94 bd 80 7a 89 3d 73 85 05 3d b2 51 24 bd
       -0.07265534 0.06712818 0.03259797 -0.040116973
000200 e5 a9 3d 3d d1 2e a1 bd c7 37 83 bd 0d 95 7d 3d
       0.046304602 -0.07870258 -0.06407123 0.061909724
000210 56 16 38 bd 2d a5 74 3d 4d d5 b2 bd a7 ed 84 3c
       -0.044943176 0.059727836 -0.0873209 0.016226603
000220 f3 90 b6 bd cc 66 53 3d f0 d0 d2 3d 17 72 8e 3d
       -0.089143656 0.051611707 0.10293758 0.06955355
000230 34 57 1e 3d dd 6b 83 3d e5 a4 b8 3d 4a 28 68 3d
       0.038657382 0.06417058 0.09015826 0.056679048
000240 eb eb 3a 3d 00 d6 0b 3d 19 fd d5 3c 0c 6e 70 3d
       0.045635145 0.034139633 0.026121663 0.0586987
000250 dc 50 98 3d 67 6a 16 bd 61 dd f4 3b 65 46 23 3d
       0.07437298 -0.036722567 0.0074726795 0.039862055
000260 6d a8 b2 bd a2 6c 8f bd c2 82 b8 bc d4 57 a1 3c
       -0.08723531 -0.07003142 -0.022523288 0.0196952
000270 99 df 86 3d d4 67 65 3d d5 d3 67 3d ab f4 b0 bc
       0.065856166 0.05600722 0.056598503 -0.021601042
000280 93 b0 c3 bc 8e 2f c7 bd a0 04 6c 3c 98 6d d2 bc
       -0.023887908 -0.09725867 0.0144054 -0.025687024
000290 a1 41 9a bd 66 02 27 3d 24 e9 60 3d b3 fd d0 3c
       -0.07532049 0.04077377 0.05490984 0.025511598
0002a0 f9 69 9c bd 4a ef f2 bc 24 55 c4 bd ac 46 a4 bb
       -0.076374 -0.029655118 -0.09586552 -0.0050133076
0002b0 93 72 96 3d ea da c8 3d 27 fb ba bd f5 bd c8 bc
       0.07346072 0.098073795 -0.09129935 -0.024504641
0002c0 01 e1 68 bd 01 34 9e 3d 36 c0 da 3d 4d 24 aa bd
       -0.056855205 0.07724763 0.106811926 -0.08307705
0002d0 8f f3 16 bd c0 e3 89 3c 0c d5 ac bd 6b 8d da bd
       -0.03685337 0.016832232 -0.08439073 -0.106715046
0002e0 ec 75 91 bd 34 3c 8e 3d e0 fd 49 3c f4 7a 43 bd
       -0.0710257 0.069450766 0.012328595 -0.04772468
0002f0 ac 85 9c bc ad 15 ba 3d 37 f2 c5 bd b3 7b 1d 3d
       -0.019106708 0.090861656 -0.096653394 0.038448047
000300 15 4d 4f bc a0 7d d9 bd e6 54 9e 3d e9 08 6e bd
       -0.012652655 -0.10619664 0.07731037 -0.058113966
000310 27 0f 93 3d 59 eb 15 bb a9 7f 93 3c ac f8 96 bc
       0.071806245 -0.0022875874 0.018005209 -0.018429123
000320 0c 10 b9 bd 9d 35 3c 3d f3 24 27 bd f5 ea 00 3d
       -0.09036264 0.045949567 -0.040806722 0.031474072
000330 f2 e3 b4 3d c2 c3 1b bd f6 de 2b 3b 4f 6d fe 3c
       0.088325396 -0.038028486 0.0026225424 0.031057982
000340 e9 00 21 bd a7 11 1a 3d 81 1d 60 bd 12 3f 8d 3d
       -0.03930751 0.03761449 -0.054715637 0.06896795
000350 35 5c f3 bc 73 2f 6a bc 27 12 29 bd 42 63 a8 39
       -0.029707054 -0.014293539 -0.041277077 0.0003211741
000360 2d 2b 77 3d 0d 2a 07 3c 0a 82 42 bd eb d7 c3 3d
       0.06034391 0.008249772 -0.047487296 0.095626675
000370 40 0d bd 3d a3 9a 1f bd bf 48 87 bd 2e 51 a5 bd
       0.09231043 -0.038965832 -0.06605672 -0.080721244
000380 07 d4 0d 3c 14 a6 d3 3d db 0f 21 3d 6e 84 3f 3d
       0.008656508 0.10334411 0.03932176 0.046757154
000390 9b a1 da bd 6e e4 ec 3c 55 07 1e 3d c2 56 d4 bc
       -0.10675355 0.028917518 0.03858121 -0.025920276
0003a0 6a 1c 8a bd 6e 80 b2 bc e1 5b ba bd 3a b0 b5 3d
       -0.06743701 -0.021789756 -0.09099556 0.08871503
0003b0 96 aa 89 bd d8 4d ce 3d 6e d7 bb bd f9 08 9e 3d
       -0.0672199 0.10073441 -0.09171949 0.07716555
0003c0 ee ef 52 bd c2 c0 b3 bd bd 9f 9a 3c fc ac d1 3d
       -0.051498346 -0.08777 0.018874997 0.10238072
0003d0 b9 57 27 bd 3f 7d b9 3c c5 bd 95 bd c3 5d 74 3d
       -0.040855143 0.02264273 -0.07311586 0.05965973
0003e0 6c 21 a8 3d dc 9f 2b bd df fe ae 3d 65 d4 29 3d
       0.082095 -0.0419005 0.085447066 0.04146232
0003f0 00 0b d9 3b 33 fe 4f bd 11 7e 75 3d 1d 40 cd bb
       0.0066236258 -0.050779533 0.05993468 -0.0062637464

encoder.lob_enc.res_blocks.0.conv2.bias f4 [32]
000000 87 71 1c be 59 b3 40 be b7 47 47 be 36 33 27 be
       -0.15277682 -0.18818416 -0.19460951 -0.16328129
000010 55 4e 38 be b0 9a 62 be a1 b5 56 be 4e fe 64 be
       -0.17998631 -0.22129321 -0.20967723 -0.22362635
000020 3c 84 45 be c1 12 87 be a6 bf 6a be 71 eb 3f be
       -0.19288725 -0.26381496 -0.2292467 -0.18742158
000030 46 1f 6f be 29 86 22 be 6b 79 24 be cb 73 1c be
       -0.23351774 -0.1587149 -0.16061942 -0.15278547
000040 fd 68 79 be fc e3 36 be d2 b8 76 be 0a c1 08 be
       -0.24356456 -0.17860407 -0.24093941 -0.13354889
000050 04 1b c6 bd c0 af 8d bd 8a 51 5e be 4d 56 e0 bd
       -0.096731216 -0.06918287 -0.21710792 -0.109539606
000060 7b 6e 3b be 08 6d 41 be d1 e3 04 be 24 23 84 be
       -0.18303864 -0.18889248 -0.1297753 -0.2580806
000070 b9 10 85 be fc 1f d8 bd ee 01 1d be 59 c5 ee bd
       -0.2598932 -0.105529755 -0.15332767 -0.11658735

encoder.lob_enc.res_blocks.0.bn2.weight f4 [32]
000000 99 97 7e 3f ea f9 80 3f 0d f9 80 3f 27 09 7e 3f
       0.9945007 1.0076268 1.0076004 0.99232715
000010 de f2 80 3f 4a 0e 80 3f 19 03 81 3f 5d c0 80 3f
       1.0074117 1.0004361 1.007907 1.0058705
000020 ce 6d 80 3f 7b de 80 3f b7 77 80 3f 7e 1d 80 3f
       1.003351 1.0067896 1.0036534 1.0009
000030 e2 c5 80 3f 15 14 81 3f 96 5d 7f 3f 61 5e 81 3f
       1.0060389 1.0084254 0.99752176 1.0106927
000040 da 6b 80 3f d4 fe 7e 3f ab e1 80 3f 7e 83 80 3f
       1.0032914 0.99607587 1.0068868 1.0040128
000050 95 7e 80 3f f3 b2 80 3f 47 da 7f 3f d6 b1 81 3f
       1.003863 1.0054611 0.9994244 1.0132396
000060 8f e2 80 3f 15 41 80 3f 26 3e 81 3f 6f 30 81 3f
       1.006914 1.0019861 1.0097091 1.0092906
000070 b0 d9 80 3f b6 b6 7d 3f d9 5b 81 3f f7 1c 81 3f
       1.0066433 0.9910692 1.0106155 1.0086964

encoder.lob_enc.res_blocks.0.bn2.bias f4 [32]
000000 f0 2b b5 3b 32 af f8 39 85 da 0b 3c a2 ce 73 bb
       0.0055289194 0.00047432777 0.008535986 -0.003720202
000010 df a3 01 3c 3e 3d 83 3b a2 41 0e 3c 91 a1 11 3c
       0.007912605 0.0040051034 0.00868264 0.008888618
000020 76 8b 02 3c 26 7b 0e 3c f4 32 a3 bb 05 c4 3d 3b
       0.00796782 0.008696353 -0.0049804393 0.0028955948
000030 d4 68 44 3b c0 d9 a4 3b 09 bc 0c bc b7 31 2c 3c
       0.002996971 0.0050308406 -0.008589753 0.0105099
000040 a7 e1 0a 3b 38 22 38 bb 06 f5 11 3c 85 65 88 ba
       0.0021191628 -0.0028096568 0.008908516 -0.0010406232
000050 44 96 3e 3a 56 19 e0 3b 8b 99 a2 ba 1b 4b d3 3b
       0.0007270316 0.006838958 -0.0012405379 0.0064481623
000060 dd cb fc 3b 8a 61 88 3b 87 36 b8 3b 23 0d 13 3c
       0.007714732 0.004162018 0.0056217345 0.0089753
000070 97 31 d1 3b 77 34 dd bb 3c 43 4b 3c 28 95 27 3c
       0.0063840854 -0.006750639 0.012406167 0.010228433

encoder.lob_enc.res_blocks.0.bn2.running_mean f4 [32]
000000 56 e5 f9 bd b4 e3 0b be a2 ad f6 bd 79 9e a3 bd
       -0.122019455 -0.1366108 -0.120448366 -0.07989211
000010 84 cd 8e be b6 1b 81 bc d7 d0 0b bf 73 99 d7 bb
       -0.2789117 -0.015760284 -0.5461554 -0.006579572
000020 32 24 89 bd e0 00 a8 bd 5f 67 cc be d7 f1 89 be
       -0.06696357 -0.08203292 -0.39922616 -0.26942322
000030 5a 3f d9 bd fe 78 b5 be ad 92 e3 3d e8 ac aa be
       -0.106077865 -0.35443872 0.111119606 -0.33335042
000040 d7 14 ae be 3b 99 da 3c 19 c3 c1 be 27 78 9b be
       -0.34000275 0.026684394 -0.3784416 -0.30365106
000050 7a 88 d0 be f8 39 80 3d e0 c1 46 bd f9 44 6c be
       -0.40729123 0.06261057 -0.048524737 -0.23073186
000060 31 92 14 bf 7c 5c a2 be 9c d5 31 bc 67 fb b3 bd
       -0.5803557 -0.31711185 -0.010854151 -0.087881856
000070 e6 f9 ac be e1 96 41 bd 90 4a 24 be 85 54 f5 bd
       -0.33784407 -0.04726303 -0.16044068 -0.119790114

encoder.lob_enc.res_blocks.0.bn2.running_var f4 [32]
000000 af fc 23 3d 1c 0f 3c 3d cf ab f1 3d 7f d1 c8 3d
       0.0400359 0.045912847 0.11800348 0.09805583
000010 f9 b6 7f 3d bc 7c 9c 3d 28 5e 30 3e 60 70 5a 3e
       0.062430356 0.07640979 0.17223418 0.2133193
000020 bd 1a 13 3e 22 19 b6 3d e1 4c c6 3d 19 ad 54 3d
       0.14365669 0.088915125 0.09682632 0.05192289
000030 d6 44 87 3d 56 73 a1 3d 17 d9 55 3d 0f 8d 82 3e
       0.06604926 0.07883327 0.052208986 0.25498244
000040 48 f5 7d 3d fb de e0 3d 47 6d bd 3d 32 99 04 3e
       0.062001497 0.1098003 0.092493586 0.12949064
000050 43 09 84 3e e3 ea 42 3e 70 f7 b2 3e 8d a5 c7 3d
       0.25788316 0.19034915 0.34954405 0.09748373
000060 1e 0e 78 3d 80 a9 cb 3d 0d 68 66 3d 48 91 13 3e
       0.06056034 0.09944439 0.056251574 0.14410889
000070 79 76 d8 3d 86 03 96 3e dd 87 5a 3d d0 75 16 3e
       0.10569472 0.29299563 0.053352226 0.1469338

encoder.lob_enc.res_blocks.1.conv1.weight f4 [32, 32, 3, 1]
000000 3b 5c b1 bd 39 2f 3e 3c a5 07 43 3d af f3 40 bd
       -0.0866017 0.011607938 0.047614712 -0.047107395
000010 de dc b3 bd 08 10 31 3d 8a 4a a4 3c e3 0c 34 3d
       -0.087823614 0.04322818 0.020055074 0.043957602
000020 0f 19 b4 3d 27 14 dc bd f3 60 6b 3d 2b ff 60 bd
       0.08793842 -0.10746031 0.057465505 -0.054930847
000030 12 31 1f 3d 76 72 85 3d 40 f4 a0 3d 86 f2 f2 3c
       0.038865156 0.06515972 0.07859087 0.02965666
000040 e3 91 e7 3b f6 69 a3 bb 60 2f 4b bd bd 0a 1b 3d
       0.0070669516 -0.0049869968 -0.049605727 0.037852038
000050 dc b5 85 3d 37 69 85 bb df 52 bf bd bf 8e 1c bd
       0.065288275 -0.0040713805 -0.09341978 -0.03822207
000060 c0 99 24 bd 76 13 25 3d 57 97 b5 bd 30 c1 54 bd
       -0.04018569 0.040301763 -0.088667564 -0.05194205
000070 26 3e 9b bd fa dc c2 bd 1d 44 f5 bc 18 19 8c 3d
       -0.07580213 -0.09514804 -0.029939706 0.06840724
000080 ff ae 4e 3d e7 08 b3 3d 3a 2b 6e 3c d7 8d 8a 3d
       0.050459858 0.08741932 0.014536673 0.06765335
000090 70 3b 2e 3d 93 3c 93 3d 0f 8c 79 bc 18 d1 bc 3d
       0.042537153 0.07189288 -0.0152311465 0.09219569
0000a0 8f e2 d8 bc 14 bd 06 bd 9c 40 2f 3d e1 8d 13 3d
       -0.026475219 -0.032895163 0.042786226 0.03602398
0000b0 e3 82 6b bd 56 60 25 bd b8 0e cc bd 89 9f 9d 3d
       -0.05749787 -0.040375076 -0.09963745 0.076964445
0000c0 71 32 c2 3c e5 57 a7 3d a0 3d ad bd 5f df aa 3d
       0.023705693 0.081710614 -0.0845902 0.08343386
0000d0 51 12 c6 3d dc a7 94 3d d6 d7 7a bd f7 b9 dc 3d
       0.09671462 0.07258579 -0.061240993 0.107776575
0000e0 67 52 a0 bd d2 0e a9 bd 2f 0a 2e bd 2e e4 b7 3d
       -0.07828217 -0.0825478 -0.04249018 0.08979069
0000f0 1e bb 9f bc 22 56 11 3d b3 49 2e bc 74 3c e8 3c
       -0.019498404 0.035482533 -0.010637688 0.028349139
000100 27 3f 44 3c 03 f1 54 3d c7 a2 38 3d 7f fd 87 3d
       0.011977947 0.05198766 0.04507711 0.066401474
000110 c7 e3 a8 3d 3e 14 dc 3c 59 09 53 3d 24 7d a4 3d
       0.0824657 0.026865121 0.051522586 0.08031681
000120 36 5b 68 3d 3b f2 a6 bc 90 dd ac 3d dc 0f 93 3c
       0.05672761 -0.020379176 0.08440697 0.017951898
000130 70 f7 80 3d cc 1a e5 bc 16 6f c7 bd 1c 33 8f bd
       0.06297195 -0.02796688 -0.09737985 -0.0699217
000140 da cb 1c bc 61 bc 91 bd ff 3c 59 bd 68 ec 25 3d
       -0.009570086 -0.071160085 -0.053036686 0.040508658
000150 be 95 d5 3c 84 e7 2b bd b0 5b 92 bc fe ce da bd
       0.02607238 -0.041968837 -0.017865986 -0.10684012
000160 d5 02 73 bc df 6c 0e bb a3 c4 8c bd 63 35 8c 3d
       -0.014832218 -0.0021732373 -0.06873443 0.0684612
000170 0c 19 3f bd 2d 8f ad 3c bb ea 53 bd 6e 1c 41 3d
       -0.046654746 0.021186436 -0.05173753 0.047146253
000180 d2 8f b7 bd 86 44 df bb 33 13 15 3d 1e d1 93 3d
       -0.089629784 -0.0068135886 0.036395263 0.0721762
000190 a0 dc b5 3a f9 5f f7 3b a7 6e a8 3c f7 31 17 bd
       0.0013874955 0.0075492826 0.020560576 -0.036912885
0001a0 81 d6 e2 3c 6a d4 b8 bd 06 a8 2a bd bc e8 63 b9
       0.027690174 -0.0902489 -0.041664146 -0.00021735107
0001b0 d7 f4 0e bd eb 78 31 3d b0 31 7e bd 9a 32 16 3d
       -0.034901466 0.043328207 -0.062059104 0.03666935
0001c0 34 36 73 bd 18 17 a7 bd ed c9 b3 3b e4 d8 fb 3b
       -0.059377864 -0.08158702 0.005486718 0.0076857675
0001d0 26 af 2c bd 3f 53 e0 3d c7 c2 f5 bc 0b cb 01 bc
       -0.042159222 0.10953378 -0.030000104 -0.007921944
0001e0 4d 7a 95 3b b7 62 2b bd 64 9e 11 3d 56 5d b8 3d
       0.0045616985 -0.04184219 0.035551444 0.090021774
0001f0 14 26 a6 ba 11 1d 33 bd 48 6e 69 3d 6d 6f 00 3c
       -0.0012676143 -0.04372889 0.056989938 0.007839066
000200 4d 79 5d 3d 8c 4f 99 bc aa c9 9f bd 10 2d 8d bd
       0.05407076 -0.018714689 -0.07802136 -0.068933606
000210 e2 75 02 bd bd 6b a6 bd 85 40 a6 bd 82 61 58 3d
       -0.031850703 -0.08126018 -0.08117775 0.052827366
000220 fa 44 5c bc 59 ed 1c bc 34 19 be bd e2 5e 56 3d
       -0.01344418 -0.0095780725 -0.09282151 0.05233658
000230 5f ec 94 3d bb e0 74 3d d3 7b 85 bd cc 88 eb 3b
       0.07271647 0.059784632 -0.06517758 0.0071879383
000240 73 ce 27 bd e6 41 50 3d 85 45 70 3d 84 33 77 bd
       -0.04096837 0.050844096 0.05866005 -0.060351864
000250 eb 11 b2 bd 7d 3a 8f bd 91 2f 2e 3d 85 20 d0 3c
       -0.08694824 -0.06993578 0.04252583 0.025406132
000260 fa fd 86 3d d1 a0 50 bc 12 8c b0 3d 09 65 c3 3d
       0.06591411 -0.012733654 0.08620466 0.09540755
000270 fa 00 b3 bd 1a b4 10 bd 99 76 fe 3b 0f 59 9b 3d
       -0.08740421 -0.03532801 0.007765603 0.07585346
000280 fe 12 d3 bd a4 38 0f 3d b2 4e b7 3b 21 26 aa 3d
       -0.10306357 0.034966126 0.005594098 0.08308054
000290 0a 0c c4 bd 73 39 55 3d 4a e1 41 3d 2f c7 23 bc
       -0.09572609 0.05205674 0.047333993 -0.00999622
0002a0 f5 39 1e bd 43 cf 42 3d 1b 91 07 bd e5 e1 69 bc
       -0.03862949 0.04756094 -0.033097368 -0.014275049
0002b0 85 ca 81 bd 04 fa d3 3d 0d ec 8b 3d bd f1 e0 3c
       -0.06337456 0.10350421 0.068321325 0.02745902
0002c0 26 4e b7 3b 4f 9f 98 bd 28 91 9b 3d 4d 72 1e 3d
       0.005594033 -0.07452261 0.07596046 0.038683224
0002d0 6a 2c 04 3d 35 25 2a 3d a9 af 9d bd 5f c2 99 bc
       0.03226892 0.04153939 -0.0769952 -0.018769441
0002e0 88 e6 ad 3d aa 4f d9 bc 20 8e b2 3d 3d 61 55 bd
       0.08491236 -0.026527245 0.087185144 -0.052094687
0002f0 4d 3a 98 3d 2f 28 d3 3d 3f fb ba bd ea f5 85 3d
       0.07432995 0.10310399 -0.09129953 0.06541045
000300 47 b7 72 3c 6f 20 3d 3d 86 ce 2c bd 84 b5 af 3d
       0.014814205 0.04617351 -0.042189144 0.08579543
000310 9d a4 0a 3d 9f fe 7a bd 6f f1 cb 3d 73 8e a0 3b
       0.033848394 -0.06127798 0.09958159 0.004899794
000320 8a 02 2d bc 9e 0a e1 3c 9f e5 87 3c c7 e8 ba bd
       -0.010559687 0.027470883 0.016588984 -0.0912643
000330 62 73 b3 3d c6 38 8e bc 54 e8 c3 3c f9 18 d7 bc
       0.08762242 -0.017361056 0.023914494 -0.026257025
000340 88 fd c9 bd 29 79 bd bd 28 55 26 bd 91 b8 13 bd
       -0.098628104 -0.09251625 -0.040608555 -0.036064688
000350 45 83 9a 3d 4d 89 80 3c 7b b0 dd 3d 0d f7 b2 3d
       0.07544569 0.01569047 0.108246766 0.087385274
000360 ce 95 33 3c 46 8a 11 bd 10 27 49 3b 63 f3 1a bd
       0.010961009 -0.03553226 0.003069345 -0.037829768
000370 d0 28 c6 bd b9 be df 3c 14 de 26 3d ee 95 04 bd
       -0.09675753 0.027312623 0.040739134 -0.032369547
000380 d4 76 a3 3d ee 1d 5d bc 3a 9e e5 bc 73 cf 37 bd
       0.07981649 -0.013495905 -0.02802955 -0.044875573
000390 29 ac c2 3d a6 28 68 3d d7 96 88 bd fa 0a 95 bd
       0.09505493 0.05667939 -0.066693954 -0.07277484
0003a0 5f 97 9c bd 20 73 b9 3d 00 6a b5 3d 25 c6 6b 3d
       -0.07646059 0.090551615 0.088581085 0.057562012
0003b0 c1 28 53 3d 15 e9 87 bd e6 69 93 3d 9a 0c 03 bc
       0.051552538 -0.06636254 0.07197933 -0.00799861
0003c0 3b a4 40 bb cd 3e 0e 3c d8 e6 ec bc 3d 8b c5 3d
       -0.0029394764 0.008681965 -0.028918669 0.09645698
0003d0 f9 65 70 3c c4 c3 94 3d 84 ae 94 bd e7 41 c6 bd
       0.01467275 0.07263902 -0.07259849 -0.096805386
0003e0 dc 56 15 bd b9 25 f5 3c 70 74 89 bd eb a5 49 bd
       -0.03645979 0.029925214 -0.06711662 -0.049230497
0003f0 dc 76 f4 3c 0b eb b9 3d 4f 2c ad 3d 00 77 ae 3d
       0.029841833 0.09078034 0.08455717 0.08518791

encoder.lob_enc.res_blocks.1.conv1.bias f4 [32]
000000 69 c3 2f be 4f c4 13 be 4a b8 c9 bd 59 39 1e be
       -0.17164387 -0.14430355 -0.098496035 -0.15451564
000010 d8 63 c2 bd 61 d7 15 be 29 f3 74 be 8d 7c 54 be
       -0.094917 -0.14632942 -0.23920883 -0.20750637
000020 0d c7 67 be 9e 8c e2 bd 1c a4 2c be 47 40 8b be
       -0.22634526 -0.11061977 -0.16859478 -0.27197477
000030 c9 91 b6 bd e6 db 0c be 99 84 43 be ce 73 87 be
       -0.08914525 -0.1375576 -0.1909355 -0.2645554
000040 1b 1d 69 be eb 30 9c be 23 f0 8a be 3f 75 8b bd
       -0.22765009 -0.3050607 -0.27136335 -0.06809472
000050 a2 2e 47 be e5 b1 b6 bd b9 97 0d be 51 1c d9 bd
       -0.19451383 -0.089206494 -0.13827409 -0.10601104
000060 53 5a 0d be fb 42 83 be 12 f3 fe bd 6c 1e 93 be
       -0.13803987 -0.2563704 -0.12448706 -0.28734148
000070 a3 f4 18 be 77 2a 21 be f2 e0 03 be 95 3c 8e be
       -0.14937072 -0.15738855 -0.12878779 -0.27780595

encoder.lob_enc.res_blocks.1.bn1.weight f4 [32]
000000 4a 5b 7f 3f f7 22 82 3f 05 2e 80 3f cb 96 81 3f
       0.9974867 1.016692 1.0014044 1.0124143
000010 47 e5 7f 3f 2b cc 7b 3f 3a 3a 80 3f bd bd 7c 3f
       0.99959224 0.9835841 1.0017769 0.9872702
000020 ae 9f 7d 3f d3 f1 7b 3f 88 34 82 3f 7d 79 81 3f
       0.99071777 0.9841587 1.0172281 1.01152
000030 22 04 7e 3f b6 51 83 3f 7c ca 7f 3f de d8 7e 3f
       0.99225056 1.0259311 0.9991834 0.99549663
000040 39 56 80 3f f7 34 80 3f 9b 4f 81 3f 66 00 81 3f
       1.0026313 1.0016164 1.0102419 1.0078247
000050 fc 5e 7f 3f 45 56 7f 3f a3 27 80 3f cc 7e 7e 3f
       0.9975431 0.9974101 1.0012096 0.99412227
000060 c6 70 80 3f 7d 81 7f 3f 98 3a 7e 3f 5c 01 80 3f
       1.0034416 0.9980696 0.99308157 1.0000415
000070 a1 18 7c 3f 21 37 7d 3f 98 16 7e 3f a5 67 82 3f
       0.9847508 0.98912245 0.99253225 1.018788

encoder.lob_enc.res_blocks.1.bn1.bias f4 [32]
000000 55 24 11 3b 1f 66 82 bb 57 2a 89 bc cb 91 cf b9
       0.00221469 -0.003979459 -0.016743822 -0.0003959074
000010 3a 85 7a 3b 16 5e b0 bc af e3 0f bc ff 3e b2 bb
       0.0038226382 -0.021529239 -0.008782311 -0.0054396386
000020 00 60 ed 3a 04 33 46 bc 29 39 1f 3c b1 e3 87 3b
       0.0018110275 -0.012097124 0.009718218 0.004147016
000030 f0 4f 80 3b 0c fd be 3c 05 9e 67 bb 42 52 31 bc
       0.0039157793 0.023314022 -0.003534199 -0.010822834
000040 c2 5c d1 3a d4 76 d1 bb 2b 43 24 3b 80 45 c9 3c
       0.0015973079 -0.0063923392 0.002506445 0.024569273
000050 b0 24 74 3b 3f ef ef 3b 08 c6 d1 3b 5c f6 d7 bb
       0.0037253313 0.0073222215 0.006401781 -0.0065906476
000060 b1 3c 85 3b f2 39 ff bb d4 82 05 3c 9a 4b b5 bb
       0.004066073 -0.00778889 0.008148868 -0.005532694
000070 b9 98 8b bc f4 44 a3 bb 70 04 37 bc 67 4f 01 3c
       -0.017040597 -0.004982585 -0.011170492 0.007892466

encoder.lob_enc.res_blocks.1.bn1.running_mean f4 [32]
000000 4c 67 13 bd 11 c8 7b bd d5 bf 97 3d 63 d8 59 bf
       -0.035987183 -0.061470095 0.07409636 -0.85095805
000010 0a 97 17 bf 00 12 d2 be 97 93 04 bf 8b 07 cf 3e
       -0.5921484 -0.41029358 -0.51787704 0.40435442
000020 c2 ac 52 be 9a 01 0a bf 1a f2 08 bf 5f 47 83 bf
       -0.20573714 -0.53908694 -0.5349442 -1.0256156
000030 3c d6 6d bf b0 9e 54 bf b6 75 22 3f fb e9 1f bf
       -0.9290502 -0.8305464 0.6346086 -0.624664
000040 98 3e 6a bf a3 93 20 bf 0e 44 93 bf ba a7 2f bf
       -0.9150176 -0.62725276 -1.1505144 -0.68615305
000050 6c 0d c5 be 4c d0 cd be 82 1f b1 be b6 a8 70 3e
       -0.38486803 -0.4019798 -0.3459435 0.23501858
000060 43 d1 35 bf 48 7f d9 be 79 3f e1 bc 60 f6 ea be
       -0.71022433 -0.4247992 -0.027496086 -0.45891094
000070 4c ad a6 be 5e 3a bf be 3c 47 64 be fc 28 e9 be
       -0.3255409 -0.37349218 -0.22292799 -0.4553908

encoder.lob_enc.res_blocks.1.bn1.running_var f4 [32]
000000 65 26 3c 3e 1b 39 03 3e b6 67 25 3e ff 30 32 3e
       0.18374021 0.12814753 0.16152844 0.17401503
000010 2f ed 30 3f b6 f1 8f 3e ee db ad 3d 53 c1 4e 3e
       0.69111913 0.28114098 0.08489214 0.20190935
000020 a2 72 c6 3e 1f d5 a3 3e a1 10 12 3e 40 06 2f 3e
       0.38759333 0.31998536 0.14264156 0.17092228
000030 85 11 42 3e 15 5e 17 3e d7 2f 9f 3e ca 0b ba 3d
       0.18951996 0.14781983 0.31091186 0.0908428
000040 07 0c 67 3e e2 48 08 3e b2 87 42 3e 4a 94 86 3e
       0.22563182 0.13309053 0.18997076 0.2628501
000050 ec 43 36 3e 09 d7 d8 3e 45 7b 23 3e 6d d6 f7 3e
       0.17799348 0.4235156 0.15964992 0.4840578
000060 74 fd 89 3e 6a 4f d5 3e 60 38 8f 3e 1a 60 d8 3d
       0.26951182 0.4166215 0.27972698 0.10565205
000070 6f 7c ab 3e 20 6f 6c 3e 28 62 86 3e 02 ad fb 3d
       0.33493373 0.23089266 0.26246762 0.12288858
