outputs/performance_test/checkpoint_epoch_18.pt (torch, 945914 bytes, 81 tensors)

encoder.lob_enc.conv_in.0.weight f4 [32, 2, 3, 1]
0	0xbde01849	-0.10942132
1	0x3e9f2187	0.31080267
2	0xbe7b709a	-0.24554673
3	0xbd89ec82	-0.067345634
4	0xbb876dce	-0.004132963
5	0xbe55bed7	-0.20873581
6	0x3c6b48fa	0.014360661
7	0xbdc17784	-0.09446624
8	0xbe4d8807	-0.20071422
9	0xbea667dc	-0.32501113
10	0xbbc41d60	-0.005984947
11	0x3ebfe353	0.37478122
12	0x3e1efaf1	0.15525414
13	0xbea0b7a9	-0.31390122
14	0xbe577a56	-0.21042761
15	0x3e880630	0.2656722
16	0xbe20b551	-0.15694167
17	0xbd289afc	-0.04116343
18	0xbe42c118	-0.19018972
19	0x3e4edafa	0.2020072
20	0xbe8c2438	-0.27371383
21	0xbeca16e9	-0.39470604
22	0xbea5e18f	-0.3239865
23	0xbeaf5023	-0.34240827
24	0x3d4c38d3	0.04985888
25	0x3d98a737	0.07453769
26	0xbe06350d	-0.13106175
27	0x3e150f46	0.14556608
28	0x3d3ceb94	0.046123102
29	0x3dc4d215	0.096103825
30	0x3e577711	0.21041514
31	0x3db87c1b	0.09008046
32	0x3ec95a55	0.3932673
33	0x3ea058f4	0.31317866
34	0xbe62398b	-0.22092263
35	0x3e97ff11	0.29686788
36	0xbd40c912	-0.047066756
37	0xbcccfd94	-0.02502326
38	0x3d102170	0.03518814
39	0xbeb8ca67	-0.3609192
40	0x3e879bd4	0.26486075
41	0x3e8625a6	0.26200598
42	0x3ec69516	0.3878562
43	0x3d8bb2d3	0.068212174
44	0xbdf07588	-0.11741167
45	0xbd8b095d	-0.06788895
46	0xbe11b5a0	-0.1422944
47	0xbec169b6	-0.37775964
48	0x3e12fb15	0.14353593
49	0x3d75c2ed	0.06000035
50	0xbdfc0bf6	-0.12306969
51	0xbe72cf88	-0.2371198
52	0xbdb8e603	-0.09028246
53	0x3dea7bcb	0.11449393
54	0x3ea07470	0.31338835
55	0x3e4a514f	0.1975758
56	0x3e95a70b	0.29229006
57	0x3ea653f1	0.32485917
58	0xbe450ca2	-0.192431
59	0xbc9ac615	-0.018893281
60	0xbeac6c75	-0.33676496
61	0xbe6989aa	-0.22806421
62	0x3e2a7fe5	0.1665035
63	0x3e1f809e	0.15576407
64	0x3e3e8f3c	0.18609327
65	0x3eb6f64c	0.35734785
66	0x3e257ecf	0.16161655
67	0xbe512194	-0.20422965
68	0xbdb95c8e	-0.090508565
69	0x3cd4ea8b	0.025990745
70	0x3e4ff75c	0.20309204
71	0xbe5c227f	-0.21497534
72	0xbe239332	-0.1597412
73	0x3e191342	0.14948753
74	0x3e1b6525	0.15175302
75	0x3ecbf709	0.3983691
76	0x3eb4cd16	0.35312718
77	0xbe33c794	-0.17556602
78	0x3e1c1e45	0.15245922
79	0xbe735f86	-0.23766908
80	0xbc1cadb4	-0.009562898
81	0xbcb2c965	-0.021824548
82	0x3dd24c61	0.10268474
83	0x3ebedc78	0.3727758
84	0xbeaa6d33	-0.33286437
85	0x3eb910dc	0.36145675
86	0x3e8ad83f	0.27118108
87	0xbe5904f6	-0.21193299
88	0xbdff546f	-0.12467276
89	0xbdd35e16	-0.1032068
90	0x3e7c7da7	0.24657308
91	0xbde599c3	-0.11210968
92	0x3e160725	0.14651163
93	0xbe2941cc	-0.16529006
94	0x3eac2b49	0.33626774
95	0xbd326cc0	-0.043560743
96	0x3ecb84f2	0.39749867
97	0xbe97c604	-0.2964326
98	0xbdf1bff7	-0.118041925
99	0x3e8909d6	0.26765317
100	0x3e115f7b	0.14196579
101	0xbe4d0b38	-0.20023811
102	0xbeb087a1	-0.34478477
103	0xbe9fadad	-0.31187192
104	0xbea81432	-0.32827908
105	0xbe7d91ed	-0.24762698
106	0xbe835547	-0.25651
107	0xbdf54329	-0.119757004
108	0x3eb3552c	0.35025918
109	0xbde03451	-0.109474786
110	0xbe83e7d2	-0.25762802
111	0x3e4a95ec	0.19783753
112	0xbe7791ff	-0.24176787
113	0xbe54eb87	-0.20792972
114	0xbd69e615	-0.05710419
115	0xbcf60551	-0.030031832
116	0xbe870d8c	-0.26377523
117	0xbea67a37	-0.32515118
118	0xbed036b0	-0.40666723
119	0xbe331998	-0.17490232
120	0x3e461825	0.19345148
121	0x3cd8f9be	0.026486274
122	0x3ea59f40	0.3234806
123	0x3d6a3b67	0.057185557
124	0xbea195d3	-0.3155962
125	0x3cb6c165	0.022309015
126	0xbde09e9c	-0.10967752
127	0x3e68d8b0	0.2273891
128	0x3dd01fa1	0.10162283
129	0x3ece3d2b	0.40281042
130	0xbebbb4c2	-0.36661345
131	0xbe4f1cdd	-0.20225854
132	0xbeafb809	-0.34320095
133	0x3d1bf2e1	0.038073424
134	0xbe844824	-0.2583629
135	0xbe2c6225	-0.16834314
136	0x3ec94581	0.3931084
137	0xbe0c02c0	-0.13672924
138	0x3e468b85	0.1938916
139	0x3e8a48ac	0.2700857
140	0x3e9a4aed	0.3013529
141	0x3ea5b82f	0.32367083
142	0x3e83ebe6	0.25765914
143	0x3d30281d	0.043007005
144	0x3eb48138	0.35254836
145	0x3ec598b3	0.38593063
146	0xbe8c750a	-0.27433044
147	0x3dbc68e5	0.091996945
148	0x3e92edc3	0.28697023
149	0xbe8ab766	-0.27093047
150	0x3e40d929	0.1883284
151	0x3e87dd7a	0.2653616
152	0xbc1413e8	-0.009037949
153	0xbdd72aaa	-0.105061844
154	0xbd0d4c09	-0.03449634
155	0x3ea8b5a0	0.3295107
156	0xbeab879c	-0.335019
157	0x3e1d88ca	0.15384212
158	0xbe6cca3c	-0.23124021
159	0x3e87399a	0.26411134
160	0xbe34c6f2	-0.17654017
161	0x3da454f2	0.080240145
162	0x3e7a1951	0.2442372
163	0xbd5c112c	-0.053727314
164	0xbd3c5626	-0.045980595
165	0x3eb4550a	0.3522113
166	0x3ec9daf6	0.39424866
167	0x3e720642	0.236352
168	0x3c8ec842	0.017429475
169	0xbc2ce578	-0.0105527565
170	0xbe7ef364	-0.24897534
171	0x3e91449b	0.28372654
172	0x3e2740f6	0.16333374
173	0x3eaad009	0.33361843
174	0xbe8bf3ee	-0.2733454
175	0x3dbc543c	0.09195754
176	0x3d93e42b	0.07221254
177	0xbe078474	-0.1323412
178	0xbd53fbe7	-0.051753905
179	0x3d9b11c4	0.07571748
180	0xbdf22093	-0.11822619
181	0x3ec34bb6	0.381437
182	0xbebed86a	-0.37274486
183	0xbd872231	-0.06598318
184	0xbe4c0dc5	-0.19927128
185	0x3e9ad1ac	0.30238092
186	0xbe12997d	-0.14316364
187	0xbdbb4e0f	-0.09145748
188	0x3eb5ce95	0.35509172
189	0xbeb51326	-0.35366172
190	0xbe06d915	-0.13168748
191	0x3eb5325b	0.3538998

encoder.lob_enc.conv_in.0.bias f4 [32]
0	0x3e92dbc3	0.2868329
1	0xbdee1bed	-0.1162642
2	0xbd9d51d1	-0.07681621
3	0xbe473a1c	-0.1945576
4	0x3da5734d	0.080786325
5	0x3df518b1	0.119676
6	0x3e8d32c5	0.27577797
7	0x3e377f3d	0.17919631
8	0x3e52dbe5	0.20591696
9	0xbd852469	-0.06501085
10	0xbe9560cb	-0.2917541
11	0x3e66d1e5	0.22541006
12	0xbbe85789	-0.007090513
13	0xbe88c476	-0.26712388
14	0x3d159c31	0.03652591
15	0x3ececf11	0.40392354
16	0xbd0cfa19	-0.0344182
17	0xbeae99df	-0.3410177
18	0x3e7c76e1	0.24654724
19	0x3e9b6c71	0.30356172
20	0xbe8591b9	-0.2608774
21	0xbeb6d000	-0.35705566
22	0xbe958c94	-0.29208815
23	0x3e2be015	0.167847
24	0xbe2b8fef	-0.16754125
25	0xbecd51a8	-0.4010136
26	0xbceffcb9	-0.029295312
27	0xbe54646b	-0.20741431
28	0xbdf77c95	-0.12084309
29	0xbe24fc62	-0.16111901
30	0xbe0c44f5	-0.1369818
31	0xbe8816c3	-0.26579866

encoder.lob_enc.conv_in.1.weight f4 [32]
0	0x3f80d6f8	1.0065603
1	0x3f80e98d	1.0071274
2	0x3f810ecc	1.0082641
3	0x3f808aaf	1.0042323
4	0x3f8026a1	1.0011789
5	0x3f7fe5d1	0.99960047
6	0x3f7f4659	0.99716717
7	0x3f816369	1.0108463
8	0x3f80ced4	1.0063119
9	0x3f80af78	1.0053549
10	0x3f7b7368	0.9822297
11	0x3f7d2042	0.98877347
12	0x3f808abc	1.0042338
13	0x3f7dc7cc	0.9913299
14	0x3f7e731a	0.9939438
15	0x3f808975	1.0041949
16	0x3f7cf7d4	0.98815656
17	0x3f815a45	1.0105673
18	0x3f810048	1.0078211
19	0x3f801dc0	1.0009079
20	0x3f7de66e	0.9917973
21	0x3f7de46d	0.99176675
22	0x3f80c899	1.0061218
23	0x3f7eb233	0.9949066
24	0x3f80b38b	1.0054792
25	0x3f7ee1c5	0.99563247
26	0x3f80bf15	1.0058314
27	0x3f81405b	1.0097765
28	0x3f806c1f	1.0032996
29	0x3f7fb2ae	0.9988202
30	0x3f81c9ba	1.0139687
31	0x3f80bdbc	1.0057902

encoder.lob_enc.conv_in.1.bias f4 [32]
0	0x3b9b8197	0.004745673
1	0x3b9564ab	0.0045591197
2	0x3c0efa9c	0.008726742
3	0x393c61af	0.00017965467
4	0xbb8edd12	-0.0043598497
5	0x3c0b9271	0.008518801
6	0x3c122f0c	0.00892235
7	0x3bfb0ff8	0.0076618157
8	0x3bc4436a	0.0059894817
9	0x3c106574	0.008813251
10	0xbc2bad7c	-0.010478374
11	0xba9ec695	-0.0012113625
12	0xbc31f120	-0.010860711
13	0x3a94a3cc	0.0011340319
14	0xbb3aea57	-0.0028521025
15	0x3c3f67a9	0.011682429
16	0x3ae33b5f	0.001733642
17	0x3c058c6a	0.008151153
18	0x3bc386a4	0.005966978
19	0x3b132c11	0.0022456686
20	0x3c1480fc	0.009063955
21	0x39e4c910	0.00043637352
22	0x3b4f3db1	0.0031622464
23	0x3c2d8bbe	0.010592399
24	0x3c2fda5c	0.010733213
25	0x3a5e35ed	0.00084766635
26	0x3bab027b	0.0052188016
27	0x3c15119c	0.009098437
28	0x3c1b716e	0.009487493
29	0xbbc9fd30	-0.0061642155
30	0x3c4d1762	0.012517782
31	0x3bf31689	0.007418458

encoder.lob_enc.conv_in.1.running_mean f4 [32]
0	0xcd5fa823	-2.3452114e+08
1	0xcd255dd8	-1.7339942e+08
2	0xcd56626c	-2.247984e+08
3	0xce65512e	-9.6182566e+08
4	0x4d4503e2	2.0658538e+08
5	0x4e3af5bb	7.841666e+08
6	0x4cb835bd	9.657905e+07
7	0xcd2d5588	-1.8175398e+08
8	0xccb88a74	-9.675254e+07
9	0x4e1e8a9b	6.6497094e+08
10	0x4d4ff511	2.1805902e+08
11	0xcca573b7	-8.6744504e+07
12	0x4dfb0739	5.2644432e+08
13	0x4d769b5a	2.5858602e+08
14	0xccbb26c6	-9.812126e+07
15	0x4d8e55d2	2.9849862e+08
16	0x4d03098b	1.3740254e+08
17	0xce8bfead	-1.1743617e+09
18	0xcd3f3769	-2.0050498e+08
19	0xce5b026a	-9.185921e+08
20	0x4d510d91	2.1920795e+08
21	0x4c0edfc2	3.7453576e+07
22	0xcda31f9b	-3.420947e+08
23	0x4e72060c	1.01512064e+09
24	0x4dca2742	4.239463e+08
25	0x4ddd259d	4.6377872e+08
26	0xcd28fcdd	-1.771965e+08
27	0x4e44241c	8.226752e+08
28	0x4dbb7c7c	3.931872e+08
29	0xcd1674c3	-1.5776466e+08
30	0xcc3d2df5	-4.9592276e+07
31	0xcb2f6516	-1.1494678e+07

encoder.lob_enc.conv_in.1.running_var f4 [32]
0	0x5b8fd2a7	8.096507e+16
1	0x5b38d150	5.2021537e+16
2	0x5b93b888	8.315943e+16
3	0x5d6fe06e	1.0803085e+18
4	0x5b38d9e1	5.2030956e+16
5	0x5d22c17d	7.32987e+17
6	0x5af40724	3.4343873e+16
7	0x5b6aa7db	6.6049704e+16
8	0x5a5f6823	1.5720855e+16
9	0x5ceab111	5.2847865e+17
10	0x5b90de99	8.155429e+16
11	0x5a96bd92	2.121484e+16
12	0x5c94123e	3.3342683e+17
13	0x5b9f8ada	8.981438e+16
14	0x5b1542b8	4.201313e+16
15	0x5bc6aa3f	1.1183847e+17
16	0x5b5c05d6	6.193091e+16
17	0x5db08b55	1.5901694e+18
18	0x5b969588	8.477132e+16
19	0x5d585cd7	9.744108e+17
20	0x5b80d756	7.253112e+16
21	0x5aa80474	2.3646346e+16
22	0x5c132fe2	1.6571788e+17
23	0x5d83fa25	1.1887443e+18
24	0x5c624af8	2.547831e+17
25	0x5c635e6e	2.5599459e+17
26	0x5b2f6a1e	4.93748e+16
27	0x5d2f46bb	7.8937424e+17
28	0x5c26faee	1.8800298e+17
29	0x5b10add4	4.0723523e+16
30	0x5aa94f8b	2.3828365e+16
31	0x5b393ea9	5.2141766e+16

encoder.lob_enc.res_blocks.0.conv1.weight f4 [32, 32, 3, 1]
0	0xbd1beaa7	-0.03806558
1	0xbd9b368f	-0.075787656
2	0xbcc786f1	-0.024356337
3	0xbda58efe	-0.08083914
4	0xbc118086	-0.00888074
5	0x3d553c11	0.052059237
6	0xbd834477	-0.06409543
7	0xbd0e837b	-0.03479336
8	0xbcfe1050	-0.031013638
9	0xbd47477c	-0.048652157
10	0xbdab24e8	-0.08356649
11	0x3c5ea55f	0.013589232
12	0xbcad662a	-0.02116688
13	0xbbc0c65f	-0.0058830227
14	0xbd013e26	-0.03155341
15	0xbd93a99e	-0.07210086
16	0xbd3c4f5c	-0.04597412
17	0x3d40fa0e	0.04711347
18	0x3d69f62d	0.057119537
19	0xbd1bd8f6	-0.038048707
20	0x3d4fde41	0.050749067
21	0xbda28647	-0.079357676
22	0xbca29508	-0.019846454
23	0xbdca0437	-0.09864085
24	0xbd025f41	-0.031829122
25	0x3c8d4e8d	0.01724937
26	0x3d422e30	0.04740733
27	0x3ce17eb0	0.02752623
28	0x3d183c46	0.037166856
29	0xbcdeba1e	-0.027188357
30	0x3dbfa5c5	0.0935779
31	0xbdb1c261	-0.08679653
32	0xbcea6ffe	-0.028617855
33	0xbd067116	-0.03282269
34	0x3d5f40b5	0.05450507
35	0x3c8c6b68	0.017141059
36	0x3db07ae5	0.0861719
37	0xbda156af	-0.07877862
38	0x3cdfc9bb	0.027317872
39	0xbdb8236f	-0.089911334
40	0x3cc5656f	0.024096219
41	0xbd4d2576	-0.050084554
42	0xbd7b2215	-0.0613118
43	0x3bb69ca6	0.005572873
44	0xbb0697a8	-0.0020537172
45	0x3dbc2ea3	0.09188583
46	0x3d963f1f	0.07336258
47	0x3abcd502	0.0014406743
48	0x3d1517a5	0.036399502
49	0x3b0d47d9	0.0021557717
50	0xbcdb1514	-0.02674345
51	0xbdb4d717	-0.08830088
52	0xbdc36665	-0.095410146
53	0xbb564699	-0.0032695888
54	0xbd871e0b	-0.06597527
55	0x3d992e86	0.07479577
56	0xbd662bdc	-0.05619417
57	0x3c540c82	0.012942435
58	0xbd803a10	-0.062610745
59	0x3db63bba	0.08898111
60	0x3d30e0ec	0.043183252
61	0x3d3de4dc	0.046360835
62	0x3cbc2d84	0.022970922
63	0xbcba0f04	-0.022712238
64	0xbd47271a	-0.048621275
65	0xbd631b9f	-0.055446263
66	0xbdd35174	-0.1031827
67	0xbcf1f3c6	-0.029535186
68	0xbd5779ae	-0.052606277
69	0x3da84dee	0.08217989
70	0x3db44814	0.0880281
71	0xbd954580	-0.07288647
72	0xbbefaa53	-0.0073140054
73	0xbdbfa896	-0.09358327
74	0x3d37e1da	0.044893123
75	0x3d8ba041	0.068176754
76	0xbd828816	-0.063736126
77	0xbd9cd554	-0.076578766
78	0xbd00bccc	-0.03143005
79	0x3d94297c	0.07234475
80	0x3d757794	0.05992849
81	0xbd84022d	-0.064457275
82	0xbbbe2875	-0.0058031627
83	0xbdaa4fa5	-0.08315972
84	0x3dab0494	0.083504826
85	0x3d0d75dd	0.03453623
86	0xbd3daa35	-0.0463049
87	0x3cf7b5c2	0.030238036
88	0xbc03b8b7	-0.008039645
89	0xbdaca754	-0.08430353
90	0xbdd12bc6	-0.10213427
91	0x3dad9102	0.08474924
92	0xbd8678fb	-0.06566044
93	0x3d5e0b27	0.054209854
94	0xbd176971	-0.03696579
95	0x3d1fa90b	0.03897957
96	0x3ce75b40	0.028241754
97	0x3d2da0b8	0.0423896
98	0xbd6fde33	-0.058561515
99	0x3d112cc7	0.035443094
100	0x3c3e4d77	0.011615149
101	0xbc837439	-0.01604663
102	0xbc3eb4c9	-0.011639782
103	0xbc3177de	-0.010831801
104	0x3d253e69	0.040342722
105	0x3d355733	0.044272613
106	0xbd689d9d	-0.056790937
107	0xbca9977a	-0.020702112
108	0xbc691b34	-0.014227677
109	0xbd02a71f	-0.03189766
110	0x3d5a3c83	0.053280365
111	0x3dcf3d31	0.10119093
112	0x3d59be96	0.053160273
113	0xbcb01411	-0.021493943
114	0x3d934503	0.07190897
115	0x3dd9cad2	0.10634388
116	0xbbaa30c7	-0.005193803
117	0x3d9c2fdc	0.07626316
118	0x3c96fb4a	0.01843037
119	0xbd2a11f7	-0.04152104
120	0x3c8030c6	0.015648257
121	0x3ba2715b	0.0049573607
122	0x3c339b69	0.010962346
123	0xbca60e40	-0.020270467
124	0xbd90e452	-0.07074799
125	0xbdb4590c	-0.08806047
126	0xbd6e4110	-0.058167517
127	0x3d7dec30	0.061992824
128	0xbcd8ff8e	-0.026489045
129	0xbdddbf57	-0.10827511
130	0x3da22ad1	0.07918323
131	0xbdf76985	-0.12080673
132	0x3cb7639a	0.02238636
133	0x3dc5f012	0.096649304
134	0xbd382a94	-0.04496248
135	0x3bc70c37	0.006074454
136	0x3dca3c7b	0.09874817
137	0x3dae4db8	0.085109174
138	0x3da27f2d	0.07934413
139	0xbbeeb627	-0.007284898
140	0x3d6fb038	0.058517665
141	0x3d343911	0.043999735
142	0x3c80ead5	0.015736977
143	0x3db5158c	0.08842
144	0x3ce3ae27	0.027793003
145	0x3da7af18	0.08187693
146	0xbd80426e	-0.062626705
147	0x3c577cd6	0.013152322
148	0xbde6b4b4	-0.11264935
149	0xbab66485	-0.0013915455
150	0x3c9b1d2e	0.018934812
151	0x3d4cd0ab	0.05000369
152	0x3cfe01a9	0.031006651
153	0xbd808276	-0.062748834
154	0x3d2d9e33	0.0423872
155	0xbdf6ba51	-0.12047256
156	0x3db29729	0.08720238
157	0x3d333f24	0.043761387
158	0xbc25153d	-0.010075864
159	0x3cfa86b0	0.030581802
160	0x3d5c3e37	0.05377027
161	0xbd8b23d8	-0.06793946
162	0x3d5103bc	0.051028952
163	0x3c01e8e5	0.007929062
164	0x3dacb68e	0.08433257
165	0x3c22b1b3	0.009930062
166	0x3c82706e	0.015922751
167	0x3ce20f60	0.027595222
168	0x3db1608e	0.086609945
169	0xbd956386	-0.07294373
170	0x3d8b5bae	0.06804596
171	0x3d898ea7	0.06716662
172	0xbbf24d93	-0.0073945015
173	0xbd8dc60b	-0.06922539
174	0x3d6eadff	0.058271404
175	0x3d1002dd	0.03515898
176	0xbd3bbde6	-0.0458354
177	0x3cc5ff92	0.024169717
178	0xbccc6692	-0.024951253
179	0xbd2d27d7	-0.042274322
180	0x3de211d8	0.1103856
181	0x3d3a5f5e	0.045501105
182	0x3c3b3654	0.011426527
183	0x3d745463	0.05965079
184	0x3d7f5e68	0.062345892
185	0x3d3137a4	0.043265954
186	0x3d46a2c4	0.04849507
187	0xbdc06aee	-0.09395395
188	0xbd36d8b0	-0.044640243
189	0x3dbb1766	0.09135322
190	0x3d0161e1	0.031587485
191	0x3cdf75a9	0.027277784
192	0xbd975a89	-0.07390315
193	0xbd71f929	-0.05907551
194	0xbd2fbc76	-0.04290434
195	0x3d25d088	0.040482074
196	0xbd3f5c90	-0.046719134
197	0x3d9e710c	0.07736406
198	0xbdab555c	-0.083658904
199	0xbd073aa8	-0.033014923
200	0x3d8dfb60	0.069327116
201	0xbd477579	-0.048696015
202	0xbba3a765	-0.00499432
203	0xbd129092	-0.035782404
204	0x3cfa94f5	0.030588606
205	0xbd64db6a	-0.055873312
206	0xbda59358	-0.08084744
207	0xbd3634b6	-0.044483863
208	0x3d144cd8	0.036206096
209	0xbd06008f	-0.032715376
210	0xbda8a329	-0.08234245
211	0xbd00095a	-0.03125892
212	0xbd41c0c3	-0.047302973
213	0x3dacb02c	0.084320396
214	0xbce59c4f	-0.028028635
215	0x3d042c63	0.032268893
216	0x3dbfa373	0.09357347
217	0xbd9de178	-0.077090204
218	0x3d206a90	0.039164126
219	0x3bfb3317	0.0076660025
220	0x3da59701	0.08085442
221	0xbb6d75f9	-0.0036233647
222	0x3ccb4f1b	0.024817994
223	0xbdcd96cc	-0.10038528
224	0x3dc0e216	0.094181225
225	0xbd8a9ccf	-0.0676819
226	0x3d6b0415	0.05737694
227	0xbdb0f129	-0.08639748
228	0x3c8b4a29	0.017003136
229	0xbb76c4f2	-0.003765401
230	0x3d91379b	0.07090684
231	0xbdcde6c6	-0.10053782
232	0x3da78724	0.08180073
233	0x3dc25daa	0.09490521
234	0x3c78a38c	0.015175711
235	0x3db467e4	0.08808878
236	0x3d9eafcd	0.07748375
237	0x3a351d1c	0.00069089397
238	0x3d4f0ebd	0.050551165
239	0x3aca7e82	0.0015449079
240	0x3ca33496	0.019922536
241	0xbda84163	-0.082155965
242	0xbd1876ec	-0.037222788
243	0xbd7e6dee	-0.062116556
244	0xbd891e60	-0.06695247
245	0xbd948fdd	-0.07254002
246	0xbd52625d	-0.051363338
247	0xbac04111	-0.0014667829
248	0xbca66fc9	-0.020316975
249	0x3d2378cc	0.039910123
250	0x3d1c6efc	0.03819178
251	0xbd11dfb4	-0.03561373
252	0x3d84369d	0.06455729
253	0xbd9d3d37	-0.076776914
254	0xbd875925	-0.066088
255	0x3dbb8450	0.09156096

encoder.lob_enc.res_blocks.0.conv1.bias f4 [32]
0	0xbe11aa48	-0.14225113
1	0xbe25e8b0	-0.16202044
2	0xbe176eef	-0.14788412
3	0xbe63cbe9	-0.22245754
4	0xbe6fedb4	-0.2343052
5	0xbe371455	-0.1787885
6	0xbe61a1f1	-0.22034432
7	0xbdabf0e4	-0.083955556
8	0xbe42176b	-0.18954246
9	0xbe3b8dad	-0.18315764
10	0xbe09f948	-0.13474
11	0xbddebd7f	-0.10875987
12	0xbd7c0bd2	-0.06153471
13	0xbe0b1348	-0.13581574
14	0xbdd53d07	-0.10412031
15	0xbe04f124	-0.12982613
16	0xbd7d1338	-0.061785907
17	0xbdeab44d	-0.11460171
18	0xbdccd65f	-0.100018255
19	0xbe11e5d7	-0.14247833
20	0xbdd698f5	-0.10478393
21	0xbe10b2f9	-0.14130773
22	0xbe430a8a	-0.19046989
23	0xbe3c4b07	-0.18387996
24	0xbd888020	-0.06665063
25	0xbe0efae4	-0.13962895
26	0xbd1206ae	-0.0356509
27	0xbd88bc46	-0.06676535
28	0xbd79fccf	-0.061032113
29	0xbe02c3e3	-0.12770037
30	0xbdb62afe	-0.08894919
31	0xbde2488c	-0.110489935

encoder.lob_enc.res_blocks.0.bn1.weight f4 [32]
0	0x3f7e6142	0.99367154
1	0x3f7f5634	0.9974091
2	0x3f8066d2	1.0031378
3	0x3f7e85b8	0.9942279
4	0x3f7c0cfc	0.9845731
5	0x3f80bf27	1.0058335
6	0x3f7e137b	0.99248475
7	0x3f7f9560	0.99837303
8	0x3f7ef3f5	0.99591
9	0x3f7f4a82	0.99723065
10	0x3f7e731e	0.99394405
11	0x3f802cd3	1.0013679
12	0x3f800dca	1.0004208
13	0x3f7f8513	0.9981243
14	0x3f7f1b68	0.99651194
15	0x3f80f052	1.007334
16	0x3f7e7c61	0.9940854
17	0x3f8145fb	1.0099481
18	0x3f7e2382	0.9927293
19	0x3f7bd0d5	0.9836553
20	0x3f808a5c	1.0042224
21	0x3f7ccfdc	0.9875467
22	0x3f81e1e3	1.014706
23	0x3f80b139	1.0054084
24	0x3f8111b1	1.0083524
25	0x3f81d5a2	1.014332
26	0x3f80a51d	1.0050389
27	0x3f816755	1.010966
28	0x3f7e9f69	0.9946199
29	0x3f80ec2a	1.0072072
30	0x3f819dc0	1.0126266
31	0x3f80fe6b	1.0077642

encoder.lob_enc.res_blocks.0.bn1.bias f4 [32]
0	0x3bda96cb	0.006670808
1	0x3b2d3e36	0.0026434786
2	0xba152e32	-0.00056907826
3	0x3a8138d9	0.0009858861
4	0x3b5c3f30	0.0033606999
5	0x3c266392	0.010155575
6	0x3c184260	0.009293169
7	0x3c12151d	0.008916167
8	0xb99e66f3	-0.00030212812
9	0x3b83e69f	0.004025295
10	0xbc1145b1	-0.008866713
11	0x3c1c3e2e	0.009536309
12	0x3bea09bd	0.007142274
13	0x3bb50e52	0.0055253888
14	0x3bc130ae	0.0058956956
15	0x3922ae07	0.00015514354
16	0x3b1ca80a	0.002390387
17	0x3bdd6adf	0.006757125
18	0x392716c8	0.00015934848
19	0xbc71134a	-0.0147140715
20	0x3c32a945	0.010904615
21	0x3ab13869	0.001352084
22	0x3c45cc83	0.012072685
23	0x3c399621	0.011327297
24	0x3c0d03e9	0.008606889
25	0x3bb52202	0.0055277357
26	0x3bcead31	0.006307267
27	0x3c95037d	0.01819014
28	0xbb319fa0	-0.00271032
29	0x3c30edf3	0.010798919
30	0x3c208062	0.009796234
31	0x3b81478e	0.0039452976

encoder.lob_enc.res_blocks.0.bn1.running_mean f4 [32]
0	0xbef0d1d1	-0.47035077
1	0x3e7b6d33	0.24553375
2	0xbeff3571	-0.4984546
3	0xbf0b652a	-0.5445124
4	0xbeaee18c	-0.34156454
5	0xbef89be2	-0.4855643
6	0xbe2acd7b	-0.16679947
7	0x3cd77352	0.026300106
8	0xbe555ab7	-0.20835386
9	0xbdf67f31	-0.120359786
10	0x3e9389ec	0.28816164
11	0x3ebaf6ca	0.3651641
12	0xbe84ba91	-0.2592359
13	0xbe3d44fe	-0.1848335
14	0xbecf00a1	-0.40430167
15	0x3e7c5925	0.24643381
16	0xbd312565	-0.043248553
17	0xbe057356	-0.13032278
18	0xbd90a21d	-0.07062171
19	0xbe8a40fa	-0.27002698
20	0xbe405b7a	-0.18784896
21	0x3d45473c	0.048163638
22	0xbeac4d83	-0.33652887
23	0xbed7b78e	-0.4213223
24	0xbd8346cc	-0.06409988
25	0xbf2cc641	-0.6749001
26	0xbdb90882	-0.09034826
27	0xbe9d598e	-0.30732387
28	0xbdd5b97b	-0.10435768
29	0xbe33c5ee	-0.17555973
30	0xbe767160	-0.24066687
31	0x3df51317	0.11966532

encoder.lob_enc.res_blocks.0.bn1.running_var f4 [32]
0	0x3d687deb	0.05676071
1	0x3f023c34	0.5087311
2	0x3dab1e02	0.08355333
3	0x3d927455	0.07151095
4	0x3d5ec08a	0.05438284
5	0x3d5fa405	0.05459978
6	0x3e8ac019	0.27099684
7	0x3dafd5c6	0.08585696
8	0x3e7503ef	0.23927282
9	0x3e238b2d	0.1597106
10	0x3ec22692	0.37920052
11	0x3dbedc1c	0.09319326
12	0x3e3a83ee	0.1821439
13	0x3d358989	0.044320617
14	0x3d9350f1	0.07193173
15	0x3d717916	0.058953367
16	0x3eb4e11f	0.35328004
17	0x3e88d4dd	0.26724902
18	0x3dd7cb34	0.10536805
19	0x3dd5b186	0.104342505
20	0x3dc010ee	0.09378229
21	0x3ea91122	0.33020884
22	0x3db8a35c	0.09015533
23	0x3eed6361	0.46364883
24	0x3e07bb1f	0.13254975
25	0x3dc088c3	0.09401085
26	0x3e4495a4	0.19197708
27	0x3de1d93e	0.11027764
28	0x3cef382c	0.02920159
29	0x3ea09d3d	0.31369963
30	0x3dccdade	0.10002683
31	0x3d8db147	0.069185786

encoder.lob_enc.res_blocks.0.conv2.weight f4 [32, 32, 3, 1]
0	0x3c8f7a4f	0.017514376
1	0x3ceb9066	0.028755378
2	0xbd8a95ed	-0.06766877
3	0x3da867b4	0.08222905
4	0x3ceae3b6	0.028673034
5	0xbd0718b1	-0.032982532
6	0xbda4c29b	-0.080449305
7	0xbd817b72	-0.063223734
8	0xbc9ea156	-0.01936404
9	0x3c520f94	0.012821097
10	0x3d108c33	0.035289954
11	0x3dc74111	0.09729207
12	0x3d8e89d3	0.06959882
13	0xbc27593c	-0.010214146
14	0xbcabebf4	-0.020986535
15	0x3da3169e	0.07963298
16	0xbb7d19fc	-0.0038620224
17	0x3c4835d3	0.012219864
18	0xbac7f0a5	-0.0015254213
19	0x3db860f5	0.09002868
20	0x3d79a67e	0.060949795
21	0x3d0bd137	0.03413507
22	0x3cd0f353	0.025506651
23	0xbcb15656	-0.021647613
24	0x3cdae104	0.026718624
25	0xbda3726b	-0.07980808
26	0xbd985070	-0.07437217
27	0x3d01028d	0.031496573
28	0x3cbbdfd3	0.022933876
29	0xbd8266a8	-0.063672364
30	0x3d09fc34	0.033687785
31	0x3d147861	0.036247615
32	0x3d40ff68	0.047118574
33	0xbd315133	-0.04329033
34	0xbd671fd4	-0.056426838
35	0xbab77092	-0.001399534
36	0xbc46e34f	-0.0121391555
37	0xbc338c47	-0.010958738
38	0xbda6134b	-0.081091486
39	0x3da0e2a2	0.07855727
40	0x3dc0227f	0.093815796
41	0xbd41ad52	-0.04728443
42	0x3d9a071a	0.07520886
43	0x3cb133f3	0.021631217
44	0x3ce55667	0.027995301
45	0xbbe1f714	-0.006895909
46	0x3dc156db	0.094403945
47	0xbcbe958f	-0.023264674
48	0x3c70ae40	0.014689982
49	0xbc2178fe	-0.009855507
50	0x3b5600f3	0.0032654374
51	0xbd332987	-0.043740775
52	0xbd857c2f	-0.06517827
53	0x3d8c89ef	0.06862246
54	0xbdc00b76	-0.09377186
55	0xbd8395d9	-0.064250655
56	0x3dc0b751	0.09409965
57	0xbd4b92e3	-0.04970063
58	0xbc3c34d0	-0.011487201
59	0xbdcaade0	-0.09896445
60	0xbcf360be	-0.029709216
61	0xbd396245	-0.045259733
62	0x3d166f02	0.03672696
63	0x3d3d5eb7	0.046232905
64	0x3db1401c	0.08654806
65	0xbd1cb5c7	-0.038259294
66	0x3dc8aa73	0.097981356
67	0x3d2427ed	0.04007714
68	0xbdb39661	-0.08768917
69	0xbdaf29db	-0.08552905
70	0xbc33a54d	-0.010964704
71	0x3dbd3dd6	0.0924031
72	0x3b39d100	0.0028353333
73	0xbd788ebb	-0.060682993
74	0x3d7abb7c	0.061213955
75	0xbddd44ef	-0.10804164
76	0x3d90d099	0.07071037
77	0xbc524731	-0.012834356
78	0x3c140cf8	0.009036295
79	0xbd096b8f	-0.03354984
80	0x3c8d0a48	0.017216817
81	0xbaeb49b8	-0.0017951047
82	0x3d9854fd	0.07438085
83	0x3dafcc9a	0.085839465
84	0x3d2888df	0.041146155
85	0xbc7828cd	-0.015146446
86	0xbb95c354	-0.004570404
87	0xbd7ef9dc	-0.062250003
88	0x3d828a0e	0.06373988
89	0xbcb28634	-0.021792509
90	0xbdc7deb8	-0.09759277
91	0xbcf88734	-0.030337907
92	0xbd92b760	-0.07163882
93	0xbda4fe3c	-0.08056304
94	0x3c9a6fff	0.018852232
95	0x3c228c2d	0.009921116
96	0xbd5216a2	-0.051291116
97	0xbd8f4b35	-0.069967665
98	0x3d2039cb	0.039117616
99	0x3cbf631c	0.023362689
100	0x3d913d1b	0.07091733
101	0x3d64e4fd	0.055882443
102	0xbd5386a5	-0.05164208
103	0x3d82aa1a	0.063801005
104	0xbda2cf1a	-0.07949658
105	0xbda90661	-0.0825317
106	0x3d47e3ec	0.048801348
107	0x3dc87103	0.0978718
108	0x3d52348d	0.051319648
109	0x3aefd56e	0.001829786
110	0xbd349be7	-0.044093993
111	0x3dd9aa40	0.10628176
112	0xbd7b0992	-0.061288424
113	0x3dc59b04	0.096487075
114	0xbd8b5978	-0.06804174
115	0xbdccc0f9	-0.09997744
116	0xbbac6a4f	-0.0052616964
117	0x3d00fd91	0.03149182
118	0xbdaa2400	-0.08307648
119	0xbceeeda1	-0.029166045
120	0xbb0c7289	-0.0021430573
121	0xbbe6e264	-0.007046031
122	0xbd430ebd	-0.047621477
123	0x3dc04405	0.09387974
124	0xbd9482a0	-0.07251477
125	0x3d8a19b2	0.06743182
126	0x3d02d5c2	0.031942137
127	0xbd2598a4	-0.040428773
128	0x3d3f1ca1	0.046658162
129	0xbda3d367	-0.07999306
130	0xbd84e12d	-0.06488261
131	0x3d753159	0.059861515
132	0xbd4737cd	-0.0486372
133	0x3d5e5cfe	0.054287903
134	0xbdb9eed8	-0.09078759
135	0x3c9551fa	0.018227566
136	0xbdb9890f	-0.09059345
137	0x3d543c96	0.05181559
138	0x3dd3e58e	0.103465185
139	0x3d8b7879	0.06810088
140	0x3d127d96	0.0357643
141	0x3d84b8ce	0.06480561
142	0x3db7b06e	0.08969198
143	0x3d6689c7	0.05628374
144	0x3d391516	0.045186125
145	0x3d0a292a	0.033730663
146	0x3cd33b63	0.025785154
147	0x3d77982f	0.060447868
148	0x3d9818cc	0.07426605
149	0xbd1588b8	-0.03650734
150	0x3c66c817	0.014085791
151	0x3d46baf1	0.048518125
152	0xbdab2c53	-0.083580635
153	0xbd944a7d	-0.0724077
154	0xbcbfdb47	-0.02341999
155	0x3c9da7d3	0.019245064
156	0x3d885932	0.06657638
157	0x3d628420	0.055301785
158	0x3d61a743	0.055091154
159	0xbcab2bad	-0.02089485
160	0xbcc9779a	-0.024593163
161	0xbdc706fa	-0.097181275
162	0x3baaa485	0.0052076005
163	0xbce6589d	-0.028118426
164	0xbd9f8150	-0.07788336
165	0x3d2d72c1	0.042345766
166	0x3d6500a6	0.05590882
167	0x3cd33e57	0.025786562
168	0xbd99e635	-0.07514612
169	0xbcf491e9	-0.029854732
170	0xbdc30ce8	-0.09523946
171	0xbbea9a8b	-0.0071595362
172	0x3d8d3f99	0.06896896
173	0x3dc38b8f	0.09548103
174	0xbdb687d7	-0.08912628
175	0xbcbd88f2	-0.02313659
176	0xbd63bf7b	-0.055602532
177	0x3d9fd4d6	0.07804267
178	0x3dd471fe	0.10373305
179	0xbdac3144	-0.08407834
180	0xbd14f94c	-0.03637056
181	0x3c7541fb	0.014969344
182	0xbdb25582	-0.087077156
183	0xbdd703b8	-0.10498756
184	0xbd9073c8	-0.070533335
185	0x3d90cb7b	0.07070061
186	0x3c765ea6	0.015037214
187	0xbd4e9742	-0.05043722
188	0xbc9dfbc6	-0.019285094
189	0x3dbbf15d	0.09176896
190	0xbdc4bce0	-0.096063375
191	0x3d214fae	0.03938263
192	0xbc6d18db	-0.014471258
193	0xbddddc34	-0.10833016
194	0x3d9a6ce3	0.075403
195	0xbd7562de	-0.05990874
196	0x3d8eb564	0.06968191
197	0xbb9f287e	-0.004857122
198	0x3c8d815c	0.017273597
199	0xbca81cc4	-0.020521529
200	0xbdb8a74b	-0.090162836
201	0x3d2fbd1b	0.042904954
202	0xbd2db8ec	-0.042412683
203	0x3cefc09b	0.029266646
204	0x3dade677	0.08491223
205	0xbd288d4c	-0.041150376
206	0x3994de3c	0.00028394337
207	0x3ce76db3	0.02825055
208	0xbd2d2f80	-0.042281628
209	0x3d1424a8	0.03616777
210	0xbd5e5841	-0.054283384
211	0x3d8e0631	0.06934775
212	0xbcec10c6	-0.028816592
213	0xbc88f10c	-0.016716503
214	0xbd34911b	-0.044083696
215	0xbb369c7e	-0.0027864273
216	0x3d70b329	0.05876461
217	0x3bd92ed5	0.0066278973
218	0xbd44e871	-0.048073236
219	0x3dc939b5	0.0982546
220	0x3dbe5e6f	0.092953555
221	0xbd1b5bdc	-0.0379294
222	0xbd8b1aed	-0.06792245
223	0xbdaaaa38	-0.08333248
224	0x3bc4fd27	0.0060116234
225	0x3dc9e17a	0.09857459
226	0x3d0e0867	0.03467598
227	0x3d33fe7a	0.04394386
228	0xbdd951c3	-0.10611298
229	0x3cf819db	0.030285766
230	0x3d257899	0.040398214
231	0xbd1121c4	-0.035432592
232	0xbd94c1a6	-0.07263498
233	0xbcd7f892	-0.026363645
234	0xbdbcd4e0	-0.0922029
235	0x3db1851f	0.08667969
236	0xbd8a1021	-0.067413576
237	0x3dce5cad	0.1007627
238	0xbdbe888a	-0.093033865
239	0x3d9b5781	0.075850494
240	0xbd59685f	-0.05307805
241	0xbdb95d29	-0.09050972
242	0x3c877a9c	0.016537957
243	0x3dd517e5	0.10404948
244	0xbd22071f	-0.039557572
245	0x3cc3c67e	0.02389836
246	0xbd9a3257	-0.07529133
247	0x3d682d9e	0.05668413
248	0x3da453fa	0.0802383
249	0xbd334e5d	-0.043775905
250	0x3daad093	0.083405636
251	0x3d231024	0.039810315
252	0x3b3fca56	0.0029264889
253	0xbd5e1fde	-0.05422961
254	0x3d68cfe5	0.05683889
255	0xbc03091a	-0.007997775

encoder.lob_enc.res_blocks.0.conv2.bias f4 [32]
0	0xbddd22b2	-0.10797633
1	0xbe1a9f85	-0.15099914
2	0xbe192320	-0.14954805
3	0xbdf6ecda	-0.120568946
4	0xbe035b06	-0.12827691
5	0xbe246a1a	-0.160561
6	0xbe26bf04	-0.16283804
7	0xbe380eba	-0.17974368
8	0xbe1fd373	-0.15608005
9	0xbe611d51	-0.2198384
10	0xbe35d8a0	-0.17758417
11	0xbe0ec66a	-0.13942876
12	0xbe37e83a	-0.17959681
13	0xbdecccec	-0.11562523
14	0xbdc96844	-0.0983434
15	0xbdce55d0	-0.10074961
16	0xbe52bc8a	-0.20579734
17	0xbe0b2752	-0.13589218
18	0xbe3a3bae	-0.18186828
19	0xbdae4c89	-0.08510692
20	0xbd6ebef4	-0.058287576
21	0xbd1b40d6	-0.03790363
22	0xbe28a199	-0.16467895
23	0xbd807481	-0.06272221
24	0xbdf2c4a8	-0.118539155
25	0xbe1b8702	-0.1518822
26	0xbda5140b	-0.080604635
27	0xbe53c570	-0.20680785
28	0xbe6e7352	-0.23286179
29	0xbd44b73f	-0.04802632
30	0xbde0ad35	-0.109705366
31	0xbd8ec626	-0.069713876

encoder.lob_enc.res_blocks.0.bn2.weight f4 [32]
0	0x3f7da0f1	0.990737
1	0x3f8084da	1.0040543
2	0x3f811172	1.0083449
3	0x3f7dd945	0.9915965
4	0x3f80fabb	1.0076517
5	0x3f7ff075	0.99976283
6	0x3f810af3	1.0081466
7	0x3f80dc8d	1.0067307
8	0x3f8099ef	1.0046977
9	0x3f80c986	1.00615
10	0x3f801809	1.0007335
11	0x3f7f9a86	0.9984516
12	0x3f80fddb	1.007747
13	0x3f80e27e	1.006912
14	0x3f7ea013	0.99463004
15	0x3f81200b	1.0087904
16	0x3f801054	1.0004983
17	0x3f7eef6f	0.99584097
18	0x3f80dc0d	1.0067154
19	0x3f803824	1.0017133
20	0x3f80156b	1.0006536
21	0x3f80d47e	1.0064847
22	0x3f801312	1.000582
23	0x3f810ee6	1.0082672
24	0x3f80d5a9	1.0065204
25	0x3f802f8e	1.0014513
26	0x3f813f1d	1.0097386
27	0x3f81232b	1.0088857
28	0x3f80e91f	1.0071143
29	0x3f7ed15d	0.99538213
30	0x3f811e96	1.0087459
31	0x3f812616	1.0089748

encoder.lob_enc.res_blocks.0.bn2.bias f4 [32]
0	0x3bb54c25	0.005532759
1	0xb7c00fdf	-2.2895574e-05
2	0x3c19b91d	0.009382513
3	0xbb9365fe	-0.0044982424
4	0x3c04c737	0.008104137
5	0x3b863568	0.004095722
6	0x3c1060ae	0.008812113
7	0x3c198ceb	0.009371976
8	0x3c0c971d	0.00858095
9	0x3bea70b8	0.0071545504
10	0xbbc119c5	-0.0058929645
11	0x3a6fc775	0.0009146848
12	0x3b9edbb6	0.004847969
13	0x3b91e451	0.0044522663
14	0xbc15ed13	-0.009150761
15	0x3c17f0d8	0.00927373
16	0x3afc3a57	0.0019243461
17	0xbaaef766	-0.0013348877
18	0x3c16d462	0.009205909
19	0x3a13458c	0.0005617968
20	0xb906fe71	-0.00012874023
21	0x3bfefa5f	0.0077813114
22	0xbb3dd28d	-0.002896461
23	0x3bf31320	0.0074180514
24	0x3c069036	0.0082130935
25	0x3b820bfa	0.003968713
26	0x3bddc155	0.0067674317
27	0x3c1344ec	0.0089886
28	0x3bf76511	0.00754989
29	0xbc0aa92a	-0.008463183
30	0x3c2b5813	0.01045801
31	0x3c2483a3	0.01004115

encoder.lob_enc.res_blocks.0.bn2.running_mean f4 [32]
0	0xbd8e43af	-0.06946503
1	0xbdd6c489	-0.10486705
2	0xbdc6e88b	-0.09712323
3	0xbcf41cb9	-0.029798852
4	0xbe584820	-0.21121264
5	0x3d8dd14a	0.06924684
6	0xbef0f244	-0.47059834
7	0x3d4ddf17	0.050261583
8	0xbc17ba38	-0.009260707
9	0xbcfd6916	-0.030933898
10	0xbeb96468	-0.36209416
11	0xbe52b254	-0.2057584
12	0xbd6c52a8	-0.057696015
13	0xbe91b752	-0.28460175
14	0x3e554ad4	0.20829326
15	0xbe83ad43	-0.25718126
16	0xbe985cf7	-0.29758427
17	0x3da6a58d	0.08137045
18	0xbeaf09d3	-0.34187183
19	0xbe678847	-0.2261058
20	0xbec41981	-0.38300708
21	0x3dd5d521	0.10441042
22	0xbcb2562f	-0.021769611
23	0xbe501247	-0.20319472
24	0xbf008de8	-0.5021653
25	0xbe7d2f12	-0.24724987
26	0x3ce0f909	0.0274625
27	0xbd62fc74	-0.05541654
28	0xbe90f95f	-0.28315255
29	0x3d27477f	0.04083967
30	0xbde7065a	-0.11280508
31	0xbd63c64c	-0.055609033

encoder.lob_enc.res_blocks.0.bn2.running_var f4 [32]
0	0x3d2fc7bc	0.04291509
1	0x3d6ddcb2	0.0580718
2	0x3e31d7d7	0.17367493
3	0x3dc261ef	0.094913356
4	0x3d80a0fe	0.06280707
5	0x3db4748f	0.08811294
6	0x3e35a06a	0.17736974
7	0x3e5c9793	0.21542196
8	0x3e0e7245	0.13910778
9	0x3db2c904	0.08729747
10	0x3e06020c	0.13086718
11	0x3d4a9bff	0.049465176
12	0x3d98ff57	0.07470577
13	0x3d8d6664	0.06904295
14	0x3da10bf6	0.078636095
15	0x3e6b07eb	0.22952239
16	0x3d691f7a	0.056914784
17	0x3e145717	0.14486347
18	0x3e0d914a	0.13824955
19	0x3e2fd26b	0.17170112
20	0x3e86019f	0.26173112
21	0x3e3f8701	0.18703844
22	0x3e946852	0.2898584
23	0x3e2a3098	0.166201
24	0x3dc51f1c	0.09625074
25	0x3db47ab6	0.08812468
26	0x3d72917a	0.05922077
27	0x3e6d5983	0.23178677
28	0x3e106adb	0.14103262
29	0x3edaf608	0.42765832
30	0x3d7ebb7f	0.06219053
31	0x3e11ed25	0.1425062

encoder.lob_enc.res_blocks.1.conv1.weight f4 [32, 32, 3, 1]
0	0xbdbb3dfe	-0.091426834
1	0x3c26287a	0.010141486
2	0x3d3c4894	0.045967653
3	0xbd102870	-0.035194814
4	0xbdabf21f	-0.0839579
5	0x3d868b40	0.065695286
6	0x3c94c9bd	0.018162603
7	0x3d39756f	0.04527801
8	0x3db2c3ca	0.0872875
9	0xbdceceef	-0.10098063
10	0x3d81a9c8	0.06331211
11	0xbd3f8c43	-0.046764623
12	0x3d281288	0.041033298
13	0x3d7d20cd	0.06179886
14	0x3d9becdb	0.07613536
15	0x3cf198e5	0.029491851
16	0x3bfdac6c	0.0077415016
17	0xbb8556af	-0.0040691714
18	0xbd280158	-0.041016906
19	0x3d46535f	0.048419353
20	0x3d98e11d	0.07464812
21	0xba922a86	-0.0011151589
22	0xbdb9143f	-0.09037065
23	0xbcf9358f	-0.030421047
24	0xbd1f7a08	-0.038934737
25	0x3d359478	0.044331044
26	0xbdacdfb5	-0.08441106
27	0xbd21d113	-0.03950603
28	0xbd882969	-0.06648523
29	0xbdb519dd	-0.08842824
30	0xbd24fb11	-0.040278498
31	0x3d9bd7c9	0.07609517
32	0x3d607d3c	0.054806933
33	0x3dadca4f	0.08485853
34	0x3bbe2d1f	0.0058037187
35	0x3d8420b6	0.064515516
36	0x3d2f6ab2	0.042826362
37	0x3d8e4715	0.069471516
38	0xbc58cd86	-0.013232594
39	0x3dbb727e	0.09152697
40	0xbc8b3bce	-0.01699629
41	0xbcd4ce47	-0.025977267
42	0x3d1adaf7	0.037806477
43	0x3d1b8eee	0.037978105
44	0xbd835128	-0.06411964
45	0xbd2ac529	-0.041691933
46	0xbdc94386	-0.09827332
47	0x3db56c08	0.08858496
48	0x3cf05f03	0.02934218
49	0x3dad9f26	0.08477621
50	0xbdaaeef3	-0.08346357
51	0x3db9cc38	0.09072155
52	0x3dc0ee4e	0.09420453
53	0x3daf91f6	0.08572762
54	0xbd89c57c	-0.0672712
55	0x3dcfaf3b	0.101408444
56	0xbdb28190	-0.08716118
57	0xbd9edf73	-0.07757463
58	0xbd22c65a	-0.039739944
59	0x3dc17a61	0.0944717
60	0xbceef956	-0.029171627
61	0x3d054730	0.032538593
62	0xbc7dd3fe	-0.015492437
63	0x3d35f476	0.04442259
64	0x3ce26402	0.027635578
65	0x3d8cfe87	0.06884485
66	0x3d496f8e	0.049178652
67	0x3d94bd31	0.07262648
68	0x3daa863d	0.08326385
69	0x3cca2c2e	0.02467927
70	0x3d5400bc	0.051758513
71	0x3db06655	0.08613268
72	0x3d4361f5	0.04770084
73	0xbcf48203	-0.02984715
74	0x3d8f2008	0.06988531
75	0x3c63a2b1	0.013893769
76	0x3d7dbc4a	0.061947145
77	0xbd054ee0	-0.032545924
78	0xbdcafe39	-0.099117704
79	0xbd8c0ac5	-0.068379916
80	0xbc5c17c8	-0.013433404
81	0xbd906385	-0.07050232
82	0xbd471f9f	-0.04861414
83	0x3d39a50d	0.04532342
84	0x3cfdf7a2	0.03100187
85	0xbd0ec77b	-0.03485821
86	0xbc16ee7d	-0.0092121335
87	0xbdd8da79	-0.10588545
88	0xbc445428	-0.011982955
89	0xbb9a7f30	-0.004714869
90	0xbd81002d	-0.06298862
91	0x3da7e24c	0.081974596
92	0xbd606da3	-0.054792058
93	0x3c657a44	0.014006201
94	0xbd6b6b89	-0.0574756
95	0x3d18f657	0.037344303
96	0xbdb25759	-0.087080665
97	0xbb8b317d	-0.004247843
98	0x3d06474c	0.032782838
99	0x3d9ed31d	0.077551104
100	0x3b880c31	0.004151844
101	0x3c49fc09	0.012328156
102	0x3c95001e	0.018188532
103	0xbd2d9db8	-0.04238674
104	0x3cd89443	0.026437884
105	0xbdbd363f	-0.09238862
106	0xbd282398	-0.04104957
107	0xbb025bde	-0.0019891183
108	0xbd075f4a	-0.03304986
109	0x3d39f0e4	0.045395747
110	0xbd8731a3	-0.06601264
111	0x3d0aad95	0.033856947
112	0xbd804a2a	-0.06264146
113	0xbdade9a6	-0.084918305
114	0xba41779f	-0.00073801907
115	0xbb55dd16	-0.0032632998
116	0xbd39f391	-0.0453983
117	0x3dd6a3e2	0.10480477
118	0xbd016a42	-0.031595476
119	0xbc735470	-0.014851674
120	0x3be0850c	0.006851798
121	0xbd23b0a2	-0.039963372
122	0x3cec5b37	0.028852088
123	0x3dc16d43	0.09444668
124	0xbb3a2d62	-0.0028408398
125	0xbd312446	-0.043247484
126	0x3d797711	0.060904566
127	0x3c5e9f7f	0.0135878315
128	0x3d54c8c1	0.051949266
129	0xbba2e6f6	-0.0049713803
130	0xbd86982d	-0.06571994
131	0xbd9605df	-0.073253386
132	0xbd13a47d	-0.03604554
133	0xbdb48dbd	-0.08816097
134	0xbdb50989	-0.08839709
135	0x3d5b4d53	0.05354054
136	0xbc67ce8e	-0.014148368
137	0xbbe53ad1	-0.006995537
138	0xbdb0c8e3	-0.08632066
139	0x3d59a238	0.05313322
140	0x3d94ba22	0.072620645
141	0x3d8a0f12	0.06741156
142	0xbd735f6e	-0.05941718
143	0x3c216cfc	0.009852644
144	0xbd4f77a0	-0.050651193
145	0x3d4549c7	0.048166063
146	0x3d65dfc4	0.056121603
147	0xbd7d3099	-0.061813924
148	0xbdabff6a	-0.08398326
149	0xbd9c1975	-0.07622043
150	0x3d23e0e0	0.04000938
151	0x3cc71609	0.0243025
152	0x3d88b0b4	0.066743284
153	0xbc90347d	-0.017603153
154	0x3da49556	0.08036296
155	0x3db8fa85	0.09032158
156	0xbd9ff669	-0.07810671
157	0xbcb77681	-0.022395374
158	0x3c868c03	0.016424185
159	0x3d8dc3b2	0.069220915
160	0xbdca8552	-0.0988871
161	0x3d35bdbe	0.044370405
162	0x3b0d06cc	0.0021518944
163	0x3d978c6d	0.07399831
164	0xbdcc8a34	-0.09987298
165	0x3d80f3fe	0.06296538
166	0x3d62ed80	0.05540228
167	0xbbaa5ea4	-0.0051992703
168	0xbd08de10	-0.0334149
169	0x3d52e614	0.05148895
170	0xbce5ec73	-0.02806685
171	0xbcbad272	-0.022805426
172	0xbd862bfd	-0.06551359
173	0x3dc52bb7	0.096274786
174	0x3d8898ec	0.066697925
175	0x3ca98d51	0.020697268
176	0x3b972c81	0.0046134596
177	0xbd93d416	-0.072181866
178	0x3d9d0375	0.07666675
179	0x3d1e16b4	0.03859587
180	0x3d05df43	0.032683622
181	0x3d2f0abc	0.042734846
182	0xbda851bd	-0.08218715
183	0xbce6e620	-0.028185904
184	0x3d98a505	0.0745335
185	0xbd00f127	-0.03147998
186	0x3db3d6d5	0.0878121
187	0xbd82203c	-0.063538045
188	0x3d91aa6b	0.07112583
189	0x3dd4a101	0.103822716
190	0xbdb8259e	-0.0899155
191	0x3d8eeb17	0.069784336
192	0x3c6c4c11	0.0144224325
193	0x3d2b8991	0.04187924
194	0xbd329d15	-0.043606836
195	0x3da3dae2	0.08000733
196	0x3cd2465a	0.025668312
197	0xbd8f0f69	-0.06985361
198	0x3dcc70b5	0.09982435
199	0x3b8d72d8	0.004316669
200	0xbc46301a	-0.012096429
201	0x3cdf7e5b	0.02728193
202	0x3c841e1f	0.016127644
203	0xbdbbf673	-0.09177866
204	0x3db30dc5	0.08742861
205	0xbca3547d	-0.019937748
206	0x3cab2271	0.020890446
207	0xbcd1f20c	-0.025628112
208	0xbdcccd0b	-0.10000046
209	0xbdbf8048	-0.093506396
210	0xbd1c3386	-0.038135074
211	0xbd0ee86c	-0.034889624
212	0x3da328fb	0.07966801
213	0x3c81c350	0.015840203
214	0x3ddd4e09	0.108059
215	0x3db1b783	0.0867758
216	0x3c2b4321	0.0104530165
217	0xbd12de71	-0.035856668
218	0x3b3af78d	0.00285289
219	0xbd2ae7c2	-0.041724928
220	0xbdd131fd	-0.10214613
221	0x3cbcbd73	0.023039555
222	0x3d07364e	0.033010773
223	0xbd2739e5	-0.040826697
224	0x3da20571	0.07911194
225	0xbc51dda8	-0.012809195
226	0xbccc843f	-0.024965404
227	0xbd282f0a	-0.041060485
228	0x3dc59706	0.09647946
229	0x3d689a36	0.056787692
230	0xbd8b5196	-0.06802671
231	0xbda35367	-0.07974892
232	0xbdad2792	-0.08454813
233	0x3db06571	0.086130984
234	0x3daae849	0.08345086
235	0x3d583c2c	0.05279176
236	0x3d498e3e	0.04920792
237	0xbd92205f	-0.071350805
238	0x3d8e8934	0.06959763
239	0xbc4dea7d	-0.012568113
240	0xbc0c08b1	-0.008546994
241	0x3bb38349	0.005478297
242	0xbd09aa7b	-0.03360985
243	0x3dc0e448	0.09418541
244	0x3c49ea45	0.012323921
245	0x3d8fb4cb	0.070169054
246	0xbd8aa750	-0.067701936
247	0xbdbe0494	-0.09278217
248	0xbd07f8dd	-0.03319632
249	0x3cd3ae2f	0.025839893
250	0xbd954cd8	-0.072900474
251	0xbd6195e6	-0.055074595
252	0x3ce0707a	0.027397383
253	0x3db7d72e	0.08976589
254	0x3da46410	0.08026898
255	0x3db8690a	0.090044096

encoder.lob_enc.res_blocks.1.conv1.bias f4 [32]
0	0xbdd27e06	-0.10277943
1	0xbdb1ebc3	-0.08687546
2	0xbd291e0b	-0.041288417
3	0xbdd7eb54	-0.10542932
4	0xbd73188c	-0.05934958
5	0xbdbbc59d	-0.09168551
6	0xbe4d8ef8	-0.2007407
7	0xbe1530aa	-0.14569345
8	0xbe428e96	-0.18999705
9	0xbd883fd5	-0.066528
10	0xbdf9ccd4	-0.12197271
11	0xbe661127	-0.2246748
12	0xbd5a3859	-0.053276394
13	0xbdc01358	-0.093786895
14	0xbe1291ae	-0.14313385
15	0xbe604f68	-0.21905291
16	0xbe32889f	-0.1743493
17	0xbe7c9b9b	-0.24668734
18	0xbe627a2a	-0.22116914
19	0xbcbe5a85	-0.023236522
20	0xbe2029a9	-0.15640892
21	0xbd2660ea	-0.04061977
22	0xbdb859ee	-0.09001528
23	0xbd4dd92d	-0.050255943
24	0xbdc1fd42	-0.09472133
25	0xbe55a22f	-0.2086265
26	0xbd5cf4f4	-0.053944543
27	0xbe6fcd9f	-0.23418282
28	0xbddd52fe	-0.10806845
29	0xbdeb4277	-0.114872865
30	0xbda34e24	-0.079738885
31	0xbe6a3e23	-0.22875266

encoder.lob_enc.res_blocks.1.bn1.weight f4 [32]
0	0x3f7eb2a1	0.99491316
1	0x3f8075b8	1.0035925
2	0x3f7f8af8	0.99821424
3	0x3f813510	1.0094318
4	0x3f8064d2	1.0030768
5	0x3f7cce45	0.9875224
6	0x3f7ef039	0.995853
7	0x3f7e41d7	0.99319214
8	0x3f7e23ca	0.9927336
9	0x3f7c39be	0.9852561
10	0x3f81c33a	1.0137703
11	0x3f817735	1.0114504
12	0x3f7f90bf	0.9983024
13	0x3f825e63	1.0185055
14	0x3f80204e	1.0009859
15	0x3f7ead67	0.9948334
16	0x3f809891	1.004656
17	0x3f802b84	1.001328
18	0x3f8117d8	1.0085402
19	0x3f80a455	1.005015
20	0x3f7f244f	0.9966478
21	0x3f80003d	1.0000073
22	0x3f7fe9dd	0.9996622
23	0x3f7e6eae	0.99387634
24	0x3f80cc63	1.0062374
25	0x3f802331	1.001074
26	0x3f7e9804	0.9945071
27	0x3f803fb0	1.0019436
28	0x3f7ce02a	0.9877955
29	0x3f7d86b9	0.99033695
30	0x3f7e6e5f	0.9938716
31	0x3f816249	1.0108119

encoder.lob_enc.res_blocks.1.bn1.bias f4 [32]
0	0xbb47582b	-0.0030417542
1	0xbb7953f0	-0.0038044415
2	0xbc56c102	-0.01310754
3	0x3aaadd6e	0.0013035962
4	0x3c0267fb	0.007959361
5	0xbc966852	-0.01836029
6	0xbbd2e8f8	-0.0064364634
7	0x3993c80f	0.0002818708
8	0x3b69ca35	0.0035673503
9	0xbc2af1dc	-0.01043364
10	0x3c1fca00	0.00975275
11	0x3bc51b72	0.0060152346
12	0x3c043b5b	0.008070792
13	0x3c7c6e2d	0.015407127
14	0xbb0ad869	-0.002118612
15	0xbc4c0bb4	-0.012453962
16	0x3b77f9cd	0.0037838102
17	0xbbab574a	-0.0052289115
18	0x3b2cac9a	0.0026347996
19	0x3cbb614b	0.022873541
20	0x3c0a98b3	0.008459258
21	0x3c3536d9	0.01106044
22	0x3bb16b8c	0.005414432
23	0xbba5ee14	-0.0050637815
24	0x3bc96ab5	0.0061467537
25	0xbb5c430b	-0.0033609297
26	0x3c1e473e	0.00966054
27	0xbaf7250d	-0.0018855646
28	0xbc747112	-0.014919536
29	0xbb1e2281	-0.0024129453
30	0xbc36a47c	-0.011147615
31	0x3b582c95	0.0032985557

encoder.lob_enc.res_blocks.1.bn1.running_mean f4 [32]
0	0x3e07898f	0.13236068
1	0xbd2f08cb	-0.042732995
2	0x3d3935b5	0.045217235
3	0xbf434c83	-0.7628862
4	0xbef57c0a	-0.47946197
5	0xbe8ea44d	-0.27859727
6	0xbef6a4bf	-0.48172566
7	0x3f090987	0.5353016
8	0xbe17da7e	-0.14829442
9	0xbef80ba8	-0.48446393
10	0xbf1335ea	-0.5750414
11	0xbf74df03	-0.9565279
12	0xbf544a6b	-0.8292605
13	0xbf4a5629	-0.7903772
14	0x3f3634bd	0.7117422
15	0xbef00917	-0.46881935
16	0xbf598a22	-0.849764
17	0xbeff113d	-0.4981784
18	0xbf9484ac	-1.1602988
19	0xbf290ad5	-0.66032153
20	0xbebd97d6	-0.37029904
21	0xbeade51e	-0.33963865
22	0xbe964587	-0.2934992
23	0x3e9cda51	0.30635312
24	0xbf23adee	-0.6393727
25	0xbe8f4b07	-0.2798693
26	0x3e0c942c	0.13728398
27	0xbf012f1c	-0.5046251
28	0xbe84ccaf	-0.2593741
29	0xbeb94bf0	-0.36190748
30	0xbd9efda5	-0.077632226
31	0xbed2d46c	-0.4117769

encoder.lob_enc.res_blocks.1.bn1.running_var f4 [32]
0	0x3e47213f	0.19446276
1	0x3e357125	0.17718942
2	0x3e5db065	0.2164932
3	0x3e231849	0.15927233
4	0x3f27c28a	0.6553122
5	0x3e853a0e	0.26020855
6	0x3da19608	0.07889944
7	0x3e9ba7d3	0.30401477
8	0x3ee49ba5	0.44649997
9	0x3ea3135c	0.31850708
10	0x3e42493b	0.18973248
11	0x3e1640dd	0.14673181
12	0x3e171383	0.14753537
13	0x3e0c6353	0.13709764
14	0x3eb465df	0.3523397
15	0x3da909b3	0.08253803
16	0x3e814d86	0.25254458
17	0x3e1fdc59	0.156114
18	0x3e7df1ad	0.24799223
19	0x3e9479a0	0.28999043
20	0x3e306e52	0.17229584
21	0x3f1e1041	0.6174355
22	0x3e384133	0.17993622
23	0x3f1b1ea9	0.6059366
24	0x3e95cf6a	0.29259807
25	0x3eb6ad06	0.3567888
26	0x3eee0de6	0.4649498
27	0x3e40df92	0.18835285
28	0x3eb08859	0.34479025
29	0x3e8b94ba	0.27261907
30	0x3e7358b0	0.237643
31	0x3dfc7e4d	0.123287775

encoder.lob_enc.res_blocks.1.conv2.weight f4 [32, 32, 3, 1]
0	0x3d074cac	0.033032104
1	0x3c1696a4	0.009191189
2	0xbd9f31f2	-0.07773198
3	0x3c190d1f	0.009341507
4	0xbc856bdb	-0.016286781
5	0x3d9d5c4d	0.076836206
6	0xbdd72b3c	-0.10506293
7	0x3b5e44bf	0.0033915488
8	0x3dbdacb1	0.09261454
9	0xbd981b8a	-0.07427128
10	0x3dc92ce0	0.09823012
11	0xbcd38ab0	-0.025822967
12	0x3db30c6c	0.08742604
13	0xbc7b434f	-0.015335872
14	0x3d9dca67	0.07704621
15	0xbdc16365	-0.09442786
16	0x3d0f0dc4	0.034925237
17	0xbd60af20	-0.054854512
18	0x3d40eb41	0.047099356
19	0xbdb462e1	-0.08807922
20	0xbce70e4c	-0.02820506
21	0x3b82a0ea	0.0039864676
22	0xbd9926a7	-0.074780755
23	0x3d706a92	0.058695383
24	0xbd47abd0	-0.048747838
25	0xbc97f1bd	-0.018547887
26	0xbc59dcd3	-0.0132972775
27	0x3d3c5db6	0.045987807
28	0xbd34157e	-0.04396581
29	0x3cefd901	0.02927828
30	0xbd32c69d	-0.043646444
31	0x3c7c3be3	0.0153951375
32	0xbdb3867a	-0.08765884
33	0xbcec1b8b	-0.028821727
34	0xbdaa4786	-0.08314423
35	0xbd9ee355	-0.07758204
36	0x3dabc73d	0.08387611
37	0xbdd5e072	-0.104432
38	0x3d28a60b	0.041173976
39	0xbd19cf37	-0.03755113
40	0x3dcf465c	0.10120842
41	0xbd0458e7	-0.032311346
42	0xbd1d2b4a	-0.03837136
43	0x3d2e8985	0.042611618
44	0xbd8cf1a8	-0.0688203
45	0xbd878b67	-0.06618386
46	0xbda64630	-0.08118856
47	0x3d9dffd6	0.077148125
48	0x3da946e3	0.08265474
49	0xbd7be095	-0.061493475
50	0x3d7fe810	0.06247717
51	0xbdcc49e8	-0.09975034
52	0x3d613c50	0.05498916
53	0xbddc0844	-0.10743764
54	0x3deec2b7	0.11658233
55	0xbcf6d86c	-0.030132495
56	0xbd1c8319	-0.038210962
57	0x3cf81fe9	0.030288653
58	0xbda060b6	-0.07830946
59	0x3da39c30	0.07988775
60	0xbd06d6e5	-0.032919783
61	0x3d10a4cc	0.035313413
62	0x3d3f7159	0.046738956
63	0x3d1af59c	0.037831888
64	0xbd14e37a	-0.03634975
65	0x3cc02080	0.023452997
66	0xbdcfbb30	-0.10143125
67	0xbd83f5e2	-0.06443383
68	0xbdcd7f8d	-0.10034094
69	0xbc015679	-0.007894152
70	0xbd624d34	-0.055249408
71	0xbd9243d0	-0.071418405
72	0xbd1ea3a7	-0.03873029
73	0xbd981ff6	-0.07427971
74	0x3d1398f7	0.03603455
75	0xbcc2bf1d	-0.02377277
76	0x3dc1f946	0.09471373
77	0x3d7ef253	0.062242817
78	0xbce12104	-0.027481563
79	0xbc53a870	-0.012918577
80	0xbdc8923c	-0.09793517
81	0x3d2ee53b	0.04269908
82	0xbb32d7d7	-0.0027289295
83	0x3da0ca89	0.078511305
84	0xbdc974bf	-0.09836721
85	0x3b5823fb	0.003298043
86	0xbd6bd848	-0.05757931
87	0xbd786220	-0.060640454
88	0xbbd5ba4f	-0.006522454
89	0x3d3b0c18	0.04566583
90	0x3d40d40a	0.047077216
91	0xbd2ae511	-0.04172236
92	0xbd914824	-0.07093838
93	0x3c8a5e25	0.016890595
94	0xbdc0a4e2	-0.09406449
95	0xbc910fb2	-0.01770768
96	0x3dcc63f4	0.09980002
97	0xbdb4504d	-0.08804379
98	0xbd39ea5b	-0.045389514
99	0x3c37d589	0.011220344
100	0xbd08287f	-0.033241745
101	0x3b969c3f	0.0045962627
102	0x3d86646e	0.06562124
103	0x3c2c98f9	0.010534518
104	0x3d8bf5cd	0.06833992
105	0xbd93a1c6	-0.0720859
106	0xbd9e42f0	-0.07727611
107	0xbdb3d76e	-0.08781324
108	0x3b45f5e9	0.0030206388
109	0xbda0644c	-0.0783163
110	0x3d89eb87	0.067343764
111	0x3d3554db	0.044270378
112	0x3cd1c132	0.025604818
113	0xbc65dbf5	-0.014029493
114	0xbd96fd4f	-0.073725335
115	0x3cb6e4ed	0.022325957
116	0xbda2e224	-0.07953289
117	0xbdbafff0	-0.091308475
118	0xbd3064dd	-0.04306494
119	0xbd1e693e	-0.038674586
120	0xbda66a7e	-0.081257805
121	0x3bc98a7e	0.0061505428
122	0xbdcdff63	-0.10058477
123	0x3dac20cb	0.08404692
124	0xbd3a9a77	-0.045557465
125	0xbc99a4b5	-0.018755296
126	0xbc1abcc2	-0.009444417
127	0x3daa547a	0.08316894
128	0x3cd85026	0.026405405
129	0x3d939d14	0.07207695
130	0xbc0caac8	-0.008585639
131	0xbb814d9d	-0.00394602
132	0xbc27e4d9	-0.010247433
133	0x3d8b1d44	0.06792691
134	0x3d4ba4a8	0.049717575
135	0x3d929d7c	0.07158944
136	0x3d86520b	0.06558617
137	0xbdb43c4c	-0.08800563
138	0xbd31089c	-0.0432211
139	0x3d637fc9	0.055541787
140	0x3d22c9e6	0.039743327
141	0xbda4ef79	-0.08053488
142	0x3dd4a2a7	0.10382586
143	0x3c82def4	0.015975453
144	0x3d090c50	0.033459008
145	0x3c911b1c	0.017713122
146	0xbd76c642	-0.060247667
147	0x3d52be93	0.051451277
148	0x3cd20123	0.025635308
149	0x3dbbee80	0.0917635
150	0x3db7cff5	0.089752115
151	0xbd607a71	-0.05480427
152	0xbc86c6f6	-0.016452294
153	0xbdc3e0cc	-0.09564361
154	0x3ca45696	0.020060819
155	0xbda81ed3	-0.08209004
156	0x3d4f2d78	0.05058047
157	0xbd805e82	-0.06268026
158	0x3dc9de3b	0.0985684
159	0x3d8762cd	0.06610642
160	0xbdc1e63e	-0.09467743
161	0xbc2d7a03	-0.010588172
162	0x3cee3d37	0.029081924
163	0xbc46f4b5	-0.012143304
164	0xbd7bef88	-0.06150773
165	0xbcdbc4db	-0.026827266
166	0xbd7f7306	-0.062365554
167	0xbc7c7d5c	-0.015410747
168	0x3dc6e2df	0.09711241
169	0xbd359321	-0.044329766
170	0x3d375032	0.044754215
171	0x3c228c67	0.00992117
172	0x3d10d65d	0.035360683
173	0x3d62a94a	0.055337228
174	0x3b925f15	0.004466901
175	0x3c3a9db2	0.011390137
176	0xbd0581e9	-0.032594595
177	0x3dab147d	0.08353517
178	0x3d25ac85	0.04044773
179	0x3d17b0a9	0.03703371
180	0xbc817db4	-0.01580701
181	0xbd9d72d1	-0.07687915
182	0xbdc658d9	-0.09684915
183	0x3d05d394	0.03267248
184	0x3c322ca3	0.0108749
185	0x3d849bcc	0.064750284
186	0x3daec7ac	0.08534178
187	0x3b29c5c8	0.002590524
188	0x3d8b3acd	0.06798325
189	0xbd2a628d	-0.04159789
190	0xbdb447e9	-0.08802778
191	0x3c430255	0.0119024115
192	0xbd365aa9	-0.044520054
193	0x3da4c207	0.0804482
194	0x3db1cee9	0.08682043
195	0xbd658fd3	-0.056045365
196	0x3a879864	0.0010345099
197	0x3caed656	0.021342438
198	0xbdcffeb3	-0.10156002
199	0x3cd55ca9	0.02604516
200	0x3c7aacde	0.015300004
201	0x3c6f9b8f	0.01462449
202	0xbd1f3b72	-0.03887505
203	0x3d9d918b	0.07693776
204	0xbd99ffb7	-0.07519477
205	0x3d2cad12	0.04215724
206	0x3c1fd209	0.009754666
207	0xbdc30556	-0.09522502
208	0x3c1c13f6	0.009526243
209	0xbd355397	-0.04426917
210	0xbd507f48	-0.050902635
211	0xbd022f05	-0.031783123
212	0x3d8717b7	0.0659632
213	0x3bf96fd4	0.007612208
214	0xbd4a845d	-0.049442638
215	0xbb6e37cd	-0.0036349178
216	0xbc7464aa	-0.014916578
217	0x3c6de309	0.014519461
218	0xbb5981c7	-0.0033188926
219	0xbd4729f8	-0.04862401
220	0x3d6f39d3	0.058404755
221	0xbcc5fcc9	-0.024168389
222	0x3d29cda0	0.041455865
223	0x3d468ebb	0.048475962
224	0x3da781a9	0.081790276
225	0x3cd75728	0.026286677
226	0x3d5b6492	0.05356271
227	0x3c869eba	0.016433109
228	0xbc132566	-0.008981084
229	0x3db70b27	0.08937674
230	0xbd8f762b	-0.070049606
231	0xbd65e4f1	-0.05612654
232	0xbd85cad8	-0.0653283
233	0x3ce248b8	0.027622566
234	0x3d6f2807	0.058387782
235	0xbdf2017f	-0.118166916
236	0xbd7522df	-0.05984771
237	0xbd8b226e	-0.06793676
238	0x3bb2d656	0.0054576797
239	0x390186b3	0.00012352578
240	0xbc74131a	-0.014897132
241	0xbc4d5a51	-0.01253374
242	0xbda419e4	-0.08012751
243	0x3d943f36	0.07238619
244	0xbd76f040	-0.060287714
245	0xbc2ff676	-0.010739913
246	0xbbdcd5b2	-0.0067393417
247	0xb884eb7a	-6.3381114e-05
248	0x3dcb99e8	0.09941465
249	0xbd6bafda	-0.057540752
250	0xbc94fed3	-0.018187916
251	0x3d814c73	0.0631341
252	0x3d785241	0.06062532
253	0xbd609608	-0.05483058
254	0x3d444fd2	0.047927685
255	0x3da3b0b5	0.079926886

encoder.lob_enc.res_blocks.1.conv2.bias f4 [32]
0	0xbdd5f340	-0.10446787
1	0xbdc9e0a7	-0.09857302
2	0xbdfded9c	-0.12398836
3	0xbdc2e68e	-0.09516631
4	0xbe4741d5	-0.19458707
5	0xbe1ac0f0	-0.15112662
6	0xbe2c53f6	-0.16828904
7	0xbdb0ce0a	-0.08633049
8	0xbe46dc0b	-0.19419877
9	0xbde093ec	-0.10965714
10	0xbe4e4989	-0.20145239
11	0xbd9014ce	-0.07035218
12	0xbe023ac9	-0.12717737
13	0xbe034b25	-0.12821634
14	0xbdda6dee	-0.10665499
15	0xbdd635d8	-0.10459489
16	0xbdb75191	-0.089511044
17	0xbd939ac6	-0.07207255
18	0xbe399e16	-0.18126711
19	0xbe3ba0bd	-0.18323036
20	0xbdb69000	-0.089141846
21	0xbe6b6bda	-0.22990361
22	0xbde1180f	-0.10990917
23	0xbd91b5ec	-0.07114777
24	0xbd8a1368	-0.06741983
25	0xbd7455f1	-0.059652273
26	0xbe39b621	-0.18135883
27	0xbe551a3a	-0.20810786
28	0xbe32452e	-0.17409202
29	0xbe648185	-0.22315033
30	0xbe00a265	-0.12561949
31	0xbdcdb02a	-0.10043366
