outputs/performance_test/checkpoint_epoch_1.pt (torch, 945821 bytes, 81 tensors)

encoder.lob_enc.conv_in.0.weight f4 [32, 2, 3, 1]
00000000: c2a4 f3bd 11de 993e 2576 80be bfeb a9bd
00000010: 45a1 91bc 04dd 5ebe f619 fe3b d634 c8bd
00000020: 9112 50be 9751 a9be 160f 25bc 39ac bd3e
00000030: 7251 1b3e ee45 a3be af7d 5abe ddcf 853e
00000040: 987b 22be 9265 36bd 190f 4dbe bc51 473e
00000050: 1a33 8dbe e85c c5be 3ac7 9bbe cbd2 b0be
00000060: ddd7 453d ff41 8e3d eee4 fcbd d142 253e
00000070: 596c 393d 622e d53d 53a8 5f3e a004 bc3d
00000080: f320 cd3e bbbb 9e3e a722 62be 7b7c 973e
00000090: c63b 3dbd d264 cbbc a50d 093d 0a07 b8be
000000a0: 7614 883e d953 873e 87d0 c53e 94aa 843d
000000b0: edac f7bd 0422 8ebd cab9 12be 4ee0 c1be
000000c0: 7d2c 0c3e d955 673d 2519 05be 6060 77be
000000d0: 8345 c1bd 1a28 de3d 81d8 a13e 93e7 313e
000000e0: ffb5 993e 0d88 aa3e 22e0 46be 0e9d 84bc
000000f0: b2d6 aabe f69f 66be bccc 2b3e b415 253e
00000100: 3f1b 433e 9db7 b73e 97d2 243e a004 52be
00000110: b030 b7bd 3b20 cf3c 68e4 4f3e f809 5cbe
00000120: 0b0b 28be 5c1d 253e 85c5 153e e4e8 c63e
00000130: 136f b13e 6fbd 3dbe 2977 183e ca30 78be
00000140: 5996 0fbc 37c6 cebc ac9d cf3d a906 bc3e
00000150: 7d3d a8be 649e bb3e 542b 8d3e 45ad 53be
00000160: c465 f4bd d210 cabd 17b1 823e fde6 cabd
00000170: 80a6 1c3e b494 1fbe 3e00 ab3e 990f 6abd
00000180: 8eeb c93e d109 98be 2319 f3bd 05aa 893e
00000190: a38f 103e 56dd 4fbe 4d7c acbe c4c6 a0be
000001a0: 4476 aebe 8864 6dbe 5d46 79be a2b4 f0bd
000001b0: ac87 b03e 84f6 efbd cdd5 85be 468e 433e
000001c0: 77f0 7ebe 8f43 5abe 28da 84bd 91e4 2dbd
000001d0: 3631 80be 7565 a1be a931 d0be 900a 33be
000001e0: f689 4c3e c47c da3c 2fcf a13e d758 843d
000001f0: 4726 a1be c5b6 f43c eacd ddbd 77f8 673e
00000200: d253 db3d 1863 cd3e 5ccd bcbe 3258 4cbe
00000210: ab40 b6be 8b27 dd3c 4949 8abe be11 37be
00000220: 16a1 c23e 7c1f 15be 1506 473e 0200 8a3e
00000230: bf92 993e 01a1 a73e a577 853e cb97 323d
00000240: 2ce4 b43e c1e9 ca3e 9bfd 8bbe 6336 c13d
00000250: 35a9 933e 4ed7 88be 766c 2b3e 707d 873e
00000260: 4755 ae3b e7a4 e0bd 144f 03bd e097 b13e
00000270: dd6f aabe db15 1c3e a9ec 6bbe b327 883e
00000280: eea0 35be 5787 a53d 5fcd 813e 5e11 37bd
00000290: 35a0 64bd b672 b93e d8d3 c83e d434 683e
000002a0: c9c1 663c 570f 4abc c704 7bbe 349c 913e
000002b0: 7863 363e 24c0 ab3e ecf4 8cbe 906f ba3d
000002c0: 8b8e 8f3d c396 06be 4e34 58bd 5420 963d
000002d0: 42c1 ecbd e38a c33e a978 bdbe ead7 80bd
000002e0: b766 4abe 354e 9d3e cd7d 13be 1cc7 b8bd
000002f0: a448 b53e 1348 b5be cdac 07be 8448 b53e
-0.118966594 0.30052236 -0.25090137 -0.08296918 -0.017777095 -0.21763998 0.0077545596 -0.09775703
-0.20319583 -0.3307006 -0.010074398 0.37045458 0.15167788 -0.3188929 -0.21337007 0.2613515
-0.1586746 -0.04453046 -0.2002529 0.19464773 -0.2757805 -0.38547444 -0.30425435 -0.34535822
0.048301566 0.069461815 -0.123483524 0.1613877 0.045269344 0.104092374 0.21841554 0.0918057
0.400642 0.31002602 -0.22083531 0.2958716 -0.046199583 -0.024828348 0.033460278 -0.3594287
0.2657811 0.26431158 0.38635656 0.06477848 -0.1209353 -0.06940082 -0.14328685 -0.37866443
0.13688846 0.056478355 -0.12997873 -0.24157858 -0.094370864 0.108474925 0.31610492 0.17373495
0.30021665 0.33306924 -0.19421437 -0.01618817 -0.33366925 -0.22521958 0.16777319 0.1612156
0.19053362 0.35882273 0.16095959 -0.20509577 -0.08944833 0.025283923 0.20301974 -0.21488178
-0.16410463 0.16124481 0.14626129 0.38849556 0.34655055 -0.18529294 0.14889206 -0.24237362
-0.008763873 -0.025241 0.101374954 0.3672383 -0.32859412 0.3664428 0.2757212 -0.20671566
-0.11933473 -0.098664895 0.25525734 -0.09907339 0.1529789 -0.1558407 0.33398622 -0.05714378
0.39437526 -0.2969499 -0.11870029 0.26887527 0.14117293 -0.20299277 -0.33688584 -0.31401646
-0.34074605 -0.23182881 -0.24343248 -0.11753203 0.3447851 -0.11716941 -0.2613968 0.19097242
-0.24896418 -0.21314834 -0.064869225 -0.042454306 -0.25037545 -0.31522718 -0.40662888 -0.17484498
0.19974503 0.026670821 0.3160338 0.06462257 -0.31474516 0.029872308 -0.108302906 0.22653376
0.10709347 0.40114665 -0.36875427 -0.19955519 -0.35596213 0.026996395 -0.27009037 -0.17877862
0.38013524 -0.14562792 0.19435914 0.2695313 0.2999477 0.32740024 0.26067844 0.043601792
0.3533033 0.39631465 -0.27341923 0.094342016 0.28840032 -0.26726764 0.16740593 0.2646289
0.0053202244 -0.109689526 -0.032057837 0.34686184 -0.3328847 0.15242712 -0.23039497 0.26592788
-0.17737171 0.08082455 0.25351998 -0.044694297 -0.055816848 0.3622033 0.39224124 0.22676402
0.014084288 -0.012332759 -0.24513541 0.28439486 0.17811382 0.3354503 -0.2753061 0.0910331
0.0700961 -0.13143449 -0.052784257 0.07330385 -0.115602985 0.381919 -0.3700612 -0.06291182
-0.19765745 0.3072373 -0.14403458 -0.09022352 0.35406983 -0.3540655 -0.13249512 0.35406888

encoder.lob_enc.conv_in.0.bias f4 [32]
00000000: 61dd 923e 8b1d eebd 6f53 9dbd ba3b 47be
00000010: eb74 a53d 4f1a f53d 6334 8d3e db80 373e
00000020: 83dd 523e 0726 85bd 6962 95be 83d3 663e
00000030: 2759 e8bb 14c6 88be cf9d 153d afd0 ce3e
00000040: b7fb 0cbd 7d9b aebe 7f78 7c3e 0f6e 9b3e
00000050: 5793 85be 9ed1 b6be 328e 95be b3e1 2b3e
00000060: 8d91 2bbe 4653 cdbe 57fe efbc 0966 54be
00000070: 337e f7bd 00fe 24be 9346 0cbe 6118 88be
0.28684524 -0.116267286 -0.07681929 -0.19456378 0.08078941 0.119679086 0.2757903 0.17920248
0.20592313 -0.06501394 -0.29176643 0.22541623 -0.007090706 -0.26713622 0.03652745 0.40393588
-0.03441974 -0.34103003 0.2465534 0.30357406 -0.26088974 -0.357068 -0.2921005 0.16785316
-0.16754742 -0.40102595 -0.029296083 -0.20742048 -0.120846175 -0.16112518 -0.13698797 -0.265811

encoder.lob_enc.conv_in.1.weight f4 [32]
00000000: ceda 803f 08b8 803f 7f25 813f bb86 803f
00000010: 9cb9 803f b6b5 803f f8a2 803f f633 813f
00000020: e8ed 803f 6f1f 813f f9a1 7d3f 1e86 7d3f
00000030: cfff 803f bc4d 803f 84c0 7d3f 12cf 803f
00000040: f604 7f3f 0632 813f ac26 813f 1e12 803f
00000050: c0e9 7d3f f644 7f3f 6ca7 803f 9520 7f3f
00000060: 21d5 803f b9a6 7f3f c730 813f ae40 813f
00000070: 5fa4 803f f335 803f 86d8 803f 4802 813f
1.0066774 1.0056162 1.0089568 1.0041116 1.0056643 1.0055454 1.0049734 1.0093982
1.0072603 1.0087718 0.99075276 0.9903277 1.0078067 1.0023723 0.9912188 1.0063193
0.99616945 1.0093391 1.0089927 1.0005529 0.991848 0.997146 1.0051093 0.9965909
1.0065042 0.99863774 1.0093011 1.0097864 1.0050162 1.0016464 1.0066078 1.0078821

encoder.lob_enc.conv_in.1.bias f4 [32]
00000000: 5533 f03b 47ed 973b b044 183c 7a2d fe3a
00000010: dabb abba 91f4 293c e8cb 193c f642 1f3c
00000020: 962e f23b f2c1 1c3c 56ef 0abc 2b35 ac39
00000030: 4879 0fbc 969b c03b 176d 5bbb 52d5 083c
00000040: 0a3e d53b 52d3 093c cbaf 193c d763 443b
00000050: 1831 183c 22c3 143c d597 8a3b 70d8 263c
00000060: be1f f33b 07d6 fb3a 7a3f 263c 8cf7 1d3c
00000070: de75 1b3c a481 5bbb e483 133c bc91 183c
0.007330338 0.00463644 0.00929372 0.0019392215 -0.0013102249 0.010373251 0.009386994 0.009720555
0.0073908074 0.009567725 -0.008479914 0.0003284601 -0.008756943 0.0058779223 -0.003348177 0.008351641
0.00650764 0.008412199 0.009380291 0.0029966736 0.009289049 0.009079726 0.0042295256 0.010183439
0.0074195554 0.0019213565 0.01014697 0.009641539 0.009488551 -0.003349402 0.009003613 0.0093120895

encoder.lob_enc.conv_in.1.running_mean f4 [32]
00000000: 64dc 6ecd b753 22cd 13d7 4dcd fe31 53ce
00000010: 8e97 404d 15ba 2e4e c7f0 b54c 7ac8 20cd
00000020: 7dd4 c6cc 284a 124e 52ca 444d 89b2 8bcc
00000030: c67a de4d 5283 524d e925 73cc 7ce6 894d
00000040: f9a5 e54c 4e95 7fce 50f0 40cd 5c24 4bce
00000050: 2e68 534d ec9c 2d4c 48e0 a7cd 2029 614e
00000060: 1f39 bf4d 1d46 cf4d 201c 13cd 8259 364e
00000070: 2714 b24d b0b8 06cd 4c3a e6cb 0769 4ccb
-2.504638e+08 -1.7021221e+08 -2.1583902e+08 -8.858172e+08 2.0194736e+08 7.3285766e+08 9.538924e+07 -1.6859331e+08
-1.042442e+08 6.1358336e+08 2.063496e+08 -7.324167e+07 4.665735e+08 2.2073885e+08 -6.3739812e+07 2.8919795e+08
1.20401864e+08 -1.0719937e+09 -2.0231091e+08 -8.520394e+08 2.2167626e+08 4.55116e+07 -3.520617e+08 9.443922e+08
4.0102397e+08 4.3468483e+08 -1.5425587e+08 7.648298e+08 3.7345814e+08 -1.4126566e+08 -3.0176408e+07 -1.3396231e+07

encoder.lob_enc.conv_in.1.running_var f4 [32]
00000000: 19a2 a75b 7a0b 3a5b 660d 905b 99af 5b5d
00000010: b517 3e5b 017d 195d b4bb eb5a ef9e 5a5b
00000020: a1d3 805a 3a11 d85c 3631 8a5b b44b 825a
00000030: 4479 7c5c 8ef3 805b eecb f05a fbbd c75b
00000040: 040a 455b ddc0 9e5d 40bd 995b dac8 485d
00000050: 9c21 895b 5f44 a35a 43c5 225c 9d8c 765d
00000060: 4647 595c 4a16 585c 96d3 145b 2bb7 235d
00000070: 2828 225c 271d 005b f7ad 925a a961 2c5b
9.43691e+16 5.2366964e+16 8.109426e+16 9.8937747e+17 5.350631e+16 6.9124983e+17 3.31765e+16 6.1536294e+16
1.8130743e+16 4.865403e+17 7.779531e+16 1.8337492e+16 2.842601e+17 7.259318e+16 3.3889109e+16 1.1244481e+17
5.5461583e+16 1.4299233e+18 8.654751e+16 9.0425334e+17 7.719805e+16 2.2977798e+16 1.8326335e+17 1.1103592e+18
2.4463374e+17 2.432924e+17 4.1890938e+16 7.3730906e+17 1.825724e+17 3.606085e+16 2.0643311e+16 4.8521074e+16

encoder.lob_enc.res_blocks.0.conv1.weight f4 [32, 32, 3, 1]
00000000: 3f69 fbbc 7e49 97bd a0a5 bfbc cbec 96bd
00000010: b621 53bb 3ec9 803d d59a 53bd bbd2 bdbc
00000020: 69e0 e0bc fb10 33bd fbad a4bd 9d69 833c
00000030: c0c5 91bc e1bc 81bb 59a2 fbbc 08c7 93bd
00000040: 0a40 34bd 8ed2 433d ea02 833d a86e 0dbd
00000050: 09ee 6f3d 921f 8abd 60d1 73bc bc3b d0bd
00000060: 04ad c5bc c17f a43c b680 583d 3ca3 e43c
00000070: 9b53 223d 1df8 dcbc 0cbb c23d 6a5f afbd
00000080: 85dd d1bc 1bba 98bc d4b5 713d 3f32 283c
00000090: a29a b83d e20e 9dbd 63eb e93c 3096 b8bd
000000a0: 290c d73c 584a 4abd 6cb8 5abd 6a14 143c
000000b0: 2ba0 7c3c c6ba bd3d e3e0 973d defb 213a
000000c0: e8c4 253d f281 343c 313f e2bc b07b abbd
000000d0: 55e2 bbbd 2789 0038 6e6f 4bbd 21c4 ab3d
000000e0: c229 61bd 2ee9 913c 08de 71bd c51e bc3d
000000f0: 0e71 223d 4ab4 493d 9bbe bc3c b149 9ebc
00000100: dcb0 14bd 9dfb 4fbd bb26 c8bd ace4 dbbc
00000110: 99c1 50bd cbfd ab3d 3e8e b73d 01e1 93bd
00000120: d6d1 0dbb af39 bdbd 4378 3a3d 6eee 8c3d
00000130: af79 82bd b1c5 9abd 4275 e7bc f0a7 963d
00000140: 8acc 7e3d 7bbd 7dbd 74f6 71bb bc70 a9bd
00000150: 688f b13d b5cc 143d acbf 39bd 235a 153d
00000160: 9d4d 26bb 5564 90bd 4afb ddbd 574d 7f3d
00000170: cdef 8bbd 7bdb 7f3d f7f0 f6bc 372f 803d
00000180: 1fff 153d a7ab 673d 410c 55bd 5099 4e3d
00000190: c714 8d3c abef 91bb a858 02bc bb34 96bb
000001a0: d29c 5b3d 531e 613d 3f31 34bd 2515 0bbc
000001b0: c41f 8dbc 7c8e 01bd a0f5 573d c6da cf3d
000001c0: c4a9 693d a298 8cbc 5c94 8f3d c4ff d53d
000001d0: c08e a43c bb55 a93d b575 da3c 9361 d4bc
000001e0: dac3 f03c 5efa 8e3c ff82 c13c 814c a1bc
000001f0: 9ee7 8bbd 6623 b0bd 7110 6dbd 9b5b 853d
00000200: b08e 90bc c264 b9bd 7dac ab3d 2c39 d3bd
00000210: 5cb2 bb3c fd74 c53d d3f1 34bd d580 ac3b
00000220: 1fbb d03d a5bb bf3d 66ac a13d 770d 56bc
00000230: c3b8 703d 0aaa 3e3d 141e 683c 637b c83d
00000240: 05ef cb3c 696e 913d bf6a 93bd 07be ca3c
00000250: 074e cdbd df24 303c 9744 a53c faa4 5d3d
00000260: b348 4a3d 81ea 52bd 8d1d 5f3d 5273 ddbd
00000270: 4d4f b93d 21d4 553d 19c9 e4bb 7bb5 f53c
00000280: f538 713d 2fd7 94bd 3402 7d3d 1f13 ca3c
00000290: 53ac bd3d 0001 2a3c adfe 8b3c 35c7 003d
000002a0: 7135 ac3d 0028 9dbd a6cd 763d 8635 893d
000002b0: b632 5bbb a2cf 7bbd 02b6 943d 4756 603d
000002c0: 5df4 ebbc 5b39 c03c 9591 cabc e990 21bd
000002d0: aa97 dc3d 8955 3c3d 7930 563c bfcf 863d
000002e0: 2859 863d 58e5 453d 7966 603d a810 9dbd
000002f0: b800 06bd 1a72 be3d efbb d73c a219 163d
00000300: 04ad 99bd 989b 6fbd 4168 3fbd 5d81 203d
00000310: 4699 48bd a1c5 933d 4ad5 a5bd 4de1 dabc
00000320: fcb9 993d d4d9 51bd 59c5 e8bb 07a0 1ebd
00000330: bb12 043d 3932 64bd 8c14 a5bd 0825 2ebd
00000340: 4ffd 1a3d a566 fcbc d63b a2bd 43e1 e5bc
00000350: b766 43bd ec10 a93d 7756 c3bc 2bcf 0b3d
00000360: 8f94 b63d cc4a a1bd ec42 093d ee88 233c
00000370: 4b47 aa3d 8c2c a5ba e0f1 c03c 38c0 d0bd
00000380: a721 c03d a24c 8fbd f510 863d 34ce 9cbd
00000390: 80cc 913c 144c 2ebb e3e4 933d 7102 ccbd
000003a0: 2348 a83d 7603 c23d 8b5f c83c ca96 b13d
000003b0: 71e3 a13d e463 1c3b d618 5c3d 8895 193b
000003c0: 45ec c73c 0589 98bd 9700 0abd 4985 83bd
000003d0: 7332 8dbd f195 97bd 3952 49bd 2098 0a3c
000003e0: a1be 71bc 4ddc 183d d019 133d e51c 1abd
000003f0: cd41 8b3d 4e90 96bd ff0e 80bd a510 c23d
-0.030689834 -0.073870644 -0.023394406 -0.073693834 -0.0032216138 0.06288384 -0.05166133 -0.023171773
-0.027450757 -0.043717366 -0.08040997 0.016041571 -0.01779449 -0.0039592837 -0.030717062 -0.072156966
-0.044006385 0.047808222 0.0639704 -0.03452936 0.058576617 -0.06744303 -0.014881462 -0.101676434
-0.024130352 0.020080449 0.052857123 0.027909867 0.039630514 -0.026973778 0.095083326 -0.08563121
-0.025618324 -0.01864343 0.059011295 0.010265886 0.09013869 -0.07668854 0.028554624 -0.09013021
0.026250916 -0.049387306 -0.053398535 0.00903807 0.015419046 0.0926414 0.074159406 0.0006179194
0.040470988 0.0110173095 -0.027618023 -0.08373201 -0.09174029 3.064531e-05 -0.049666815 0.08387018
-0.054971464 0.017811384 -0.059049636 0.09185556 0.0396586 0.049244203 0.023040107 -0.019322248
-0.03630148 -0.050777066 -0.09773012 -0.026842438 -0.05096588 0.083980165 0.089626774 -0.072206505
-0.0021639965 -0.09239518 0.045524847 0.06881414 -0.063708656 -0.07557238 -0.028254155 0.0735625
0.062206782 -0.06194828 -0.003692058 -0.082734555 0.08669931 0.036328036 -0.04534881 0.036462914
-0.002537585 -0.07050387 -0.10838945 0.062329616 -0.06832848 0.062465172 -0.030144198 0.062590055
0.036620256 0.056560185 -0.05201364 0.05043918 0.017221821 -0.0044536195 -0.007955708 -0.0045839227
0.053616352 0.05496056 -0.043992277 -0.008488928 -0.017227061 -0.031630024 0.05272448 0.101491496
0.057046667 -0.017162625 0.07010719 0.10449174 0.0200876 0.08268305 0.026667455 -0.025925433
0.029390264 0.017453369 0.023622034 -0.0196898 -0.06831287 -0.08600502 -0.057877008 0.06511613
-0.017646164 -0.09052421 0.08382509 -0.10313639 0.022912197 0.09641454 -0.044175934 0.0052643814
0.101919405 0.09361962 0.078942105 -0.013064734 0.058769953 0.04654888 0.014167327 0.09789159
0.024894247 0.07101137 -0.071980946 0.024748815 -0.10024648 0.010750978 0.020174308 0.054112412
0.049385738 -0.05149317 0.05447154 -0.10813011 0.090483285 0.052204255 -0.0069819805 0.029993763
0.05889221 -0.072676055 0.06176968 0.02466732 0.09261384 0.010376215 0.017089212 0.03143998
0.08408631 -0.07673645 0.060254715 0.06699662 -0.0033446974 -0.06147731 0.07261278 0.05476978
-0.028803045 0.02346485 -0.024727622 -0.039444838 0.10771115 0.04598001 0.01307308 0.06582593
0.06559974 0.048314422 0.054785226 -0.076691926 -0.03271553 0.09299107 0.02633473 0.03664554
-0.07503703 -0.058497995 -0.046730284 0.03918587 -0.048974298 0.07215429 -0.08097322 -0.02671876
0.07506177 -0.051233128 -0.007103604 -0.038726833 0.032244425 -0.05571196 -0.0806056 -0.042515785
0.03783923 -0.030810663 -0.07921569 -0.028061515 -0.04770538 0.08255181 -0.02384494 0.034133118
0.08915054 -0.078755945 0.033511087 0.009981377 0.08314379 -0.0012601777 0.023552835 -0.10192913
0.09381419 -0.069970384 0.06546203 -0.076565176 0.017797709 -0.002659564 0.07221391 -0.09961403
0.08216884 0.09473316 0.024459621 0.08671339 0.07904709 0.002386325 0.053734623 0.0023435075
0.024404654 -0.074480094 -0.03369197 -0.064219065 -0.06894388 -0.07401646 -0.04915068 0.008459121
-0.014754922 0.03731947 0.03591329 -0.037625212 0.0679966 -0.07351743 -0.0625286 0.09475831

encoder.lob_enc.res_blocks.0.conv1.bias f4 [32]
00000000: 8b6e 00bc 6663 aebc 6753 43bc d1d0 c5bd
00000010: e43b d5bd 0c7f 3dbd 9d28 c9bd 43bc 2e3d
00000020: 9289 29bd 9014 65bd 7670 8e3b a00d 2e3c
00000030: af30 393d 25bd dfbb 4a9e cd3c e144 623c
00000040: 9c9f a63d 2622 9e3c 155b e93c 3c50 b5bb
00000050: 9044 0b3d 591d 58bc 7c34 6ebd a7d7 8cbd
00000060: dba0 543d 74ef cbba 58b6 b83d 9a39 483d
00000070: fccb a13d a360 a5bc 3c79 603d fc2a 8b3b
-0.0078388555 -0.021287631 -0.01192174 -0.09658969 -0.10411814 -0.04626374 -0.098221995 0.04266001
-0.041390963 -0.055927813 0.0043469025 0.010623366 0.045212444 -0.0068279677 0.025099892 0.013810367
0.08135912 0.019303393 0.028485814 -0.0055332463 0.034000933 -0.013190591 -0.05815552 -0.0687707
0.051911216 -0.0015559033 0.09019154 0.048883058 0.07900235 -0.020187682 0.054803118 0.0042470675

encoder.lob_enc.res_blocks.0.bn1.weight f4 [32]
00000000: 3bc5 7f3f b43a 803f 71ea 803f 5622 7e3f
00000010: 2d79 7d3f 7770 803f 51d6 7e3f 8da6 7e3f
00000020: e82f 7f3f 99e4 7f3f d32e 7e3f b978 7e3f
00000030: c3e8 7f3f 77b6 7f3f 5b97 7e3f f775 803f
00000040: 9873 7e3f da24 813f 79ab 7d3f b38e 7d3f
00000050: 471f 803f a846 7e3f d83f 813f d814 813f
00000060: 571b 813f 1a72 803f 9300 813f 7385 803f
00000070: 8360 7e3f d827 813f b656 813f 2818 813f
0.99910325 1.0017915 1.0071546 0.9927114 0.99013025 1.0034322 0.9954577 0.99472886
0.99682474 0.9995819 0.992902 0.9940296 0.9996454 0.99887794 0.994497 1.0036
0.9939513 1.0089371 0.9908977 0.99045867 1.0009545 0.9932656 1.0097609 1.0084486
1.0086468 1.0034821 1.00783 1.0040725 0.99366015 1.0090284 1.0104587 1.0085497

encoder.lob_enc.res_blocks.0.bn1.bias f4 [32]
00000000: 20bd 103c 5976 9dbb ee30 ce3b 24ba 163c
00000010: 6fb5 e33b f57a 1f3c 4057 9c3b 1c0d c83b
00000020: 1ccd cbbb 353b 1e3c 13ce 0abc eaeb bc3b
00000030: 6e49 7a3a d28e 123c 18d3 be3b f964 d83b
00000040: 8807 bcba 9a9d 163c 9277 a13b 8df8 04bc
00000050: 3cff 2a3c adce 143c 5ad4 1d3c 8d68 213c
00000060: f5c0 1c3c ad12 a83a dc26 163c aebd 773b
00000070: 9adc 673a cf91 2d3c 543f 333c 8a70 233c
0.008834153 -0.004805368 0.006292454 0.009199653 0.006949119 0.009733905 0.004771143 0.0061050784
-0.0062195193 0.009657671 -0.0084719835 0.005765428 0.0009547685 0.008945184 0.005823504 0.0066038338
-0.0014345506 0.009192849 0.004927584 -0.0081159 0.010436829 0.0090824785 0.009633148 0.009851587
0.009567489 0.0012822949 0.009164538 0.0037802267 0.0008844823 0.0105938455 0.010940392 0.009975562

encoder.lob_enc.res_blocks.0.bn1.running_mean f4 [32]
00000000: 33c1 33be 5302 023f 36ca 87be a077 abbe
00000010: d664 00be b0fe 49be 9ea9 aa3d 6f2f a73d
00000020: c18d 993d 747e 833c a082 ac3e 1e46 b63e
00000030: b6a3 6cbd 867b 863c 6562 32be deed 7e3e
00000040: 6f17 2d3e 9a44 a2bb 8719 483c fcc1 6fbc
00000050: b4c9 7e3d 37b7 5f3e 4707 3fbe a710 f9bd
00000060: 421d b23d 509d e2be b5ad bc3d 250f a3bd
00000070: b195 90bc 86d4 123c 4bf4 a9bd 8522 1d3e
-0.17554168 0.50784796 -0.26521462 -0.33489704 -0.12538466 -0.19726062 0.08333133 0.08163344
0.074977405 0.016051508 0.3369341 0.3560037 -0.057773314 0.016416322 -0.17420347 0.24895427
0.1690347 -0.0049520256 0.012213117 -0.014633652 0.062204078 0.21847235 -0.1865512 -0.12161379
0.08696987 -0.44260645 0.092128195 -0.07961873 -0.017649503 0.008961802 -0.08298548 0.153452

encoder.lob_enc.res_blocks.0.bn1.running_var f4 [32]
00000000: 045b 043e 1640 013f 1d9e 023e 8bc2 0a3e
00000010: b785 0e3e e128 133e 3b3a 4f3e ae3e 1d3e
00000020: 23c0 143f cc94 213e b12f d63e c26b 113e
00000030: 25a2 ef3d 9350 ec3d 9066 fa3d 8a6e 123e
00000040: e8f2 053f fbf8 8a3e 59df 1d3e 8a5a 2b3e
00000050: 74d8 713e 2113 c93e fdb0 673e d34e 763e
00000060: 435e 1f3e cb16 4c3e a3af 473e a7d7 e13d
00000070: 24f8 c73d 12aa 483e 12de 643e 8ad5 093e
0.12925345 0.5048841 0.12755628 0.13550775 0.13918196 0.14371063 0.20237057 0.15355942
0.5810568 0.15779418 0.4183326 0.14201263 0.117008485 0.11538806 0.122265935 0.1429998
0.5232377 0.27143082 0.15417232 0.16733757 0.23617727 0.39272407 0.2262611 0.24053507
0.15563302 0.1993057 0.19500594 0.110274605 0.09764126 0.19596127 0.22350338 0.13460365

encoder.lob_enc.res_blocks.0.conv2.weight f4 [32, 32, 3, 1]
00000000: bf8e 823c 211b c23c 463a 8bbd 6e13 b13d
00000010: c3de 033d 262f f5bc 58e0 a5bd 4bf5 80bd
00000020: 8ffd 8cbc 8aa5 293c 7cd6 fc3c 62ca c23d
00000030: ec4a 8c3d 37d9 44bc 8604 c4bc fd31 a13d
00000040: 3605 23bb 5020 5b3c 399e c4ba 0bad ba3d
00000050: 8db4 813d 07dd 283d 7b02 073d 994e 92bc
00000060: 0799 e03c 72ef 9ebd 35e3 94bd 1118 103d
00000070: ee88 d83c 37b6 79bd a20f 143d 46d8 223d
00000080: 4ae6 573d 025b 2cbd cc63 3fbd efde 923b
00000090: f07e 2cbc e741 bdbb e4a9 9dbd 0bc1 8c3d
000000a0: 3a53 c33d 29cf 46bd c4da 953d ffee 9c3c
000000b0: d1ff cc3c 4304 94bb 9adc c43d 8f6a abbc
000000c0: d249 993c 06d5 9ebb 1e8d 1f3c bd87 30bd
000000d0: 42e0 7dbd 7873 943d d38f cabd 0231 99bd
000000e0: c480 bd3d 1649 59bd bf64 75bc 2612 c7bd
000000f0: eee5 efbc 63fa 40bd 84ad 193d 37d7 483d
00000100: cc86 b73d 7e00 0fbd 81d6 c23d 4e2c 373d
00000110: 65e8 97bd ebe8 b0bd c6bd 1dbc 85e0 c53d
00000120: f003 2f3b 151d 6cbd a4c5 853d c88a dcbd
00000130: 56d4 8e3d e282 c8bb 817f 193c 3dcc 03bd
00000140: c378 a03c ddfa 27bb 3d1d 983d 26ec ab3d
00000150: 9387 133d d895 8dbc ed71 9ebb 9469 71bd
00000160: 92b9 863d 0a05 97bc 546d c7bd 685a ecbc
00000170: f47b 89bd 33c7 9fbd 664b a63c ba23 413c
00000180: 9dfd 64bd cd11 96bd a2c8 063d 5fcc ae3c
00000190: 89f2 8b3d 5596 583d 4d27 82bd 2534 613d
000001a0: fafa b9bd 9002 b2bd 173c 2d3d d568 c63d
000001b0: c36b 3e3d 4c8d a0bb 9cd8 46bd 16d7 cb3d
000001c0: ac4e 8abd 5aa9 ba3d c1a8 85bd cce8 c9bd
000001d0: 5e59 83bb a540 f33c 2fc6 acbd 2941 02bd
000001e0: 8420 a8bb 9057 07bc 36f7 4cbd 1170 c63d
000001f0: e71c 92bd 2718 8b3d f37b eb3c 2f76 30bd
00000200: eef8 313d 9234 b0bd 51a9 92bd f380 5e3d
00000210: bbdb 4bbd 17b2 563d 7968 bdbd bde1 923c
00000220: e6ca c3bd 04da 423d 7197 ca3d 2777 783d
00000230: ff63 eb3c b2f1 873d 2206 b63d 07ea 633d
00000240: 0323 323d 4ae8 013d f720 b43c c4d7 863d
00000250: 060a 9d3d 27da 09bd 18cc 9d3c 30aa 683d
00000260: 27e5 a8bd 26fd 9dbd 28a0 d3bc 73d5 823c
00000270: 4e67 853d b8b7 503d ac58 4f3d 0b73 b9bc
00000280: 6b81 e2bc c05d cbbd f1a9 a2bb f8f7 ccbc
00000290: e6bd a0bd f563 3f3d f90e 753d e33b e53c
000002a0: 99d5 96bd aca4 eabc 97f0 bcbd 76c7 38bc
000002b0: 9d2e 623d 70e9 ae3d 140f adbd e5b3 a8bc
000002c0: 02f0 4fbd 7130 a13d e3d9 cf3d af34 b4bd
000002d0: b65b 29bd 8357 6a3b 55bc bbbd 0365 cebd
000002e0: b52b 8abd 0e20 953d 006b aa3c d616 54bd
000002f0: 7d67 79bc f3e1 c23d cd90 c1bd da42 283d
00000300: dd33 65bc a84b dfbd 968b a03d eb4c 63bd
00000310: 3e43 943d 2491 1dba 7ab7 5c3c d2e2 c8bc
00000320: ecb5 bcbd f32e 283d 3896 38bd 9b58 ea3c
00000330: 5b62 b03d d9fa 20bd 7461 203b 5e7c dd3c
00000340: 7d7e 2abd 6915 173d 0499 5fbd a324 903d
00000350: 51f3 ecbc bfdf 39bc 9f10 27bd 29a5 fe3a
00000360: f248 803d 99ba 323c 1c61 33bd 9c49 c73d
00000370: 0029 c03d 12ee 1abd 08c5 85bd 6a83 a3bd
00000380: d18a 193c 63b7 c63d 5b5f 073d 8ad7 2b3d
00000390: 5019 d8bd 83ab 043d 4d66 3a3d 6abe 24bd
000003a0: 68f0 95bd 3930 b8bc 49e9 c6bd 2758 ac3d
000003b0: 4d21 92bd faee ce3d 0ca7 bdbd bac4 973d
000003c0: e220 49bd 8b63 b2bd 6b91 a33c 69ee d33d
000003d0: e3f0 1fbd 978c c43c b0b8 95bd 162e 693d
000003e0: 734f a83d 1029 1cbd f918 b33d c05e 2e3d
000003f0: 5dde bb3b fe09 56bd 9554 783d ea76 6fbb
0.015937207 0.023694577 -0.06798224 0.08646284 0.032194864 -0.029929709 -0.08099431 -0.06296786
-0.01721075 0.010354409 0.030863993 0.09511258 0.06850228 -0.012014679 -0.023927938 0.07870863
-0.0024874932 0.013374403 -0.0015000767 0.091150366 0.063332655 0.041226413 0.03296135 -0.017859744
0.02741672 -0.07760514 -0.07269899 0.0351792 0.02643248 -0.06096479 0.03614772 0.039757036
0.052709855 -0.04207898 -0.046726033 0.004482142 -0.010528311 -0.0057756784 -0.0769842 0.068727575
0.095373586 -0.048537407 0.07317117 0.019156931 0.025024327 -0.0045171096 0.09612389 -0.020924835
0.018711958 -0.0048471717 0.009738235 -0.0430982 -0.061981447 0.072485864 -0.098907135 -0.074800506
0.09253076 -0.053048216 -0.014977633 -0.097202584 -0.029284444 -0.047113787 0.037518993 0.04903337
0.08961257 -0.03491258 0.095135696 0.044719987 -0.074173726 -0.086381756 -0.009627765 0.09661964
0.0026705228 -0.057644922 0.065318376 -0.10768658 0.069740936 -0.006119118 0.009368778 -0.0321772
0.019588834 -0.0025631704 0.07427452 0.08394651 0.036017966 -0.017283365 -0.0048353584 -0.058938578
0.065783635 -0.01843502 -0.097376496 -0.028851703 -0.06713095 -0.07801666 0.020299625 0.011788303
-0.055905927 -0.07327614 0.032906182 0.021337686 0.06833369 0.052877743 -0.06355152 0.05498137
-0.09081073 -0.08691895 0.042293634 0.09687964 0.04648949 -0.0048996564 -0.04854642 0.09953134
-0.06753287 0.091143325 -0.06526328 -0.098588556 -0.004008456 0.02969391 -0.08436238 -0.031800423
-0.0051308293 -0.008260623 -0.050040446 0.09689344 -0.07134419 0.06791716 0.028745627 -0.04308146
0.04345029 -0.08603777 -0.07161201 0.054322194 -0.0497701 0.052415933 -0.09248442 0.017929906
-0.09560184 0.047571197 0.098921664 0.060660508 0.028734205 0.066378966 0.088878885 0.055643108
0.04349042 0.03171567 0.021988375 0.06584123 0.076679274 -0.033655312 0.019262359 0.05680293
-0.08246832 -0.077143 -0.025833204 0.015970921 0.065138444 0.050956458 0.050621673 -0.022637865
-0.027649602 -0.09929991 -0.0049641063 -0.025020584 -0.0784872 0.046726186 0.059828732 0.027982658
-0.07364959 -0.028642975 -0.09225576 -0.011278024 0.055220235 0.085406184 -0.084501415 -0.020593593
-0.050766 0.078705676 0.101489805 -0.08799111 -0.041347228 0.0035757727 -0.09166781 -0.1007786
-0.06746618 0.072815046 0.020802975 -0.05177959 -0.015222427 0.09515753 -0.09451447 0.04107938
-0.013989416 -0.10903102 0.07839124 -0.055493277 0.07239388 -0.00060107023 0.013471479 -0.024522219
-0.09214386 0.0410604 -0.045065135 0.028606704 0.0861251 -0.039301727 0.002447215 0.027036842
-0.041624535 0.036885653 -0.054589286 0.07038238 -0.028924616 -0.011344849 -0.040787335 0.0019427884
0.06263913 0.010908746 -0.043793783 0.09730837 0.0938282 -0.037824698 -0.06531721 -0.079840496
0.009371475 0.09702947 0.033049922 0.0419536 -0.10551703 0.03239013 0.045507718 -0.040220656
-0.073212445 -0.022483932 -0.09712464 0.08415251 -0.07135258 0.10104175 -0.09260377 0.074105695
-0.049103625 -0.087103926 0.019966802 0.103482075 -0.039048087 0.02399282 -0.07310617 0.056928717
0.08218279 -0.038125098 0.087449975 0.04257083 0.005733295 -0.052255623 0.06062754 -0.0036539384

encoder.lob_enc.res_blocks.0.conv2.bias f4 [32]
00000000: 3f27 e23c c2aa 8dbc 000e e8bc 2e41 263c
00000010: 031e 573a a97a 44bc acfe 48bd ac88 60bd
00000020: 80be 1cbd dc19 a4bd d26c 4fbd cefd 22bc
00000030: 55bf 66bd e15a 473c 4d9b 493d 2467 623c
00000040: caa0 21bd 94db d9b9 3b5b 7cbd 5fbd 943d
00000050: 5523 8d3d 2707 a13d 1964 19bd cdb0 893d
00000060: 914d 173c a1f8 f1bc 7233 6e3d 1cbc 94bd
00000070: 2640 cfbd d204 b43d 18f0 013d 1499 403d
0.027606605 -0.017293338 -0.028326988 0.010147376 0.0008206071 -0.011992135 -0.049071 -0.05481784
-0.038267612 -0.08012745 -0.05064089 -0.009948207 -0.056334812 0.012167663 0.049220372 0.013818536
-0.03945998 -0.00041553064 -0.06161044 0.07262682 0.06891505 0.07862692 -0.037448976 0.06723175
0.009234802 -0.0295375 0.05815453 -0.072624415 -0.10119657 0.08789982 0.031723112 0.047020987

encoder.lob_enc.res_blocks.0.bn2.weight f4 [32]
00000000: 2663 7e3f 9238 803f c22e 813f 3a8a 7e3f
00000010: 3918 813f 4e95 803f 5d36 813f 0917 813f
00000020: f6d5 803f 2fea 803f 0d37 803f 82aa 7f3f
00000030: 3925 813f 6598 803f cc44 7e3f a306 813f
00000040: 2d55 803f 1307 803f 1613 813f 2ba3 803f
00000050: f425 803f db20 813f 1b14 803f 78f4 803f
00000060: a4ef 803f 034c 803f 0a37 813f bc23 813f
00000070: ad05 813f 2598 7e3f c6ff 803f 5a26 813f
0.9937004 1.0017264 1.0092394 0.99429667 1.0085517 1.0045564 1.0094715 1.0085155
1.0065296 1.0071467 1.00168 0.9986955 1.0089484 1.0046507 0.99323726 1.008015
1.0025994 1.0002159 1.008395 1.0049795 1.0011582 1.0088152 1.0006136 1.0074606
1.0073133 1.0023197 1.0094922 1.008903 1.0079857 0.99450904 1.0078056 1.0089829

encoder.lob_enc.res_blocks.0.bn2.bias f4 [32]
00000000: 0ec9 cc3b ac7d 343a 4b97 1a3c c978 3ebb
00000010: 20cb 0f3c 3e20 dc3b 14b3 183c 58cd 1b3c
00000020: c916 113c 91f5 033c 52ae 3639 1a0d d239
00000030: 0406 113c e450 a53b 1bd4 07bc 7f7f f93b
00000040: dc4d a23b b52c 9d3a ac3a 163c 8b1d 4d3a
00000050: 996a da39 6b7c 183c acf1 7fbb b77a 0f3c
00000060: 1876 033c 167f 663b dd94 1f3c 5318 173c
00000070: 7314 0d3c d0d0 0cbc cbbe 0f3c c78e 143c
0.0062495535 0.00068851816 0.009435485 -0.0029063693 0.008776456 0.0067177108 0.009320039 0.009509407
0.00885553 0.008054153 0.00017421812 0.00040064083 0.008851532 0.0050450433 -0.008290316 0.0076140757
0.004953129 0.0011991473 0.009169262 0.00078245316 0.00041659622 0.009307007 -0.003905396 0.008757285
0.008023761 0.0035170964 0.009740082 0.009222108 0.0086108325 -0.008594707 0.008773516 0.009067244

encoder.lob_enc.res_blocks.0.bn2.running_mean f4 [32]
00000000: c15a e13d a1e0 3fbd 6bf3 363d 0e9f 143e
00000010: facb 853c a120 b43e a5c9 74be b415 5c3e
00000020: 8272 213e b762 b13d cd8c 4abe 05b4 283d
00000030: 6b3a 9dbc 4c5a c6bd 6cb1 7f3e 99b8 4abd
00000040: a0f6 cf3d 40ef 083e b063 e4bd 33ac 3b3e
00000050: 26af 77be b21c 6f3e e6b8 cf3c 3171 2b3b
00000060: cb6a 59be a6e8 423b 9c3c df3b 6288 df3d
00000070: 6ea0 e6bd 39f8 fc3d 0a2f 083e 3efc 0d3e
0.11003638 -0.046845082 0.044665735 0.145138 0.016332615 0.35181144 -0.23905046 0.21492654
0.15766338 0.086614065 -0.19780274 0.041187305 -0.019192895 -0.096851915 0.24970025 -0.049492452
0.10154462 0.13372517 -0.111518264 0.18327408 -0.24187908 0.2335079 0.025356721 0.0026159997
-0.21232145 0.002974072 0.006812645 0.10914685 -0.11261068 0.12352032 0.13299194 0.13865754

encoder.lob_enc.res_blocks.0.bn2.running_var f4 [32]
00000000: dc65 203e eeb7 ed3d 650f 453e 80cd 183e
00000010: 52ce 4b3e 92b7 b63e e7bf 213e 8fd4 5d3e
00000020: b1c4 173e 9273 1c3e ba20 483e 3727 d33d
00000030: a9c8 123e 744b 033e 6130 4c3e e1fd 273e
00000040: 1229 a03e b3e8 483e 0f0c 463e 7fd5 1b3f
00000050: 38d6 823e ce16 363e a05f a93e 97c1 4c3e
00000060: 2652 4c3e 8569 fd3d aaa7 3d3e 0e58 ec3e
00000070: e0b4 2e3e 7606 0b3f 0a27 403e 999c 1f3e
0.15663856 0.116073474 0.19244154 0.14922142 0.19902924 0.35686928 0.15795861 0.21663116
0.14821126 0.15278462 0.19543734 0.10310214 0.14334358 0.12821752 0.1994033 0.16405441
0.31281334 0.19620018 0.19340537 0.60872644 0.2555406 0.17782137 0.3308077 0.19995724
0.19953212 0.12373642 0.1852099 0.4616093 0.17061186 0.54306734 0.18764892 0.15587081

encoder.lob_enc.res_blocks.1.conv1.weight f4 [32, 32, 3, 1]
00000000: 4172 c4bd 8966 963c d04e 2f3d 2d50 f6bc
00000010: d09b 8ebd 631d a13d 67ec f03c 8448 6b3d
00000020: 8159 c83d 6ad4 aebd 13d2 973d b835 1abd
00000030: 63d2 283d 2ff8 8b3d fd57 993d f8ee 0b3d
00000040: 0680 543c 21f9 653b 620e e0bc 2602 653d
00000050: eba2 ca3d e220 0a3c f4f6 a2bd bb61 88bc
00000060: 2792 ecbc 5ac7 573d 574e 9ebd be4a 01bd
00000070: 5585 39bd 4b50 a2bd 3e0d 57bd be5a 803d
00000080: d135 dc3c 5498 9d3d fb1d 2bbc 8473 523d
00000090: bde6 293d 04a5 863d 4f8c 19bc dc2a a73d
000000a0: 12f5 d9bb d673 edbc 044c 203d 3816 163d
000000b0: 962c 8abd 45cb 1abd 7612 c3bd 788a be3d
000000c0: 33d8 db3c 9e8d a83d dcfd b0bd 7133 c93d
000000d0: 8e53 c43d d1f4 c23d 0248 8abd 5de1 ca3d
000000e0: 020f adbd 548b 9cbd 9cbd 0fbd 3f8d ce3d
000000f0: c42d e6bc 329e 153d 35ad 81bc cca7 653d
00000100: 88f5 553d 8aa6 b43d 6ec1 683d b37e af3d
00000110: 1ba3 ba3d a02b 1a3d bae6 803d 42f6 ae3d
00000120: da9c 3a3d 22bd 01bd eff3 9b3d e162 a83c
00000130: cd6b 833d 80dc f2bc 360f bdbd a4c0 6ebd
00000140: 175e 81bb 2cbb 8bbd 0176 2fbd fa0c 533d
00000150: 6683 0f3d deef f1bc 29cb 1bbb 649f c8bd
00000160: 23a6 d3ba ffc0 9a3a 9355 77bd c371 c43d
00000170: fa7e 53bd 9197 003c b63e 89bd 7433 7e3c
00000180: e114 a7bd ba1e e6bb 88d4 1c3d 73e5 9f3d
00000190: 7239 5f3c 3ccc 713c eb20 203c 85cd 75bd
000001a0: 1dbd 9f3c 8251 c7bd 2a03 2fbd 131a f9bb
000001b0: 2bef fcbc 6f0a 3b3d a6ed 87bd 5bc1 f93c
000001c0: 7f61 82bd f966 afbd 426f 93bc 1bcd 4ebc
000001d0: ebc8 46bd 7160 c23d 70c9 17bd ae3c ddbc
000001e0: 19b7 c63b a5e9 31bd 04b5 603c 614a cb3d
000001f0: 84d2 d436 781d 0dbd c638 893d 1699 fe3c
00000200: 4cfd 743d d225 a63c 8ad3 51bd ff8b 97bd
00000210: adfa 2abd 31b2 bfbd 3a33 c0bd ff10 763d
00000220: 42fc 9bbb 71a8 dfb7 830e a1bd 9d3c 503d
00000230: e12a 9f3d 0bc0 933d c448 52bd 6a18 903c
00000240: 8a74 57bd 259b 3c3d 4b0f 5d3d 1749 76bd
00000250: fded a4bd db34 a5bd 7fee 0a3d 387a 723c
00000260: 0a88 7b3d dc74 a9bc 519e 973d db45 b43d
00000270: 094e 8cbd f8ed e8bb 28b1 b23c 6321 863d
00000280: 91e9 c1bd b187 403d f24a 06ba d8de 883d
00000290: c916 c7bd d5ad 9a3d 09cc 9f3d d6e6 993b
000002a0: 8378 ccbc fec5 5d3d 09f0 c1bc be51 ddbc
000002b0: 5797 7ebd 2edd b93d 4c76 783d f545 d73b
000002c0: a852 f8ba 56fd 89bd b415 a53d fcfe 2a3d
000002d0: 20aa 1e3d c2c1 3c3d 2002 a7bd 4d34 19bd
000002e0: 84bb 883d 37b2 10bd afad b33d 7541 8bbd
000002f0: d78c a13d df72 e03d a4b7 a1bd a0d8 ae3d
00000300: 33cf 973c 48ae 263d 65a3 24bd 23c9 823d
00000310: 8d95 533c 3d67 abbd 15d3 bb3d 3e21 4dbb
00000320: 039f b0bc 90bd aa3c 0325 073c 926d c9bd
00000330: 7ad8 ba3d 8056 a9bc b647 a73c 7462 e5bc
00000340: a375 d4bd 42fd c4bd fcdc 12bd 3a98 08bd
00000350: 2cd3 ad3d 396f 333c e395 cc3d 3dc3 a33d
00000360: 06f4 ba3b 4b74 2ebd 32fd 50bb 5dcc 3abd
00000370: 0f84 e3bd 413b 953c a807 ff3c f9f9 29bd
00000380: 1381 ad3d b70c 183b 9fbb 72bc 8f34 f0bc
00000390: f010 b73d fffa 3e3d ee69 a3bd 9f06 b1bd
000003a0: 7bcf bcbd e4ce af3d 5007 9a3d 8f67 2c3d
000003b0: d6bf 273d fabe a0bd 197b 843d 21db 89bc
000003c0: 4aa7 4cbc 031c 3c3b 08fb 1fbd 761c b03d
000003d0: dce0 913b c5f3 713d 5807 82bd 7217 b8bd
000003e0: 4dab 01bd 9605 b83c ddea a2bd 217f 82bd
000003f0: 4ee4 bd3c 6ddf b83d b0ed 9f3d 9ffa b23d
-0.09592105 0.01835944 0.04279977 -0.030067528 -0.069633126 0.07866933 0.0294096 0.057442203
0.097826965 -0.085366085 0.07413115 -0.037648886 0.041216265 0.06834447 0.074874856 0.034163445
0.012969976 0.003509112 -0.027350608 0.055910252 0.098943554 0.008430691 -0.07957259 -0.016648164
-0.028878285 0.05268035 -0.07729786 -0.03156542 -0.04529317 -0.07925471 -0.052502863 0.06267308
0.02688113 0.0769507 -0.01044416 0.051379696 0.041479815 0.06574443 -0.009371831 0.08162472
-0.006651529 -0.028985899 0.039134994 0.036642283 -0.06746785 -0.03779151 -0.095250055 0.093037546
0.02683649 0.08230136 -0.0864217 0.09824265 0.09586249 0.09519351 -0.06752016 0.09906266
-0.08450128 -0.07643762 -0.035092935 0.10085534 -0.028097995 0.03652782 -0.015829662 0.056068227
0.05223611 0.08820827 0.056825094 0.08569088 0.09113141 0.03763926 0.062940076 0.08543064
0.04555974 -0.03167451 0.07614886 0.020554962 0.06417046 -0.029646158 -0.09231417 -0.058289185
-0.003947984 -0.068228096 -0.042837147 0.051526047 0.03503742 -0.029533323 -0.0023772216 -0.09796026
-0.0016147535 0.0011806785 -0.060384344 0.09592011 -0.051634766 0.007848636 -0.06701414 0.015515197
-0.08158279 -0.007022706 0.038288623 0.07807436 0.013624536 0.014758166 0.009773473 -0.06001045
0.019499356 -0.09732343 -0.042727627 -0.0076019852 -0.030875763 0.045664247 -0.06637125 0.030487707
-0.06366252 -0.08564562 -0.017997388 -0.012622143 -0.048531454 0.09491051 -0.03705734 -0.027006473
0.0060643074 -0.04343571 0.0137150325 0.09926296 6.3425996e-06 -0.03445193 0.06700282 0.031078856
0.059811875 0.020281706 -0.05122713 -0.07399749 -0.04174297 -0.09360159 -0.09384771 0.060074802
-0.004760296 -2.6662108e-05 -0.07864096 0.050839055 0.077718504 0.07214364 -0.051338926 0.017589767
-0.052601375 0.046046395 0.053969663 -0.060128298 -0.08053205 -0.08066722 0.033918854 0.014799647
0.061409034 -0.020685606 0.07403243 0.088023864 -0.068508215 -0.007108446 0.02181299 0.06549337
-0.094683774 0.047004405 -0.0005122862 0.06683129 -0.09721143 0.07552687 0.078025885 0.0046967072
-0.024959808 0.0541439 -0.023674028 -0.027016517 -0.062156048 0.0907539 0.06065969 0.006569619
-0.0018945532 -0.06737773 0.0806078 0.04174708 0.038736463 0.04608322 -0.08154702 -0.037403394
0.06676391 -0.03532621 0.08773362 -0.06799594 0.07888191 0.1095941 -0.07896355 0.08537412
0.018531417 0.04069355 -0.040194888 0.0638602 0.012914074 -0.083693005 0.0917112 -0.0031300331
-0.021560198 0.020842344 0.00824857 -0.09835352 0.09123321 -0.02067113 0.020419937 -0.028001048
-0.10374 -0.096186176 -0.03585528 -0.0333483 0.084875435 0.0109518105 0.09989526 0.07996223
0.0057053594 -0.042591374 -0.0031889197 -0.045605052 -0.111091726 0.018216731 0.03113158 -0.041498158
0.084718846 0.0023200938 -0.01481524 -0.029321937 0.089387774 0.046626087 -0.07979189 -0.08643841
-0.09219261 0.08584383 0.07520926 0.04209095 0.040954433 -0.07848926 0.064687915 -0.016828122
-0.012491057 0.002870322 -0.03905776 0.085991785 0.004451854 0.059070367 -0.06349057 -0.08988847
-0.031657506 0.022463601 -0.07954953 -0.06371904 0.023180153 0.0902699 0.07809007 0.087392084

encoder.lob_enc.res_blocks.1.conv1.bias f4 [32]
00000000: be3f 2a3d e074 483d 4bad bb3d 6399 f83c
00000010: 7676 963d 155b 383d c522 4bbd 4ef1 04bc
00000020: 8413 77bd 2b01 8b3d 6ccf b13c dcb3 a4bd
00000030: a975 a83d d819 473d a9bd 83bb 4278 a4bd
00000040: 8b71 74bd b451 cfbd 6aa0 9ebd a21b b53d
00000050: 2ee3 6dbc 4704 a23d f87e 303d 4545 ab3d
00000060: ac4e c83c 61b6 86bd 526e af3d c764 c4bd
00000070: 8a08 8f3c a8af 993c cea2 763d f2c7 a6bd
0.041564696 0.048939586 0.091639124 0.030346578 0.073468134 0.045008738 -0.049593706 -0.008114172
-0.060321346 0.06787332 0.021705352 -0.08042118 0.08225567 0.04860863 -0.004020412 -0.0803075
-0.059678596 -0.101230055 -0.0774544 0.08843161 -0.014519496 0.07910972 0.043089837 0.083628215
0.024451576 -0.06577755 0.08565964 -0.09589534 0.017460126 0.018760517 0.060213856 -0.08143605

encoder.lob_enc.res_blocks.1.bn1.weight f4 [32]
00000000: 31ee 7d3f 009b 803f 2909 7e3f 1c93 7f3f
00000010: eb39 813f d438 7f3f b0fe 7d3f 462a 7e3f
00000020: 0d2a 7f3f 14b3 7d3f 1e38 813f 762e 813f
00000030: 24a0 7f3f 3b26 813f 52e9 7f3f 10b5 7f3f
00000040: 5d2f 813f 9042 803f 9cc4 803f 6d8b 7e3f
00000050: 8127 7e3f 9441 803f 7922 803f c248 7f3f
00000060: ff44 813f c251 803f c3b6 7e3f 957f 803f
00000070: e4d7 7d3f 4de2 7e3f ce7a 7e3f 71f0 803f
0.99191576 1.0047302 0.9923273 0.99833846 1.00958 0.9969609 0.9921675 0.99283254
0.9967354 0.99101377 1.0095251 1.0092304 0.9985373 1.0089792 0.99965394 0.99885654
1.0092579 1.0020313 1.006 0.99431497 0.9927903 1.0020013 1.001052 0.99720395
1.0099181 1.002495 0.9949762 1.0038935 0.9915755 0.9956406 0.99406135 1.0073377

encoder.lob_enc.res_blocks.1.bn1.bias f4 [32]
00000000: 21ce dfbb 9fd0 023c 80cf 9639 8719 5abb
00000010: 60ec 223c 33cc f8bb c351 bcb9 3572 e3bb
00000020: 8124 c43b 3c4a fabb 2bf7 143c 092b 013c
00000030: 9d22 0d3c e76a 113c eebc b23b 3edc 05bc
00000040: 20fe 0a3c 83d1 233b fc40 bf3b 36ee 043c
00000050: 04d4 e23b 5595 213c 9c61 c03b 9c44 dd3a
00000060: 031a 1e3c f23a 57bb 2c38 e63b 99b7 e83b
00000070: 25b8 10bc 1407 9f3b faf4 aeba ce5c e43b
-0.0068299924 0.007984309 0.0002876483 -0.0033279376 0.0099440515 -0.007592702 -0.00035919072 -0.006941105
0.005985797 -0.007638244 0.009092133 0.007883796 0.0086142095 0.008875585 0.005454651 -0.008170186
0.00848344 0.0024996705 0.005836604 0.008113435 0.006922247 0.009862264 0.005871011 0.0016881409
0.009649756 -0.003284153 0.007025739 0.0071019647 -0.008832966 0.0048531387 -0.0013348155 0.006969071

encoder.lob_enc.res_blocks.1.bn1.running_mean f4 [32]
00000000: 0aa8 ef3e 1c2a fb3d b764 dd3d e670 afbe
00000010: 875e adbd 8208 24bd 8d98 35be 06c8 0d3f
00000020: 9867 e83d e5cc 6bbe 4c1c cfbe cedf 3fbf
00000030: f06a ecbe e109 cabe 3bb4 403f 166c b4be
00000040: 2892 36bf a29b a5be ffe5 35bf a5b5 aabe
00000050: e5b5 3dbe 1181 8a3b 4a62 9a3c d28a e63e
00000060: 1aac d5be 8ce8 b7bd 1a3a bc3e f53e 88be
00000070: 9e78 8a3d 5eca f6bd 3361 01be f3e3 90be
0.4680789 0.12263891 0.108102255 -0.34265822 -0.08465295 -0.040047176 -0.17733975 0.55383337
0.11347884 -0.2302738 -0.40451276 -0.74950874 -0.46175337 -0.39460662 0.7527501 -0.35238713
-0.71316767 -0.323453 -0.7105407 -0.3334171 -0.18526419 0.0042268117 0.018845696 0.45027786
-0.41732866 -0.08979902 0.36763078 -0.26610532 0.06761287 -0.12050317 -0.12634735 -0.2829891

encoder.lob_enc.res_blocks.1.bn1.running_var f4 [32]
00000000: c21d 1e3f d683 913e cf9a b43e c81e 603e
00000010: 74ce cb3e 47db e53e ea66 3e3e 087c 1a3f
00000020: 0141 cd3e cf57 b23e 24af ac3e 76e4 a53e
00000030: b3cd 793e 6b22 713e 885b 293f 662e 363e
00000040: d28e 903e c05b ca3e ea62 da3e f01a 3a3e
00000050: 6daf c73e a24c e73e 76f1 813e 68ab 5f3f
00000060: 6c71 a13e f9f9 ec3e a7f8 813f c5c4 9a3e
00000070: 8924 5a3e 2298 dd3e 1614 dc3e 5363 cb3e
0.61764157 0.28420895 0.3527436 0.21886742 0.3980595 0.44893858 0.18593946 0.60345507
0.40088657 0.34832618 0.33727372 0.32400864 0.24394874 0.23548286 0.6615529 0.17791137
0.28233963 0.39523125 0.4265359 0.18174338 0.39001027 0.45175654 0.25379533 0.8737092
0.31531847 0.46284464 1.0154008 0.30228248 0.21303 0.4328013 0.42984074 0.39724216

encoder.lob_enc.res_blocks.1.conv2.weight f4 [32, 32, 3, 1]
00000000: 5b10 213d 0250 6f3c 084e 92bd e989 f93b
00000010: fd01 89bc edfd 983d b659 ccbd a3f4 153c
00000020: fe53 c73d b2bf 98bd 40ac bc3d 6f78 eabc
00000030: 0041 b83d 643c 39bc fa11 a63d f705 bbbd
00000040: 93a1 193d baa8 50bd a6f4 053d 9baf c1bd
00000050: bd21 31bd 520f ee3b 4ef7 94bd 87ff 803d
00000060: f6a3 45bd 7c32 91bc 38bf 51bc 2794 373d
00000070: 033e 37bd 72a4 e13c 8836 30bd edb5 633c
00000080: ea7c b0bd a46a 00bd c6a6 b2bd 7b7d a7bd
00000090: b73d ae3d 8acc d1bd 2e72 2d3d d46b 43bd
000000a0: c430 be3d fc79 27bd 14b2 15bd 4d68 373d
000000b0: a553 87bd 1592 7bbd 10a3 b2bd b047 933d
000000c0: d484 a93d ecb4 77bd 0a32 893d ca32 cdbd
000000d0: 56f0 563d 476e debd 8b53 e43d aaee 13bd
000000e0: 04f3 3dbd 2fff e73c 1519 a2bd a734 9e3d
000000f0: 07b6 acbc 0e89 393d 07d2 783d b669 223d
00000100: 9dbd 0ebd 6f98 c73c 30b1 dcbd 15b4 86bd
00000110: 1504 cbbd 4da9 e2bb 5b5b 5dbd 3d0d 92bd
00000120: 5401 1fbd b10c 94bd 32b8 153d f504 b3bc
00000130: 994f c43d 62f2 803d 308e c6bc a3f3 1dbc
00000140: c8d1 bebd e18c 3a3d ff1b 9c39 4ae7 a53d
00000150: 7520 cdbd 9ed7 0d3b b16a 67bd 111b 70bd
00000160: fcbf adbb 0f9d 3c3d f738 413d a4ec 29bd
00000170: c5e6 8fbd d343 143d e522 94bd edfd 9fbb
00000180: 1541 ca3d 289d b5bd 04f0 4abd 8dd1 ed3b
00000190: f52a 1cbd 4d63 833b 32cd 773d 2139 9c3b
000001a0: 03c3 813d 0bd0 a9bd 504e b1bd 0fa6 c1bd
000001b0: 39d5 8f3c 48b4 86bd 9859 a23d c686 4f3d
000001c0: 3cb5 083d b7d3 35bc f5ba 9ebd 9e82 603c
000001d0: 8029 b4bd 3c49 c2bd 6752 43bd 7169 3bbd
000001e0: e6ad 97bd e453 453c c238 c4bd 9c79 c43d
000001f0: c28d 0dbd c060 1dbc 1695 4e3c c7c0 c53d
00000200: a20f 3a3d ca80 823d d6ab b1bc 2e89 2fbc
00000210: 8566 7dbc d04b 873d c3de 433d 69ee 893d
00000220: 7478 733d 83c3 c9bd 5baa 45bd 4473 493d
00000230: dce9 0f3d 2222 b2bd b563 803d 0701 61bb
00000240: 431a 013d c3a0 343c 47ee 7fbd 1f77 303d
00000250: 3a43 933c 239c ae3d 52dc c13d 5648 51bd
00000260: 9231 3abc 90b0 a6bd 5505 093d 7264 95bd
00000270: be2b 413d 5b31 94bd 6401 c13d 3e5b 933d
00000280: 4c77 b6bd 5a94 debb 432a b63c 902b 9cbc
00000290: dca6 91bd 0538 09bd bc04 93bd 45db b8bc
000002a0: 9325 b83d 5d44 50bd 2ffb 1f3d 918f 343c
000002b0: dc8c 173d b9d5 623d 86d2 26bb 1e2a 083b
000002c0: 5511 22bd 4dd1 ad3d c579 243d f193 1c3d
000002d0: e764 debb acde 8ebd e299 b2bd 68dd 343d
000002e0: 8ed8 aa3c bc97 963d a3e0 a43d 6da4 6fbb
000002f0: 99e2 813d 9737 fbbc 965c abbd b266 9d3c
00000300: 6d74 2fbd 6b24 a93d 825a b73d 5971 64bd
00000310: 9a74 b33a 54da ad3c ca8e b8bd 9353 1d3d
00000320: b0af e43c 2e78 5a3c 7457 20bd 9728 983d
00000330: 2f4e 94bd 8e4c 3a3d 6f3e 663c 5b9d bcbd
00000340: bdff 593c 9621 25bd f90b 70bd 2ba6 21bd
00000350: f125 743d 0717 fd3b b61e 49bd 9f1e 12bb
00000360: 55e6 3abc cec2 933c 971b 9338 bd13 48bd
00000370: 2b0b 723d 41c1 c1bc 9e37 183d aeb2 403d
00000380: 0ff6 a33d 7d07 c33c 23a8 503d 4f02 383c
00000390: 3a57 07bc 95f9 b63d f3f3 90bd 08e8 7dbd
000003a0: 09d3 8abd 2815 c43c d7f4 893d 07fb dfbd
000003b0: 20ee 50bd c12a 9cbd ba6e ccba 09f5 acbb
000003c0: 40ca 87bc ff52 5abc f66c a6bd c359 963d
000003d0: 191e 77bd dcb2 38bc 4830 59bc b208 80bb
000003e0: 32be bd3d 80db 81bd d8c8 a9bc 6a94 763d
000003f0: 0386 813d 0670 5fbd b7c9 453d 1981 ab3d
0.03932224 0.014606478 -0.071437895 0.007615317 -0.01672458 0.074703075 -0.099780485 0.009152564
0.09732817 -0.07458438 0.092125416 -0.02862188 0.08996773 -0.011305902 0.081088975 -0.09131997
0.037507605 -0.05094216 0.032704018 -0.09457322 -0.043245066 0.00726501 -0.07273732 0.06298738
-0.04825207 -0.017724268 -0.012801938 0.044819023 -0.044736873 0.027544234 -0.043020755 0.013898355
-0.086175755 -0.0313517 -0.08723216 -0.081782304 0.08507865 -0.10244091 0.04234522 -0.047710255
0.09286645 -0.040887818 -0.03654678 0.044777203 -0.06607751 -0.06141861 -0.08722508 0.07191408
0.08277288 -0.060475275 0.06698997 -0.10019453 0.052475296 -0.108608775 0.11148747 -0.03611628
-0.046374336 0.028319923 -0.0791494 0.077248864 -0.021082891 0.04529672 0.060747173 0.039651595
-0.034848798 0.024364678 -0.10775983 -0.06577317 -0.09912888 -0.006917155 -0.0540422 -0.07131431
-0.038819626 -0.07228983 0.036552615 -0.02185295 0.095854945 0.06296231 -0.024237722 -0.009640607
-0.09317356 0.04554451 0.00029775497 0.081007555 -0.10015956 0.002164341 -0.056498233 -0.058619563
-0.0053024273 0.04604822 0.047173467 -0.041485444 -0.07026438 0.036197495 -0.07233218 -0.0048825652
0.09875695 -0.08867866 -0.049545303 0.0072576464 -0.038126905 0.0040096403 0.060498424 0.0047675525
0.06336024 -0.08291634 -0.08657515 -0.09455501 0.017557727 -0.06577355 0.07927245 0.05066564
0.033375964 -0.01109784 -0.07750503 0.013703017 -0.08796978 -0.094866246 -0.047686007 -0.045754854
-0.07406215 0.012043927 -0.09581138 0.09593508 -0.03455902 -0.0096055865 0.012608787 0.0965591
0.045425065 0.06372221 -0.021688383 -0.0107138585 -0.015466337 0.06606257 0.047819864 0.06734926
0.059441045 -0.09851744 -0.048258167 0.04918219 0.035135135 -0.086979166 0.062690176 -0.0034332888
0.031519186 0.011024657 -0.0624831 0.043082353 0.017976392 0.085258745 0.09465851 -0.051094376
-0.011364358 -0.081391454 0.03345235 -0.07294549 0.047160856 -0.07235976 0.09424093 0.071951374
-0.08909473 -0.006792587 0.022236949 -0.019063741 -0.07111904 -0.03350069 -0.071786374 -0.022565493
0.08991542 -0.050846446 0.039057907 0.011020557 0.03699957 0.055379603 -0.0025455072 0.0020777057
-0.03956731 0.084871866 0.04015519 0.038227025 -0.006786931 -0.06976065 -0.08720757 0.044156462
0.020855214 0.0735316 0.080506586 -0.0036566511 0.06342048 -0.030666156 -0.08367269 0.019214008
-0.04283564 0.08258899 0.0895281 -0.05577216 0.0013691366 0.021222271 -0.0901161 0.03840978
0.027915806 0.013334317 -0.0391459 0.07429617 -0.07241475 0.045483164 0.014052971 -0.09209701
0.013305602 -0.040315233 -0.058605168 -0.03946511 0.059606496 0.0077236923 -0.049101554 -0.0022296084
-0.0114074545 0.018037226 7.014645e-05 -0.04884695 0.05909268 -0.023651721 0.037162416 0.047045402
0.08005916 0.023807282 0.050941598 0.011231019 -0.0082605425 0.08934323 -0.070777796 -0.06198886
-0.06778533 0.02393587 0.067361526 -0.109365515 -0.051008344 -0.07625342 -0.0015596964 -0.005278234
-0.016575933 -0.013325452 -0.081262514 0.073413394 -0.060331438 -0.011273112 -0.01325614 -0.0039072866
0.092647925 -0.063406944 -0.020725653 0.060200132 0.06324389 -0.054550193 0.048288073 0.08374233

encoder.lob_enc.res_blocks.1.conv2.bias f4 [32]
00000000: dfa6 f63c 5eea 143d 1735 b4bb 97cc 613d
00000010: 6665 9dbd ba4c a3bc 7b18 2dbd 1148 363d
00000020: f1c8 9fbd 36d1 103d 4885 4ebd bb2c 843d
00000030: 8ce6 7dbc a49a 9a3b 00ae f93c 2074 ca3c
00000040: 867e 183d e552 643d 20f0 10bd 2ae5 4abd
00000050: f070 d83c 58bc dfbd 33a6 5a3c 302c 0e3d
00000060: 9021 913d 4a14 8c3d ea7f 87bd 9774 aebd
00000070: ced9 15bd 5ec3 b1bd 64ef d43a fdf7 483d
0.030108867 0.036356322 -0.005499493 0.055126753 -0.07685356 -0.019934047 -0.042259675 0.04450232
-0.078019984 0.03535577 -0.050420076 0.06453844 -0.015496861 0.0047181416 0.030478477 0.024713576
0.037230037 0.055743117 -0.03538525 -0.049534954 0.02642104 -0.109245956 0.013345289 0.03471011
0.0708648 0.06839807 -0.066161945 -0.085183315 -0.036584668 -0.086798415 0.001624566 0.049064625

encoder.lob_enc.res_blocks.1.bn2.weight f4 [32]
00000000: 320b 813f 1a34 803f cc29 813f 75d5 7e3f
00000010: 8818 813f 1fc0 803f 4a1f 813f cb10 813f
00000020: 6812 813f e305 813f 61e6 7f3f d4e5 7f3f
00000030: ea20 813f 1eae 803f 92eb 7d3f 6bbe 803f
00000040: 1fc1 803f 9026 803f 95d8 803f 9836 803f
00000050: ff2e 803f fa23 813f fa03 803f 7cf7 803f
00000060: 9a35 813f 1562 803f 7b20 813f eb20 813f
00000070: 68fa 803f c69b 7d3f b128 813f 2c12 813f
1.0081542 1.00159 1.009088 0.9954446 1.0085611 1.0058631 1.0087674 1.008325
1.0083742 1.0079921 0.99960905 0.99960065 1.008817 1.0053136 0.99187577 1.0058111
1.0058936 1.0011768 1.0066096 1.0016661 1.0014342 1.0089104 1.0001214 1.0075526
1.0094483 1.0029932 1.0088037 1.0088171 1.0076418 0.99065816 1.0090543 1.0083671

encoder.lob_enc.res_blocks.1.bn2.bias f4 [32]
00000000: f573 063c c8d0 b93a f78a 173c dae6 96bb
00000010: 5a02 0f3c 2d50 e53b c280 153c 8bf0 0e3c
00000020: 26ba 103c a035 0e3c 2be0 adba 6467 ad39
00000030: dfa8 0c3c 275d ab3b 11af 0abc 34d1 ef3b
00000040: 98f5 d33b 9d68 ac3a 953c 123c 44ae 013a
00000050: ce11 393a ca1d 183c fb61 03bb df16 0a3c
00000060: de15 083c 9e01 473b 4820 1d3c 5b7d 123c
00000070: 9c57 0d3c c620 0ebc 33c4 0f3c b18b 133c
0.008206357 0.0014176602 0.00924944 -0.0046051564 0.008728588 0.006998083 0.009124937 0.008724342
0.008833444 0.008679777 -0.001326566 0.00033074163 0.008585184 0.0052296105 -0.008464591 0.00731864
0.006468486 0.0013153736 0.008925577 0.0004946927 0.0007059843 0.009284446 -0.0020047415 0.008428304
0.008305995 0.0030365954 0.009590216 0.00894102 0.008626845 -0.008674806 0.008774805 0.009005473

encoder.lob_enc.res_blocks.1.bn2.running_mean f4 [32]
00000000: 3598 8cbe 250d 5c3d 16e0 89bd e150 d83d
00000010: 38d2 093d bff0 163e 5983 a6bd 1e3e c13d
00000020: 0ed2 3c3e ef3b 13be ec42 133e 6398 603c
00000030: c487 22be ca36 a4bb 68d2 16be a7c3 2b3e
00000040: 7b88 cc3c 74a1 6b3e 0417 5b3d 3cc3 8ebd
00000050: e59e 583e 88a2 523d c793 89be b99c f7bc
00000060: 0578 a7be 3978 213d 5c25 4bbe e9f6 a73d
00000070: 1917 14bd b6f7 31be 0500 9fbe d04f b13e
-0.27459875 0.053723473 -0.06732194 0.105623014 0.033647746 0.14740275 -0.08130521 0.09435676
0.18439505 -0.14378332 0.14380997 0.013708207 -0.15872103 -0.005011414 -0.14728701 0.16773854
0.024967423 0.23010808 0.053488746 -0.06970832 0.21154363 0.051424533 -0.26870558 -0.030226098
-0.32708755 0.039421294 -0.1983847 0.08201391 -0.03615484 -0.1737965 -0.31054702 0.34631205

encoder.lob_enc.res_blocks.1.bn2.running_var f4 [32]
00000000: 6501 8b3e d7d6 ad3e 2fe1 fb3d 334d 613e
00000010: 8eef cf3e e3ed 293e 2c6c 243e 7572 403e
00000020: dd5c 213e 01c7 0a3e e3b3 4a3e b3a0 033e
00000030: 24c3 113e 20d2 063e 4275 1e3e 01da 123e
00000040: 4e04 f73d 1e90 443e a473 0e3e 1a41 2e3e
00000050: cece 1c3e 33bf 213e 829e 8f3e e663 333e
00000060: 889c 5d3e 0d1c 153e 6e9e 223e 5658 193e
00000070: 96a0 183e 41cd 0b3e c46a 593e 0bfe 393e
0.271495 0.33952972 0.1229881 0.22002105 0.40612453 0.16594653 0.1605689 0.18793662
0.15758081 0.13552476 0.19795184 0.1285427 0.14234596 0.13166094 0.15474418 0.14340974
0.12061368 0.19195601 0.13911301 0.17017022 0.15313265 0.15795593 0.2805062 0.17518577
0.21641743 0.14561482 0.15880749 0.14975104 0.14905009 0.13652517 0.21232134 0.18163316
