outputs/performance_test/checkpoint_epoch_15.pt (torch, 945914 bytes, 81 tensors)

encoder.lob_enc.conv_in.0.weight f4 [32, 2, 3, 1]
0	0xbde9c2f4	-0.114141375
1	0x3e9c7095	0.30554643
2	0xbe8033c4	-0.25039494
3	0xbd96bc88	-0.07360178
4	0xbc2b0de3	-0.010440323
5	0xbe5ac81f	-0.21365403
6	0x3c481f23	0.012214455
7	0xbdc52551	-0.09626258
8	0xbe4efc14	-0.20213348
9	0xbea73f34	-0.32665408
10	0xbc00c4b2	-0.007859396
11	0x3ebf0d35	0.37314764
12	0x3e1defb4	0.1542347
13	0xbea16464	-0.31521904
14	0xbe58119c	-0.21100467
15	0x3e8760e7	0.26441118
16	0xbe222459	-0.15834178
17	0xbd2cd9fe	-0.04220008
18	0xbe462915	-0.19351609
19	0x3e4b82d4	0.19874126
20	0xbe8de1e5	-0.27711406
21	0xbec8fc7a	-0.39255124
22	0xbea44342	-0.32082564
23	0xbeaf7192	-0.34266335
24	0x3d4ffc4f	0.05077773
25	0x3d997d65	0.0749462
26	0xbe03427c	-0.1281833
27	0x3e17a8f7	0.14810549
28	0x3d41385a	0.04717288
29	0x3dc9c92f	0.09852826
30	0x3e55a86b	0.20865028
31	0x3dbcb1bf	0.0921359
32	0x3ecb0d90	0.39658785
33	0x3ea0c705	0.3140184
34	0xbe5f2ad6	-0.21793684
35	0x3e987b40	0.29781532
36	0xbd43d1ef	-0.04780763
37	0xbcd43b15	-0.025907079
38	0x3d0aef6b	0.033919733
39	0xbeb905f9	-0.3613737
40	0x3e8733f2	0.2640682
41	0x3e861db4	0.26194537
42	0x3ec5daf7	0.3864362
43	0x3d88167a	0.06644912
44	0xbdf4804f	-0.119385354
45	0xbd8d62cf	-0.06903612
46	0xbe12cf3b	-0.14336865
47	0xbec223d2	-0.37917954
48	0x3e100fb5	0.14068492
49	0x3d6c7cc8	0.05773619
50	0xbe0199e2	-0.12656358
51	0xbe755d8f	-0.23961471
52	0xbdbd4d8c	-0.092433065
53	0x3de46e17	0.111538105
54	0x3ea084d2	0.31351334
55	0x3e46f709	0.19430174
56	0x3e961128	0.29309964
57	0x3ea6f6c9	0.32610157
58	0xbe457ff9	-0.19287099
59	0xbc98714d	-0.018608714
60	0xbeab9bb2	-0.33517224
61	0xbe6816cc	-0.22664946
62	0x3e2c06d6	0.16799483
63	0x3e213b90	0.15745378
64	0x3e4023d7	0.18763672
65	0x3eb7a96a	0.3587144
66	0x3e247b53	0.1606267
67	0xbe5263af	-0.20545839
68	0xbdb9f887	-0.09080606
69	0x3ccaeadf	0.024770198
70	0x3e4f33ac	0.20234555
71	0xbe5cb6b8	-0.21554077
72	0xbe23f0fa	-0.16009894
73	0x3e1c114c	0.15240973
74	0x3e1b7cb9	0.15184297
75	0x3eca4d69	0.39512184
76	0x3eb46115	0.35230318
77	0xbe367f9e	-0.1782212
78	0x3e1c2f2c	0.1525237
79	0xbe746c3e	-0.23869416
80	0xbc2a5bd4	-0.01039787
81	0xbcb77fb5	-0.022399763
82	0x3dd27637	0.10276454
83	0x3ebdde9f	0.3708391
84	0xbeaae1ed	-0.33375493
85	0x3eb8b6c2	0.36076933
86	0x3e8a5abc	0.2702235
87	0xbe59a0db	-0.21252768
88	0xbe003ee9	-0.12523998
89	0xbdd519cd	-0.10405312
90	0x3e7ecde2	0.24883226
91	0xbde0aa05	-0.10969929
92	0x3e179d65	0.14806135
93	0xbe28af35	-0.16473086
94	0x3eab3976	0.33442277
95	0xbd392565	-0.045201678
96	0x3ecad9e9	0.39619377
97	0xbe9833d2	-0.29727036
98	0xbdf3c6d2	-0.11903156
99	0x3e88c455	0.2671229
100	0x3e1084f1	0.14113213
101	0xbe4e451e	-0.20143554
102	0xbeb07b8c	-0.3446926
103	0xbea035e1	-0.31291106
104	0xbea7f0ee	-0.32801002
105	0xbe7c275b	-0.24624388
106	0xbe81cd7c	-0.25352085
107	0xbdf40ebd	-0.119168736
108	0x3eb1e0f3	0.34741935
109	0xbde6ee98	-0.11275977
110	0xbe8526af	-0.26006076
111	0x3e475d89	0.19469275
112	0xbe7afa34	-0.24509507
113	0xbe57d386	-0.21076784
114	0xbd6f6a54	-0.05845101
115	0xbd0a77c0	-0.03380561
116	0xbe86b9f4	-0.26313746
117	0xbea55772	-0.32293278
118	0xbed0bdec	-0.407699
119	0xbe30d103	-0.17267232
120	0x3e483c85	0.19554336
121	0x3cdfbbbe	0.027311202
122	0x3ea5c16c	0.32374132
123	0x3d760822	0.06006635
124	0xbea0cb2f	-0.31405017
125	0x3cd2c80d	0.025730157
126	0xbde0869e	-0.10963176
127	0x3e690af1	0.2275808
128	0x3dd18ccf	0.10231935
129	0x3ecdd894	0.40204298
130	0xbebc03c8	-0.36721635
131	0xbe4ed154	-0.2019704
132	0xbeb1c407	-0.3471987
133	0x3d0d0546	0.034428857
134	0xbe85db65	-0.26143947
135	0xbe2fb843	-0.17160134
136	0x3ec77c7b	0.3896216
137	0xbe0d6120	-0.13806581
138	0x3e45f423	0.19331412
139	0x3e89fef8	0.26952338
140	0x3e9a5fe0	0.30151272
141	0x3ea594a9	0.3233998
142	0x3e8510d9	0.25989416
143	0x3d34c113	0.044129442
144	0x3eb4fd85	0.3534967
145	0x3ec755d4	0.3893267
146	0xbe8bd7d5	-0.27313104
147	0x3dbede6e	0.09319769
148	0x3e93a8d5	0.28839746
149	0xbe89b80b	-0.26898226
150	0x3e3c3e75	0.183832
151	0x3e8849f2	0.26618916
152	0xbbd1d4e1	-0.006403551
153	0xbddb4d18	-0.10708064
154	0xbd0be55b	-0.034154277
155	0x3ea99fff	0.3312988
156	0xbeab79a3	-0.3349124
157	0x3e1c900a	0.15289322
158	0xbe6d364e	-0.23165247
159	0x3e872c01	0.2640076
160	0xbe35cd70	-0.1775415
161	0x3da3ac0c	0.079918
162	0x3e7c7592	0.24654225
163	0xbd61a211	-0.0550862
164	0xbd40bf35	-0.04705735
165	0x3eb62ac5	0.35579506
166	0x3ec80977	0.3906972
167	0x3e72196e	0.23642513
168	0x3c83c67c	0.016085856
169	0xbc3e8cc1	-0.011630238
170	0xbe7ed086	-0.24884233
171	0x3e9093fb	0.282379
172	0x3e29979c	0.1656174
173	0x3eab180d	0.33416787
174	0xbe8ced9a	-0.27525026
175	0x3db931d1	0.09042705
176	0x3d8fd808	0.070236266
177	0xbe087ca4	-0.13328797
178	0xbd5ae81b	-0.05344401
179	0x3d9740ef	0.07385432
180	0xbdf3f021	-0.11911035
181	0x3ec27888	0.37982583
182	0xbebf4bac	-0.3736242
183	0xbd880fc7	-0.06643634
184	0xbe4d4a5b	-0.20047896
185	0x3e9ac50d	0.30228463
186	0xbe139f19	-0.1441616
187	0xbdbc8d97	-0.092066936
188	0x3eb53ad2	0.3539644
189	0xbeb5b96f	-0.35493037
190	0xbe07f044	-0.13275248
191	0x3eb4a947	0.35285398

encoder.lob_enc.conv_in.0.bias f4 [32]
0	0x3e92dc03	0.2868348
1	0xbdee1c2d	-0.11626468
2	0xbd9d5211	-0.076816685
3	0xbe473a5c	-0.19455856
4	0x3da5738d	0.0807868
5	0x3df518f1	0.11967648
6	0x3e8d3305	0.27577987
7	0x3e377f7d	0.17919727
8	0x3e52dc25	0.20591791
9	0xbd8524a9	-0.06501133
10	0xbe95610b	-0.291756
11	0x3e66d225	0.22541101
12	0xbbe857c9	-0.007090543
13	0xbe88c4b6	-0.2671258
14	0x3d159c71	0.036526147
15	0x3ececf51	0.40392545
16	0xbd0cfa59	-0.034418438
17	0xbeae9a1f	-0.3410196
18	0x3e7c7721	0.24654819
19	0x3e9b6cb1	0.30356362
20	0xbe8591f9	-0.2608793
21	0xbeb6d040	-0.35705757
22	0xbe958cd4	-0.29209006
23	0x3e2be055	0.16784795
24	0xbe2b902f	-0.1675422
25	0xbecd51e8	-0.40101552
26	0xbceffcf9	-0.029295431
27	0xbe5464ab	-0.20741527
28	0xbdf77cd5	-0.12084357
29	0xbe24fca2	-0.16111997
30	0xbe0c4535	-0.13698275
31	0xbe881703	-0.26580057

encoder.lob_enc.conv_in.1.weight f4 [32]
0	0x3f80e8fd	1.0071102
1	0x3f80fcd4	1.0077157
2	0x3f810f9c	1.0082889
3	0x3f80a9d6	1.005183
4	0x3f80440f	1.002077
5	0x3f800b0a	1.0003369
6	0x3f7f9866	0.99841917
7	0x3f817867	1.0114869
8	0x3f80eb1c	1.007175
9	0x3f80a9cf	1.0051821
10	0x3f7b9923	0.98280543
11	0x3f7ce13c	0.9878118
12	0x3f80934c	1.0044951
13	0x3f7dfb10	0.99211216
14	0x3f7e72fe	0.99394214
15	0x3f809134	1.0044312
16	0x3f7d4e2a	0.98947394
17	0x3f81866a	1.0119145
18	0x3f81158a	1.0084698
19	0x3f80589f	1.0027045
20	0x3f7dc68b	0.9913108
21	0x3f7e00ca	0.99219954
22	0x3f80d211	1.0064107
23	0x3f7ede67	0.9955811
24	0x3f809e8d	1.0048386
25	0x3f7efd80	0.9960556
26	0x3f80e96f	1.0071238
27	0x3f815a42	1.010567
28	0x3f80721c	1.0034823
29	0x3f8007c4	1.000237
30	0x3f817a76	1.0115497
31	0x3f80b85a	1.005626

encoder.lob_enc.conv_in.1.bias f4 [32]
0	0x3bb9f1da	0.005674583
1	0x3bc18986	0.0059062866
2	0x3c0f9166	0.008762693
3	0x3a654532	0.00087459676
4	0xbb871e35	-0.004123474
5	0x3c1f39bc	0.009718355
6	0x3c1b8fc9	0.00949473
7	0x3c109156	0.008823713
8	0x3be51ab1	0.0069917073
9	0x3c1280a7	0.008941806
10	0xbc3650d5	-0.01112767
11	0xba2137ea	-0.00061499944
12	0xbc3d09e1	-0.011538
13	0x3a25cee9	0.00063250825
14	0xbae77fa9	-0.0017661947
15	0x3c39a3fc	0.011330601
16	0x3b2e3607	0.0026582496
17	0x3c1979d8	0.009367429
18	0x3be7cce3	0.007073985
19	0x3b593259	0.0033141582
20	0x3c1c1bc9	0.009528109
21	0x3a8d9be0	0.0010803901
22	0x3b86ffc4	0.004119845
23	0x3c3cc152	0.0115207005
24	0x3c232f3e	0.009959994
25	0x3a7f2554	0.00097330404
26	0x3be92818	0.0071153753
27	0x3c2117b5	0.009832312
28	0x3c204829	0.009782829
29	0xbba416e9	-0.005007614
30	0x3c439d5c	0.011939373
31	0x3c04e37d	0.008110878

encoder.lob_enc.conv_in.1.running_mean f4 [32]
0	0xcd735dcd	-2.5518818e+08
1	0xcd2b26ce	-1.7946544e+08
2	0xcd59eabc	-2.2850246e+08
3	0xce656f54	-9.623196e+08
4	0x4d4a6350	2.1221914e+08
5	0x4e3bdee3	7.879866e+08
6	0x4cb43815	9.4486696e+07
7	0xcd337dfe	-1.8821117e+08
8	0xcccea845	-1.08347944e+08
9	0x4e1daa43	6.612953e+08
10	0x4d56045e	2.2441315e+08
11	0xccaabd1a	-8.951624e+07
12	0x4df8ef47	5.2205386e+08
13	0x4d72ec33	2.5472286e+08
14	0xccc1cfc6	-1.016131e+08
15	0x4d8e9ee8	2.9909734e+08
16	0x4cfdbac9	1.330274e+08
17	0xce8b1c79	-1.1669495e+09
18	0xcd49512b	-2.1109624e+08
19	0xce5a7e30	-9.164257e+08
20	0x4d586d57	2.2694027e+08
21	0x4c0c8d36	3.684476e+07
22	0xcda828e6	-3.5265658e+08
23	0x4e7191cc	1.013216e+09
24	0x4dcc80e6	4.2887494e+08
25	0x4ddbeac2	4.6119942e+08
26	0xcd29f564	-1.7821446e+08
27	0x4e4389ab	8.2014483e+08
28	0x4dba5abe	3.9081363e+08
29	0xcd1b8a14	-1.6309485e+08
30	0xcc507bde	-5.465279e+07
31	0xcb78923d	-1.6290365e+07

encoder.lob_enc.conv_in.1.running_var f4 [32]
0	0x5ba476ef	9.258533e+16
1	0x5b4126f0	5.4367483e+16
2	0x5b96cc8b	8.489229e+16
3	0x5d704e40	1.0822405e+18
4	0x5b4283d7	5.4751105e+16
5	0x5d2449bc	7.398875e+17
6	0x5aefb22d	3.3734213e+16
7	0x5b7451eb	6.8769964e+16
8	0x5a8300b7	1.8437004e+16
9	0x5ce8345d	5.2287815e+17
10	0x5b96915e	8.476216e+16
11	0x5a9a131e	2.1684083e+16
12	0x5c91ce67	3.283265e+17
13	0x5b9b6cb4	8.749628e+16
14	0x5b17a6f9	4.268631e+16
15	0x5bc74d40	1.12196915e+17
16	0x5b56a629	6.041834e+16
17	0x5dae648d	1.5707905e+18
18	0x5b9f0f73	8.954302e+16
19	0x5d577eaa	9.705022e+17
20	0x5b87967e	7.632918e+16
21	0x5aa62f99	2.338859e+16
22	0x5c1a7995	1.7392331e+17
23	0x5d838930	1.18477e+18
24	0x5c6648b1	2.5927668e+17
25	0x5c610d03	2.533847e+17
26	0x5b306a85	4.9656715e+16
27	0x5d2e6b17	7.855103e+17
28	0x5c253f17	1.8605096e+17
29	0x5b177459	4.2630647e+16
30	0x5aacf1a2	2.4339687e+16
31	0x5b38451a	5.1867374e+16

encoder.lob_enc.res_blocks.0.conv1.weight f4 [32, 32, 3, 1]
0	0xbd18446e	-0.037174635
1	0xbd9adedb	-0.075620376
2	0xbcce9648	-0.025218144
3	0xbda4561f	-0.08024239
4	0xbc0e086b	-0.008668999
5	0x3d5e6a42	0.054300554
6	0xbd7c6d0e	-0.06162744
7	0xbd0607a1	-0.03272212
8	0xbcfdb81b	-0.030971577
9	0xbd4693b5	-0.04848071
10	0xbdaaa7c6	-0.083327815
11	0x3c5a946c	0.013341051
12	0xbcafc9be	-0.021458503
13	0xbbd3ab88	-0.006459657
14	0xbd0413da	-0.032245494
15	0xbd95cf0f	-0.07314884
16	0xbd3f532f	-0.04671019
17	0x3d3c897f	0.046029564
18	0x3d6d67d8	0.05796036
19	0xbd197cfb	-0.037472706
20	0x3d512e2b	0.05106942
21	0xbd9eeb29	-0.07759697
22	0xbc99d508	-0.018778339
23	0xbdccc048	-0.09997612
24	0xbcff1579	-0.031138169
25	0x3c8a0da5	0.01685221
26	0x3d46f9b9	0.048577998
27	0x3cd95bfd	0.026533121
28	0x3d15105f	0.036392566
29	0xbce780d4	-0.028259672
30	0x3dbe6cd8	0.09298104
31	0xbdb21c0c	-0.08696756
32	0xbceb0929	-0.028690891
33	0xbd0001e9	-0.03125182
34	0x3d636a3d	0.05552124
35	0x3c7d87de	0.015474288
36	0x3daf7cc6	0.085687205
37	0xbda3024d	-0.07959423
38	0x3cdbbc53	0.026823198
39	0xbdb9b50f	-0.09067737
40	0x3cc4f277	0.024041397
41	0xbd50f56c	-0.051015303
42	0xbd7c832b	-0.06164853
43	0x3bce7249	0.006300245
44	0xbaa38264	-0.0012474773
45	0x3db9e6dd	0.09077237
46	0x3d94dccc	0.07268676
47	0x39d8a165	0.0004131898
48	0x3d13d47d	0.036091316
49	0x3b4eae05	0.003153683
50	0xbcdebe8b	-0.027190467
51	0xbdb48589	-0.08814532
52	0xbdc2c14c	-0.09509525
53	0xbb529066	-0.0032129525
54	0xbd80b72b	-0.062849365
55	0x3d9caa3b	0.076496564
56	0xbd68f9e2	-0.05687893
57	0x3c56e3cf	0.013115837
58	0xbd7f5de6	-0.062345408
59	0x3db614cf	0.08890688
60	0x3d29f205	0.041490573
61	0x3d3a46ea	0.045477785
62	0x3cafa052	0.021438751
63	0xbcbae2e5	-0.02281327
64	0xbd4c13e9	-0.049823675
65	0xbd63213c	-0.055451617
66	0xbdd26168	-0.10272485
67	0xbcee612d	-0.029099071
68	0xbd5a2d86	-0.05326607
69	0x3da6b489	0.08139903
70	0x3db29f10	0.08721745
71	0xbd971c70	-0.07378471
72	0xbbf380f4	-0.007431144
73	0xbdc17169	-0.094454594
74	0x3d356d0c	0.04429345
75	0x3d8a0868	0.067398846
76	0xbd84538b	-0.06461247
77	0xbd9f39c3	-0.07774689
78	0xbd003fa4	-0.031310692
79	0x3d94a121	0.072572954
80	0x3d7634f6	0.0601091
81	0xbd8546f9	-0.065076776
82	0xbbd06d09	-0.0063606543
83	0xbdabf895	-0.08397023
84	0x3daa5c46	0.08318381
85	0x3d0bce5c	0.034132347
86	0xbd403e05	-0.046934146
87	0x3cf775a9	0.030207472
88	0xbbef5ada	-0.0073045315
89	0xbda818af	-0.08207833
90	0xbdd29477	-0.10282224
91	0x3da77a97	0.08177679
92	0xbd86f8a2	-0.06590392
93	0x3d6026a7	0.05472436
94	0xbd184166	-0.037171744
95	0x3d296c40	0.041363
96	0x3cecbd7e	0.02889895
97	0x3d351637	0.04421064
98	0xbd70db29	-0.058802757
99	0x3d19e8ee	0.037575655
100	0x3c3ad8bd	0.0114042135
101	0xbc683b77	-0.014174334
102	0xbc416296	-0.01180329
103	0xbc2a2ef3	-0.01038717
104	0x3d2c10a0	0.042008042
105	0x3d3ac9eb	0.04560272
106	0xbd61530a	-0.055010833
107	0xbc9b26f0	-0.018939465
108	0xbc666139	-0.014061266
109	0xbcfbc306	-0.030732643
110	0x3d5e5f7e	0.054290287
111	0x3dd1511c	0.102205485
112	0x3d63be0a	0.055601157
113	0xbca0b5c4	-0.019617923
114	0x3d93cbbd	0.07216594
115	0x3dda69e8	0.10664731
116	0xb9de671d	-0.00042419965
117	0x3d9d2550	0.076731324
118	0x3c96e0bf	0.018417714
119	0xbd25187e	-0.04030656
120	0x3c8d37d1	0.01723853
121	0x3bd77118	0.006574761
122	0x3c546de1	0.01296565
123	0xbc9d6927	-0.01921518
124	0xbd8cfb74	-0.068838984
125	0xbdb167b9	-0.08662362
126	0xbd6bc945	-0.057564992
127	0x3d81d44d	0.06339321
128	0xbcc877d4	-0.024471201
129	0xbdd47728	-0.1037429
130	0x3d9f5cda	0.07781382
131	0xbdf09aad	-0.11748252
132	0x3cc0f0ec	0.02355238
133	0x3dc7e12e	0.097597465
134	0xbd32c20b	-0.043642085
135	0x3bd5ef25	0.0065287524
136	0x3dce4b79	0.10072989
137	0x3db3aa79	0.087727495
138	0x3da18484	0.078866035
139	0xbc0a4e97	-0.008441589
140	0x3d6eac58	0.05826983
141	0x3d3b797e	0.04577016
142	0x3c854508	0.016268268
143	0x3dbba747	0.09162765
144	0x3ce159da	0.027508665
145	0x3da3c001	0.07995606
146	0xbd81d5ea	-0.06339629
147	0x3c6fb5da	0.014630759
148	0xbde34095	-0.110963024
149	0x39c01475	0.00036636335
150	0x3c9492d1	0.018136414
151	0x3d4bd029	0.049759064
152	0x3d06935c	0.032855377
153	0xbd7b23ce	-0.061313443
154	0x3d3458a8	0.04402986
155	0xbdf311c1	-0.11868621
156	0x3db5810b	0.088625036
157	0x3d408a29	0.04700676
158	0xbc0d1101	-0.008610011
159	0x3cfe6bd0	0.031057268
160	0x3d6880ae	0.056763344
161	0xbd8c3d59	-0.06847639
162	0x3d55c2ad	0.05218761
163	0x3c2c89a5	0.010530864
164	0x3daed056	0.08535831
165	0x3c35ff53	0.011108237
166	0x3c8ec66a	0.017428596
167	0x3cf232e8	0.02956529
168	0x3db1f855	0.08689944
169	0xbd95568c	-0.07291898
170	0x3d8b7053	0.068085335
171	0x3d8b71cb	0.06808814
172	0xbba71306	-0.0050987033
173	0xbd883a3e	-0.06651734
174	0x3d78b9f8	0.06072423
175	0x3d200ff3	0.03907771
176	0xbd30a322	-0.043124326
177	0x3cccfff0	0.025024384
178	0xbcc2509c	-0.023720078
179	0xbd25706a	-0.04039041
180	0x3de28ef1	0.1106242
181	0x3d3fb01b	0.046798807
182	0x3c545161	0.012958855
183	0x3d73fcea	0.05956737
184	0x3d7c7305	0.06163313
185	0x3d32166a	0.043478407
186	0x3d4f465d	0.050604213
187	0xbdb783a6	-0.08960657
188	0xbd2900d2	-0.041260548
189	0x3dbbce80	0.09170246
190	0x3cf4eedf	0.029899059
191	0x3cf083fb	0.029359808
192	0xbd98f881	-0.07469273
193	0xbd731a34	-0.05935116
194	0xbd359f79	-0.044341538
195	0x3d24df78	0.04025218
196	0xbd460790	-0.048347056
197	0x3d9c13ab	0.07620939
198	0xbdaa2686	-0.08308129
199	0xbd01eaa9	-0.03171793
200	0x3d90ca32	0.07069816
201	0xbd4c684d	-0.049904156
202	0xbbc763ab	-0.0060848794
203	0xbd17629a	-0.03695927
204	0x3d014769	0.031562243
205	0xbd63499f	-0.055490132
206	0xbda4c7ce	-0.08045922
207	0xbd327981	-0.043572906
208	0x3d177a28	0.03698173
209	0xbd033a2f	-0.03203791
210	0xbda7128b	-0.08157834
211	0xbcfa904d	-0.030586386
212	0xbd417da6	-0.04723897
213	0x3daa93b8	0.08328956
214	0xbce57dfc	-0.028014176
215	0x3d037bf8	0.032100648
216	0x3dbd309b	0.092377864
217	0xbda0c95d	-0.07850907
218	0x3d19fa23	0.037592065
219	0x3c0f3318	0.008740209
220	0x3da79e5d	0.08184502
221	0xbb3a45d5	-0.002842297
222	0x3ccb7207	0.024834646
223	0xbdcdc6d6	-0.100476906
224	0x3dc16b3a	0.0944428
225	0xbd887851	-0.066635735
226	0x3d73d401	0.059528355
227	0xbdacb56c	-0.08433041
228	0x3c90be30	0.017668813
229	0xbb4d52c1	-0.0031329843
230	0x3d92495f	0.07142901
231	0xbdcc24f7	-0.09967988
232	0x3da86b50	0.08223593
233	0x3dc2c6d9	0.095105834
234	0x3c84ab97	0.016195102
235	0x3db363d4	0.08759275
236	0x3d9f0472	0.0776452
237	0x3ade83b5	0.0016976508
238	0x3d53507a	0.05159042
239	0x3af40095	0.0018615896
240	0x3cb8c570	0.022555083
241	0xbda31947	-0.07963806
242	0xbd13ba0f	-0.03606611
243	0xbd81404e	-0.06311093
244	0xbd8b2273	-0.0679368
245	0xbd9610b6	-0.07327406
246	0xbd51bdfd	-0.051206578
247	0x3a0fc4a9	0.0005484322
248	0xbc9e43cb	-0.019319436
249	0x3d1eabe0	0.03873813
250	0x3d17c9c2	0.037057646
251	0xbd15a7bd	-0.03653692
252	0x3d86c0fd	0.06579778
253	0xbd9aaff0	-0.07553089
254	0xbd854792	-0.065077916
255	0x3dbe036b	0.09277996

encoder.lob_enc.res_blocks.0.conv1.bias f4 [32]
0	0xbdf9ecef	-0.122033946
1	0xbe065db2	-0.1312168
2	0xbde01f6b	-0.109434925
3	0xbe4cdcb2	-0.20006064
4	0xbe637a75	-0.22214682
5	0xbe2273de	-0.15864512
6	0xbe50e873	-0.20401172
7	0xbd90bdb5	-0.07067434
8	0xbe248eeb	-0.16070144
9	0xbe1b8952	-0.15189102
10	0xbdefee2f	-0.11715352
11	0xbdc84b72	-0.09780015
12	0xbd5eaea2	-0.05436576
13	0xbe01d506	-0.12678918
14	0xbdb95d14	-0.09050956
15	0xbdc55fd5	-0.09637419
16	0xbce6a920	-0.028156817
17	0xbdcba6dd	-0.09943936
18	0xbdb011b1	-0.08597124
19	0xbdef36f7	-0.116804056
20	0xbd9e1057	-0.0771796
21	0xbdfdbe0c	-0.12389764
22	0xbe3bbba0	-0.18333292
23	0xbe2a82d9	-0.16651477
24	0xbd49bf9c	-0.049255
25	0xbdf7aa21	-0.120929964
26	0xbca1e11d	-0.019760663
27	0xbd6691b7	-0.05629131
28	0xbd2c7370	-0.042102277
29	0xbdf28901	-0.11842538
30	0xbd87b20e	-0.06625758
31	0xbdd46fb0	-0.10372865

encoder.lob_enc.res_blocks.0.bn1.weight f4 [32]
0	0x3f7e8977	0.99428505
1	0x3f7f923d	0.99832517
2	0x3f806f3b	1.0033945
3	0x3f7ee012	0.99560654
4	0x3f7c1b9b	0.9847962
5	0x3f808529	1.0040637
6	0x3f7dfb5b	0.99211663
7	0x3f7f57b2	0.9974319
8	0x3f7ed11f	0.99537843
9	0x3f7f9108	0.99830675
10	0x3f7e6405	0.9937137
11	0x3f801e6e	1.0009286
12	0x3f7fdec6	0.999493
13	0x3f7f64d9	0.99763256
14	0x3f7f440c	0.99713206
15	0x3f811e1f	1.0087317
16	0x3f7e2524	0.9927542
17	0x3f814e5a	1.0102036
18	0x3f7e1f9c	0.9926698
19	0x3f7beb0e	0.9840554
20	0x3f806010	1.0029316
21	0x3f7cd7eb	0.98766965
22	0x3f81ba82	1.0135043
23	0x3f80c146	1.0058982
24	0x3f8122c9	1.008874
25	0x3f814d51	1.010172
26	0x3f80b52d	1.005529
27	0x3f812bd0	1.0091496
28	0x3f7ea991	0.9947749
29	0x3f810992	1.0081046
30	0x3f81aec3	1.0131458
31	0x3f8134f5	1.0094286

encoder.lob_enc.res_blocks.0.bn1.bias f4 [32]
0	0x3bf0148b	0.0073266677
1	0x3ae00d29	0.0017093766
2	0x3a18314a	0.00058056845
3	0x3b8dcd50	0.0043274537
4	0x3b8ca78f	0.0042924355
5	0x3c1f1fee	0.0097122025
6	0x3c0fbfc8	0.008773752
7	0x3c0c01ea	0.008545378
8	0xbb695e0f	-0.0035609042
9	0x3bc0fe29	0.0058896733
10	0xbc0ef255	-0.008724769
11	0x3c4b1641	0.012395442
12	0x3b9eee5d	0.0048501925
13	0x3bcfd508	0.006342534
14	0x3ba83e1b	0.0051343567
15	0x3b116dce	0.0022190693
16	0x3ac7d139	0.0015244848
17	0x3c05d797	0.008169076
18	0x3b4732ad	0.0030395195
19	0xbc6ad78a	-0.014333615
20	0x3c3e291b	0.01160648
21	0x3adb3e48	0.0016726935
22	0x3c42c8bd	0.01188868
23	0x3c3871fc	0.011257645
24	0x3c1d2a21	0.009592564
25	0x3b32a2e1	0.0027257728
26	0x3bf5eedd	0.0075052814
27	0x3c8414ab	0.016123137
28	0xbb372498	-0.0027945396
29	0x3c42c93d	0.011888799
30	0x3c334c1a	0.010943437
31	0x3bcaddad	0.0061909766

encoder.lob_enc.res_blocks.0.bn1.running_mean f4 [32]
0	0xbeebb4bf	-0.46036336
1	0x3ea01619	0.3126686
2	0xbee5666c	-0.44804704
3	0xbf05ab5c	-0.522146
4	0xbeaedd84	-0.34153378
5	0xbeeb34a4	-0.459386
6	0xbe24861e	-0.16066787
7	0x3cf290c7	0.02961005
8	0xbdd67c01	-0.104728706
9	0xbda93bd4	-0.082633644
10	0x3e9ec1ab	0.31007132
11	0x3ebe1a51	0.37129453
12	0xbe807bf0	-0.25094557
13	0xbe42d144	-0.19025141
14	0xbecbf888	-0.39838052
15	0x3e9331d6	0.2874896
16	0xbc952bcc	-0.01820936
17	0xbdd4c95c	-0.10389969
18	0xbd4aab3a	-0.0494797
19	0xbe5a2bb0	-0.21305728
20	0xbe1cd9d0	-0.15317464
21	0x3d9da81b	0.07698079
22	0xbeb597ce	-0.3546738
23	0xbec6df6b	-0.3884233
24	0xbd50164a	-0.050802507
25	0xbf2401fd	-0.64065534
26	0xbd8c1cf0	-0.06841457
27	0xbe9b1569	-0.30289772
28	0xbdb77921	-0.089586504
29	0xbe2ad6de	-0.16683528
30	0xbe3d8efc	-0.18511575
31	0x3e127a5d	0.1430449

encoder.lob_enc.res_blocks.0.bn1.running_var f4 [32]
0	0x3d522b98	0.051311105
1	0x3f1090f5	0.56471187
2	0x3d95b002	0.073089615
3	0x3d910f4c	0.07082996
4	0x3d561d92	0.052274294
5	0x3d7c4162	0.06158579
6	0x3e95ebf8	0.29281592
7	0x3dbc4937	0.09193652
8	0x3eca244e	0.39480823
9	0x3e24629b	0.1605324
10	0x3ed892fa	0.42299634
11	0x3da17f5b	0.07885619
12	0x3e26fe71	0.16307999
13	0x3d424ec0	0.047438383
14	0x3d99d96c	0.07512173
15	0x3d86ccd4	0.065820366
16	0x3ec82a66	0.39094847
17	0x3e862177	0.26197407
18	0x3dcfdab6	0.10149138
19	0x3dfc54ae	0.12320839
20	0x3de22117	0.11041468
21	0x3ea78f0a	0.32726318
22	0x3de85887	0.1134501
23	0x3edf48ed	0.43610325
24	0x3e0df8fe	0.13864514
25	0x3daeee6d	0.0854157
26	0x3e4fc81a	0.20291176
27	0x3ddcb821	0.10777307
28	0x3d0e6c46	0.034771226
29	0x3ea51a18	0.3224647
30	0x3daafca0	0.08348966
31	0x3d8667f2	0.06562795

encoder.lob_enc.res_blocks.0.conv2.weight f4 [32, 32, 3, 1]
0	0x3c88ff3c	0.016723268
1	0x3ce49e73	0.027907586
2	0xbd8b9293	-0.06815066
3	0x3daad74e	0.08341847
4	0x3cf29ef6	0.029616814
5	0xbd03210d	-0.03201394
6	0xbda50d93	-0.0805923
7	0xbd810f10	-0.06301701
8	0xbc9ac166	-0.018891048
9	0x3c462591	0.0120939175
10	0x3d0a4d65	0.033765215
11	0x3dc71e90	0.09722626
12	0x3d8e725f	0.06955408
13	0xbc2aa6b2	-0.01041572
14	0xbca6cddc	-0.020361833
15	0x3da26fe0	0.07931495
16	0xbb765669	-0.0037588126
17	0x3c490dba	0.012271339
18	0xbb0592c0	-0.002038166
19	0x3db891e8	0.090122044
20	0x3d7abe06	0.061216377
21	0x3d128521	0.035771493
22	0x3cdcdc5c	0.026960544
23	0xbcabca65	-0.020970533
24	0x3cdfe462	0.027330581
25	0xbda1e03e	-0.07904099
26	0xbd976ddd	-0.07394002
27	0x3d03bd14	0.03216274
28	0x3cc1f79e	0.023677643
29	0xbd818c23	-0.06325557
30	0x3d0d487b	0.03449295
31	0x3d19341a	0.037403204
32	0x3d47a988	0.048745662
33	0xbd2f7fd7	-0.042846527
34	0xbd60aace	-0.054850392
35	0x38f32062	0.00011593175
36	0xbc3e2039	-0.011604362
37	0xbc1b8686	-0.009492522
38	0xbda452d6	-0.08023612
39	0x3d9a3d96	0.07531278
40	0x3dc0b74a	0.094099596
41	0xbd449e5c	-0.048002586
42	0x3d988d26	0.07448797
43	0x3cab94b2	0.020944927
44	0x3ce20348	0.027589455
45	0xbbe2efa9	-0.0069255424
46	0x3dc19851	0.0945288
47	0xbcbce8fc	-0.023060314
48	0x3c7e6600	0.015527248
49	0xbc0def44	-0.008663002
50	0x3b9da6eb	0.004811158
51	0xbd3357b8	-0.043784827
52	0xbd83e3e3	-0.0643995
53	0x3d8e2ead	0.069424964
54	0xbdc4962a	-0.09598954
55	0xbd87f234	-0.066379935
56	0x3dbefb48	0.09325272
57	0xbd4e4103	-0.05035497
58	0xbc4824d8	-0.0122158155
59	0xbdc9c8db	-0.09852763
60	0xbcf38676	-0.029727202
61	0xbd396da8	-0.045270592
62	0x3d1a4b07	0.037669208
63	0x3d40f779	0.04711101
64	0x3db381ac	0.08764967
65	0xbd17e6fc	-0.03708552
66	0x3dc79682	0.09745504
67	0x3d29e36b	0.04147665
68	0xbdb0bc9d	-0.08629725
69	0xbdb0815c	-0.08618423
70	0xbc2fbe6c	-0.010726552
71	0x3dbe77a3	0.09300163
72	0x3b1eaf3c	0.0024213335
73	0xbd768aee	-0.060191087
74	0x3d7cf763	0.061759364
75	0xbdde05a6	-0.10840921
76	0x3d8fa9ef	0.07014834
77	0xbc40d722	-0.011770042
78	0x3c0f54a8	0.008748211
79	0xbd09df0c	-0.03365998
80	0x3c8f5942	0.017498616
81	0xbae77ef1	-0.0017661733
82	0x3d98afeb	0.07455429
83	0x3dae8b70	0.08522689
84	0x3d226933	0.039651107
85	0xbc824334	-0.015901186
86	0xbb59e5cf	-0.003324855
87	0xbd7dbb4f	-0.06194621
88	0x3d82c094	0.063843876
89	0xbcb07ae7	-0.02154298
90	0xbdc8429f	-0.09778332
91	0xbcf73d27	-0.030180527
92	0xbd8fef8c	-0.07028112
93	0xbda4a205	-0.08038715
94	0x3c9a0e07	0.018805517
95	0x3c27c8b7	0.010240725
96	0xbd540eb7	-0.051771846
97	0xbd906e4c	-0.070522875
98	0x3d1c047e	0.03809022
99	0x3cbaae90	0.022788316
100	0x3d8ffe64	0.07030943
101	0x3d61b0e4	0.055100337
102	0xbd5d0d6e	-0.053967886
103	0x3d805e91	0.06268037
104	0xbda6abc8	-0.081382334
105	0xbda912e1	-0.08255554
106	0x3d4410c6	0.04786756
107	0x3dc7b320	0.09750962
108	0x3d4f8506	0.05066397
109	0x3a5b8a6b	0.0008374813
110	0xbd376b7e	-0.044780247
111	0x3dd77567	0.105204396
112	0xbd7f2ee2	-0.06230057
113	0x3dc3be9b	0.095578395
114	0xbd895ce6	-0.06707172
115	0xbdcbae4c	-0.09945354
116	0xbb9a01a4	-0.0046999026
117	0x3cfcd855	0.030864874
118	0xbdaaaf2b	-0.08334192
119	0xbcf1aec5	-0.029502282
120	0xbb3aae16	-0.002848511
121	0xbbe98a88	-0.00712711
122	0xbd4494eb	-0.04799358
123	0x3dc1a599	0.09455413
124	0xbd9354f3	-0.07193937
125	0x3d8b39a9	0.06798107
126	0x3cff117c	0.031136267
127	0xbd2890e2	-0.041153796
128	0x3d3cc3da	0.046085216
129	0xbda5d3e7	-0.08097058
130	0xbd86444d	-0.06555996
131	0x3d73ae9a	0.059492685
132	0xbd48904d	-0.04896574
133	0x3d5b0b48	0.053477556
134	0xbdba6671	-0.091015704
135	0x3c970c24	0.018438406
136	0xbdbc7f1e	-0.09203933
137	0x3d51ef97	0.05125388
138	0x3dd1fede	0.1025369
139	0x3d88c33b	0.06677862
140	0x3d0cbb34	0.03435822
141	0x3d86b84d	0.06578121
142	0x3db8b983	0.090197586
143	0x3d678bd2	0.056529827
144	0x3d376c34	0.044780925
145	0x3d0835cb	0.033254426
146	0x3ccc3e77	0.02493213
147	0x3d7c4481	0.061588768
148	0x3d9929d5	0.07478682
149	0xbd139d5a	-0.036038734
150	0x3c80f867	0.015743447
151	0x3d4e5cc1	0.050381426
152	0xbdab1042	-0.0835271
153	0xbd95fb86	-0.07323365
154	0xbcc2a8fb	-0.023762217
155	0x3c971579	0.018442856
156	0x3d8805c7	0.06641727
157	0x3d5e1a79	0.054224465
158	0x3d5e24b3	0.054234218
159	0xbcaf0361	-0.021363916
160	0xbccfa407	-0.025346769
161	0xbdc7f9d1	-0.097644456
162	0x3b641e40	0.003480807
163	0xbce40d85	-0.027838478
164	0xbda0b9ef	-0.07847964
165	0x3d31cc28	0.04340759
166	0x3d681a43	0.05666567
167	0x3cd3b74d	0.02584424
168	0xbd97fc8f	-0.074212186
169	0xbcf2c106	-0.029633056
170	0xbdc1d534	-0.094644934
171	0xbbfd42e6	-0.007728922
172	0x3d87e64f	0.06635725
173	0x3dbff427	0.0937274
174	0xbdb48fba	-0.08816476
175	0xbcba3d0a	-0.022734184
176	0xbd60fc18	-0.054927915
177	0x3d9f6ffd	0.07785032
178	0x3dd2f610	0.10300839
179	0xbdad9f3e	-0.08477639
180	0xbd19a80a	-0.03751377
181	0x3c55f6e1	0.013059349
182	0xbdb468fe	-0.08809088
183	0xbdd52210	-0.104068875
184	0xbd8f610c	-0.07000932
185	0x3d91b702	0.07114984
186	0x3c865dde	0.016402181
187	0xbd50ac0e	-0.050945334
188	0xbc9ca374	-0.01912091
189	0x3dbdf538	0.092752874
190	0xbdc3114f	-0.09524786
191	0x3d24ab1d	0.04020225
192	0xbc7570fd	-0.014980552
193	0xbddeecf2	-0.108850375
194	0x3d999a36	0.075001165
195	0xbd6fd9b1	-0.058557216
196	0x3d9129dd	0.07088063
197	0xbb6db635	-0.0036271934
198	0x3c859bce	0.016309645
199	0xbcb1effc	-0.021720879
200	0xbdba13ca	-0.09085806
201	0x3d2d2c32	0.042278476
202	0xbd3012f4	-0.042986825
203	0x3ced2444	0.028947957
204	0x3dae9e18	0.08526248
205	0xbd25d064	-0.04048194
206	0x3a799242	0.00095203903
207	0x3ce75f81	0.028243782
208	0xbd2d1058	-0.042251915
209	0x3d12c7ca	0.035835065
210	0xbd5d3ed5	-0.054015
211	0x3d8f4f1a	0.06997509
212	0xbce7aea5	-0.02828152
213	0xbc7abb1b	-0.0153033985
214	0xbd3024d7	-0.043003883
215	0xbaaf8a09	-0.0013392578
216	0x3d751007	0.059829738
217	0x3bfbb48b	0.0076814345
218	0xbd3f3ffd	-0.046691883
219	0x3dcabbc5	0.098990954
220	0x3dc0225d	0.09381554
221	0xbd182a24	-0.037149563
222	0xbd88a589	-0.06672198
223	0xbda86d00	-0.08223915
224	0x3be74544	0.0070578177
225	0x3dcb780b	0.09935006
226	0x3d11acc6	0.03556516
227	0x3d37c0c6	0.044861577
228	0xbdd97571	-0.10618103
229	0x3cf982b3	0.03045783
230	0x3d2807aa	0.041022934
231	0xbd19a22b	-0.03750817
232	0xbd9669a4	-0.07344368
233	0xbcdb191d	-0.026745373
234	0xbdbfbb6e	-0.09361921
235	0x3daf9a45	0.085743465
236	0xbd8c1777	-0.06840413
237	0x3dd0aa2c	0.10188708
238	0xbdbc684d	-0.09199581
239	0x3d9d2523	0.07673099
240	0xbd53fde6	-0.05175581
241	0xbdb7498c	-0.08949575
242	0x3c8ffeeb	0.017577609
243	0x3dd5fc94	0.10448566
244	0xbd1e65d5	-0.038671333
245	0x3cca0a6f	0.024663178
246	0xbd9996b9	-0.07499451
247	0x3d671e0e	0.056425147
248	0x3da41c85	0.08013252
249	0xbd2edcd1	-0.042691056
250	0x3dac190a	0.08403213
251	0x3d255677	0.040365662
252	0x3b78779f	0.0037913097
253	0xbd5ae884	-0.0534444
254	0x3d6b8890	0.057503283
255	0xbbdee1fe	-0.0068018427

encoder.lob_enc.res_blocks.0.conv2.bias f4 [32]
0	0xbdbc646b	-0.09198841
1	0xbe031224	-0.12799889
2	0xbe038060	-0.1284194
3	0xbdd85b8d	-0.10564337
4	0xbde73d76	-0.112910196
5	0xbe0fbf4a	-0.14037815
6	0xbe1635d6	-0.14668974
7	0xbe195d03	-0.14976887
8	0xbe0a1a72	-0.1348665
9	0xbe45f5e8	-0.19332087
10	0xbe29cad0	-0.16581273
11	0xbdf8a4d1	-0.12140811
12	0xbe211889	-0.15732016
13	0xbdc74220	-0.09729409
14	0xbda072e8	-0.07834417
15	0xbdb0d15b	-0.086336814
16	0xbe3d1e78	-0.18468654
17	0xbdea1975	-0.11430637
18	0xbe2ec7d9	-0.17068423
19	0xbd728146	-0.059205316
20	0xbd2cb85a	-0.042168
21	0xbc9c9549	-0.019114153
22	0xbe1559f6	-0.14585099
23	0xbd49ae45	-0.049238462
24	0xbdc9a037	-0.09845012
25	0xbe0cc2cd	-0.13746186
26	0xbd6feee3	-0.05857743
27	0xbe43cc10	-0.19120812
28	0xbe55f7c2	-0.20895293
29	0xbd00380e	-0.031303458
30	0xbdad7441	-0.08469439
31	0xbd58351f	-0.052785035

encoder.lob_enc.res_blocks.0.bn2.weight f4 [32]
0	0x3f7dab10	0.99089146
1	0x3f805e94	1.0028863
2	0x3f81293b	1.0090708
3	0x3f7deb1a	0.9918686
4	0x3f80fb85	1.0076758
5	0x3f80129a	1.0005677
6	0x3f812b8e	1.0091417
7	0x3f80fa2a	1.0076344
8	0x3f80b946	1.0056541
9	0x3f80cb83	1.0062107
10	0x3f800769	1.0002261
11	0x3f7fa0cb	0.99854726
12	0x3f81132e	1.0083978
13	0x3f80c6e8	1.0060701
14	0x3f7e76dd	0.9940012
15	0x3f8103cb	1.0079283
16	0x3f800b04	1.0003362
17	0x3f7ea462	0.9946958
18	0x3f80e262	1.0069087
19	0x3f8039c6	1.0017631
20	0x3f801372	1.0005934
21	0x3f80eaf8	1.0071707
22	0x3f7fee75	0.9997323
23	0x3f811176	1.0083454
24	0x3f80e004	1.0068364
25	0x3f80322c	1.0015311
26	0x3f81550c	1.0104079
27	0x3f8128c5	1.0090567
28	0x3f80e85d	1.0070912
29	0x3f7f2d23	0.9967825
30	0x3f81087b	1.0080713
31	0x3f812be8	1.0091524

encoder.lob_enc.res_blocks.0.bn2.bias f4 [32]
0	0x3bc3079a	0.005951834
1	0xb8bec322	-9.096252e-05
2	0x3c1e4924	0.009660993
3	0xbb8bc38e	-0.0042652553
4	0x3c098a08	0.008394726
5	0x3b9e4396	0.004829834
6	0x3c19d914	0.009390134
7	0x3c265ece	0.010154439
8	0x3c151bc2	0.009100856
9	0x3bedbcf3	0.0072551905
10	0xbbc4a78e	-0.0060014194
11	0x3a09f940	0.00052632764
12	0x3bc3045a	0.0059514465
13	0x3b93c72a	0.004509826
14	0xbc0c16e5	-0.00855038
15	0x3c110e25	0.00885347
16	0x3b385a1f	0.0028129888
17	0x39108e85	0.00013786003
18	0x3c1ce6f8	0.009576552
19	0x3a98e025	0.001166348
20	0xba1e6ded	-0.0006043602
21	0x3c0a984f	0.008459165
22	0xbb6c1274	-0.003602174
23	0x3c06e303	0.008232835
24	0x3c0ce80d	0.008600247
25	0x3b8c6ade	0.0042852005
26	0x3c02b3ca	0.007977435
27	0x3c1b1f27	0.0094678765
28	0x3c02c996	0.007982632
29	0xbc1017df	-0.008794754
30	0x3c22300c	0.009899151
31	0x3c26e8dd	0.010187355

encoder.lob_enc.res_blocks.0.bn2.running_mean f4 [32]
0	0xbd4a5c15	-0.049404223
1	0xbdb9454c	-0.090464205
2	0xbd7231ab	-0.0591294
3	0xbc4b474e	-0.012407137
4	0xbe3d3403	-0.18476872
5	0x3de7d027	0.11318999
6	0xbee249e7	-0.44197008
7	0x3db86bf6	0.09004967
8	0x3cb2ce4c	0.021826886
9	0xba51058a	-0.00079735427
10	0xbeb5111b	-0.35364613
11	0xbe42a54b	-0.19008367
12	0xbd427a86	-0.04748013
13	0xbe8d153b	-0.2755526
14	0x3e6065dd	0.21913858
15	0xbe78136b	-0.24226157
16	0xbe80d14f	-0.2515969
17	0x3db8a6c4	0.09016183
18	0xbeb017bf	-0.34393117
19	0xbe4a0e1f	-0.1973195
20	0xbec1c3f4	-0.37844813
21	0x3dfce663	0.1234863
22	0xbc8b8b8a	-0.01703431
23	0xbe4ae0b1	-0.19812275
24	0xbef40445	-0.47659507
25	0xbe64259c	-0.22279972
26	0x3d059a05	0.032617588
27	0xbd56ead1	-0.052470032
28	0xbe83294c	-0.25617445
29	0x3d69ef37	0.0571129
30	0xbdcdbc07	-0.10045629
31	0xbcf845af	-0.030306665

encoder.lob_enc.res_blocks.0.bn2.running_var f4 [32]
0	0x3d3f6c82	0.04673434
1	0x3d52ce54	0.0514663
2	0x3e3f1b96	0.18662867
3	0x3dc8530a	0.097814634
4	0x3d90781c	0.07054159
5	0x3dd26ec1	0.10275031
6	0x3e1e1440	0.15437412
7	0x3e5475ff	0.20748137
8	0x3dee6489	0.11640269
9	0x3dc540eb	0.09631523
10	0x3e0f07a2	0.13967755
11	0x3d4b04cd	0.049565125
12	0x3de5954a	0.11210115
13	0x3d614d81	0.055005554
14	0x3d8755b6	0.06608145
15	0x3e6ad4ec	0.22932786
16	0x3d6aefd4	0.057357624
17	0x3df92507	0.121652655
18	0x3e2eaa44	0.17057139
19	0x3e5a44bc	0.21315283
20	0x3e9bcec2	0.3043118
21	0x3e3bdfb3	0.18347053
22	0x3e840e63	0.25792226
23	0x3e1dedcd	0.15422745
24	0x3deb701c	0.114959925
25	0x3d8dac85	0.06917671
26	0x3d9ac4a7	0.0755704
27	0x3e86b86d	0.2631258
28	0x3e19a7a1	0.15005352
29	0x3f0c3572	0.5476905
30	0x3d8e618e	0.06952201
31	0x3e1ae207	0.15125285

encoder.lob_enc.res_blocks.1.conv1.weight f4 [32, 32, 3, 1]
0	0xbdbbc8cb	-0.091691576
1	0x3c692a0a	0.014231214
2	0x3d3deb30	0.04636687
3	0xbd011f9b	-0.031524282
4	0xbda39be2	-0.07988717
5	0x3d957e29	0.07299454
6	0x3c8e35d8	0.01735966
7	0x3d35f7fa	0.044425942
8	0x3db2887d	0.08717439
9	0xbdcd1455	-0.10013644
10	0x3d8232fe	0.06357382
11	0xbd413ee8	-0.047179133
12	0x3d2befa6	0.041976593
13	0x3d810c0f	0.06301128
14	0x3d9d5c7e	0.07683657
15	0x3cfdf60c	0.031001113
16	0x3c1700f1	0.009216533
17	0xbb132bad	-0.0022456453
18	0xbd20ced0	-0.03925973
19	0x3d4a1191	0.04933316
20	0x3da20ae8	0.079122365
21	0xbb14484a	-0.0022626095
22	0xbdb916b9	-0.09037537
23	0xbcf9686d	-0.030445302
24	0xbd246ee5	-0.04014482
25	0x3d351158	0.044205993
26	0xbdaf7c57	-0.08568638
27	0xbd0d9b64	-0.03457202
28	0xbd7649c5	-0.060128946
29	0xbdabe132	-0.08392562
30	0xbd22c864	-0.03974189
31	0x3da0d3fa	0.07852931
32	0x3d5d9d64	0.054105178
33	0x3da95db4	0.082698256
34	0x3b1ef270	0.002425339
35	0x3d7d6291	0.06186158
36	0x3d2d0826	0.0422441
37	0x3d8bd7b9	0.06828255
38	0xbc42f7ee	-0.011899931
39	0x3db8a6e8	0.0901621
40	0xbc4f904e	-0.012668682
41	0xbcde5346	-0.027139317
42	0x3d1fff2c	0.03906171
43	0x3d1d6dcd	0.038434792
44	0xbd865093	-0.06558337
45	0xbd1a852a	-0.03772465
46	0xbdc45150	-0.09585822
47	0x3dbe9cda	0.09307261
48	0x3cf9e5fc	0.030505173
49	0x3dacf196	0.08444516
50	0xbdab831a	-0.08374615
51	0x3dc05cb2	0.0939268
52	0x3dc14e39	0.09438748
53	0x3db8f6ff	0.09031486
54	0xbd9027db	-0.07038852
55	0x3dc806e6	0.09766941
56	0xbdb83dc7	-0.08996158
57	0xbd9bdd8e	-0.076106176
58	0xbd1da6e6	-0.038489245
59	0x3dc7adfd	0.097499825
60	0xbcdd48cc	-0.027012251
61	0x3d144904	0.036202446
62	0xbc6a9e53	-0.014319974
63	0x3d38ddd0	0.045133412
64	0x3d04f8a6	0.032463692
65	0x3d919d4b	0.071100794
66	0x3d4ed0bf	0.050492045
67	0x3d9a4e8d	0.075345136
68	0x3dae6372	0.085150614
69	0x3ce6fcb8	0.028196678
70	0x3d5af2e3	0.05345429
71	0x3db04c86	0.08608346
72	0x3d471821	0.048606995
73	0xbcf558b3	-0.029949522
74	0x3d933534	0.07187882
75	0x3c6abf75	0.0143278735
76	0x3d801dd6	0.06255691
77	0xbd04980c	-0.032371566
78	0xbdd03374	-0.10166064
79	0xbd8fb603	-0.07017138
80	0xbc63494b	-0.013872455
81	0xbd8c8f10	-0.068632245
82	0xbd3e1f70	-0.0464167
83	0x3d4539c4	0.048150793
84	0x3d0d7fb3	0.03454561
85	0xbcfab55d	-0.030604059
86	0xbb9b9487	-0.0047479304
87	0xbdd5ad14	-0.10433403
88	0xbc1ff15a	-0.009762133
89	0xbb85d0e5	-0.00408374
90	0xbd72fb15	-0.05932148
91	0x3db10b2e	0.086447105
92	0xbd587e3b	-0.052854758
93	0x3c8c1fb1	0.017104955
94	0xbd652495	-0.05594309
95	0x3d14afe2	0.036300547
96	0xbdaf2fd9	-0.08554048
97	0xbbb21312	-0.0054344023
98	0x3d060bd8	0.03272614
99	0x3da0d03b	0.07852217
100	0x3b97c64f	0.0046317945
101	0x3c38bad5	0.011275013
102	0x3c871f5b	0.016494444
103	0xbd393af3	-0.045222234
104	0x3ccc99c2	0.024975661
105	0xbdbf7135	-0.093477644
106	0xbd27eaae	-0.040995292
107	0xbb4e156a	-0.003144587
108	0xbd046774	-0.032325223
109	0x3d38b144	0.04509093
110	0xbd89df83	-0.067320846
111	0x3d01c6d9	0.031683777
112	0xbd837076	-0.064179346
113	0xbdb11e05	-0.08648304
114	0xbba75ef2	-0.005107754
115	0xbbfa55d2	-0.007639625
116	0xbd408141	-0.046998266
117	0x3dd2b1bf	0.102878086
118	0xbd073fe9	-0.033019934
119	0xbc9018d6	-0.017589968
120	0x3bf05efc	0.007335542
121	0xbd2485e6	-0.040166758
122	0x3cd5ae17	0.02608399
123	0x3dc231c7	0.094821505
124	0xbb363bef	-0.002780672
125	0xbd321ac6	-0.043482564
126	0x3d8127a3	0.06306388
127	0x3c8ce625	0.017199585
128	0x3d5a69d8	0.053323597
129	0x3aa54360	0.001260858
130	0xbd8069c8	-0.06270176
131	0xbd998ad8	-0.074971855
132	0xbd1995cc	-0.037496373
133	0xbdb704fa	-0.08936496
134	0xbdb7d898	-0.08976859
135	0x3d615a48	0.05501774
136	0xbc4b8882	-0.012422683
137	0xbbcebdf8	-0.006309267
138	0xbdae8f7d	-0.08523462
139	0x3d55a699	0.052160833
140	0x3d963326	0.073339745
141	0x3d8d9bfc	0.06914517
142	0xbd6d87a4	-0.057990685
143	0x3c3cd9a4	0.011526499
144	0xbd589edf	-0.052885886
145	0x3d3f5ad3	0.046717476
146	0x3d613f04	0.054991737
147	0xbd7d4d85	-0.061841507
148	0xbdacd862	-0.08439709
149	0xbda11b70	-0.078665614
150	0x3d1f947f	0.038959976
151	0x3cb95b90	0.022626668
152	0x3d86ca8b	0.06581601
153	0xbc9d3d97	-0.019194407
154	0x3da08238	0.07837337
155	0x3db5c22c	0.08874926
156	0xbd9c7792	-0.07639994
157	0xbc9b572e	-0.018962469
158	0x3c8fca54	0.017552532
159	0x3d8a7546	0.067606494
160	0xbdc9e642	-0.09858371
161	0x3d383143	0.044968855
162	0xb97c3a99	-0.00024054422
163	0x3d918e08	0.071071684
164	0xbdcecc99	-0.10097618
165	0x3d866c51	0.065636285
166	0x3d6dd842	0.058067568
167	0xbb7a42be	-0.0038186754
168	0xbd06953b	-0.03285716
169	0x3d538d3c	0.051648363
170	0xbce0aee3	-0.027427142
171	0xbcd7ae9a	-0.026328374
172	0xbd887a78	-0.06663984
173	0x3dbfd96c	0.09367642
174	0x3d83bfc6	0.06433062
175	0x3c8c1551	0.017100008
176	0x3b2d0bcd	0.002640474
177	0xbd937022	-0.07199122
178	0x3d9c4f61	0.07632328
179	0x3d1d350a	0.03838066
180	0x3d084c82	0.03327609
181	0x3d2e76e8	0.042593867
182	0xbdaa0eb6	-0.08303587
183	0xbd03c528	-0.032170445
184	0x3d91ffb7	0.07128852
185	0xbd09d1a9	-0.033647213
186	0x3db015fc	0.08597943
187	0xbd85ec9f	-0.065392725
188	0x3d91b626	0.0711482
189	0x3dd6beb5	0.10485593
190	0xbdb44d75	-0.08803836
191	0x3d93d1c2	0.072177425
192	0x3c5210b3	0.012821364
193	0x3d248347	0.04016426
194	0xbd3562ed	-0.044283796
195	0x3d9bb8fb	0.076036416
196	0x3cb8d6b4	0.022563316
197	0xbd9627d1	-0.07331813
198	0x3dce2594	0.10065761
199	0x3ba4d690	0.0050304607
200	0xbc3a3ed7	-0.011367521
201	0x3ce5391e	0.027981337
202	0x3c897167	0.016777707
203	0xbdbadd84	-0.09124282
204	0x3db03532	0.08603896
205	0xbcb13420	-0.0216313
206	0x3c9e968d	0.019358898
207	0xbce4ed2c	-0.027945124
208	0xbdd133f9	-0.10214991
209	0xbdc3dffe	-0.095642075
210	0xbd169cfc	-0.036770806
211	0xbd0a8823	-0.033821236
212	0x3da69fd1	0.08135951
213	0x3c8a4fce	0.016883757
214	0x3ddf22bf	0.10895299
215	0x3db36644	0.0875974
216	0x3c3f05fb	0.011659141
217	0xbd0ef1d7	-0.034898605
218	0x3b77592b	0.0037742357
219	0xbd34bee8	-0.044127375
220	0xbdd635dd	-0.10459492
221	0x3ca9b9cf	0.020718483
222	0x3cf778a1	0.030208888
223	0xbd334642	-0.043768175
224	0x3d9d233b	0.07672735
225	0xbc39da90	-0.011343613
226	0xbcc70d29	-0.024298267
227	0xbd23e957	-0.040017452
228	0x3dc272f2	0.0949458
229	0x3d62ed7d	0.055402268
230	0xbd8da25d	-0.06915734
231	0xbda99f2a	-0.08282311
232	0xbdb49b59	-0.08818693
233	0x3dab88de	0.08375715
234	0x3da62601	0.081127174
235	0x3d4b6807	0.049659755
236	0x3d3f4cdf	0.04670417
237	0xbd97c553	-0.074106835
238	0x3d89d6eb	0.067304455
239	0xbc76b770	-0.015058383
240	0xbc300d27	-0.010745323
241	0x3b4f4724	0.0031628096
242	0xbd120c34	-0.03565617
243	0x3dbcbae5	0.09215335
244	0x3c292006	0.010322576
245	0x3d8b736b	0.068091236
246	0xbd856aa6	-0.06514482
247	0xbdb99cd9	-0.090631194
248	0xbcfd01b9	-0.03088461
249	0x3cc09901	0.023510458
250	0xbd9aae11	-0.07552732
251	0xbd6b7a6e	-0.057489805
252	0x3ccc298e	0.024922159
253	0x3db411cb	0.08792456
254	0x3d9f1c50	0.07769072
255	0x3db9cef0	0.09072673

encoder.lob_enc.res_blocks.1.conv1.bias f4 [32]
0	0xbdaa09a1	-0.08302618
1	0xbd8f570b	-0.06999024
2	0xbcd9619f	-0.026535807
3	0xbdb3c1ad	-0.08777175
4	0xbcfcd221	-0.030861916
5	0xbda404f7	-0.080087595
6	0xbe315c91	-0.17320468
7	0xbe04a823	-0.12954764
8	0xbe276f2c	-0.16351002
9	0xbd4657b7	-0.048423495
10	0xbddeb631	-0.10874594
11	0xbe54e16f	-0.20789121
12	0xbcf5b356	-0.02999274
13	0xbd88f173	-0.06686678
14	0xbdf5c6db	-0.12000819
15	0xbe4a2ee3	-0.19744448
16	0xbe2446da	-0.16042653
17	0xbe69693f	-0.22794054
18	0xbe4c1c72	-0.19932726
19	0xbc3b2258	-0.011421762
20	0xbe0704a7	-0.13185368
21	0xbca5d1f4	-0.020241715
22	0xbd9308cc	-0.07179412
23	0xbd0b24c6	-0.033970617
24	0xbd98c353	-0.0745913
25	0xbe427a10	-0.18991876
26	0xbd205e34	-0.03915234
27	0xbe5f23a7	-0.21790944
28	0xbdd0b888	-0.101914465
29	0xbdcc3844	-0.09971669
30	0xbd6d7365	-0.057971377
31	0xbe5206f9	-0.20510472

encoder.lob_enc.res_blocks.1.bn1.weight f4 [32]
0	0x3f7ea738	0.99473906
1	0x3f8043dc	1.0020709
2	0x3f7f7e18	0.9980178
3	0x3f81063c	1.0080028
4	0x3f8099cf	1.0046939
5	0x3f7d43d7	0.9893164
6	0x3f7e9bb3	0.9945633
7	0x3f7e5d1a	0.9936081
8	0x3f7e4b3d	0.99333555
9	0x3f7c6414	0.9859021
10	0x3f819819	1.0124542
11	0x3f813f86	1.0097511
12	0x3f7feca0	0.99970436
13	0x3f822fb5	1.0170809
14	0x3f80230a	1.0010693
15	0x3f7e95c0	0.9944725
16	0x3f80b374	1.0054765
17	0x3f7fda44	0.9994242
18	0x3f8119a6	1.0085952
19	0x3f8048c3	1.0022205
20	0x3f7ea64d	0.99472505
21	0x3f80161f	1.0006751
22	0x3f7fe6c1	0.9996148
23	0x3f7e9241	0.99441916
24	0x3f80f3ae	1.0074365
25	0x3f803cc4	1.0018544
26	0x3f7e9464	0.99445176
27	0x3f80581a	1.0026886
28	0x3f7cf604	0.9881289
29	0x3f7de18a	0.9917227
30	0x3f7eca82	0.9952775
31	0x3f811a26	1.0086105

encoder.lob_enc.res_blocks.1.bn1.bias f4 [32]
0	0xbb6cf9d3	-0.003615965
1	0xba869e7f	-0.0010270624
2	0xbc28f268	-0.0103117
3	0x3a469e86	0.00075767224
4	0x3c1caede	0.009563176
5	0xbc89cde5	-0.016821811
6	0xbbf2c3b3	-0.007408583
7	0xb822bf92	-3.8802224e-05
8	0x3b84baee	0.004050604
9	0xbc2c6c6a	-0.010523895
10	0x3c1004d8	0.008790217
11	0x3bbf89ae	0.00584527
12	0x3c24fa28	0.0100694075
13	0x3c77cea3	0.01512495
14	0xb9891ddf	-0.00026152932
15	0xbc5b8bc3	-0.013400021
16	0x3b99e7f0	0.0046968386
17	0xbbc18a47	-0.0059063765
18	0x3b394957	0.0028272474
19	0x3ca9e699	0.02073984
20	0x3bf684d6	0.0075231595
21	0x3c40831a	0.011750007
22	0x3bb7c91f	0.0056086923
23	0xbb6be790	-0.0035996176
24	0x3becc468	0.007225562
25	0xbb1d2b12	-0.002398197
26	0x3c14c7d0	0.009080842
27	0x399b6569	0.0002963946
28	0xbc737c36	-0.014861157
29	0xba0f30ed	-0.00054623076
30	0xbc136d61	-0.008998246
31	0x3ae4dfa3	0.0017461668

encoder.lob_enc.res_blocks.1.bn1.running_mean f4 [32]
0	0x3e7cd69e	0.24691245
1	0xbd3137c6	-0.04326608
2	0x3bf473dd	0.007460101
3	0xbf377a5d	-0.71671087
4	0xbed87806	-0.4227907
5	0xbe80bf64	-0.2514602
6	0xbee8548f	-0.45377013
7	0x3f11078b	0.56652135
8	0xbde272e8	-0.11057073
9	0xbeead0b0	-0.4586234
10	0xbf14163a	-0.57846415
11	0xbf71a7e7	-0.94396824
12	0xbf4f5c23	-0.80999964
13	0xbf3baf75	-0.733146
14	0x3f324064	0.696295
15	0xbede007b	-0.43359742
16	0xbf54dbe4	-0.83148026
17	0xbf081560	-0.53157616
18	0xbf90260f	-1.1261615
19	0xbf252965	-0.6451629
20	0xbec3ef93	-0.38268718
21	0xbe9a2cd1	-0.30112317
22	0xbe7f06aa	-0.24904886
23	0x3eacf29f	0.33778855
24	0xbf228848	-0.634892
25	0xbe81ed11	-0.2537618
26	0x3e5cfc60	0.21580648
27	0xbeed3522	-0.463296
28	0xbe89a179	-0.26881006
29	0xbeb45adb	-0.35225567
30	0xbd9d74b6	-0.076882765
31	0xbed03196	-0.4066283

encoder.lob_enc.res_blocks.1.bn1.running_var f4 [32]
0	0x3e9d94ea	0.30777675
1	0x3e4d3dd2	0.20043114
2	0x3ec0c163	0.37647542
3	0x3e12aa45	0.14322765
4	0x3f2dd14a	0.67897475
5	0x3e92dae8	0.28682637
6	0x3d994491	0.07483781
7	0x3e9d4170	0.30713987
8	0x3ec1e84b	0.37872538
9	0x3e853a54	0.26021063
10	0x3e32b626	0.17452297
11	0x3e06fc63	0.13182215
12	0x3e365066	0.17804107
13	0x3defc622	0.11707713
14	0x3ee37cf1	0.4443126
15	0x3db13f26	0.08654623
16	0x3ea2922a	0.3175214
17	0x3e250668	0.16115725
18	0x3e65cfbc	0.22442526
19	0x3e77231d	0.24134488
20	0x3e85be34	0.26121676
21	0x3f1f2dbd	0.62179166
22	0x3e49a1d9	0.19690646
23	0x3f27c578	0.6553569
24	0x3e9dcd99	0.3082092
25	0x3ebc0ec3	0.36730012
26	0x3f144183	0.5791246
27	0x3e6eda71	0.23325516
28	0x3ec16491	0.3777204
29	0x3e82b56d	0.25529042
30	0x3ea36cd8	0.3191898
31	0x3e275021	0.1633916

encoder.lob_enc.res_blocks.1.conv2.weight f4 [32, 32, 3, 1]
0	0x3d0c2720	0.034217
1	0x3c2a6715	0.010400553
2	0xbd9cdf30	-0.07659757
3	0x3c07b478	0.008282773
4	0xbc8a5460	-0.016885936
5	0x3d9ab5e2	0.07554223
6	0xbdd6ecf8	-0.10494417
7	0x3b65a020	0.003503807
8	0x3dbde793	0.09272685
9	0xbd977ebf	-0.07397222
10	0x3dc7e0cc	0.097596735
11	0xbcd966be	-0.02653825
12	0x3db275f5	0.08713905
13	0xbc7f6dd0	-0.015590146
14	0x3d9d7409	0.076881476
15	0xbdc0aa8e	-0.09407531
16	0x3d0fbf1c	0.035094365
17	0xbd5f9b83	-0.054591667
18	0x3d32ce86	0.043653987
19	0xbdb57cf6	-0.08861725
20	0xbcfc2bc6	-0.030782592
21	0x3b882f8f	0.00415606
22	0xbd9919a6	-0.07475595
23	0x3d7150d6	0.05891498
24	0xbd4aca90	-0.049509585
25	0xbc9ca9a5	-0.019123862
26	0xbc661ac1	-0.014044465
27	0x3d3b2f97	0.045699682
28	0xbd3559d3	-0.044275116
29	0x3cebdcac	0.028791748
30	0xbd341bac	-0.043971702
31	0x3c69b760	0.014264911
32	0xbdb49e3c	-0.08819243
33	0xbceb0fe0	-0.028694093
34	0xbda936fb	-0.0826244
35	0xbd9f488d	-0.0777751
36	0x3dab705b	0.083710395
37	0xbdd59034	-0.10427895
38	0x3d294cc4	0.041332975
39	0xbd1ba9ac	-0.03800361
40	0x3dce97b0	0.10087526
41	0xbd0615dc	-0.03273569
42	0xbd1d3428	-0.03837982
43	0x3d2e9dd0	0.04263097
44	0xbd8cc215	-0.06872956
45	0xbd8511d8	-0.06497544
46	0xbda691ee	-0.08133303
47	0x3d9f43b8	0.07776588
48	0x3dac91b3	0.084262274
49	0xbd755f28	-0.0599052
50	0x3d83878b	0.06422337
51	0xbdcd1831	-0.1001438
52	0x3d5e5706	0.05428221
53	0xbddd09e8	-0.10792905
54	0x3dee2dc3	0.11629822
55	0xbcf842ab	-0.030305227
56	0xbd1c1bc8	-0.03811243
57	0x3cefdb6e	0.029279437
58	0xbda20a6f	-0.07912146
59	0x3da1f8d9	0.07908792
60	0xbcef588b	-0.029217025
61	0x3d1e4a69	0.03864518
62	0x3d4fcccc	0.05073242
63	0x3d1a552b	0.03767888
64	0xbd15737b	-0.036487084
65	0x3cbdd3c4	0.023172267
66	0xbdd2d5e8	-0.10294706
67	0xbd87c21b	-0.066288196
68	0xbdcf30c8	-0.10116726
69	0xbc11c8de	-0.008897988
70	0xbd64e3b8	-0.055881232
71	0xbd937f67	-0.072020344
72	0xbd1f6e0d	-0.038923312
73	0xbd9707db	-0.07374545
74	0x3d1336ba	0.035940863
75	0xbcc39795	-0.02387599
76	0x3dc176a9	0.09446461
77	0x3d7ddfc6	0.061980985
78	0xbcdd8050	-0.027038723
79	0xbc508528	-0.012727059
80	0xbdc71a27	-0.09721785
81	0x3d300424	0.0429727
82	0xbb1f7739	-0.0024332537
83	0x3da15080	0.07876682
84	0xbdc8e147	-0.09808593
85	0x3b608ef1	0.0034264887
86	0xbd692913	-0.056923937
87	0xbd7bc228	-0.06146446
88	0xbbf3863b	-0.007431773
89	0x3d368ffa	0.0445709
90	0x3d3f50e6	0.04670801
91	0xbd2c7656	-0.04210504
92	0xbd91e950	-0.07124579
93	0x3ca90c59	0.02063577
94	0xbdb73fa6	-0.08947687
95	0xbc5eba02	-0.013594152
96	0x3dcbd0e4	0.09951952
97	0xbdb4516e	-0.08804594
98	0xbd3e57ce	-0.046470456
99	0x3c15f40d	0.0091524245
100	0xbd0eb67a	-0.034841992
101	0x3b6a76a2	0.0035776277
102	0x3d865067	0.06558304
103	0x3c2e4533	0.010636616
104	0x3d8c16ae	0.06840263
105	0xbd9a8b4a	-0.075460985
106	0xbda3f614	-0.0800592
107	0xbdb8f287	-0.090306334
108	0x3ba65874	0.0050764624
109	0xbd9d1c72	-0.07671441
110	0x3d8d0814	0.068863064
111	0x3d3c67be	0.045997374
112	0x3ce1efdb	0.027580192
113	0xbc52dcc5	-0.012870018
114	0xbd9931e6	-0.074802205
115	0x3ca6f547	0.02038063
116	0xbda55322	-0.08072497
117	0xbdbdb2c9	-0.09262616
118	0xbd379a56	-0.04482492
119	0xbd26cf56	-0.040725075
120	0xbda2481b	-0.07923909
121	0x3c0080cb	0.007843207
122	0xbdcb0515	-0.09913079
123	0x3db002b4	0.085942656
124	0xbd343130	-0.04399222
125	0xbc8b5dc8	-0.017012492
126	0xbbc1fa3c	-0.005919723
127	0x3dadafef	0.08480822
128	0x3cefe391	0.029283317
129	0x3d8e86cf	0.069593064
130	0xbc4af642	-0.012387814
131	0xbbc17072	-0.005903297
132	0xbc418313	-0.011811036
133	0x3d888a9f	0.06667065
134	0x3d47b9f0	0.04876131
135	0x3d8e7d80	0.06957531
136	0x3d826911	0.06367696
137	0xbdb992d1	-0.09061206
138	0xbd31ad39	-0.04337809
139	0x3d616b95	0.05503424
140	0x3d222e52	0.039594956
141	0xbda7a3d9	-0.08185548
142	0x3dc761ab	0.097354256
143	0x3c47a2c4	0.012184802
144	0x3d0a0c4e	0.03370314
145	0x3c88ecd0	0.016714483
146	0xbd76e6ad	-0.060278583
147	0x3d46bd7c	0.04852055
148	0x3cbcb378	0.023034796
149	0x3db71942	0.089403644
150	0x3db96bbd	0.090537526
151	0xbd5d1064	-0.05397071
152	0xbc813c95	-0.015775958
153	0xbdc00300	-0.09375572
154	0x3cb17c23	0.021665638
155	0xbda562e8	-0.080755055
156	0x3d479a3d	0.048731077
157	0xbd852e1e	-0.06502937
158	0x3dc6e3d9	0.09711427
159	0x3d8a91ac	0.06766066
160	0xbdbea8db	-0.093095504
161	0xbc183897	-0.009290836
162	0x3ce17598	0.027521893
163	0xbc61adff	-0.013774394
164	0xbd83cef4	-0.064359576
165	0xbce58f69	-0.028022485
166	0xbd83649c	-0.06415674
167	0xbc89b8b6	-0.01681171
168	0x3dc2d57a	0.09513374
169	0xbd3d2ff1	-0.0461883
170	0x3d2edfad	0.042693783
171	0x3c33a9e1	0.010965795
172	0x3d162a05	0.036661167
173	0x3d66af4b	0.056319516
174	0x3b439b92	0.0029847366
175	0x3c167bf2	0.009184824
176	0xbd0b912e	-0.034074
177	0x3dad46f3	0.08460798
178	0x3d28dc49	0.041225705
179	0x3d1d11a2	0.038346894
180	0xbc7c2fb7	-0.0153922355
181	0xbd9d4263	-0.07678678
182	0xbdc5369c	-0.096295565
183	0x3d0f4258	0.03497538
184	0x3c560eb7	0.013065032
185	0x3d88d036	0.06680338
186	0x3dafed84	0.085902244
187	0x3b3c04dc	0.002868942
188	0x3d8c43f5	0.06848899
189	0xbd2d2d7f	-0.042279717
190	0xbdb6998a	-0.08916004
191	0x3c3e0573	0.011597979
192	0xbd354425	-0.04425444
193	0x3da54c74	0.08071223
194	0x3db29f63	0.08721807
195	0xbd66418e	-0.05621486
196	0x3a4e2796	0.0007864175
197	0x3cace79d	0.021106536
198	0xbdcd6081	-0.10028172
199	0x3ce07787	0.027400745
200	0x3c865007	0.016395582
201	0x3c7509af	0.014955922
202	0xbd1dac33	-0.0384943
203	0x3d9d8155	0.07690684
204	0xbd9a3da6	-0.0753129
205	0x3d2ca83e	0.042152636
206	0x3c21d1ce	0.0098766815
207	0xbdc29cae	-0.095025405
208	0x3c2069a8	0.009790815
209	0xbd343407	-0.04399493
210	0xbd56da48	-0.052454263
211	0xbd088da2	-0.033338197
212	0x3d854b7d	0.06508539
213	0x3bf634f2	0.007513636
214	0xbd4b1f7b	-0.04959057
215	0xbb5e5430	-0.0033924691
216	0xbc77d15a	-0.015125597
217	0x3c6b25cc	0.014352273
218	0xbb6a243e	-0.0035727168
219	0xbd4989ed	-0.049203802
220	0x3d6de62a	0.05808083
221	0xbcc954e7	-0.024576617
222	0x3d216bc0	0.0394094
223	0x3d4160d0	0.04721147
224	0x3da4911f	0.08035492
225	0x3cddc682	0.027072195
226	0x3d5ed884	0.054405704
227	0x3c880b7f	0.016607044
228	0xbc111dc1	-0.008857192
229	0x3db6cdfa	0.08926006
230	0xbd8f638b	-0.07001408
231	0xbd620559	-0.05518088
232	0xbd844046	-0.06457572
233	0x3cebc22b	0.02877911
234	0x3d7398d6	0.059471928
235	0xbdefec35	-0.11714975
236	0xbd70b561	-0.058766726
237	0xbd8b763f	-0.06809663
238	0x3bbee911	0.0058261235
239	0x3a07df9a	0.00051831605
240	0xbc79472a	-0.015214721
241	0xbc4b42e7	-0.0124060875
242	0xbda42b7d	-0.08016107
243	0x3d965bca	0.07341726
244	0xbd74b793	-0.059745383
245	0xbc2a4d1b	-0.01039436
246	0xbbe4e53b	-0.006985334
247	0x3a176304	0.00057749473
248	0x3dcb13e9	0.09915907
249	0xbd74b8df	-0.05974662
250	0xbc9e5ef0	-0.01933238
251	0x3d7d299d	0.061807264
252	0x3d7f892f	0.062386688
253	0xbd5d748c	-0.054066226
254	0x3d497987	0.049188163
255	0x3da46092	0.08026232

encoder.lob_enc.res_blocks.1.conv2.bias f4 [32]
0	0xbdbcb7dd	-0.09214757
1	0xbdb20ded	-0.086940624
2	0xbde648b0	-0.11244333
3	0xbd904525	-0.07044438
4	0xbe3137fd	-0.17306514
5	0xbdfad098	-0.12246817
6	0xbe1501ae	-0.14551422
7	0xbd89b31c	-0.067236155
8	0xbe394c70	-0.18095565
9	0xbdae66c5	-0.085156955
10	0xbe35f62a	-0.17769685
11	0xbd55bd05	-0.052182216
12	0xbde1dd9c	-0.11028597
13	0xbde07528	-0.10959846
14	0xbdac6b9c	-0.08418962
15	0xbdbf7aac	-0.0934957
16	0xbd9ce10e	-0.07660113
17	0xbd5be1f6	-0.05368229
18	0xbe26ef34	-0.16302186
19	0xbe2bbd8e	-0.16771528
20	0xbd9ab2ba	-0.07553621
21	0xbe601bad	-0.21885557
22	0xbda9656a	-0.08271296
23	0xbd661f9b	-0.056182485
24	0xbd37a331	-0.044833366
25	0xbd4a22ed	-0.049349714
26	0xbe291b72	-0.16514376
27	0xbe3e1630	-0.18563151
28	0xbe218394	-0.1577285
29	0xbe580920	-0.21097231
30	0xbdf035f7	-0.11729043
31	0xbd8f71e6	-0.07004146
