outputs/performance_test/checkpoint_epoch_6.pt (torch, 945821 bytes, 81 tensors)

encoder.lob_enc.conv_in.0.weight f4 [32, 2, 3, 1]
000000 39 b6 f3 bd 1a e7 99 3e 08 aa 80 be f9 41 a8 bd
       -0.118999906 0.3005913 -0.25129724 -0.08215708
000010 09 b9 8f bc 9b a6 5f be 06 00 12 3c f2 75 c8 bd
       -0.017544286 -0.21840899 0.008911138 -0.09788121
000020 8f c4 4f be b8 f2 a8 be f4 12 21 bc 22 f3 bd 3e
       -0.20289825 -0.3299768 -0.009831179 0.37099558
000030 ad 19 1b 3e 92 17 a3 be fd cb 5a be 0a d3 85 3e
       0.15146513 -0.3185392 -0.21366878 0.26137573
000040 f1 87 23 be 65 92 37 bd 37 32 4d be 25 b8 4d 3e
       -0.15969826 -0.044817347 -0.20038687 0.20089777
000050 2e 7a 8e be 69 6d c6 be 8a bd 9b be 5f 99 af be
       -0.2782759 -0.38755348 -0.30418044 -0.342967
000060 67 ae 49 3d f7 e4 93 3d 71 0b fc bd 11 6d 22 3e
       0.04923859 0.07221406 -0.1230687 0.15861918
000070 cd 89 3e 3d 57 ea d4 3d f2 02 5d 3e 02 24 ba 3d
       0.046518136 0.10396259 0.21583155 0.09088899
000080 61 92 cc 3e da bd a0 3e 6d 42 60 be 37 c0 95 3e
       0.39955428 0.31394845 -0.2190034 0.2924821
000090 bf b8 3c bd 2b ed ca bc 4d a7 08 3d 22 04 b8 be
       -0.046074625 -0.024771294 0.033362675 -0.35940653
0000a0 ca 43 88 3e 75 2d 87 3e 7d 89 c5 3e 75 a8 83 3d
       0.2661422 0.26401868 0.38581458 0.06428615
0000b0 d0 1e f8 bd a3 e2 8e bd db 3e 13 be e7 51 c2 be
       -0.12115252 -0.06976821 -0.14379446 -0.37953112
0000c0 b8 ff 0d 3e f4 7f 67 3d e0 f0 04 be eb bd 76 be
       0.1386708 0.05651851 -0.12982512 -0.24095885
0000d0 03 a4 bf bd ae 4b de 3d 48 5a a1 3e e1 42 37 3e
       -0.09357455 0.108542785 0.31514192 0.17896606
0000e0 d0 2f 99 3e 57 07 a9 3e ff da 46 be 20 ba 8d bc
       0.2991929 0.33013412 -0.19419478 -0.017300665
0000f0 1f 39 ab be cc d0 66 be 2b 8f 2c 3e ae 08 23 3e
       -0.33442017 -0.22540587 0.16851489 0.1592128
000100 49 1f 42 3e d5 c7 b7 3e 73 85 23 3e 91 93 53 be
       0.18957247 0.35894647 0.15968876 -0.20661761
000110 31 14 ba bd 9a 55 c3 3c 9a 53 4e 3e 37 69 5d be
       -0.090858825 0.023844529 0.20149079 -0.21622168
000120 5e 72 26 be 3e 3a 22 3e 4c b0 17 3e c1 3d c7 3e
       -0.16254565 0.1584253 0.14813346 0.38914302
000130 a5 b5 b2 3e c0 ef 3c be 11 2d 1a 3e 81 58 77 be
       0.3490421 -0.18450832 0.15056254 -0.24154855
000140 cc a9 29 bc 71 f8 c3 bc 83 7c d0 3d e9 2f bc 3e
       -0.010355424 -0.023922177 0.10179999 0.36755303
000150 67 07 aa be a0 c1 b9 3e 2a 4e 8b 3e de 6b 57 be
       -0.33208773 0.36280537 0.27208072 -0.21037242
000160 aa 64 fb bd 4a 0d d1 bd d1 0c 80 3e 15 32 d4 bd
       -0.122750595 -0.10207613 0.25009778 -0.10361115
000170 f4 47 1b 3e b2 46 25 be a9 74 ab 3e 93 ce 5d bd
       0.15164167 -0.1614025 0.33487442 -0.054152083
000180 56 f4 c9 3e 77 4f 98 be 5d c2 f4 bd 5e 23 89 3e
       0.39444226 -0.29748127 -0.11951134 0.26784796
000190 d7 1c 10 3e 80 e6 4f be ec f6 ad be c1 17 a1 be
       0.14073502 -0.20302773 -0.3397745 -0.31463435
0001a0 01 33 aa be 40 95 73 be c3 41 7d be 6e 29 f3 bd
       -0.33242038 -0.23787403 -0.24732117 -0.118731365
0001b0 29 ca b0 3e 96 af ed bd 67 ab 85 be ca 86 44 3e
       0.34529236 -0.11605756 -0.26107332 0.19192043
0001c0 c1 35 7e be e3 e5 59 be 6c 46 82 bd c9 22 22 bd
       -0.24825193 -0.21279101 -0.06361088 -0.039583955
0001d0 2d c5 81 be 3d 02 a2 be 7e ef d0 be e6 b7 31 be
       -0.25345746 -0.31642333 -0.40807718 -0.17355308
0001e0 22 9c 49 3e 34 d8 d2 3c dd 5f a2 3e 5c 75 81 3d
       0.19688466 0.02573786 0.31713763 0.06321213
0001f0 e9 bb a1 be 50 32 ed 3c d3 4a e2 bd e6 5c 66 3e
       -0.31588677 0.028954655 -0.11049428 0.22496375
000200 41 b4 d4 3d f3 31 cc 3e a1 af bd be 3d a0 4f be
       0.10385943 0.39881858 -0.37048057 -0.2027597
000210 15 2e b6 be 36 45 db 3c 5e 6a 8a be 5a 84 37 be
       -0.35582033 0.0267664 -0.27034277 -0.17921582
000220 c9 a4 c2 3e ea 6b 16 be 64 5b 46 3e 3c 41 89 3e
       0.38016346 -0.14689603 0.193708 0.26807582
000230 00 b6 99 3e 03 b1 a7 3e 3f 45 85 3e 67 8d 34 3d
       0.30021667 0.32752237 0.26029393 0.044080164
000240 bc 5f b5 3e 27 d3 c8 3e 3a b4 8b be e3 03 c3 3d
       0.35424602 0.39223596 -0.2728594 0.09522226
000250 0e d3 94 3e 92 74 88 be cc bd 35 3e b4 d3 88 3e
       0.29067272 -0.26651436 0.17748183 0.26724017
000260 26 91 17 3a 9b cd d7 bd ec bd f1 bc 40 05 ae 3e
       0.00057818217 -0.10537263 -0.029509507 0.3398838
000270 1f ed aa be 49 f4 1b 3e c5 a2 6c be 08 99 87 3e
       -0.33384034 0.15229906 -0.23108967 0.2648394
000280 a2 57 36 be c8 85 a4 3d 4a 10 80 3e b3 db 4a bd
       -0.17806867 0.08033329 0.25012428 -0.049525928
000290 bb d1 57 bd ff 80 b9 3e 71 07 c8 3e ab 36 6c 3e
       -0.05269025 0.3623123 0.39068177 0.23067729
0002a0 57 28 3e 3c 31 35 53 bc 72 8f 7c be 8e ff 8f 3e
       0.011606297 -0.0128911 -0.24664095 0.2812466
0002b0 f0 d8 36 3e 98 66 ab 3e 81 3e 8d be 8b 5b b8 3d
       0.17856193 0.3347671 -0.2758675 0.090018354
0002c0 17 75 8e 3d c3 28 08 be ca 26 5e bd a0 6f 94 3d
       0.06955927 -0.132968 -0.05423621 0.07247853
0002d0 8b d4 ef bd 0e c9 c2 3e c5 86 be be 3e ed 83 bd
       -0.11710461 0.38044018 -0.37212196 -0.06441735
0002e0 cc ff 4b be 4e 33 9c 3e e3 31 14 be 2e 5d bb bd
       -0.19921798 0.30507892 -0.14472155 -0.09148632
0002f0 55 e1 b4 3e 12 c0 b5 be 82 47 08 be c7 d8 b4 3e
       0.35328165 -0.354981 -0.13308528 0.35321638

encoder.lob_enc.conv_in.0.bias f4 [32]
000000 e4 dc 92 3e 0e 1d ee bd f2 52 9d bd 3d 3b 47 be
       0.2868415 -0.116266355 -0.07681836 -0.19456191
000010 6e 74 a5 3d d2 19 f5 3d e6 33 8d 3e 5e 80 37 3e
       0.08078848 0.119678155 0.27578658 0.17920062
000020 06 dd 52 3e 8a 25 85 bd ec 61 95 be 06 d3 66 3e
       0.20592126 -0.06501301 -0.2917627 0.22541437
000030 aa 58 e8 bb 97 c5 88 be 52 9d 15 3d 32 d0 ce 3e
       -0.0070906477 -0.2671325 0.036526985 0.40393215
000040 3a fb 0c bd 00 9b ae be 02 78 7c 3e 92 6d 9b 3e
       -0.034419276 -0.3410263 0.24655154 0.30357033
000050 da 92 85 be 21 d1 b6 be b5 8d 95 be 36 e1 2b 3e
       -0.260886 -0.35706428 -0.29209676 0.1678513
000060 10 91 2b be c9 52 cd be da fd ef bc 8c 65 54 be
       -0.16754556 -0.40102223 -0.02929585 -0.20741862
000070 b6 7d f7 bd 83 fd 24 be 16 46 0c be e4 17 88 be
       -0.12084524 -0.16112332 -0.1369861 -0.26580727

encoder.lob_enc.conv_in.1.weight f4 [32]
000000 01 d9 80 3f 89 c8 80 3f b4 2f 81 3f 85 91 80 3f
       1.0066224 1.0061198 1.0092683 1.0044409
000010 8b 82 80 3f 01 4f 80 3f c8 56 80 3f 82 39 81 3f
       1.0039839 1.002411 1.0026484 1.0095675
000020 f0 f1 80 3f 8e e8 80 3f ee 54 7c 3f 81 fc 7c 3f
       1.0073833 1.007097 0.9856709 0.9882279
000030 e3 ed 80 3f 67 9d 7f 3f 7c e3 7d 3f cd d5 80 3f
       1.0072597 0.9984955 0.9917524 1.0065247
000040 6e 0e 7e 3f f1 5d 81 3f 35 2e 81 3f 32 2c 80 3f
       0.9924077 1.0106794 1.0092226 1.0013487
000050 05 c1 7d 3f 63 98 7e 3f f6 b3 80 3f 67 b7 7e 3f
       0.9912265 0.99451274 1.005492 0.994986
000060 a6 e1 80 3f c9 3c 7f 3f a9 28 81 3f b0 68 81 3f
       1.0068862 0.99702126 1.0090533 1.0110073
000070 41 8d 80 3f 9c 53 80 3f 06 fe 80 3f 67 e7 80 3f
       1.0043107 1.0025516 1.0077522 1.0070618

encoder.lob_enc.conv_in.1.bias f4 [32]
000000 27 cb e8 3b 31 78 c3 3b c9 41 24 3c 27 20 fd 3a
       0.007104296 0.0059652557 0.01002545 0.001931195
000010 98 44 82 bb 71 f7 44 3c 0d 1a 24 3c fa cd 23 3c
       -0.003975462 0.012021885 0.010015977 0.009997839
000020 ac ae 00 3c 95 d1 21 3c 8e a2 58 bc 9d 75 a7 3a
       0.007854145 0.009876628 -0.01322235 0.001277614
000030 c8 d9 49 bc 69 ff b0 3b 0a df 38 3a ba d8 1a 3c
       -0.0123199895 0.005401541 0.00070522784 0.009451086
000040 45 d1 a4 3b 43 17 17 3c b0 36 1f 3c 57 ea 85 3b
       0.0050298297 0.009221855 0.009717628 0.0040867734
000050 25 51 2e 3c 10 49 f0 3b f8 ef d0 3b f4 c8 38 3c
       0.010639464 0.0073329285 0.0063762628 0.01127838
000060 69 97 0e 3c c2 8b 8c 3a 27 88 2e 3c 0d 43 2a 3c
       0.008703091 0.0010722803 0.010652578 0.010391963
000070 61 f1 28 3c 2c 1e f2 ba dc 3f 2a 3c 2a 76 1d 3c
       0.0103114555 -0.0018472127 0.010391202 0.009610692

encoder.lob_enc.conv_in.1.running_mean f4 [32]
000000 d2 9b 84 cd 96 4e 35 cd a5 36 65 cd 17 1e 63 ce
       -2.7810054e+08 -1.9011414e+08 -2.4034773e+08 -9.526e+08
000010 3d 8e 55 4d 00 be 3c 4e ef 0a c1 4c b1 35 38 cd
       2.239293e+08 7.916421e+08 1.01209976e+08 -1.931579e+08
000020 cf 2a df cc 70 8c 1d 4e a1 7c 5a 4d 57 32 b1 cc
       -1.17003896e+08 6.6080666e+08 2.2910005e+08 -9.290207e+07
000030 24 95 f3 4d 78 33 6c 4d ad 9d b0 cc 5a d2 91 4d
       5.108297e+08 2.4767475e+08 -9.259761e+07 3.0581024e+08
000040 a1 5e f8 4c 83 32 8a ce 3b db 53 cd 2c 24 5a ce
       1.30217224e+08 -1.1592831e+09 -2.221475e+08 -9.149509e+08
000050 01 71 57 4d 4b 63 e4 4b aa 9c ba cd 22 63 72 4e
       2.259067e+08 2.9935254e+07 -3.9135366e+08 1.01664576e+09
000060 2c bf d0 4d 0e f9 e1 4d c8 61 29 cd 47 aa 44 4e
       4.377737e+08 4.7389946e+08 -1.7760986e+08 8.248734e+08
000070 3c 19 be 4d 62 c6 1e cd 2d b8 32 cc 88 1e 79 cb
       3.986656e+08 -1.6648758e+08 -4.6850228e+07 -1.632628e+07

encoder.lob_enc.conv_in.1.running_var f4 [32]
000000 c0 bf bc 5b 0b 24 51 5b af cb a1 5b a3 cf 6a 5d
       1.0625625e+17 5.88679e+16 9.108285e+16 1.0574951e+18
000010 86 b7 56 5b 13 61 25 5d 48 45 f9 5a 1e 0a 7b 5b
       6.043743e+16 7.448017e+17 3.5081722e+16 7.0661343e+16
000020 29 3b 92 5a 66 8e e7 5c a6 17 9a 5b 2e 12 9f 5a
       2.0580197e+16 5.214183e+17 8.67463e+16 2.2387255e+16
000030 cb 7c 8b 5c 8c a7 93 5b 6f 6b 10 5b b2 29 cf 5b
       3.1409786e+17 8.312208e+16 4.065052e+16 1.1662233e+17
000040 86 81 53 5b dc 9d ab 5d 7c 35 a8 5b 3d ff 55 5d
       5.9533633e+16 1.5457853e+18 9.4693206e+16 9.637569e+17
000050 15 8a 86 5b 8a d3 a1 5a ca ef 37 5c c4 08 84 5d
       7.573894e+16 2.277503e+16 2.0709429e+17 1.1892587e+18
000060 3b d6 6d 5c 81 cf 6c 5c a8 8d 2f 5b 0b e2 2f 5d
       2.6778047e+17 2.6662499e+17 4.9413874e+16 7.921065e+17
000070 1d ce 2a 5c 5e 88 1b 5b a1 7d a6 5a b6 9e 38 5b
       1.9230948e+17 4.377856e+16 2.3431488e+16 5.19659e+16

encoder.lob_enc.res_blocks.0.conv1.weight f4 [32, 32, 3, 1]
000000 86 b6 08 bd 44 86 99 bd 78 e4 cc bc 2d 8a 9e bd
       -0.033377193 -0.07496312 -0.025011286 -0.07741199
000010 90 dc d2 bb 99 76 78 3d cd f9 62 bd e6 1b d6 bc
       -0.0064349845 0.06065998 -0.05541401 -0.02613635
000020 0c 89 ed bc d7 8a 3d bd 84 3a a8 bd e4 84 66 3c
       -0.028996013 -0.046274986 -0.08214286 0.0140697695
000030 79 91 a3 bc 4e f5 ab bb b6 d2 01 bd e6 b7 96 bd
       -0.019966828 -0.0052477485 -0.03169509 -0.073592946
000040 83 bc 39 bd 32 d2 3d 3d ad c8 7d 3d 36 63 14 bd
       -0.045345794 0.046343036 0.061958957 -0.036227427
000050 1d 3c 67 3d 64 53 93 bd 6e bb 88 bc 04 80 d1 bd
       0.056453813 -0.0719364 -0.016690936 -0.10229495
000060 92 31 e4 bc 7c 3a 96 3c 9d f7 53 3d f0 9a d6 3c
       -0.027855668 0.018338434 0.051749814 0.026196927
000070 cf 40 1b 3d 3b 04 e7 bc 6d 94 c1 3d 89 3d af bd
       0.037903603 -0.02820026 0.09452138 -0.08556659
000080 57 0b dc bc 71 14 b6 bc 48 6b 69 3d 96 0f 33 3c
       -0.026860876 -0.022226544 0.056987077 0.010929009
000090 70 11 b4 3d a2 5f a0 bd fd cc e1 3c 49 fa b9 bd
       0.087923884 -0.078307405 0.027563566 -0.09080941
0000a0 fa 41 cf 3c 70 d3 4d bd 84 81 66 bd fe 01 04 3c
       0.025300015 -0.05025047 -0.05627586 0.008057116
0000b0 72 73 0c 3c 5f 61 bb 3d ec ad 94 3d 73 d1 9c 39
       0.008572446 0.091494314 0.072597355 0.0002991069
0000c0 b0 ee 1a 3d 6a 44 02 3c ff 8e e1 bc f7 1a b0 bd
       0.037825286 0.0079508815 -0.027534006 -0.08598893
0000d0 15 97 bf bd 37 41 ed ba a5 32 63 bd 73 21 a6 3d
       -0.093549885 -0.00181011 -0.05546822 0.08111849
0000e0 eb 22 67 bd fa f8 7a 3c 2c 87 79 bd e3 3a b8 3d
       -0.056429785 0.01531815 -0.060919926 0.08995607
0000f0 5a 56 1e 3d ce c0 41 3d 3e 35 ac 3c 93 66 be bc
       0.03865657 0.047303014 0.021021482 -0.02324227
000100 1f cf 25 bd e4 c7 5b bd 77 0c cd bd dc 33 e6 bc
       -0.04048073 -0.053657427 -0.10012143 -0.0281009
000110 dd 75 57 bd 84 4d a8 3d 8c 82 b4 3d 8d 39 96 bd
       -0.052602638 0.0821791 0.08813962 -0.07335196
000120 1f 47 9f bb 03 f1 c0 bd 72 45 38 3d af ee 89 3d
       -0.004860773 -0.09420969 0.044988103 0.067349784
000130 90 23 84 bd 66 a7 9d bd 3b 05 f2 bc 35 3a 96 3d
       -0.064520955 -0.07697944 -0.02954351 0.07335321
000140 88 15 7b 3d 92 d6 82 bd 1f fd a9 bb af 51 ab bd
       0.06129983 -0.06388582 -0.005187645 -0.08365189
000150 db 91 ad 3d fc c6 10 3d ad 82 3d bd e2 0f 08 3d
       0.08475085 0.035346016 -0.0462672 0.033218272
000160 a3 b7 9e bb 05 e4 98 bd 09 35 dc bd 9a 24 95 3d
       -0.0048436685 -0.07465366 -0.10752303 0.07282372
000170 b0 7f 86 bd a6 4f 6e 3d da 76 0c bd 9d 30 5b 3d
       -0.06567323 0.058181427 -0.034293033 0.053513158
000180 cd 7e 03 3d 55 b6 4f 3d 27 92 66 bd 37 7c 3a 3d
       0.03210335 0.050710995 -0.056291725 0.045528617
000190 f9 3b 61 3c 36 2d 10 bc ff a6 2e bc b9 29 fb bb
       0.013747209 -0.008799842 -0.010659932 -0.007664886
0001a0 5c 8e 44 3d 03 20 4c 3d b5 a6 4a bd 9b 68 62 bc
       0.047987327 0.049835216 -0.04947539 -0.013818885
0001b0 37 25 6b bc 03 02 f5 bc 42 15 5b 3d ec 08 d1 3d
       -0.014352134 -0.029908186 0.05348707 0.1020678
0001c0 2e 53 6c 3d aa 44 92 bc 70 15 92 3d f7 a4 d4 3d
       0.057696514 -0.017855007 0.07132995 0.10383027
0001d0 f0 53 7e 3c 8e 56 a3 3d 0d e2 b8 3c 42 26 06 bd
       0.015522942 0.07975493 0.022568727 -0.03275133
0001e0 a7 6d c0 3c e8 b6 48 3c 13 e6 93 3c 6b 76 99 bc
       0.023489786 0.0122506395 0.018054044 -0.018733224
0001f0 2e db 89 bd df c0 b0 bd a9 f2 6b bd cd 82 85 3d
       -0.06731258 -0.08630537 -0.057604466 0.06519089
000200 7f d8 98 bc a8 07 be bd b2 6d a6 3d 41 ed dd bd
       -0.01865792 -0.09278804 0.081263915 -0.10836268
000210 8d 2d cc 3c a9 59 c7 3d 8b 0d 33 bd d2 38 c6 3b
       0.024924064 0.09733898 -0.043714087 0.006049254
000220 6d 71 d4 3d 44 6a bd 3d 64 4c a0 3d ac da 5f bc
       0.10373197 0.09248784 0.0782707 -0.013662975
000230 81 f7 66 3d 48 67 43 3d 72 69 73 3c 0e 80 c4 3d
       0.056388382 0.04770592 0.014856683 0.09594737
000240 d6 ab ee 3c ef 67 9c 3d c0 98 8d bd e1 fd 9e 3c
       0.029134672 0.07637011 -0.069139004 0.019408168
000250 88 76 d8 bd d3 ce b3 3b 77 d4 97 3c 41 4e 55 3d
       -0.10569483 0.005487302 0.018533928 0.052076582
000260 fc c6 2f 3d e2 4f 68 bd 79 3f 49 3d 94 4d e8 bd
       0.042914376 -0.056716807 0.049132798 -0.11342922
000270 8a ad b6 3d 5a b6 52 3d d1 93 fc bb 2c 51 01 3d
       0.08919819 0.051443435 -0.007708051 0.031571552
000280 b8 a6 7c 3d d8 41 91 bd 54 8f 69 3d 7f 14 95 3c
       0.061682433 -0.07092637 0.057021454 0.01819825
000290 26 bf b4 3d c6 c1 41 3c 24 4b 92 3c d2 a5 fd 3c
       0.08825521 0.011825984 0.017858095 0.030962858
0002a0 9c 9b b3 3d 8e 87 99 bd e7 95 7f 3d 67 25 8b 3d
       0.087699145 -0.07496558 0.062398817 0.06794243
0002b0 0e 03 81 bb d0 5d 81 bd 5f 12 8a 3d 47 d9 46 3d
       -0.0039371317 -0.063167214 0.06741785 0.048547056
0002c0 a5 e6 0d bd 7f 89 d1 3c cd d1 bd bc d9 4b 21 bd
       -0.034643788 0.025578259 -0.02317133 -0.039378975
0002d0 96 f5 e1 3d bc 63 44 3d 84 6b 60 3c 6b d1 7f 3d
       0.1103317 0.047946677 0.013697509 0.062455576
0002e0 fd db 7c 3d 8c fe 36 3d 15 13 5f 3d 3c dd a2 bd
       0.061733235 0.04467635 0.054461557 -0.07952353
0002f0 bd 5f 0b bd c4 49 bc 3d f7 5b d6 3c 6c a9 0f 3d
       -0.03402685 0.09193757 0.0261669 0.035073683
000300 62 a3 9b bd 13 5a 75 bd 11 c3 41 bd f1 7a 1c 3d
       -0.07599522 -0.059900355 -0.04730517 0.038203184
000310 75 e7 49 bd cf 23 96 3d 74 0e aa bd 46 1d ea bc
       -0.049293 0.07331049 -0.08303538 -0.028578412
000320 d1 51 95 3d 72 a6 56 bd 3e 9d 08 bc ae c4 22 bd
       0.07290996 -0.05240483 -0.008338271 -0.03973835
000330 a3 7b ff 3c d3 4c 67 bd b3 a4 a6 bd a4 b5 31 bd
       0.031186884 -0.05646975 -0.08136883 -0.043386117
000340 98 4e 17 3d 67 fc 01 bd 2f cd a3 bd 7d bb ed bc
       0.036940187 -0.03173485 -0.0799812 -0.029020065
000350 98 30 45 bd 33 9b a4 3d 37 ba d8 bc b5 c5 01 3d
       -0.048142046 0.080374144 -0.026455982 0.03168269
000360 7c 79 b4 3d 0c 23 a3 bd 39 a1 0b 3d f0 cf 14 3c
       0.08812234 -0.07965669 0.0340893 0.009082779
000370 8a 60 a8 3d 8a 4d 10 bb c9 3d c1 3c 2b f4 d0 bd
       0.08221538 -0.0022018873 0.023589032 -0.10202821
000380 e3 c6 be 3d c9 a9 89 bd 8d 3f 81 3d 06 05 a0 bd
       0.093152784 -0.06721837 0.063109495 -0.07813458
000390 2c fc 8b 3c d1 2b 5e bb 77 d8 91 3d ff 10 cd bd
       0.017088018 -0.0033900628 0.071213655 -0.100130074
0003a0 28 60 a6 3d 29 e9 c0 3d cd 65 b6 3c ad 4e b2 3d
       0.08123809 0.09419472 0.02226534 0.087064125
0003b0 a4 1b a0 3d 98 6c e9 3a 27 c3 56 3d 54 b9 d9 3a
       0.07817772 0.0017808853 0.052432206 0.0016611018
0003c0 bd 09 c4 3c b2 d1 9c bd fc a8 0c bd 3d c4 85 bd
       0.023930425 -0.07657184 -0.034340844 -0.0653157
0003d0 6c 4a 8f bd 62 c3 99 bd 5e 3a 56 bd 4a 26 b9 3b
       -0.06996617 -0.075079694 -0.052301757 0.0056503164
0003e0 0b 59 8f bc fb d8 13 3d e7 73 0e 3d 8b fa 1e bd
       -0.017498514 0.0360956 0.0347785 -0.038813155
0003f0 3e 66 89 3d 94 7b 98 bd c3 0c 82 bd 11 ef bf 3d
       0.06708954 -0.07445446 -0.0635009 0.0937177

encoder.lob_enc.res_blocks.0.conv1.bias f4 [32]
000000 8f 8a 5f bd 67 c0 85 bd 8e 92 65 bd e7 19 0f be
       -0.0545755 -0.065308385 -0.05604797 -0.13974725
000010 60 13 1b be 63 cd be bd bb 6d 0e be 31 41 1d 3c
       -0.1514411 -0.09316518 -0.13909046 0.009598062
000020 19 51 ae bd 7b bc c4 bd 1d 43 3c bd b7 d6 fb bc
       -0.08511562 -0.09606262 -0.04596244 -0.030742032
000030 98 90 34 3c c2 87 4f bd 6a 6e 60 bc 3d 60 d3 bc
       0.011020802 -0.050666578 -0.0136982 -0.025802726
000040 ce f0 05 3d 78 99 e6 bc 7a 49 3d bc 98 36 56 bd
       0.032700352 -0.028149351 -0.011553163 -0.05229816
000050 e0 0d 21 bc 75 0b 4e bd dc 13 cc bd 40 75 de bd
       -0.009829968 -0.050303895 -0.099647254 -0.108622074
000060 d9 56 45 3c ce ba 4d bd a7 9a 57 3d 99 45 15 3c
       0.012044632 -0.05022698 0.052637722 0.009110832
000070 49 c4 ee 3c 07 db 52 bd 37 cc c6 3b ca 82 e7 bc
       0.02914633 -0.051478412 0.006066825 -0.028260607

encoder.lob_enc.res_blocks.0.bn1.weight f4 [32]
000000 92 50 7f 3f 5e 43 80 3f 59 a9 80 3f 23 0e 7f 3f
       0.99732316 1.0020559 1.0051681 0.99630946
000010 7f 99 7c 3f df 55 80 3f 2a 17 7e 3f 4f f3 7e 3f
       0.98671716 1.0026206 0.99254096 0.9959001
000020 10 26 7f 3f 2b 96 7f 3f 06 83 7e 3f 8d d9 7f 3f
       0.99667454 0.99838513 0.99418676 0.9994133
000030 87 f9 7f 3f c7 55 7f 3f 25 1f 7f 3f f5 aa 80 3f
       0.99990124 0.9974026 0.996569 1.0052172
000040 54 96 7e 3f de 58 81 3f f6 7c 7d 3f 1e 7b 7c 3f
       0.9944813 1.0105245 0.990188 0.9862536
000050 28 5e 80 3f d7 2c 7d 3f 43 8e 81 3f 19 02 81 3f
       1.0028734 0.98896545 1.012154 1.0078765
000060 b3 2f 81 3f 50 8c 80 3f ce ce 80 3f ee bd 80 3f
       1.0092682 1.004282 1.0063112 1.0057962
000070 35 14 7e 3f 96 1e 81 3f e5 a2 81 3f 6f 27 81 3f
       0.99249583 1.0087459 1.0127836 1.0090159

encoder.lob_enc.res_blocks.0.bn1.bias f4 [32]
000000 55 69 0e 3c 20 8c 3c ba ea db 71 3b a6 7a 26 3c
       0.008692105 -0.0007192511 0.003690476 0.010161078
000010 c4 27 a7 3b 51 43 28 3c 66 35 10 3c 21 9c e7 3b
       0.005101176 0.010269956 0.008801794 0.0070681726
000020 8b 29 e7 bb 00 a9 25 3c b5 63 08 bc 67 64 24 3c
       -0.007054513 0.0101110935 -0.008324553 0.010033703
000030 73 ef 80 3b c7 a7 0c 3c 78 6e 02 3c e7 73 ab 3b
       0.0039347946 0.008584923 0.007960908 0.0052323225
000040 66 6e a5 3a 9f 1a 11 3c 23 7d b6 3b db b5 46 bc
       0.0012621402 0.008856445 0.0055691167 -0.012128319
000050 73 2e 59 3c 10 98 af 3b 37 e9 3c 3c 0f 19 36 3c
       0.013255703 0.0053587034 0.011530212 0.011114373
000060 a2 ab 37 3c ab 9f ac ba 68 c8 2f 3c 6e 76 2c 3c
       0.011210354 -0.0013170143 0.010728933 0.010526283
000070 f6 77 0b bb 01 81 5b 3c 00 c5 4f 3c bd 6e 29 3c
       -0.002128122 0.013397456 0.012681246 0.0103413435

encoder.lob_enc.res_blocks.0.bn1.running_mean f4 [32]
000000 9f 9a ad be fa f6 ee 3e f4 56 cd be 99 30 ec be
       -0.3390703 0.46672803 -0.40105402 -0.46130827
000010 88 34 81 be 0b 96 c9 be 86 02 ae bd 2e 9e b8 3d
       -0.2523539 -0.39372286 -0.08496575 0.090145454
000020 da 94 ad 3d 1c 45 61 bd 98 0b d1 3e ee d4 d5 3e
       0.08475657 -0.05499755 0.40829158 0.41764015
000030 a4 2c ee bd bf 17 d0 bd f7 65 ab be f8 e6 91 3e
       -0.11629608 -0.10160779 -0.3347623 0.28496528
000040 75 1f fb 3d 1f 14 0c bc 30 bd 37 bd c7 31 a4 bd
       0.12261859 -0.008549719 -0.044858158 -0.08017307
000050 35 fb 6e bd 41 33 3a 3e 86 92 6a be 46 ca 7e be
       -0.05834504 0.18183614 -0.22907457 -0.24881849
000060 22 f5 4e 3c 82 e5 0a bf d8 43 0c bc be fe 54 be
       0.012631686 -0.5425645 -0.008561097 -0.20800301
000070 b5 e0 95 bd d1 2b e9 bd 30 5c 09 be 21 a3 f2 3d
       -0.0731825 -0.113853104 -0.13414073 0.118475206

encoder.lob_enc.res_blocks.0.bn1.running_var f4 [32]
000000 12 ae 56 3d 09 11 16 3f 6c dd 95 3d 74 fc 91 3d
       0.0524121 0.58619744 0.073176235 0.0712823
000010 d3 c1 7b 3d 05 ea 82 3d e4 c0 9d 3e 97 22 00 3e
       0.061464142 0.06392292 0.30811226 0.12513195
000020 70 16 19 3f 76 a0 36 3e 67 e9 f7 3e ca 7e b8 3d
       0.5979986 0.17834648 0.4842026 0.09008558
000030 ef ae 02 3e f6 26 13 3d 1b 4c 9b 3d f4 a4 b2 3d
       0.12762044 0.035925828 0.07582875 0.087228686
000040 35 c0 07 3f 90 3b 5d 3e 79 23 14 3e 8c 5d c7 3d
       0.5302766 0.21604753 0.14466657 0.097346395
000050 97 07 16 3e 85 1c ce 3e ba ae b6 3d cd a8 96 3e
       0.14651333 0.40256134 0.08920045 0.2942566
000060 31 13 21 3e 38 51 ad 3d de 4e 75 3e 06 91 af 3d
       0.15729977 0.08462757 0.23955867 0.08572583
000070 c2 e0 ea 3c ae 11 a8 3e 50 b9 fc 3d d2 9b df 3d
       0.028671626 0.3282599 0.12340033 0.10918392

encoder.lob_enc.res_blocks.0.conv2.weight f4 [32, 32, 3, 1]
000000 4d dc 86 3c f1 0d d3 3c d5 00 8a bd 30 5d b0 3d
       0.01646247 0.025763484 -0.0673844 0.08611524
000010 6a 17 02 3d ef d2 f9 bc 74 00 a4 bd 36 d1 7c bd
       0.03176061 -0.030496089 -0.08007899 -0.061722957
000020 d7 2d 86 bc 1b 65 3a 3c 2a 47 02 3d cb 7e c7 3d
       -0.01637928 0.0113766445 0.03180615 0.09740981
000030 cc 52 8e 3d 71 37 38 bc d7 4d b6 bc 1b 0f a3 3d
       0.06949386 -0.011243687 -0.022253914 0.079618655
000040 65 db 19 bb bc 1d 5f 3c fb 79 46 bb a4 4b b8 3d
       -0.0023476717 0.013617929 -0.0030285108 0.08998802
000050 62 29 7d 3d f5 89 28 3d 37 6b 04 3d d8 8a 93 bc
       0.061807044 0.04114719 0.03232881 -0.018010542
000060 57 35 e5 3c 5c 8e 9e bd fc ff 93 bd 8a f5 07 3d
       0.027979536 -0.07741997 -0.072265595 0.03319315
000070 99 dd c9 3c 31 03 81 bd 6a 6e 13 3d 6e 79 20 3d
       0.024641799 -0.06299437 0.03599397 0.039178304
000080 f3 4e 53 3d a0 ad 33 bd db 98 50 bd e7 16 82 3a
       0.051588964 -0.043866754 -0.050927024 0.0009925038
000090 8b 91 3a bc ad bf eb bb e9 88 a0 bd a9 dc 90 3d
       -0.011387239 -0.0071944804 -0.078386135 0.070733376
0000a0 29 62 c3 3d 49 85 43 bd 64 da 97 3d e5 b1 a3 3c
       0.09540207 -0.047734533 0.074147016 0.019982288
0000b0 6d 5b d7 3c 8a c2 d6 bb 72 1d c1 3d fc c0 b9 bc
       0.026288712 -0.0065539526 0.094294444 -0.02267503
0000c0 d8 2b 98 3c 1b 65 a8 bb 08 d4 0d 3c 26 e9 36 bd
       0.018575594 -0.005139006 0.008656509 -0.04465594
0000d0 92 59 82 bd 6c 42 90 3d 08 1c cb bd 05 f1 97 bd
       -0.063647404 0.07043919 -0.09917456 -0.07419018
0000e0 e7 13 bb 3d 4a b5 54 bd 2f 29 64 bc 31 63 c6 bd
       0.091346554 -0.051930703 -0.013925835 -0.09686888
0000f0 43 82 ee bc 4a 88 3c bd c0 2b 1b 3d b5 6c 49 3d
       -0.029114848 -0.046028413 0.03788352 0.049175937
000100 e6 63 b7 3d 72 10 10 bd 17 0b c2 3d 7f a8 30 3d
       0.08954601 -0.035171933 0.094747715 0.04312944
000110 a3 3c 9f bd bc aa b4 bd 6d fd 37 bc 94 c4 c1 3d
       -0.077752374 -0.088216275 -0.011229855 0.094613224
000120 aa 37 a5 3a 18 05 74 bd 74 ab 81 3d 50 ad db bd
       0.001260509 -0.05957517 0.0633153 -0.10726416
000130 ce d0 91 3d 59 5c c9 bb c3 40 f5 3b 6f 07 0b bd
       0.071199045 -0.006145042 0.007484527 -0.033942636
000140 00 57 91 3c 84 1e dc ba 9e 63 9a 3d 3d 75 af 3d
       0.01774168 -0.0016793762 0.07538532 0.08567283
000150 a3 31 1a 3d 73 b4 8b bc 22 e8 6d bb ce c4 7a bd
       0.037644994 -0.017053818 -0.0036301692 -0.061222844
000160 c4 4e 82 3d b6 d9 ac bc b3 8c ca bd f0 7a fa bc
       0.063626796 -0.021099906 -0.098901175 -0.0305762
000170 08 a6 8c bd f7 8c a3 bd 64 c8 98 3c 24 47 27 3c
       -0.068676054 -0.07985871 0.018650241 0.010209832
000180 37 a2 5b bd 6c 13 91 bd c9 08 12 3d 5b ea bd 3c
       -0.053621497 -0.070837826 0.03565291 0.023183038
000190 8c a9 8f 3d 4f b6 60 3d cc 1d 76 bd a2 e7 70 3d
       0.070147604 0.054861363 -0.06008701 0.058814652
0001a0 71 af b1 bd 02 a9 ab bd bf 57 38 3d e2 e4 ca 3d
       -0.08676041 -0.08381845 0.045005556 0.09906937
0001b0 46 1c 49 3d 23 30 0a bb a4 55 3e bd 04 b3 d0 3d
       0.04909923 -0.002108582 -0.046468392 0.101903945
0001c0 f8 0b 85 bd c3 fe bf 3d ff e9 86 bd 66 e8 ca bd
       -0.064964235 0.09374764 -0.065876 -0.09907608
0001d0 08 b0 92 bb f5 45 01 3d eb b5 a8 bd a0 6c ee bc
       -0.004476551 0.031560857 -0.08237823 -0.02910453
0001e0 0d e1 4d bb b4 92 ce bb 97 6c 44 bd af 50 c4 3d
       -0.0031414658 -0.0063041095 -0.04795512 0.09585702
0001f0 fd e3 92 bd 0c 1b 8b 3d 29 b3 fa 3c ed b9 28 bd
       -0.071723916 0.06792268 0.030603008 -0.041192938
000200 c5 c9 3a 3d 94 fe a7 bd a6 bd 8a bd b4 6f 6e 3d
       0.04560258 -0.08202854 -0.06774454 0.058211997
000210 55 79 4e bd 2b e8 4f 3d a6 f3 bf bd 73 06 9c 3c
       -0.05040868 0.050758522 -0.09372644 0.019046044
000220 0e 57 c0 bd 40 5f 4a 3d 13 83 cc 3d af 92 7f 3d
       -0.09391604 0.049407244 0.09985938 0.062395748
000230 a5 16 f4 3c 6b 38 88 3d e4 1a b8 3d 1e 22 67 3d
       0.029795954 0.06651386 0.08989504 0.05642902
000240 e6 4d 39 3d 93 e2 09 3d 6b 58 c7 3c 96 cb 83 3d
       0.045240305 0.033663344 0.024334153 0.06435315
000250 7b 4a 9b 3d 5d ab 0e bd f5 1a 90 3c a9 08 63 3d
       0.075825654 -0.034831394 0.01759098 0.05542818
000260 3e 4c aa bd fb 3a 99 bd f4 4d c0 bc 20 bf 94 3c
       -0.08315323 -0.07481953 -0.023474671 0.018157542
000270 c6 01 89 3d a9 cc 5a 3d 1e 15 59 3d 09 8c a9 bc
       0.066897914 0.053417835 0.052998655 -0.020696657
000280 6a e6 d1 bc 4b df c7 bd e9 f7 bd bb 45 07 ea bc
       -0.025622565 -0.09759387 -0.0057973755 -0.02856792
000290 11 e1 a7 bd b2 17 3b 3d 66 36 6e 3d bf d8 d8 3c
       -0.08197225 0.045676894 0.058157347 0.02647054
0002a0 b8 45 96 bd 40 c1 f0 bc 48 45 bf bd f0 3f 20 bc
       -0.073375165 -0.029389024 -0.09339386 -0.009780869
0002b0 38 45 73 3d 3e 82 b3 3d dd a6 b0 bd d7 21 b3 bc
       0.059392184 0.08765076 -0.08625577 -0.021866722
0002c0 0b 95 57 bd 6c 88 9f 3d 11 ab cf 3d a1 03 b2 bd
       -0.052632373 0.07789692 0.1014005 -0.086920984
0002d0 27 39 1e bd ca cf cf 3b 34 89 b8 bd b5 1a d1 bd
       -0.038628723 0.006341909 -0.090105444 -0.10210172
0002e0 5e 40 8d bd 55 ae 92 3d e5 d2 97 3c a0 32 59 bd
       -0.06897043 0.071621574 0.01853318 -0.053026795
0002f0 7d c5 91 bc 15 39 c1 3d 0e 42 c1 bd 01 f3 28 3d
       -0.017794365 0.09434716 -0.09436427 0.04124737
000300 3c 71 86 bc 65 48 e3 bd 22 8a 9a 3d ed 82 71 bd
       -0.016411416 -0.110977925 0.07545878 -0.05896275
000310 7b fa 8e 3d d0 50 84 bb 15 dd 58 3c 6e a7 c9 bc
       0.06981369 -0.004037954 0.013236304 -0.02461597
000320 7a b9 bd bd f9 01 25 3d cb f7 38 bd f1 6c e4 3c
       -0.092638925 0.040285084 -0.04515819 0.027883979
000330 d4 a5 aa 3d 35 98 2c bd 10 13 f1 b9 82 3b cf 3c
       0.083324105 -0.042137343 -0.00045981305 0.02529693
000340 2b 0a 35 bd a2 be 0d 3d 04 11 5d bd 8c a4 8f 3d
       -0.04419915 0.03460563 -0.053971305 0.07013807
000350 f8 ba e8 bc cf 39 7c bc c6 f2 34 bd ab 27 02 bb
       -0.028409466 -0.015394642 -0.04417684 -0.001986007
000360 4d 6d 72 3d 3c 6e f2 3b 5d d0 40 bd 8e 60 c8 3d
       0.05918627 0.007398395 -0.04707371 0.09784041
000370 f0 86 bf 3d 1c 7b 19 bd e2 2e 8b bd df ee a9 bd
       0.09351909 -0.037470922 -0.067960516 -0.08297514
000380 7f 82 ca 3b 92 42 c3 3d dd a2 fd 3c 28 61 29 3d
       0.006180107 0.09534182 0.030961448 0.04135242
000390 4e 18 da bd 83 ff 00 3d 99 94 32 3d 55 d2 2a bd
       -0.10649167 0.031493675 0.043598745 -0.041704495
0003a0 fe 23 9a bd 23 4e d5 bc 64 19 c6 bd 0e 8f ab 3d
       -0.07526396 -0.026038235 -0.096728116 0.08376895
0003b0 e4 68 91 bd b0 ca ce 3d 2f d5 be bd 02 89 98 3d
       -0.071000844 0.10097253 -0.09318005 0.07448007
0003c0 65 47 56 bd 09 35 b9 bd 2d 68 88 3c 52 84 d5 3d
       -0.05231418 -0.09043319 0.016651237 0.10425629
0003d0 d1 e6 1e bd 07 50 cb 3c 07 ad 98 bd 6d 32 65 3d
       -0.038794342 0.024818433 -0.07454877 0.055956293
0003e0 87 38 a4 3d 97 ec 2a bd 6f 9c ac 3d 32 6f 22 3d
       0.08018594 -0.041729536 0.08428275 0.039656825
0003f0 13 87 17 3b 3c e8 62 bd 5b b5 69 3d e7 c1 eb bb
       0.0023121282 -0.055397257 0.05705772 -0.007194746

encoder.lob_enc.res_blocks.0.conv2.bias f4 [32]
000000 79 f2 b5 bc 6f 2d 85 bd e9 ae 81 bd d1 ed ea bc
       -0.022210347 -0.065028064 -0.063321896 -0.028677853
000010 e8 59 2d bd 0e b4 7c bd ad e1 b0 bd ba 15 bf bd
       -0.04232207 -0.06169515 -0.08636794 -0.09330316
000020 69 5e 9a bd f3 43 03 be e3 7a b4 bd 40 b0 72 bd
       -0.075375386 -0.1281889 -0.08812501 -0.059250116
000030 f5 1f c2 bd bb fb e1 bc a7 17 05 3a 21 f8 a2 bc
       -0.094787516 -0.027585855 0.0005077072 -0.019893708
000040 be 59 c5 bd c9 70 41 bd 59 4b cf bd 67 36 ab 3c
       -0.096362576 -0.0472267 -0.10121793 0.020899964
000050 a1 48 e7 3c d0 0b 33 3d a1 6c a3 bd 97 d9 e3 3c
       0.028232874 0.043712437 -0.07979704 0.027813716
000060 c0 e4 f4 bc 3b 93 91 bd 76 4a 85 3c bd b8 f0 bd
       -0.029894233 -0.0710816 0.016270857 -0.11753986
000070 a7 c8 0f be 68 a4 2b 3d 75 c7 a2 bc f3 8b 5f 3c
       -0.14041387 0.041904837 -0.0198705 0.013644206

encoder.lob_enc.res_blocks.0.bn2.weight f4 [32]
000000 1b b9 7d 3f fd 2f 80 3f e6 32 81 3f b2 ab 7d 3f
       0.99110574 1.0014645 1.0093658 0.9909011
000010 3f 0e 81 3f c1 40 80 3f b4 51 81 3f d1 ed 80 3f
       1.0082473 1.0019761 1.0103059 1.0072576
000020 35 cb 80 3f 22 cd 80 3f 64 00 80 3f 82 7e 7f 3f
       1.0062014 1.0062602 1.0000119 0.9980241
000030 d8 40 81 3f f5 86 80 3f 7c 19 7e 3f 99 d8 80 3f
       1.0097914 1.0041186 0.99257636 1.00661
000040 f8 0a 80 3f a1 1b 80 3f d9 fe 80 3f 96 51 80 3f
       1.0003347 1.0008432 1.0077773 1.0024898
000050 03 ea 7f 3f 67 0e 81 3f ff 36 80 3f 44 33 81 3f
       0.9996645 1.008252 1.0016783 1.009377
000060 f1 f0 80 3f 97 4c 80 3f 00 4d 81 3f d1 29 81 3f
       1.007353 1.0023373 1.0101624 1.0090886
000070 b2 e9 80 3f ba d0 7e 3f 07 ed 80 3f de 32 81 3f
       1.0071318 0.9953724 1.0072335 1.0093648

encoder.lob_enc.res_blocks.0.bn2.bias f4 [32]
000000 02 fa ca 3b c2 b1 7c 38 3a 1b 29 3c 2d 57 8b bb
       0.006194354 6.024703e-05 0.010321433 -0.0042523355
000010 93 1a 11 3c 25 e0 c4 3b 59 47 23 3c 0f b6 25 3c
       0.008856433 0.0060081654 0.009965741 0.010114207
000020 b6 db 18 3c 30 3a f6 3b c2 47 5a bb 84 8e 1d 3a
       0.009329727 0.0075142607 -0.003330693 0.0006010311
000030 ed 29 07 3c 6e 16 98 3b 3a c9 03 bc a8 33 d9 3b
       0.008249742 0.0046413457 -0.008043582 0.0066284724
000040 6c e3 76 3b 84 9b 8e 3a 45 19 22 3c a7 a4 ad 3a
       0.0037672175 0.0010880088 0.00989372 0.0013247923
000050 8a d2 9c ba a3 4d 1d 3c b6 bd 8a bb cf 25 18 3c
       -0.0011964601 0.00960103 -0.004234041 0.009286358
000060 96 2a 0d 3c 4d 9e 8f 3b ee bf 21 3c b9 18 1d 3c
       0.00861611 0.0043828846 0.00987242 0.009588414
000070 c4 f7 09 3c 93 35 1f bc 3c 15 17 3c f4 b6 1f 3c
       0.008420888 -0.009717363 0.009221371 0.009748209

encoder.lob_enc.res_blocks.0.bn2.running_mean f4 [32]
000000 cd 9e 45 3d 0d a5 54 bd 4d 33 f0 bc 43 83 1c 3d
       0.048247147 -0.051915217 -0.029321337 0.03821112
000010 c1 78 3b bd 7d a2 8d 3e 62 51 bc be d2 26 04 3e
       -0.045769457 0.2766303 -0.3678084 0.12905434
000020 63 5c a4 3d f4 11 34 3d b1 af 87 be 62 89 96 bd
       0.08025434 0.043962434 -0.2650123 -0.073504224
000030 4b 23 df bc 5c d8 35 be a9 92 8d 3e 25 d4 1c be
       -0.027238509 -0.17758316 0.27650955 -0.15315302
000040 a7 85 8f bd 64 0f 03 3e a3 49 87 be cb a3 73 3c
       -0.07007914 0.1279884 -0.26423368 0.014870594
000050 7d 62 99 be 23 28 35 3e c2 f0 2b 3d 3d 69 86 bd
       -0.29957953 0.17691092 0.04197765 -0.06563041
000060 d8 ad b4 be 87 75 d7 bd 40 ce d4 3c 39 f0 f5 3c
       -0.35288882 -0.105204634 0.025977254 0.030021774
000070 4e 6f 2a be ed 70 07 3e 1b c5 3f bc 20 84 9a 3d
       -0.16644022 0.13226672 -0.011704708 0.07544732

encoder.lob_enc.res_blocks.0.bn2.running_var f4 [32]
000000 bd 79 77 3d 73 74 2d 3d 0d fe 48 3e 43 9b 0e 3e
       0.060418833 0.042347383 0.19628163 0.13926415
000010 14 0f ba 3d e3 84 47 3e ed 63 33 3e 1b 57 76 3e
       0.09084907 0.19484286 0.17518587 0.24056666
000020 23 c0 08 3e 72 d8 c2 3d 97 16 40 3e e3 c5 fa 3c
       0.13354544 0.0951394 0.18758617 0.030611938
000030 30 19 96 3d a0 a0 4a 3d 64 4e a0 3d 74 6c 39 3e
       0.07329023 0.04946959 0.07827452 0.18107778
000040 3f 09 a5 3d 07 65 04 3e 93 89 30 3e d8 2e bb 3e
       0.08058404 0.12929164 0.1723998 0.36559176
000050 e0 a5 63 3e 9e 5f 55 3e d1 40 92 3e e7 58 46 3e
       0.22231245 0.20837256 0.28565076 0.19369851
000060 f2 04 f3 3d 9a 1a 8d 3d 4a 80 bd 3d c4 4f aa 3e
       0.118661776 0.068898395 0.09252985 0.3326398
000070 d9 8e 24 3e 03 4b 04 3f 46 d1 79 3d 59 88 14 3e
       0.16070117 0.5167696 0.060990594 0.14505138

encoder.lob_enc.res_blocks.1.conv1.weight f4 [32, 32, 3, 1]
000000 7f 91 c2 bd 27 ca 8f 3c de 80 31 3d 34 a0 ed bc
       -0.095004074 0.017552448 0.043335788 -0.029007055
000010 e4 70 90 bd c4 86 a0 3d 7b 5f cd 3c 1a 0e 5e 3d
       -0.07052782 0.078382045 0.025069943 0.054212667
000020 8b 98 c1 3d ac 19 b7 bd 14 de 92 3d bf 82 21 bd
       0.094529234 -0.089404434 0.07171264 -0.03943133
000030 64 82 2a 3d a3 3d 8a 3d bd c2 99 3d 21 43 09 3d
       0.041628256 0.067500375 0.075078465 0.033511285
000040 46 5d 45 3c 77 ca 14 3b 05 55 eb bc 5e f1 5c 3d
       0.012046164 0.0022703686 -0.028727064 0.053941123
000050 7a 45 c3 3d 0d 04 a5 3b 13 cd a8 bd 0c a3 a5 bc
       0.09534736 0.0050358833 -0.0824224 -0.020219348
000060 81 9f 0b bd de 6a 4d 3d 24 4f a2 bd 82 1c ff bc
       -0.03408766 0.050150745 -0.07925251 -0.031141523
000070 75 e9 42 bd 05 53 a1 bd b2 00 52 bd b3 23 88 3d
       -0.047585923 -0.07877163 -0.051270194 0.06647434
000080 42 0b 0b 3d 76 73 a2 3d 6e 93 95 bb 17 5d 63 3d
       0.033946283 0.07932179 -0.004564694 0.0555087
000090 05 61 28 3d e7 56 87 3d 20 38 13 bc 28 de a7 3d
       0.04110815 0.06608372 -0.008985549 0.0819667
0000a0 e7 96 bd bb 80 fb f9 bc f5 97 21 3d c2 70 17 3d
       -0.005785811 -0.030515432 0.03945156 0.03697277
0000b0 ea 8a 87 bd 91 17 12 bd c4 76 bf bd f4 14 c1 3d
       -0.06618293 -0.035667006 -0.093488246 0.094278246
0000c0 d0 51 e8 3c 02 35 a8 3d 89 4f b4 bd c1 8a cc 3d
       0.028359324 0.082132354 -0.088042326 0.09987403
0000d0 ae 5a c5 3d 25 dd c2 3d 99 97 8d bd 5e ac c8 3d
       0.096364364 0.09514836 -0.069136806 0.097985014
0000e0 9e 17 b1 bd c4 1c 9b bd f4 5b 15 bd 13 d4 cd 3d
       -0.08647083 -0.07573846 -0.036464646 0.100502156
0000f0 c6 54 f0 bc 50 6e 16 3d 0b b8 8a bc 26 a8 57 3d
       -0.029337298 0.036726296 -0.016933462 0.052650593
000100 e5 37 4a 3d 7f 22 ad 3d 02 7d 67 3d 86 01 ac 3d
       0.04936971 0.08453845 0.0565157 0.08398728
000110 63 ed ba 3d 55 04 0e 3d 7a 2a 6f 3d df 21 af 3d
       0.09127309 0.0346721 0.05839012 0.08551382
000120 f1 7e 3f 3d 9c 7f 05 bd 42 56 98 3d fe a4 a9 3c
       0.04675192 -0.0325924 0.07438327 0.020708557
000130 a8 64 87 3d 77 1b e9 bc ba 26 c4 bd ab 82 7e bd
       0.066109955 -0.02845548 -0.09577699 -0.062136333
000140 5b 82 e9 bb 4e 46 8b bd b1 e9 32 bd 4f 55 51 3d
       -0.0071261353 -0.06800519 -0.043679897 0.051106747
000150 4b 84 14 3d 49 a4 e6 bc 20 3d ab ba 1c a0 cb bd
       0.036258977 -0.02815451 -0.0013064481 -0.09942648
000160 77 7a 81 bb ac 10 c3 38 8d 71 6c bd d7 d6 bf 3d
       -0.0039513665 9.30143e-05 -0.057725478 0.09367149
000170 c0 b4 4d bd e8 30 49 3c 2d d9 82 bd a5 a7 b0 3c
       -0.050221205 0.012279727 -0.06389079 0.021564314
000180 5e 98 b0 bd 5e 1b 23 bc 92 46 0a 3d b3 38 9b 3d
       -0.08622812 -0.009955255 0.033758707 0.07579174
000190 23 2f 05 3c 5c c3 3f 3c 42 b0 50 3c 95 ae 59 bd
       0.008128914 0.011704292 0.012737336 -0.05314501
0001a0 1b a3 b3 3c 36 18 c4 bd 2b 6b 2b bd 1a c8 cb bb
       0.02192836 -0.0957493 -0.04185025 -0.0062189223
0001b0 e9 6f 0d bd 3a 16 2e 3d f0 46 8f bd 10 db e0 3c
       -0.034530554 0.042501666 -0.06995952 0.027448207
0001c0 d1 40 89 bd 50 8f b6 bd 86 be 5b bc 0a 08 4b bc
       -0.06701816 -0.089140534 -0.013412124 -0.012392053
0001d0 27 db 43 bd 03 f9 ca 3d dd a9 0e bd 53 8f b9 bc
       -0.04781642 0.099107765 -0.034829963 -0.02265135
0001e0 69 82 03 3c 73 ad 25 bd 4c f8 a3 3c 01 57 c2 3d
       0.008026698 -0.040448617 0.020015858 0.09489251
0001f0 00 f7 52 bb 30 15 27 bd 81 dd 82 3d db dd ce 3c
       -0.003219068 -0.04079169 0.06389905 0.025252273
000200 b5 f5 65 3d e1 6e 82 3c 7b 98 5d bd 74 27 9b bd
       0.056142528 0.015922012 -0.054100495 -0.075758845
000210 cb fa 2f bd 76 07 c2 bd 5b 40 c2 bd 4d b8 6a 3d
       -0.042963784 -0.09474079 -0.09484931 0.05730467
000220 70 61 06 bc 11 02 72 bb a6 6f aa bd d6 58 44 3d
       -0.008201942 -0.0036927501 -0.083220765 0.047936283
000230 17 dc 95 3d a9 d1 90 3d 87 2b 61 bd d6 d0 6c 3c
       0.073173694 0.070712395 -0.05497315 0.014454087
000240 c9 4e 66 bd de 87 2e 3d 6d d2 50 3d b7 64 82 bd
       -0.05622748 0.04261004 0.050981928 -0.06366866
000250 42 27 ae bd 46 2c ab bd fc 0c 17 3d 4a 6c 96 3c
       -0.085035816 -0.08358054 0.036877617 0.018362183
000260 eb 8c 82 3d 36 c7 c2 bc 38 37 93 3d 1c b6 ad 3d
       0.06374534 -0.023776632 0.071882665 0.08482
000270 d2 93 92 bd 3b 99 38 bc ec db a0 3c 74 fe 85 3d
       -0.07157101 -0.011267002 0.019636117 0.06542674
000280 af 07 c3 bd 93 b7 3b 3d f0 4c 82 bb 17 54 83 3d
       -0.0952295 0.045829367 -0.003976457 0.06412523
000290 1a 10 d0 bd 4e ea 93 3d 27 46 8d 3d f6 ec f8 38
       -0.10159321 0.072224244 0.06898146 0.00011869699
0002a0 da 1d fb bc e8 3d 4d 3d 35 52 e0 bc 32 a5 eb bc
       -0.030653883 0.050107867 -0.02738295 -0.028765295
0002b0 7d b3 83 bd 7a 1e b9 3d f3 08 7b 3d d8 d9 22 3c
       -0.06430719 0.09039016 0.06128783 0.009939633
0002c0 23 01 02 ba 22 07 94 bd 57 3a 9b 3d 42 cc 18 3d
       -0.0004959276 -0.07227923 0.07579487 0.03730417
0002d0 3d 1c 09 3d c6 66 2b 3d f1 21 ad bd 5e 8e 23 bd
       0.033474196 0.04184606 -0.084537394 -0.039930694
0002e0 13 7b 84 3d ac 6b 1d bd bb 82 ae 3d 5f b7 8f bd
       0.06468787 -0.038432762 0.085210286 -0.07017397
0002f0 19 30 97 3d f8 47 db 3d 02 90 a9 bd 8c 2b a1 3d
       0.07382221 0.10707086 -0.082794204 0.07869634
000300 86 92 91 3c 3e 38 26 3d 91 4e 20 bd 4c ef 8a 3d
       0.017770063 0.04058098 -0.039137427 0.067839235
000310 96 b9 6a 3c f7 b9 a5 bd a2 d8 c3 3d d0 e5 03 39
       0.014326474 -0.080921106 0.09562804 0.00012578745
000320 98 71 8f bc 15 c6 be 3c b3 9d 37 3c 12 24 c4 bd
       -0.01751022 0.023287812 0.011207032 -0.09577192
000330 d6 1d bb 3d 55 ac a5 bc b1 cc ae 3c ca df d5 bc
       0.0913655 -0.020223776 0.021337839 -0.026107688
000340 20 f4 cf bd b2 9f c0 bd 65 26 11 bd 4c da 05 bd
       -0.10153985 -0.094054595 -0.035437007 -0.032678887
000350 34 0a b0 3d 7e 8a 62 3c 19 a6 d4 3d fd 9d aa 3d
       0.08595696 0.013826964 0.10383243 0.08330915
000360 60 ff 02 3c 6c fa 21 bd 0b a0 0f ba 50 dd 38 bd
       0.007995456 -0.03954546 -0.00054788654 -0.045132935
000370 40 d4 df bd c9 5b 9d 3c 56 3e eb 3c e9 5d 36 bd
       -0.10929155 0.019208806 0.028716248 -0.044523153
000380 23 e7 a7 3d 89 52 58 bb 7b 84 a5 bc 66 26 0d bd
       0.08198383 -0.003300818 -0.020204773 -0.034460448
000390 e2 f0 be 3d d1 8c 51 3d 18 3c 99 bd 57 f0 b0 bd
       0.093232885 0.051159684 -0.07482165 -0.08639591
0003a0 fc 47 be bd a3 7f ae 3d b3 94 9d 3d fa cf 37 3d
       -0.09291074 0.085204385 0.07694378 0.044876076
0003b0 37 2e 34 3d ba 80 a0 bd c2 ff 84 3d be 26 89 bc
       0.043989386 -0.07837053 0.064940944 -0.016742107
0003c0 e6 58 3a bc 2d f3 5d 3b 34 e0 1a bd 0b 66 b7 3d
       -0.011373734 0.0033866868 -0.037811473 0.0895501
0003d0 bf cd ff 3b 2f d1 83 3d da ae 80 bd 6d 4d b7 bd
       0.0078065093 0.06436383 -0.0628335 -0.08950315
0003e0 11 dc fa bc ca 7c c2 3c b0 2a 9e bd 46 f2 7a bd
       -0.030622514 0.023741145 -0.07722986 -0.061266206
0003f0 41 a0 c2 3c 05 8a b6 3d a1 ca 9e 3d 2b 13 b9 3d
       0.023758056 0.08913044 0.07753492 0.09036859

encoder.lob_enc.res_blocks.1.conv1.bias f4 [32]
000000 21 c1 16 bc 41 5b 2e 3c 7a 09 3c 3d 64 ee 8a bc
       -0.009201319 0.010641874 0.045907475 -0.016959377
000010 de 76 b4 3c 1a b6 d6 bb 3b dd cc bd 8b f9 56 bd
       0.022029337 -0.00655247 -0.10003134 -0.052484076
000020 2f bd cb bd a2 56 cf 3c e2 ae 02 bd d0 11 06 be
       -0.09948193 0.025309864 -0.031905062 -0.13092732
000030 6e 52 21 3d 62 d5 af b7 b2 67 4d bd 59 ee ff bd
       0.03938525 -2.096099e-05 -0.05014772 -0.12496633
000040 ec 7c ca bd 66 bd 17 be 5c 13 09 be 4d b7 33 3d
       -0.09887108 -0.14818344 -0.13386291 0.04387598
000050 3d 4a 7b bd 67 57 26 3d 21 57 5b ba a3 08 1e 3d
       -0.061350096 0.040610697 -0.000836717 0.038582455
000060 ec e4 79 bc c4 57 f2 bd 14 84 1c 3d 06 e1 12 be
       -0.015252333 -0.11833146 0.038211897 -0.14343652
000070 8d 96 b4 bc cd 3d ac bc c5 24 5f 3c a6 79 04 be
       -0.022044444 -0.021025563 0.013619606 -0.1293703

encoder.lob_enc.res_blocks.1.bn1.weight f4 [32]
000000 38 17 7e 3f f2 1b 80 3f b0 a4 7e 3f 79 7a 80 3f
       0.9925418 1.0008528 0.99470043 1.0037376
000010 9f 2e 81 3f 90 c7 7e 3f f0 04 7e 3f 43 3e 7e 3f
       1.0092353 0.9952326 0.99226284 0.99313754
000020 74 7c 7e 3f 07 f6 7c 3f 10 95 81 3f 58 32 81 3f
       0.9940865 0.9881291 1.0123615 1.0093489
000030 05 01 80 3f 3a b5 81 3f 60 47 80 3f e2 41 7f 3f
       1.0000311 1.0133431 1.0021782 0.99709904
000040 15 f8 80 3f b7 1e 80 3f 06 42 81 3f 88 88 7f 3f
       1.0075709 1.0009373 1.0098274 0.99817705
000050 7f a4 7e 3f d8 1f 80 3f 47 e1 7f 3f 38 db 7e 3f
       0.9946975 1.0009718 0.9995312 0.9955325
000060 d9 4a 81 3f 5c 0e 80 3f bc 07 7f 3f 54 41 80 3f
       1.0100967 1.0004382 0.99621177 1.0019937
000070 e2 4a 7d 3f ac 9e 7e 3f ed 92 7e 3f db 01 81 3f
       0.9894239 0.99460864 0.9944294 1.0078691

encoder.lob_enc.res_blocks.1.bn1.bias f4 [32]
000000 f6 17 de bb 2f 43 8b 3b 0d 82 d9 ba 30 af e9 b8
       -0.0067777587 0.0042499523 -0.0016594544 -0.00011142937
000010 16 8a 45 3c c7 01 24 bc 97 4c 27 bb b5 0f be bb
       0.012056848 -0.010010189 -0.002552783 -0.0058002123
000020 82 36 a2 3b d5 ad 14 bc a7 49 1f 3c 87 30 e1 3b
       0.0049503455 -0.009074648 0.00972215 0.00687224
000030 3b a0 29 3c 15 d8 38 3c 9a a3 a5 3b c8 cb 2a bc
       0.010353143 0.011281987 0.005054903 -0.010424562
000040 e6 82 d1 3b f0 7a fe ba ce 7d 81 3b cb 88 84 3c
       0.006393778 -0.00194153 0.0039517647 0.01617851
000050 1c 0f 05 3c 6b 3f 44 3c cc a4 c9 3b 74 3f 9b ba
       0.008121278 0.011978011 0.0061536785 -0.0011844472
000060 a4 7a 18 3c 43 de 3e bb 01 a7 21 3c 47 57 a1 3b
       0.009306584 -0.0029124178 0.009866477 0.0049237343
000070 de c6 53 bc 9f 7f 68 3b fe 4f c8 bb f7 a7 bb 3b
       -0.012925832 0.0035476459 -0.0061130514 0.00572681

encoder.lob_enc.res_blocks.1.bn1.running_mean f4 [32]
000000 3c 54 ef 3e 09 ca 2f bd 06 97 4e 3d 3a ad 0f bf
       0.46743953 -0.042917285 0.050436996 -0.561237
000010 1a f8 5b be 5c 1a e5 bd 32 3f b8 be 1a c6 30 3f
       -0.21481362 -0.11186668 -0.35985714 0.6905228
000020 a7 f6 84 bd ca b9 c1 be de c0 e0 be df 35 4d bf
       -0.06492358 -0.37837058 -0.43897146 -0.80160326
000030 21 28 33 bf eb bd 16 bf 7e 89 40 3f df 72 a4 be
       -0.69983107 -0.5888354 0.75209796 -0.3211889
000040 0d 19 4b bf 47 25 dd be 2b 5f 62 bf 84 ef 12 bf
       -0.793351 -0.43192503 -0.88426465 -0.5739672
000050 33 5b 8c be 81 83 59 be 83 74 1f be 34 ae e0 3e
       -0.2741333 -0.21241571 -0.1557179 0.43882906
000060 fd 2c 18 bf 58 65 7c be 04 a0 c1 3e 2b 21 e9 be
       -0.59443647 -0.24648035 0.37817395 -0.45533118
000070 e0 0d 1b be 5d d9 5b be 08 fd db bb 2b 56 c8 be
       -0.15142012 -0.21469636 -0.0067135133 -0.3912824

encoder.lob_enc.res_blocks.1.bn1.running_var f4 [32]
000000 36 f0 00 3f 1e 94 a5 3e 4c 8a 94 3e 97 dd 0c 3e
       0.5036653 0.32339567 0.29011762 0.13756405
000010 1c 21 e7 3e 3d cf 84 3e 24 04 bf 3d 49 07 eb 3e
       0.45142448 0.2593936 0.09326962 0.45903996
000020 41 c1 d8 3e fa c6 c6 3e aa 1a 14 3e 4b 8f 03 3e
       0.4233494 0.38823682 0.14463297 0.1284763
000030 9c 44 45 3e 4b a4 fc 3d dc ae cf 3e e4 99 b7 3d
       0.19264454 0.12336024 0.40563095 0.08964899
000040 82 e8 86 3e 8e e6 77 3e aa 42 17 3e a5 52 29 3e
       0.26349264 0.24209043 0.14771524 0.16535433
000050 68 1c 3e 3e dc 7b 3e 3f da b2 58 3e 0e 2b 46 3f
       0.18565524 0.74407744 0.21161976 0.77409446
000060 1e 73 8d 3e 35 f9 d4 3e 06 0f 3e 3f 42 27 8b 3e
       0.2762689 0.4159638 0.74241674 0.2717839
000070 0e a2 a3 3e 74 07 b5 3e 0e 06 9a 3e a9 46 7b 3e
       0.31959575 0.3535725 0.30082744 0.24538673
