outputs/performance_test/checkpoint_epoch_12.pt (torch, 945914 bytes, 81 tensors)

encoder.lob_enc.conv_in.0.weight f4 [32, 2, 3, 1]
000000 ae 5b ed bd bb ea 9b 3e 1f ae 7f be f9 49 9c bd
       -0.11589752 0.30452523 -0.24968766 -0.07631297
000010 26 f2 4c bc d3 7f 5b be c3 1a 48 3c 2b 98 c4 bd
       -0.012508905 -0.2143548 0.012213412 -0.09599336
000020 fe 4e 4e be d0 53 a7 be 44 dc f5 bb 83 2a bf 3e
       -0.2014732 -0.3268113 -0.0075030643 0.3733712
000030 df b5 1c 3e 9b 10 a2 be c1 12 59 be 72 be 86 3e
       0.15303753 -0.31653294 -0.2119856 0.26317173
000040 ed 26 23 be 3f 26 31 bd 07 60 4b be a6 00 4b 3e
       -0.15932818 -0.043249365 -0.1986085 0.19824466
000050 52 54 8e be c7 f1 c8 be 7b 73 a0 be 9e df ae be
       -0.27798706 -0.3924696 -0.31338105 -0.3415498
000060 68 c2 4e 3d a0 7e 96 3d fb 4d 01 be 4c 34 1c 3e
       0.05047837 0.073483706 -0.12627403 0.15254325
000070 d2 ab 3e 3d 6e b8 cd 3d 54 c9 56 3e ff f3 b8 3d
       0.04655058 0.10044943 0.20975238 0.090309136
000080 35 b8 cc 3e c2 71 a0 3e 4e 0d 61 be 4f 68 96 3e
       0.3998429 0.3133679 -0.21977732 0.29376456
000090 53 de 3b bd cf 22 c6 bc 46 e0 11 3d 34 12 b8 be
       -0.04586632 -0.02418652 0.035614274 -0.35951388
0000a0 7a 1a 88 3e 46 2e 87 3e d0 f5 c5 3e 5e 1d 87 3d
       0.265827 0.2640249 0.38664103 0.06597398
0000b0 d5 d7 f4 bd 33 40 8d bd a0 82 12 be 01 03 c2 be
       -0.11955229 -0.06897011 -0.14307642 -0.37892917
0000c0 2c 0a 11 3e 34 36 70 3d 35 9d 01 be dd 55 74 be
       0.14164037 0.058645442 -0.12657626 -0.23860879
0000d0 ab 2b bb bd 28 98 e4 3d 3d ea a0 3e f1 dd 40 3e
       -0.091391884 0.11161834 0.3142871 0.18834664
0000e0 fc 78 96 3e 0a 32 a8 3e 18 52 47 be 7c 6f a1 bc
       0.2938918 0.32850677 -0.1946491 -0.01970648
0000f0 cb 9d ab be 08 ab 67 be 55 b1 2b 3e 32 94 21 3e
       -0.33518824 -0.22623837 0.16766866 0.15779188
000100 f9 cf 40 3e 7d af b7 3e 61 92 24 3e 12 70 52 be
       0.18829335 0.35876074 0.16071464 -0.20550564
000110 e6 1b b9 bd a7 d9 ca 3c 71 4d 4f 3e a4 93 5c be
       -0.09038524 0.024761988 0.20244385 -0.21540695
000120 15 3e 24 be 4c e0 1d 3e 3b 66 19 3e 6f 9c c9 3e
       -0.16039307 0.15417594 0.14980404 0.39377162
000130 b0 af b3 3e 74 e5 39 be 9b c0 1a 3e 6c 5f 76 be
       0.35094976 -0.18153936 0.15112536 -0.24059838
000140 cd af 38 bc f1 0c c3 bc 8b 50 cf 3d 5c f0 bc 3e
       -0.011272383 -0.023809882 0.10122784 0.3690213
000150 00 70 aa be 91 39 b9 3e eb cc 8a 3e 1c 9e 58 be
       -0.33288574 0.36176732 0.27109465 -0.21154064
000160 47 fe fd bd 53 3e d3 bd 1e 76 7e 3e e8 94 e2 bd
       -0.12402015 -0.10314622 0.24849746 -0.11063558
000170 d7 f0 16 3e 32 4c 29 be d4 b5 aa 3e 69 39 52 bd
       0.1474031 -0.16532972 0.3334185 -0.05132428
000180 9d 69 ca 3e d1 39 98 be 65 79 f4 bd dc da 88 3e
       0.39533702 -0.2973161 -0.11937217 0.26729476
000190 4e 69 10 3e ad 36 4f be f9 72 b0 be 85 05 a1 be
       0.1410267 -0.20235701 -0.34462717 -0.31449524
0001a0 d7 7e a8 be e9 c1 78 be 36 f4 7f be af 5f f0 bd
       -0.3290927 -0.24292721 -0.24995503 -0.11737
0001b0 e3 3f b2 3e fd 52 e6 bd be a1 84 be a8 0a 48 3e
       0.34814367 -0.112462975 -0.2590465 0.19535315
0001c0 85 64 7a be 92 07 57 be 78 41 80 bd f3 bb 1a bd
       -0.24452408 -0.20998982 -0.06262487 -0.0377769
0001d0 08 c7 85 be 3a 11 a4 be 24 8a d0 be 0c ed 2f be
       -0.2612841 -0.32044393 -0.40730393 -0.1718027
0001e0 c6 37 49 3e 89 8c e8 3c 14 b2 a5 3e 5f 16 7d 3d
       0.19650182 0.028387325 0.32362425 0.061788913
0001f0 30 75 a0 be a5 64 e1 3c e4 85 df bd 03 f9 68 3e
       -0.31339407 0.027513811 -0.109142095 0.2275124
000200 5e 80 d3 3d c7 be cd 3e 7f 29 bc be fe 61 4e be
       0.103272185 0.40184614 -0.3675041 -0.20154569
000210 4a 2b b3 be a1 d4 03 3d ef 2d 87 be 1e 6d 32 be
       -0.34993964 0.0321852 -0.26402232 -0.17424437
000220 5b f6 c5 3e 55 e0 0f be e0 55 46 3e ee 7c 89 3e
       0.38664517 -0.1405042 0.19368696 0.26853126
000230 61 c3 99 3e 4b c9 a6 3e 79 f7 84 3e c5 b6 30 3d
       0.30031875 0.3257545 0.25970057 0.043143053
000240 72 d8 b4 3e d1 57 c8 3e 4d df 8b be b3 88 bf 3d
       0.35321385 0.391295 -0.27318802 0.09352245
000250 63 0b 95 3e 62 0d 89 be 46 6a 3b 3e 53 e3 88 3e
       0.2911025 -0.26768023 0.18302259 0.26735935
000260 c3 65 75 bb ed 92 d8 bd da 90 fd bc 74 95 aa 3e
       -0.0037444688 -0.10574899 -0.03095286 0.3331715
000270 dd 4d ab be 7f 48 1c 3e 34 b9 6c be 93 5b 87 3e
       -0.33457842 0.1526203 -0.23117524 0.26437053
000280 80 03 36 be 2f 82 a4 3d 67 0c 7e 3e 82 08 5a bd
       -0.17774773 0.08032643 0.24809419 -0.05323077
000290 63 55 4b bd 64 42 b7 3e c1 3e c8 3e 7c b9 6e 3e
       -0.049641978 0.3579284 0.39110377 0.23312944
0002a0 5c 64 81 3c 1b 9c 4d bc 02 81 7e be 0f bc 90 3e
       0.015794925 -0.0125494255 -0.248539 0.28268477
0002b0 75 9e 2c 3e b8 ca aa 3e ac d3 8c be 3a f2 b9 3d
       0.16857322 0.33357787 -0.27505243 0.09079404
0002c0 df b8 90 3d 7b ac 07 be 76 22 59 bd 9f b5 97 3d
       0.07066511 -0.1324939 -0.05301138 0.07407688
0002d0 ec 24 f1 bd d8 e1 c2 3e 6f c4 be be 46 89 85 bd
       -0.117746204 0.3806293 -0.37259242 -0.065203235
0002e0 96 49 4c be 72 85 9b 3e 3d b8 13 be ca db bb bd
       -0.19949946 0.30375248 -0.1442575 -0.09172781
0002f0 84 1c b5 3e b3 cd b5 be 4e fb 07 be a7 b4 b4 3e
       0.35373318 -0.355085 -0.13279459 0.35294077

encoder.lob_enc.conv_in.0.bias f4 [32]
000000 4e dc 92 3e 78 1c ee bd 5c 52 9d bd a7 3a 47 be
       0.28683704 -0.11626524 -0.076817244 -0.19455968
000010 d8 73 a5 3d 3c 19 f5 3d 50 33 8d 3e c8 7f 37 3e
       0.08078736 0.11967704 0.2757821 0.17919838
000020 70 dc 52 3e f4 24 85 bd 56 61 95 be 70 d2 66 3e
       0.20591903 -0.06501189 -0.29175824 0.22541213
000030 14 58 e8 bb 01 c5 88 be bc 9c 15 3d 9c cf ce 3e
       -0.007090578 -0.26712802 0.036526427 0.40392768
000040 a4 fa 0c bd 6a 9a ae be 6c 77 7c 3e fc 6c 9b 3e
       -0.034418717 -0.34102184 0.24654931 0.30356586
000050 44 92 85 be 8b d0 b6 be 1f 8d 95 be a0 e0 2b 3e
       -0.26088154 -0.3570598 -0.2920923 0.16784906
000060 7a 90 2b be 33 52 cd be 44 fd ef bc f6 64 54 be
       -0.16754332 -0.40101776 -0.029295571 -0.20741639
000070 20 7d f7 bd ed fc 24 be 80 45 0c be 4e 17 88 be
       -0.120844126 -0.16112109 -0.13698387 -0.2658028

encoder.lob_enc.conv_in.1.weight f4 [32]
000000 bf ca 80 3f f2 d1 80 3f 60 07 81 3f 73 87 80 3f
       1.0061873 1.006407 1.0080376 1.0041336
000010 b5 50 80 3f 31 1c 80 3f f9 04 80 3f 2a 39 81 3f
       1.002463 1.0008603 1.0001518 1.009557
000020 d6 c7 80 3f 7b b8 80 3f b4 68 7b 3f 85 06 7d 3f
       1.0060985 1.0056299 0.9820664 0.98838073
000030 3b a7 80 3f 77 ad 7e 3f f6 56 7e 3f 5f a0 80 3f
       1.0051035 0.99483436 0.9935144 1.0048941
000040 ed 75 7d 3f 69 5c 81 3f 74 ff 80 3f c6 4d 80 3f
       0.99008065 1.0106326 1.0077958 1.0023735
000050 28 bf 7d 3f f1 1d 7e 3f c0 bc 80 3f 36 fa 7e 3f
       0.99119806 0.99264437 1.0057602 0.9960054
000060 10 b2 80 3f ff da 7e 3f b8 e7 80 3f 8c 56 81 3f
       1.005434 0.9955291 1.0070715 1.0104537
000070 02 8f 80 3f ad f3 7f 3f d3 5b 81 3f 78 b9 80 3f
       1.0043643 0.99981195 1.0106148 1.00566

encoder.lob_enc.conv_in.1.bias f4 [32]
000000 1b 9e b5 3b 7d 38 af 3b 20 5a 10 3c d3 f0 8b 3a
       0.0055425293 0.00534731 0.00881055 0.001067663
000010 90 1c 96 bb 1b c4 2c 3c 5f 8e 14 3c a9 76 10 3c
       -0.0045810416 0.010544802 0.009067147 0.008817353
000020 c4 27 ce 3b a9 a4 19 3c 62 ac 4e bc 13 01 2a 3a
       0.0062913615 0.009377637 -0.012614341 0.00064851454
000030 c4 db 4e bc 0b e0 e5 3a 47 a1 9a ba 1a b4 1c 3c
       -0.012625638 0.0017538083 -0.0011797332 0.009564424
000040 ff 41 40 3b 13 8d 15 3c 32 f4 e8 3b 0f 7e 8f 3b
       0.0029336212 0.009127873 0.0071091885 0.004379041
000050 5b ef 1c 3c df f5 31 3b ca 5c b4 3b 24 9d 38 3c
       0.009578551 0.0027154607 0.0055042254 0.011267934
000060 88 06 16 3c e1 1e cf 39 1d 27 00 3c 16 39 1a 3c
       0.009156831 0.00039505123 0.007821825 0.009413024
000070 df a8 25 3c 1a 20 83 bb d5 e2 3a 3c 11 b6 00 3c
       0.010111063 -0.0040016295 0.01140662 0.007855908

encoder.lob_enc.conv_in.1.running_mean f4 [32]
000000 ed 9c 7a cd 78 f4 2b cd c3 7b 60 cd 91 0f 66 ce
       -2.6278677e+08 -1.8030784e+08 -2.3538795e+08 -9.6494496e+08
000010 87 d9 50 4d b9 ec 3b 4e 0e c1 bd 4c 85 40 33 cd
       2.189948e+08 7.882133e+08 9.948581e+07 -1.8795938e+08
000020 88 4a c9 cc 6d d2 1d 4e 2c c2 57 4d b5 58 ad cc
       -1.0553453e+08 6.6195334e+08 2.2623917e+08 -9.0883496e+07
000030 12 91 f8 4d 27 98 6e 4d cd 26 b5 cc a8 c2 8c 4d
       5.212821e+08 2.501843e+08 -9.497559e+07 2.951959e+08
000040 57 7c fc 4c eb 4b 8b ce c5 60 4a cd 35 fc 5b ce
       1.32375224e+08 -1.1685042e+09 -2.1220872e+08 -9.2268474e+08
000050 6e 8e 5b 4d 18 43 17 4c 3c ae af cd a6 c4 72 4e
       2.3022154e+08 3.965245e+07 -3.6842893e+08 1.01824346e+09
000060 93 56 d0 4d c1 e4 e0 4d 54 6f 2a cd 76 96 44 4e
       4.3691683e+08 4.71636e+08 -1.7871392e+08 8.2454874e+08
000070 00 96 bc 4d 1b ad 1c cd 4e e1 35 cc 17 6b 58 cb
       3.9549338e+08 -1.642869e+08 -4.7678776e+07 -1.4183191e+07

encoder.lob_enc.conv_in.1.running_var f4 [32]
000000 e3 ca ab 5b c3 3b 42 5b 8b be 9c 5b 7e 96 70 5d
       9.6710595e+16 5.4671854e+16 8.82392e+16 1.0835114e+18
000010 bd a5 4d 5b 93 c6 23 5d c0 80 f7 5a 95 66 73 5b
       5.78846e+16 7.375801e+17 3.483294e+16 6.851121e+16
000020 38 a4 7b 5a b6 e5 e7 5c f4 d4 97 5b 7f cb 9b 5a
       1.7707695e+16 5.221863e+17 8.547373e+16 2.1926184e+16
000030 34 e0 90 5c 96 42 96 5b e2 f5 11 5b 61 12 c2 5b
       3.262313e+17 8.458892e+16 4.1084223e+16 1.0925271e+17
000040 b0 3c 55 5b 7c 20 ae 5d 83 91 9f 5b 23 75 59 5d
       6.0020897e+16 1.5683956e+18 8.982903e+16 9.793418e+17
000050 05 56 8a 5b 89 20 a9 5a f7 b7 25 5c 09 49 84 5d
       7.787625e+16 2.3802522e+16 1.8658257e+17 1.19152e+18
000060 0f 95 6c 5c 13 13 6a 5c 37 1e 31 5b 55 86 2f 5d
       2.6636794e+17 2.6354447e+17 4.9854292e+16 7.904931e+17
000070 11 52 28 5c 39 6f 18 5b 90 9b a7 5a d2 0c 38 5b
       1.8951212e+17 4.2906487e+16 2.3588682e+16 5.180549e+16

encoder.lob_enc.res_blocks.0.conv1.weight f4 [32, 32, 3, 1]
000000 26 0a 11 bd a1 62 99 bd f1 eb cc bc 41 66 a2 bd
       -0.03541007 -0.07489515 -0.02501485 -0.0792966
000010 8c 66 f9 bb 4b d7 69 3d 3d 8e 71 bd 1c c6 f5 bc
       -0.0076111015 0.057090085 -0.05897354 -0.030001692
000020 96 09 f9 bc 6d e3 41 bd 73 e2 a8 bd dc be 62 3c
       -0.030400079 -0.04733603 -0.08246317 0.01383945
000030 f0 73 a5 bc 4e c2 b2 bb 9b 28 02 bd ec 5e 95 bd
       -0.020196885 -0.005455292 -0.031777006 -0.072934955
000040 b9 f6 3a bd 8a e9 3e 3d a0 22 71 3d 1b 45 19 bd
       -0.04564545 0.04660944 0.05887091 -0.03741942
000050 79 3c 5c 3d 3d 1f 98 bd 04 13 8d bc f7 8f ce bd
       0.05376861 -0.07427833 -0.017220981 -0.10086053
000060 fe b6 ed bc b5 fc 94 3c 2b 17 50 3d fc 72 dc 3c
       -0.029017922 0.018186906 0.050803345 0.026910298
000070 e4 f3 19 3d fa 7d e4 bc 38 9b bf 3d ec 38 b0 bd
       0.037586108 -0.027892102 0.093557775 -0.08604607
000080 69 7a de bc d5 74 da bc 57 f8 67 3d 57 6d 55 3c
       -0.02715798 -0.026667038 0.05663332 0.013026557
000090 ab 87 b2 3d c2 0a a1 bd fa de e0 3c 67 17 b9 bd
       0.08717283 -0.0786338 0.027450074 -0.09037667
0000a0 ce 68 cd 3c fa 98 4d bd 16 12 7e bd 75 50 ca 3b
       0.025074389 -0.050194718 -0.062028967 0.006174142
0000b0 b4 13 3e 3b e4 0f bc 3d a7 a7 95 3d 70 46 39 3a
       0.0029003443 0.091827184 0.07307368 0.0007067686
0000c0 dc 5d 19 3d 2b 7e bb 3b 36 de e5 bc 8d 7b b2 bd
       0.037443027 0.0057218275 -0.02806006 -0.08714972
0000d0 53 08 c1 bd c5 5a 23 bb 9a d4 72 bd 8b 33 a1 3d
       -0.09425416 -0.002492593 -0.059284784 0.07871159
0000e0 97 ff 69 bd e4 e7 69 3c 78 a1 7b bd 84 69 b7 3d
       -0.057128515 0.014276478 -0.061433285 0.089556724
0000f0 90 c5 25 3d 78 ef 3f 3d e4 e5 b2 3c 6d ee ba bc
       0.040471613 0.046859235 0.021838136 -0.022818768
000100 0c f3 37 bd e8 de 60 bd 4e 29 d1 bd 0a 84 e9 bc
       -0.044909522 -0.05490008 -0.10212956 -0.028505344
000110 f1 a1 58 bd c7 78 a8 3d b6 43 b4 3d e6 05 96 bd
       -0.052888814 0.082261615 0.08801977 -0.07325344
000120 44 83 b6 bb 3c 5a c0 bd d3 0a 36 3d d6 02 8b 3d
       -0.0055698473 -0.09392211 0.044443917 0.0678765
000130 85 a9 83 bd ad 91 9d bd d6 c5 f9 bc 5e b5 95 3d
       -0.06428818 -0.07693801 -0.030489843 0.07309984
000140 55 d5 78 3d f5 0c 83 bd cc 41 b0 bb b7 1c ab bd
       0.060750324 -0.06398956 -0.0053789373 -0.08355086
000150 47 f0 ac 3d 1b fa 0f 3d 60 b7 3d bd 6b da fa 3c
       0.08444267 0.03515063 -0.04631746 0.030621728
000160 43 f3 cc bb 49 d3 a1 bd 12 08 d5 bd 3c fb 9f 3d
       -0.006254585 -0.079016276 -0.1040193 0.07811591
000170 9b f8 84 bd 76 cf 5c 3d 1a 10 15 bd b5 79 3d 3d
       -0.0649273 0.053908788 -0.03639231 0.046258647
000180 a4 6b f6 3c 62 80 3f 3d f2 9d 6c bd b0 d9 24 3d
       0.030080624 0.046753295 -0.057767816 0.040246665
000190 dd d4 46 3c 00 c9 45 bc d3 08 29 bc b0 1c 0f bc
       0.0121357115 -0.012071848 -0.010317045 -0.008734867
0001a0 c9 64 36 3d 8f 62 41 3d 15 67 58 bd e1 9c 8a bc
       0.04452971 0.047213133 -0.05283268 -0.016920509
0001b0 d9 97 5e bc 95 1d f9 bc 5c 33 59 3d 31 9e d1 3d
       -0.013586008 -0.030409614 0.053027496 0.10235251
0001c0 ba b7 66 3d 79 fa 98 bc 46 83 92 3d b1 1c d5 3d
       0.05632756 -0.018674122 0.07153945 0.10405863
0001d0 e1 ab b0 3b 0f a1 a1 3d f7 56 a7 3c 7c 21 19 bd
       0.0053915833 0.078920476 0.02042721 -0.03738545
0001e0 50 6a 9a 3c 45 85 0c 3c d1 de 73 3c 43 91 96 bc
       0.018849522 0.008576696 0.014884667 -0.018379813
0001f0 28 95 8a bd cf c5 b0 bd 47 a2 6e bd fa aa 7c 3d
       -0.067667305 -0.08631479 -0.05826023 0.061686493
000200 5a 47 b7 bc 39 ae c9 bd 18 e7 a3 3d e4 79 ec bd
       -0.02237289 -0.098476835 0.08003062 -0.11546686
000210 3f db ca 3c 1f bb c7 3d 1c e4 35 bd 58 55 be 3b
       0.024762748 0.097524874 -0.044406995 0.0058085136
000220 2a bb cc 3d 70 ef b6 3d 86 ff a1 3d 2d 97 21 bc
       0.09996636 0.08932388 0.07910065 -0.009862703
000230 6b 6e 70 3d dc 89 3f 3d 25 5d 81 3c 67 f9 bd 3d
       0.058699053 0.046762332 0.015791485 0.09276085
000240 46 36 f0 3c d5 96 a3 3d 44 45 88 bd 48 36 87 3c
       0.029322755 0.07987753 -0.06653836 0.016505376
000250 31 f4 de bd c2 29 1d 3b d2 03 a0 3c 76 8f 52 3d
       -0.108864196 0.0023981188 0.019533072 0.051406346
000260 72 6e 15 3d 12 cf 73 bd b1 a4 3c 3d 68 d7 ee bd
       0.036482282 -0.05952365 0.0460555 -0.11662179
000270 33 b2 b6 3d c5 5d 4b 3d 1f 73 f2 bb be 97 07 3d
       0.089207076 0.049649972 -0.0073989774 0.033103697
000280 9e 47 73 3d e5 06 8d bd aa 71 5e 3d 07 b7 58 3c
       0.05939447 -0.06886081 0.054307617 0.013227231
000290 c7 d9 b0 3d 41 d0 42 3c 53 7b 90 3c 04 ce f4 3c
       0.08635288 0.011890472 0.01763693 0.029883392
0002a0 bd 39 b5 3d 64 9b 95 bd e9 7b 84 3d a4 bd 8b 3d
       0.08848903 -0.07305029 0.064689465 0.068232805
0002b0 7d 0b aa bb 29 a7 85 bd de 38 81 3d a2 c2 2f 3d
       -0.005189358 -0.06526024 0.06309675 0.042910226
0002c0 23 b3 24 bd 0c cd d1 3c f8 01 c1 bc ba b1 26 bd
       -0.0402099 0.02561047 -0.02356051 -0.040696837
0002d0 39 aa e2 3d c3 60 3f 3d bb 72 45 3c fa da 79 3d
       0.11067624 0.04672314 0.01205128 0.060999848
0002e0 9f 40 7e 3d 15 88 34 3d 07 f1 52 3d 89 4c b1 bd
       0.062073346 0.04407509 0.051499393 -0.08657176
0002f0 80 fb 1e bd 36 0e ba 3d 20 4c e8 3c a4 84 07 3d
       -0.038814068 0.09084742 0.028356612 0.03308548
000300 88 e0 98 bd 43 c3 70 bd d7 dc 37 bd 24 33 23 3d
       -0.07464701 -0.058779966 -0.044888344 0.039843693
000310 5a 8a 44 bd 39 c2 9b 3d c3 43 a8 bd 79 44 f3 bc
       -0.047983505 0.076054044 -0.082160495 -0.029695736
000320 07 46 94 3d 5a c3 4e bd c5 a6 d3 bb 63 1c 1a bd
       0.07239919 -0.05047927 -0.0064590895 -0.037624728
000330 e4 8e 01 3d a4 15 65 bd 58 e0 a5 bd 3e 39 32 bd
       0.03163041 -0.05592884 -0.08099431 -0.04351162
000340 3d d5 16 3d 76 14 03 bd 5a 1f a8 bd 2b 39 f7 bc
       0.036824454 -0.032001935 -0.08209105 -0.030178627
000350 40 2b 42 bd 4a 41 a9 3d 21 bc d7 bc 0d 1b 05 3d
       -0.047404528 0.08264406 -0.026334824 0.0324965
000360 fd b7 ba 3d 3f 6c a0 bd a1 79 17 3d fd 89 12 3c
       0.09117124 -0.07833146 0.03698123 0.008944032
000370 38 bb a7 3d ab 0f 35 bb 33 2e c7 3c 4d 6b cf bd
       0.08190006 -0.0027627747 0.024314022 -0.10127888
000380 a5 17 c1 3d 9e 95 86 bd 10 64 80 3d b7 83 a7 bd
       0.09428338 -0.06571506 0.062690854 -0.081794195
000390 37 65 90 3c 00 d2 5b bb 22 cd 91 3d 83 c4 cc bd
       0.017626388 -0.0033541918 0.07119204 -0.09998419
0003a0 0c b4 a7 3d be 41 c2 3d f6 8d 8e 3c 51 d6 b1 3d
       0.08188638 0.094851956 0.017401677 0.08683456
0003b0 b8 3b 9e 3d 7e ea c3 3a 54 5d 54 3d f9 8e ce 3a
       0.07726234 0.0014947203 0.051846817 0.0015759162
0003c0 61 f4 bf 3c cd f2 9f bd 32 a5 13 bd b8 fa 81 bd
       0.023431959 -0.078099824 -0.036046214 -0.06346649
0003d0 24 c2 8b bd ce 82 96 bd 19 4f 50 bd d5 16 68 3b
       -0.06824139 -0.07349168 -0.050856683 0.0035414
0003e0 ef d9 91 bc 48 5f 1c 3d 00 12 16 3d cb 73 17 bd
       -0.017804114 0.038176805 0.03663826 -0.036975663
0003f0 b3 84 87 3d 9c 3c 9a bd fa 3f 84 bd c6 89 bf 3d
       0.06617107 -0.075310916 -0.06457515 0.0935245

encoder.lob_enc.res_blocks.0.conv1.bias f4 [32]
000000 cc 95 d0 bd 3f 93 f6 bd 5e 3c d8 bd fc 6f 3d be
       -0.101848215 -0.12039804 -0.10558389 -0.1849975
000010 7f 1d 4e be 9d fc 0e be 08 15 3b be 75 a9 29 bd
       -0.2012844 -0.13963552 -0.18269742 -0.041421372
000020 9e fa 0c be 71 ff 12 be 82 0c bf bd db 76 98 bd
       -0.13767478 -0.14355256 -0.093285576 -0.07444545
000030 39 42 05 bd 98 17 c9 bd 57 dd 87 bd c0 10 b2 bd
       -0.032533858 -0.09818953 -0.06634014 -0.08694601
000040 3f 77 95 bc f9 1d 99 bd b0 9c 75 bd a5 67 d0 bd
       -0.018245338 -0.0747642 -0.059963882 -0.101760186
000050 98 e8 82 bd 24 25 c8 bd de 96 1f be d7 4a 1b be
       -0.0639202 -0.09772709 -0.15584895 -0.15165268
000060 a0 59 0c bd c7 5f c5 bd f7 19 af 3b 25 eb 07 bd
       -0.03426516 -0.09637409 0.0053436714 -0.033183236
000070 f8 42 b5 bc 5b ea c1 bd c0 47 3b bd b7 84 90 bd
       -0.02212666 -0.09468528 -0.045722723 -0.07056563

encoder.lob_enc.res_blocks.0.bn1.weight f4 [32]
000000 fd cd 7e 3f 2e 37 80 3f b7 65 80 3f 42 1d 7f 3f
       0.99533063 1.001684 1.0031041 0.9965402
000010 79 4c 7c 3f 32 79 80 3f 17 0b 7e 3f 38 4e 7f 3f
       0.9855419 1.0036986 0.9923567 0.9972873
000020 61 dd 7e 3f 16 5a 7f 3f 84 89 7e 3f bb 34 80 3f
       0.9955655 0.99746835 0.9942858 1.0016092
000030 4b cd 7f 3f cd 1c 7f 3f c9 4d 7f 3f 32 db 80 3f
       0.9992263 0.9965332 0.99728066 1.0066893
000040 51 87 7e 3f c3 42 81 3f f8 a0 7d 3f 4f 0d 7c 3f
       0.99425226 1.0098499 0.99073744 0.9845781
000050 e6 82 80 3f 77 ee 7c 3f 0d a5 81 3f 82 c2 80 3f
       1.0039947 0.9880137 1.0128495 1.0059359
000060 24 19 81 3f d7 1f 81 3f 32 b8 80 3f 05 f5 80 3f
       1.0085797 1.0087842 1.0056212 1.0074774
000070 0f cf 7e 3f d8 f7 80 3f 40 af 81 3f 2b 10 81 3f
       0.99534696 1.0075636 1.0131607 1.0083059

encoder.lob_enc.res_blocks.0.bn1.bias f4 [32]
000000 a4 5a e7 3b f3 33 14 3b 71 79 47 3a 18 b2 b1 3b
       0.0070603658 0.0022613972 0.0007609344 0.0054228418
000010 77 05 81 3b 81 48 19 3c 74 59 14 3c 35 2d 03 3c
       0.003937419 0.009355665 0.00905453 0.008006384
000020 17 b7 ab bb 24 36 f5 3b 9a f9 04 bc c3 6d 40 3c
       -0.005240332 0.0074832607 -0.00811615 0.011744919
000030 c3 b9 b6 3b db 45 bc 3b c1 6e 07 3c 49 89 3c 3b
       0.0055763437 0.005745632 0.008266152 0.0028768352
000040 c7 e3 e9 3a f0 af 05 3c 3c 9d 3b 3b ff e3 5f bc
       0.0017844372 0.008159623 0.0028627655 -0.013665198
000050 9b dc 42 3c 33 ef 17 3b 31 33 37 3c 20 c9 2e 3c
       0.011893417 0.0023183345 0.011181639 0.010668069
000060 23 91 23 3c 79 c0 05 3b 5a 48 1f 3c 8c 96 6e 3c
       0.009983334 0.0020408912 0.00972184 0.01456226
000070 7d 3a fa ba 7a 4e 44 3c 79 a8 3d 3c 06 7f f0 3b
       -0.0019090917 0.011981601 0.011575812 0.007339361

encoder.lob_enc.res_blocks.0.bn1.running_mean f4 [32]
000000 1c d3 cb be 5b ef b5 3e 84 18 e4 be 26 13 03 bf
       -0.398095 0.35534176 -0.44549954 -0.51201093
000010 0f db 99 be d1 e1 e0 be 44 27 f3 bd c2 3e 6a 3d
       -0.3004994 -0.43922284 -0.11872724 0.057188757
000020 8e e7 4a bd f7 7e c2 bd 13 27 ad 3e ff 47 c6 3e
       -0.049537234 -0.09496873 0.33818874 0.38726804
000030 de c8 51 be 0e 1d 1b be dc e8 c1 be ea a5 8b 3e
       -0.20486781 -0.15147802 -0.3787297 0.2727502
000040 17 c7 9f 3c 24 29 b9 bd df c7 90 bd 40 e3 30 be
       0.019504113 -0.0904105 -0.070693724 -0.17274189
000050 16 1d d9 bd c4 89 e4 3d 06 4a a4 be 13 ff b3 be
       -0.10601251 0.11159089 -0.32087725 -0.35155544
000060 dc ce fd bc 5b 2c 1f bf fd 83 50 bd 41 26 8a be
       -0.030982427 -0.62177056 -0.050907124 -0.2698231
000070 89 59 b9 bd fa dc 1c be 38 ff 25 be 35 de e7 3d
       -0.090502806 -0.15318671 -0.1621064 0.113216795

encoder.lob_enc.res_blocks.0.bn1.running_var f4 [32]
000000 ac c8 6d 3d a7 f8 0f 3f e5 3c 98 3d 07 e1 99 3d
       0.058052704 0.5623879 0.0743349 0.07513624
000010 9e cc 8b 3d ec 77 86 3d 7c b5 92 3e 66 52 e4 3d
       0.06826137 0.06565842 0.28654087 0.11148529
000020 f2 95 d7 3e 35 54 31 3e ce b7 e2 3e 12 df bb 3d
       0.42106587 0.17317279 0.44280857 0.09173407
000030 49 d0 26 3e 65 7f 23 3d 2f 09 98 3d 8e 96 79 3d
       0.16290392 0.039916415 0.07423627 0.060934596
000040 d0 b6 bb 3e 2f f9 86 3e 6b c8 03 3e d4 42 d1 3d
       0.36662912 0.26361987 0.12869422 0.102178246
000050 c1 14 20 3e 0a 79 b0 3e 5b 06 ef 3d 46 44 c9 3e
       0.15632917 0.34467345 0.11671134 0.393099
000060 f3 23 12 3e 32 cd d0 3d b1 ef 5d 3e 9a 86 c9 3d
       0.14271526 0.10195388 0.21673466 0.09840126
000070 0f 64 e8 3c dc 8a a9 3e 7a 55 d4 3d 8e 94 bd 3d
       0.028368024 0.33113754 0.10367866 0.0925685

encoder.lob_enc.res_blocks.0.conv2.weight f4 [32, 32, 3, 1]
000000 ac 8f 8f 3c 9f 33 eb 3c 62 45 89 bd 0b 65 af 3d
       0.017524563 0.028711138 -0.06702687 0.08564194
000010 1a ac 03 3d 69 ba f2 bc 71 df a2 bd a8 54 7c bd
       0.03214655 -0.029629903 -0.07952774 -0.061604172
000020 66 34 8c bc be 46 4b 3c 14 e0 0a 3d 1e 87 c7 3d
       -0.01711483 0.012407003 0.033905104 0.097425684
000030 36 30 91 3d 7f 3d 1d bc df 57 9f bc 82 f4 a5 3d
       0.07089274 -0.009597181 -0.01945108 0.08103277
000040 e0 a4 be ba c6 63 6f 3c 84 3a 40 bb b3 43 b7 3d
       -0.0014544986 0.01461119 -0.0029331753 0.089484595
000050 ac 25 79 3d e8 37 1f 3d c1 c1 fa 3c a5 d0 94 bc
       0.060826942 0.038871676 0.030609967 -0.018165896
000060 a2 c2 ec 3c 7d c5 9d bd 7a e2 92 bd 97 c8 02 3d
       0.028901402 -0.077036835 -0.07172103 0.03192958
000070 7b a8 c0 3c 49 7e 82 bd b7 66 15 3d 3b cd 22 3d
       0.023517838 -0.06371743 0.03647491 0.039746504
000080 ef c2 52 3d 97 10 2d bd 93 0c 55 bd 84 5f e7 3a
       0.051455434 -0.04225215 -0.052013945 0.0017652367
000090 6c a7 50 bc fe 76 1f bc 5c 73 a3 bd 99 67 97 3d
       -0.012735229 -0.00973296 -0.079809874 0.073928066
0000a0 2f b2 bf 3d b0 12 42 bd e7 e3 99 3d d0 60 ad 3c
       0.09360158 -0.047381103 0.07514172 0.021164328
0000b0 a4 a5 e2 3c f0 db e7 bb b6 07 c1 3d 35 a6 bf bc
       0.027666874 -0.007075779 0.09425299 -0.023394683
0000c0 35 f2 91 3c e3 cc b5 bb ef 77 00 3c 4c d1 36 bd
       0.017815689 -0.005548106 0.007841094 -0.044633195
0000d0 f9 bf 84 bd e0 90 8d 3d e2 c4 c6 bd 1b c3 90 bd
       -0.064819284 0.06912398 -0.09705521 -0.070684634
0000e0 9e 96 b8 3d 74 80 4b bd 09 01 40 bc b7 07 c7 bd
       0.09013103 -0.04968305 -0.011718997 -0.09718268
0000f0 97 a7 e5 bc 75 1c 34 bd 04 db 20 3d b0 43 4a 3d
       -0.028034015 -0.04397245 0.03927137 0.049380958
000100 d0 f9 b7 3d 6b 76 0e bd 4a 6c c2 3d 94 9f 28 3d
       0.08983195 -0.0347809 0.09493311 0.04116781
000110 5f 5b ab bd 6a 4a b3 bd 6e 8a 40 bc 5a 24 be 3d
       -0.08367037 -0.08754428 -0.011751754 0.09284277
000120 32 99 a5 3a 46 d2 78 bd cf c3 7c 3d 00 6f db bd
       0.0012634157 -0.060747407 0.061710175 -0.10714531
000130 5c ed 92 3d e3 3f 16 bc a1 99 f1 3b 6b e4 0d bd
       0.07174179 -0.009170505 0.0073730503 -0.034641664
000140 83 88 88 3c b6 5a e3 ba f0 bb 99 3d 28 86 ad 3d
       0.016666656 -0.001734576 0.07506549 0.08472854
000150 fd e4 27 3d 18 97 76 bc b5 9c eb ba 92 89 80 bd
       0.040989865 -0.015050672 -0.001797578 -0.062762395
000160 ba a7 80 3d b5 58 b5 bc 49 d5 ca bd dc 9f 00 bd
       0.06281991 -0.022137025 -0.09903962 -0.031402454
000170 cf 67 90 bd 5b 14 a5 bd 6a 2a 96 3c 63 c1 1d 3c
       -0.0705105 -0.08060523 0.018330771 0.0096286265
000180 12 da 56 bd 54 a1 8f bd 8f 58 1a 3d c0 ce c2 3c
       -0.05245406 -0.07013193 0.037682112 0.023780227
000190 14 c5 91 3d 31 1d 65 3d 47 61 65 bd 62 5d 7b 3d
       0.07117668 0.055936042 -0.056000974 0.061368354
0001a0 bb d1 a9 bd 87 78 a9 bd 4b bc 41 3d 59 d0 c9 3d
       -0.08291956 -0.08274942 0.04729871 0.09854192
0001b0 37 f9 4e 3d c1 2f a0 39 bd 34 38 bd ad d6 d5 3d
       0.05053064 0.00030553158 -0.04497217 0.10441337
0001c0 7a c8 80 bd ad 02 c3 3d 1c 8b 89 bd 95 54 cc bd
       -0.06288238 0.09521995 -0.06715986 -0.0997707
0001d0 71 25 ab bb 53 3c 03 3d 6e 6f a8 bd 16 b1 e8 bc
       -0.005222969 0.03203995 -0.082243785 -0.028404754
0001e0 07 9a 11 bb 50 62 c6 bb 4c ff 40 bd 43 8a c1 3d
       -0.0022217052 -0.0060542 -0.04711847 0.094501995
0001f0 3f 3d 94 bd 2c 11 8a 3d fb 1c 02 3d 75 dc 24 bd
       -0.07238244 0.067415565 0.03176592 -0.040249307
000200 7d bc 3f 3d c3 fb a3 bd 5d 02 86 bd 88 61 76 3d
       0.046810616 -0.08007004 -0.065434195 0.060151607
000210 91 c6 4b bd e0 29 55 3d f9 83 bd bd e8 3d 9f 3c
       -0.049749915 0.05204189 -0.092536874 0.019438699
000220 74 f6 bc bd cd 3f 4f 3d ee 2d d0 3d 2e fe 85 3d
       -0.09226695 0.050597955 0.101650104 0.065426216
000230 f0 26 06 3d e2 f9 85 3d a4 85 b7 3d 96 4e 65 3d
       0.032751977 0.06541802 0.08961037 0.05598315
000240 32 5f 3b 3d 64 2d 0c 3d d8 59 d1 3c 21 b8 7e 3d
       0.045745082 0.034222975 0.025555536 0.062187318
000250 d7 e6 98 3d 10 f1 13 bd 70 cc 84 3c 70 e3 59 3d
       0.07465904 -0.036118567 0.016210765 0.053195417
000260 0f 77 aa bd a7 12 96 bd 52 e3 bc bc fe a9 9c 3c
       -0.0832349 -0.073277764 -0.023057614 0.019124027
000270 da 26 89 3d 7c bd 60 3d 84 04 5f 3d a1 30 a6 bc
       0.066968635 0.054868206 0.054447666 -0.02028686
000280 47 95 c9 bc aa 39 c6 bd a5 22 76 ba 8c e6 f2 bc
       -0.024607314 -0.09678967 -0.0009389318 -0.029650949
000290 fa fa a4 bd 93 3a 32 3d bd 8d 67 3d 07 91 cf 3c
       -0.080556825 0.043512892 0.056531657 0.02533771
0002a0 51 54 98 bd f0 c0 f7 bc 91 24 c2 bd 4c 19 0d bc
       -0.07437957 -0.030243367 -0.09479631 -0.008611988
0002b0 07 20 85 3d a6 a1 bb 3d 75 4a b4 bd 83 f5 bc bc
       0.06500249 0.09161691 -0.08803264 -0.023066288
0002c0 41 20 61 bd bd 84 9f 3d fc 01 d2 3d e0 98 ad bd
       -0.0549624 0.0778899 0.10254285 -0.08476424
0002d0 18 90 11 bd 5d e6 39 3c 0a e3 b4 bd 88 4d d4 bd
       -0.03553781 0.011346427 -0.08832367 -0.103663504
0002e0 d3 9b 8f bd 04 04 91 3d 1c 0a 86 3c 01 25 57 bd
       -0.07012143 0.07080844 0.016362242 -0.052525524
0002f0 dd 74 a1 bc 29 b6 bd 3d 8b 9c c3 bd ca a9 23 3d
       -0.019709045 0.0926326 -0.095513426 0.039956845
000300 9d 11 79 bc 1f 78 e0 bd b1 92 9a 3d c9 79 76 bd
       -0.015201953 -0.10960411 0.075475104 -0.060174737
000310 dd 1a 8d 3d de aa a9 bb 47 43 82 3c 6c f9 b5 bc
       0.068898894 -0.0051778397 0.015901221 -0.02221366
000320 eb e7 b9 bd 1a 3f 2c 3d 39 60 30 bd 61 79 ee 3c
       -0.09077438 0.042052366 -0.043060515 0.029110612
000330 ba 51 ac 3d f2 21 2b bd 97 31 cf b8 4e 6f e0 3c
       0.084140256 -0.04178042 -9.879766e-05 0.027396824
000340 f9 dc 2f bd 6d 00 13 3d 80 0f 5f bd af 0b 8e 3d
       -0.042935345 0.035889078 -0.05445814 0.06935822
000350 fe 49 ec bc 64 d7 8b bc 7f 94 39 bd 18 d3 4b bb
       -0.028843876 -0.01707048 -0.045307633 -0.0031101163
000360 f5 28 6f 3d 14 51 d4 3b 81 f3 44 bd d4 18 c8 3d
       0.05838867 0.006479392 -0.048083786 0.097703606
000370 7d f7 bd 3d b0 c9 1b bd 2d fb 8c bd 4b db ab bd
       0.0927572 -0.03803414 -0.068838455 -0.08391436
000380 5c 2b b6 3b ec 0d c6 3d 97 50 05 3d 7f 17 2e 3d
       0.005559368 0.09670624 0.03254756 0.042502876
000390 7d 8e d9 bd b9 77 fe 3c 2b 91 2c 3d f6 b7 1b bd
       -0.106228806 0.031062948 0.04213063 -0.038017236
0003a0 55 f3 96 bd 33 f4 d3 bc 6f 27 c0 bd c0 9a af 3d
       -0.07370631 -0.02587328 -0.09382521 0.08574438
0003b0 76 2c 8c bd 79 81 cd 3d 29 1b c0 bd 50 d5 98 3d
       -0.06844418 0.100344606 -0.093801804 0.07462561
0003c0 bc af 5b bd 7a c0 ba bd a9 8a 83 3c 34 40 d4 3d
       -0.05363439 -0.09118743 0.01605733 0.10363808
0003d0 79 0b 22 bd c3 e7 c5 3c 21 12 9b bd 1e 08 66 3d
       -0.039561722 0.024158364 -0.07571817 0.056160085
0003e0 d4 3f a4 3d fc b0 31 bd 8a df aa 3d 14 06 21 3d
       0.08019987 -0.043381676 0.08343418 0.039312437
0003f0 de 82 f5 3a cf c6 61 bd a9 9e 68 3d 57 07 08 bc
       0.0018731018 -0.05512124 0.056791935 -0.008302531

encoder.lob_enc.res_blocks.0.conv2.bias f4 [32]
000000 6d de 91 bd 8b 41 eb bd b8 ca e7 bd af 89 9d bd
       -0.071225025 -0.11487111 -0.113179624 -0.07692277
000010 47 ed b6 bd 51 96 e9 bd 12 fb 03 be e6 be 0c be
       -0.08931976 -0.11405624 -0.12888744 -0.13744697
000020 11 59 ef bd 97 38 34 be cc 25 0c be 85 8f d8 bd
       -0.1168691 -0.17599712 -0.13686293 -0.10574249
000030 be e8 14 be 53 78 9f bd 38 60 59 bd 3f 3f 87 bd
       -0.14541909 -0.07786622 -0.053070277 -0.0660386
000040 a6 09 26 be 68 36 c9 bd 26 0f 18 be 68 f6 18 bd
       -0.16214618 -0.0982483 -0.14849529 -0.037344366
000050 dd 98 c6 bc 16 3c 18 bb 89 8b 07 be e2 3e 98 bc
       -0.024242813 -0.0023229173 -0.13236822 -0.018584672
000060 83 8f a4 bd a6 63 ed bd 2b 8f 20 bd b6 7e 2f be
       -0.08035185 -0.11591272 -0.039199036 -0.1713818
000070 88 79 43 be 8f 80 05 bc 55 3e 8b bd 1c 80 08 bd
       -0.19089329 -0.008148327 -0.06798998 -0.0333253

encoder.lob_enc.res_blocks.0.bn2.weight f4 [32]
000000 d4 9a 7d 3f 27 4f 80 3f c5 0c 81 3f c0 8f 7d 3f
       0.99064374 1.0024155 1.0082022 0.9904747
000010 d9 fb 80 3f 67 12 80 3f 3c 16 81 3f 1f d0 80 3f
       1.0076858 1.0005616 1.008491 1.0063514
000020 b5 95 80 3f 80 c7 80 3f 1f f1 7f 3f 04 6c 7f 3f
       1.0045687 1.0060883 0.99977297 0.99774194
000030 80 26 81 3f ff ab 80 3f 4f b8 7e 3f e8 e7 80 3f
       1.0089874 1.0052489 0.9949998 1.0070772
000040 bd 04 80 3f d1 98 7f 3f 9c cd 80 3f cd 21 80 3f
       1.0001446 0.99842554 1.0062747 1.0010315
000050 91 e8 7f 3f e7 d3 80 3f 14 0f 80 3f d7 31 81 3f
       0.99964243 1.0064667 1.0004601 1.0093335
000060 2c db 80 3f 09 2e 80 3f 80 37 81 3f b3 19 81 3f
       1.0066886 1.0014049 1.0095062 1.0085968
000070 87 d7 80 3f dd d2 7e 3f bc f4 80 3f bd 25 81 3f
       1.0065774 0.995405 1.0074687 1.0089642

encoder.lob_enc.res_blocks.0.bn2.bias f4 [32]
000000 9b b1 af 3b 2f eb 09 ba 40 af 1a 3c fd eb 9f bb
       0.0053617484 -0.00052611803 0.009441197 -0.004880427
000010 f6 0a 08 3c 65 4d 92 3b bf 40 10 3c 37 78 19 3c
       0.008303395 0.0044647926 0.008804499 0.00936704
000020 1c e8 06 3c 57 45 df 3b ca 38 c8 bb 18 a3 66 3a
       0.00823405 0.006813686 -0.0061102854 0.00087981066
000030 26 87 cc 3b f4 84 8e 3b 4d ae 05 bc d0 d9 ea 3b
       0.006241697 0.0043493453 -0.008159232 0.0071670786
000040 69 ee 28 3b 08 7e cc b9 97 de 0f 3c 07 e9 83 3a
       0.002577687 -0.00039003813 0.008781097 0.0010063954
000050 83 cd ad ba 76 72 04 3c ea da 59 bb df 13 f3 3b
       -0.00132601 0.00808393 -0.0033242055 0.0074181403
000060 3b 68 02 3c 9c 34 73 3b 23 7f 01 3c 9b 29 13 3c
       0.007959421 0.0037110215 0.007903847 0.0089820875
000070 94 9e fb 3b 59 a6 17 bc 9b 0b 1c 3c 9e 0b 1c 3c
       0.007678816 -0.009255969 0.009524251 0.009524254

encoder.lob_enc.res_blocks.0.bn2.running_mean f4 [32]
000000 79 44 f2 bb e3 53 b0 bd a9 70 98 bd 03 05 ec 39
       -0.0073934165 -0.0860975 -0.07443363 0.00045017162
000010 45 09 fa bd f4 69 28 3e 59 9c d8 be 26 d4 a9 3d
       -0.12208799 0.16446668 -0.42306784 0.08292417
000020 1c 27 fb 3c 5a d3 c2 3b 44 bc 9b be e6 b9 27 be
       0.030658297 0.005945605 -0.30417073 -0.16379508
000030 c7 d1 18 bd f7 12 78 be 97 d0 6d 3e ea 3e 5e be
       -0.037309434 -0.24225985 0.23224102 -0.21703687
000040 4d 37 4a be 53 41 d0 3d 04 61 9d be 09 62 19 be
       -0.19747658 0.101687096 -0.3073808 -0.14978804
000050 13 52 b2 be 31 91 0c 3e 62 b6 5b bb a5 f9 0a be
       -0.34828243 0.13727261 -0.0033525457 -0.13571794
000060 09 55 e4 be 18 c7 40 be 30 4d 91 3c ac 0c 02 bd
       -0.44596127 -0.18825948 0.017737001 -0.031750366
000070 5e e9 6d be 2a c3 9c 3d ca a9 88 bd f2 16 25 3b
       -0.23233554 0.07654412 -0.0667301 0.0025190678

encoder.lob_enc.res_blocks.0.bn2.running_var f4 [32]
000000 85 a0 7f 3d 15 94 67 3d 45 ec 3d 3e 8f af ef 3d
       0.062408943 0.056537706 0.18547161 0.11703407
000010 e9 d5 9b 3d 4d 39 f9 3d ca aa 46 3e 9b 35 7b 3e
       0.076091595 0.121691324 0.19401088 0.24532168
000020 77 ac 14 3e c3 03 b0 3d dd 45 02 3e bf 15 53 3d
       0.14518915 0.085944675 0.12721963 0.05153441
000030 08 57 92 3d ec f2 76 3d a8 c0 96 3d d5 7d 4f 3e
       0.07145506 0.060290262 0.07360965 0.20262845
000040 0f 4e 74 3d b5 ca 0e 3e 79 ed 24 3e 0a c9 5c 3e
       0.059644755 0.13944514 0.16106214 0.21561065
000050 2a 22 6d 3e 4c ae 43 3e 0c fd 87 3e 2d ca 29 3e
       0.23157564 0.19109458 0.26560247 0.1658103
000060 69 76 dd 3d b5 8e a8 3d ed 44 9b 3d 7f f0 95 3e
       0.108136006 0.08230344 0.07581506 0.29285046
000070 91 db 12 3e ef 4a f7 3e 61 e0 87 3d c4 dd 0c 3e
       0.1434157 0.48299357 0.06634594 0.13756472

encoder.lob_enc.res_blocks.1.conv1.weight f4 [32, 32, 3, 1]
000000 7f 11 bf bd a3 17 80 3c 24 8b 36 3d 5e 47 fb bc
       -0.09329509 0.01563627 0.04456629 -0.030673679
000010 94 14 a1 bd b3 d2 9c 3d a8 9d a5 3c ee 63 44 3d
       -0.07865253 0.07657375 0.020216778 0.047946863
000020 a8 d8 b8 3d 95 84 c3 bd 89 1a 89 3d fb 1a 33 bd
       0.09025699 -0.095467724 0.06694514 -0.043726902
000030 bc 9c 25 3d 76 c0 80 3d 35 fa 9a 3d 10 bf f9 3c
       0.040432677 0.06286709 0.075672545 0.030486614
000040 b9 f9 04 3c 49 87 1d bb 07 02 12 bd c8 d3 53 3d
       0.008116179 -0.0024036935 -0.035646465 0.051715642
000050 1c 89 ac 3d e6 ad 4f 3a e7 08 b3 bd d3 09 d5 bc
       0.08424589 0.0007922336 -0.08741932 -0.026005661
000060 95 5a 18 bd fd f9 3f 3d 50 b3 a9 bd 75 b0 0d bd
       -0.03719576 0.046869267 -0.08286154 -0.03459211
000070 7e 73 72 bd 51 92 ab bd d7 a7 35 bd 0e 9d 98 3d
       -0.059192173 -0.08377517 -0.044349518 0.07451831
000080 04 89 45 3d d7 42 a9 3d b9 1b b8 3a f2 ee 79 3d
       0.04822637 0.08264702 0.0014046348 0.06101889
000090 77 e3 20 3d 9b 55 83 3d 9f a0 45 bc 08 32 b4 3d
       0.039279427 0.06412812 -0.012062221 0.08798605
0000a0 7e fc 34 bc 71 87 ed bc ee f9 16 3d 6b 03 14 3d
       -0.011046527 -0.028995248 0.036859445 0.036136072
0000b0 8b 2f 8b bd e0 35 1c bd 2f 2a c4 bd 08 a7 c0 3d
       -0.067961775 -0.038137317 -0.095783584 0.09406859
0000c0 4f 83 ed 3c 42 6f a9 3d 45 59 b1 bd cd 02 c3 3d
       0.028993277 0.08273174 -0.08659605 0.095220186
0000d0 a2 ac be 3d d2 2b bd 3d 3c d4 8d bd bd 2c c9 3d
       0.09310271 0.09236874 -0.06925246 0.09822986
0000e0 dc 55 b3 bd 4c 72 9e bd a1 4a 22 bd f1 ca c5 3d
       -0.08756611 -0.07736644 -0.039621953 0.096578486
0000f0 aa 12 ef bc 95 68 12 3d 95 be 81 bc dd 10 46 3d
       -0.029183704 0.03574427 -0.015837947 0.048355926
000100 1b 72 20 3d ca 68 9c 3d a4 96 52 3d 4f 41 9d 3d
       0.03917132 0.076371744 0.051413193 0.07678472
000110 5b 7c af 3d ae c6 f5 3c bd 31 5e 3d 98 13 b3 3d
       0.08568641 0.030001964 0.054246653 0.087439716
000120 2b 40 40 3d 3b 3b 03 bd 9d cd 92 3d 4b 34 86 3c
       0.046936195 -0.03203891 0.07168124 0.016382357
000130 d8 a7 83 3d 85 e6 02 bd 79 33 ca bd 89 bb 88 bd
       0.06428498 -0.03195812 -0.09873099 -0.066763945
000140 9b e6 38 bc 29 bd 8f bd cf 9c 40 bd 2e 94 42 3d
       -0.011285449 -0.07018501 -0.047024544 0.047504596
000150 ba 9b 0b 3d 96 0a ff bc 1e c0 9f bb fb 40 d6 bd
       0.03408406 -0.031132977 -0.004875197 -0.10461613
000160 39 ec 24 bc c3 ec 9d bb ab 20 71 bd 7b fa b5 3d
       -0.0100660855 -0.004819484 -0.058869045 0.08885666
000170 3e 85 5c bd 5e 30 81 3c 78 72 72 bd 8f 51 02 3d
       -0.053838007 0.015770134 -0.059191197 0.03181606
000180 17 24 ad bd 34 90 f4 bb 3c 0c 07 3d 8d f8 9f 3d
       -0.08454149 -0.0074634794 0.032970652 0.07811079
000190 92 5c d6 3b c0 4a 3c 3c 9d 0b 7a 3c 24 64 45 bd
       0.006541797 0.011492431 0.015261558 -0.048191205
0001a0 4d e4 c3 3c 57 a1 c1 bd f9 57 28 bd 11 5b 8a bb
       0.023912573 -0.09454601 -0.041099522 -0.0042222817
0001b0 a5 1d 06 bd 7d d2 35 3d ec 0f 8d bd 4f 93 f7 3c
       -0.032743115 0.04439019 -0.068878025 0.03022161
0001c0 1e a2 85 bd 70 5e b2 bd 58 90 e2 bb 97 ad 2b bc
       -0.06525062 -0.08709419 -0.00691418 -0.010478399
0001d0 c8 f0 3f bd e6 9b cf 3d 74 b2 0b bd 33 88 a1 bc
       -0.046860486 0.10137157 -0.034105733 -0.019718265
0001e0 9f 9f ef 3b ee 1d 26 bd 10 52 bc 3c 81 a7 c3 3d
       0.0073127295 -0.040555887 0.02298835 0.09553433
0001f0 2d 48 1c bb 3b 4e 2d bd 31 bf 83 3d 3a 18 a8 3c
       -0.002384673 -0.042310935 0.06432951 0.020519365
000200 77 84 60 3d 57 4d d5 3b df ca 74 bd b7 b3 9e bd
       0.05481383 0.006509464 -0.059763785 -0.07749122
000210 c8 c5 1e bd 31 57 ba bd 11 c2 bb bd b3 d9 63 3d
       -0.038762838 -0.09098662 -0.091678746 0.055627536
000220 23 e9 35 bc c2 4d b2 bb 66 33 ab bd 93 4c 51 3d
       -0.011102947 -0.0054413984 -0.08359413 0.051098417
000230 13 32 97 3d cd cd 8f 3d 80 f2 66 bd 80 a0 53 3c
       0.07382598 0.07021675 -0.05638361 0.012916684
000240 e8 b4 5e bd 13 bd 3a 3d 5d 94 59 3d 75 ac 7e bd
       -0.054371744 0.04559047 0.053120006 -0.062176187
000250 69 b0 ad bd 3b a9 a5 bd c8 89 1c 3d 2c da a7 3c
       -0.08480913 -0.08088919 0.038217336 0.020489775
000260 ff fb 84 3d 00 a0 a7 bc 7d 1b 9c 3d 01 80 b3 3d
       0.06493377 -0.020462036 0.076224305 0.08764649
000270 4e 43 98 bd 4b d9 77 bc 1c 39 9d 3c b9 10 8a 3d
       -0.07434712 -0.01512749 0.019192271 0.06741471
000280 20 db c5 bd 37 ae 3c 3d e3 41 ec ba 9d 34 8b 3d
       -0.096609354 0.04606458 -0.0018025007 0.067971446
000290 04 cf ce bd fd 75 8c 3d 9c f7 81 3d 5e 5b 44 bb
       -0.10098079 0.06858442 0.06346056 -0.0029961686
0002a0 c2 06 02 bd 1a ef 52 3d c0 9c db bc ef 14 e5 bc
       -0.031744726 0.051497556 -0.026808143 -0.027964083
0002b0 83 70 86 bd 27 d1 bc 3d fc 66 81 3d ae 7e 72 3c
       -0.06564429 0.0921958 0.06318471 0.014800711
0002c0 0a 70 d8 3a e8 98 92 bd 10 79 9d 3d e3 ce 1c 3d
       0.0016512882 -0.07158071 0.076891065 0.03828324
0002d0 d3 b7 0a 3d 05 ed 2e 3d 6e 64 ab bd 80 f5 10 bd
       0.033866715 0.04270651 -0.08368765 -0.035390377
0002e0 74 ba 8c 3d 7f 35 10 bd 60 e7 ad 3d b2 26 8b bd
       0.068715006 -0.035207268 0.08491397 -0.0679449
0002f0 ef 37 92 3d b5 33 d8 3d 9b 6b b0 bd 91 af 99 3d
       0.07139575 0.10556737 -0.08614274 0.0750419
000300 a8 f4 8f 3c 5d 77 32 3d 99 ed 20 bd 7e f9 9f 3d
       0.017572716 0.043570865 -0.03928909 0.07811259
000310 aa 55 ba 3c d4 95 94 bd 35 65 c7 3d 03 2c ea 3a
       0.022745926 -0.0725514 0.097361006 0.00178659
000320 a6 6a 73 bc 96 e3 c9 3c e7 e2 59 3c 6f 40 c1 bd
       -0.01485697 0.024644654 0.013298727 -0.09436118
000330 d9 a9 b9 3d 72 df 96 bc 28 a6 b8 3c 9c fb c5 bc
       0.09065599 -0.018417094 0.022540167 -0.024167828
000340 8b 4f ca bd 73 71 bc bd d9 64 1a bd d9 31 0f bd
       -0.09878453 -0.09201326 -0.037693832 -0.034959648
000350 a6 28 a6 3d 61 0c 63 3c 09 22 d8 3d 15 fa ac 3d
       0.08113222 0.013857932 0.10553367 0.08446137
000360 43 fd 04 3c 12 2f 1d bd 8e c2 f6 39 91 f8 2b bd
       0.008117023 -0.038374968 0.0004706573 -0.0419851
000370 ec 74 d5 bd 37 9c b9 3c d4 4a 04 3d d3 57 2a bd
       -0.10422692 0.022657497 0.032297924 -0.041587662
000380 02 d2 a4 3d 57 0a 1d bc 91 ad bd bc 29 79 1f bd
       0.08047868 -0.009584985 -0.023154052 -0.038933907
000390 7a 76 c5 3d a1 a8 64 3d d9 f2 8e bd 11 c1 a7 bd
       0.09641738 0.05582488 -0.06979913 -0.08191121
0003a0 25 05 b4 bd 51 07 b1 3d ad e7 a7 3d a4 12 51 3d
       -0.08790044 0.086439736 0.081984855 0.051043168
0003b0 56 81 47 3d 0d 0d 96 bd 36 c5 8c 3d 37 33 60 bc
       0.04870733 -0.07326708 0.068735525 -0.013684086
0003c0 4b 85 12 bc 1c 2f c0 3b 35 0a 0c bd ef 15 bf 3d
       -0.008942912 0.005864991 -0.03418942 0.093303554
0003d0 4f 3c 3d 3c 43 22 8c 3d e2 bc 89 bd 11 0d be bd
       0.011550023 0.068424724 -0.0672548 -0.09279836
0003e0 97 11 08 bd a5 86 da 3c e8 44 96 bd 5c cb 66 bd
       -0.0332199 0.026675532 -0.073373616 -0.056346282
0003f0 a1 a1 dd 3c 38 7c b9 3d 13 08 a4 3d d2 a6 b6 3d
       0.02705461 0.09056896 0.080093525 0.08918537

encoder.lob_enc.res_blocks.1.conv1.bias f4 [32]
000000 34 05 82 bd 0a 16 26 bd 4e 15 c1 bb a7 aa 8b bd
       -0.06348649 -0.04054836 -0.0058924323 -0.06819659
000010 df 9a c8 bc 80 85 62 bd 59 7d 1c be b7 2f ce bd
       -0.02448791 -0.055303097 -0.15282191 -0.10067695
000020 24 ee 16 be 42 8b cf bc 85 64 b2 bd 77 e6 3d be
       -0.14739281 -0.025334958 -0.08710579 -0.18544947
000030 1d 54 42 bc ff 0b 4e bd 4a 54 d0 bd 8a 00 37 be
       -0.0118608745 -0.05030441 -0.10172327 -0.178713
000040 fd cc 10 be 1b 8a 52 be 5a de 3d be 5e 6e 00 3c
       -0.14140697 -0.20560496 -0.18541852 0.007838814
000050 57 c0 f3 bd 4d e3 20 bb c7 51 48 bd b3 25 48 bc
       -0.1190192 -0.0024549544 -0.048906114 -0.012216019
000060 3d 91 64 bd 1e 1a 2b be df 81 57 bc 5e 71 47 be
       -0.055802573 -0.16709182 -0.013153522 -0.1947684
000070 a7 45 94 bd 50 ed 94 bd 29 42 24 bd de 49 3b be
       -0.07239848 -0.07271826 -0.040102158 -0.18289897

encoder.lob_enc.res_blocks.1.bn1.weight f4 [32]
000000 ea 7a 7e 3f e7 28 80 3f 37 61 7f 3f 16 f2 80 3f
       0.994063 1.0012482 0.99757713 1.0073879
000010 3b 85 80 3f 9d 8f 7d 3f 1c cb 7e 3f 05 21 7e 3f
       1.0040659 0.9904726 0.9952867 0.99269134
000020 42 3c 7e 3f 95 89 7c 3f 2a b6 81 3f 32 1e 81 3f
       0.99310696 0.98647434 1.0133717 1.008734
000030 08 0f 80 3f f8 2c 82 3f ef 52 80 3f 38 26 7f 3f
       1.0004587 1.0169973 1.0025309 0.9966769
000040 df a2 80 3f 30 04 80 3f 92 2e 81 3f 04 34 80 3f
       1.0049704 1.0001278 1.0092337 1.0015874
000050 43 0d 7f 3f 00 f4 7f 3f 76 f9 7f 3f bd b4 7e 3f
       0.9962961 0.9998169 0.9999002 0.99494535
000060 0a fc 80 3f 58 04 80 3f 70 fb 7e 3f c3 31 80 3f
       1.0076916 1.0001326 0.99602413 1.0015186
000070 ac 2d 7d 3f bc e3 7d 3f ee e2 7e 3f c7 d4 80 3f
       0.98897815 0.9917562 0.9956502 1.0064934

encoder.lob_enc.res_blocks.1.bn1.bias f4 [32]
000000 52 80 aa bb 73 38 53 3a 6b 1e 00 bc 4a 6f d0 3a
       -0.0052032853 0.0008057423 -0.007819752 0.0015902307
000010 6a cb 0c 3c 1d 2c 74 bc 52 c1 30 bb ff 0e 99 bb
       0.00859342 -0.014903096 -0.0026970697 -0.004670977
000020 07 23 7d 3b 67 0e 25 bc 36 bf 26 3c a5 2b a5 3b
       0.0038625614 -0.010074235 0.010177424 0.005040603
000030 83 de 1c 3c d8 30 68 3c dd d4 dc 3a d2 0d 2b bc
       0.009574535 0.0141718015 0.0016848106 -0.010440307
000040 53 a2 76 3b 1c 79 b8 bb 43 d1 16 3b 57 72 a2 3c
       0.0037633374 -0.0056296717 0.0023012913 0.019829912
000050 76 52 1a 3c f5 43 31 3c 46 b3 d6 3b dc 70 45 bb
       0.009419074 0.010819425 0.006552133 -0.0030127084
000060 ca f8 ea 3b b2 be 44 bb d3 2c 29 3c 7e a9 03 3a
       0.0071707712 -0.003002089 0.010325628 0.000502251
000070 8a 51 62 bc 7c 08 00 38 15 45 fc bb dc 01 d7 3a
       -0.013813386 3.052548e-05 -0.007698665 0.0016403752

encoder.lob_enc.res_blocks.1.bn1.running_mean f4 [32]
000000 5e a5 8c 3e 8e 2b 24 bd 48 a4 c0 3d ef 85 31 bf
       0.27469915 -0.0400806 0.09406334 -0.6934499
000010 99 bd ca be 7e 5d 6a be 08 90 d7 be da 8d 1b 3f
       -0.39597777 -0.22887227 -0.42102075 0.60763323
000020 00 d6 e0 bd 6f 3d d9 be 74 6f 02 bf fa 52 65 bf
       -0.10978317 -0.42429683 -0.50951314 -0.8957974
000030 39 74 42 bf df e3 31 bf 68 c0 3b 3f 44 e4 c0 be
       -0.7595859 -0.6948833 0.73340464 -0.37674153
000040 3c 08 4e bf 8c 32 ec be 5b a8 88 bf c8 f6 1e bf
       -0.80481315 -0.46132314 -1.0676378 -0.6209531
000050 a1 a5 a5 be b1 9d 90 be b5 3a 72 be fd 7c ba 3e
       -0.32352927 -0.2824531 -0.23655207 0.36423483
000060 d4 e4 19 bf da 76 86 be f7 96 90 3e fd ea c4 be
       -0.6011479 -0.26262552 0.28240177 -0.38460532
000070 9e c4 64 be 86 f3 a1 be f5 fc 28 bd 57 e1 cb be
       -0.22340629 -0.31631106 -0.041256864 -0.39820358

encoder.lob_enc.res_blocks.1.bn1.running_var f4 [32]
000000 bf 67 96 3e fe 5f 8a 3e fd 47 2e 3e b7 b4 33 3e
       0.29376027 0.2702636 0.17019649 0.17549406
000010 bd bc 2c 3f 44 90 8d 3e 35 81 a7 3d a2 aa aa 3e
       0.6747549 0.27649128 0.08178941 0.33333308
000020 70 14 e4 3e 87 40 b8 3e 04 0c 2c 3e 16 6b 13 3e
       0.44546843 0.3598673 0.16801459 0.14396319
000030 91 c8 2e 3e 8f c2 04 3e 97 d7 bf 3e a8 db d0 3d
       0.17068698 0.12964843 0.3746917 0.10198146
000040 ce 24 84 3e ab d4 24 3e 60 87 4b 3e ad 66 8e 3e
       0.2580933 0.16096751 0.1987586 0.2781271
000050 97 99 31 3e b9 8a 39 3f 6e fb 58 3e 84 fe 48 3f
       0.17343746 0.724773 0.21189663 0.7851336
000060 67 e2 99 3e 9b 12 be 3e 13 36 20 3f b0 d6 fb 3d
       0.30055544 0.3712357 0.6258251 0.12296808
000070 2f 5a c0 3e 4f b3 9e 3e 66 36 85 3e ef ae 1c 3e
       0.37568805 0.30996177 0.26018065 0.15301107
