outputs/performance_test/checkpoint_epoch_4.pt (torch, 945821 bytes, 81 tensors)

encoder.lob_enc.conv_in.0.weight f4 [32, 2, 3, 1]
00000000: e415 f4bd 7dc3 993e 2bbc 80be 3b3f a9bd
00000010: 2032 93bc 1b9e 5fbe 61e7 083c ee5d c8bd
00000020: 91c4 4fbe bc22 a9be 137f 21bc bddd bd3e
00000030: e040 1b3e 7c26 a3be e49b 5abe 56d6 853e
00000040: 0427 23be 34f4 36bd 79db 4ebe 88f9 4c3e
00000050: e1ed 8dbe 81d7 c5be 183d 9bbe 0d4b afbe
00000060: a492 463d 8416 923d 629a fcbd 3734 233e
00000070: a0fe 3d3d 60a9 d53d 7d48 5f3e 124d b93d
00000080: 3f8a cc3e 434c a03e d19c 60be cd3e 963e
00000090: 9c9a 3bbd 1cbe c9bc 80c4 073d bdea b7be
000000a0: 4b50 883e 3761 873e 8588 c53e b440 833d
000000b0: c782 f8bd 740b 8fbd e347 13be b849 c2be
000000c0: a34b 0d3e 4478 663d 3950 05be cb17 77be
000000d0: 12bb c0bd 069f dd3d e6b1 a13e 481a 353e
000000e0: 06b9 993e c429 a93e 2471 46be 9226 8cbc
000000f0: c0f5 aabe 8774 66be dccc 2c3e 81e2 233e
00000100: c7b9 423e 09e6 b73e 507a 233e a881 53be
00000110: 9bfb b9bd 0060 c33c b173 4e3e 9f60 5dbe
00000120: f0d1 26be 4da0 233e 9b87 173e 094d c73e
00000130: ed0a b23e 4224 3dbe c4e5 193e e150 77be
00000140: 52ff 1abc fe9e c4bc cad5 d03d 3354 bc3e
00000150: 1f9f a9be ad38 ba3e e8c4 8b3e 5387 56be
00000160: 5391 f9bd 0c12 cfbd b052 803e c309 d0bd
00000170: b3bd 1c3e b188 23be ccc4 ab3e 4173 5dbd
00000180: c6a8 c93e cd7d 98be ea47 f5bd b015 893e
00000190: 2abf 0f3e a66b 50be a08a adbe aa1a a1be
000001a0: 5f8d abbe 4ac5 70be a323 7bbe 94ff f4bd
000001b0: 49b9 b03e 544c eebd d0b0 85be 2953 443e
000001c0: f35e 7ebe 7007 5abe a3e1 81bd 4acb 26bd
000001d0: 7a7d 81be 4626 a1be ae21 d1be 01ba 31be
000001e0: 9978 4a3e 8524 d03c b587 a13e b94a 823d
000001f0: d6e0 a1be 3106 ec3c d5ac e2bd bb45 663e
00000200: 9d33 d63d b71d cc3e d3c5 bdbe 2127 4fbe
00000210: a0b4 b6be 4b6c d23c 6062 8bbe 4545 38be
00000220: 1af1 c13e f73e 18be fe5a 463e 9772 893e
00000230: fd08 9a3e 6681 a73e e560 853e d604 363d
00000240: 2e6a b53e 5ea8 c93e 157e 8bbe 99c8 c33d
00000250: 3320 953e b841 88be 4b30 323e f980 883e
00000260: ad66 173b 6cab d8bd a572 fbbc 0ab5 af3e
00000270: d1c0 aabe 350b 1c3e 5584 6cbe afc5 873e
00000280: 4e17 36be 8bf7 a43d 2308 813e f850 43bd
00000290: a0f2 5bbd 448a ba3e 476b c73e dc0f 6b3e
000002a0: b719 453c 2b9e 59bc e0ce 7bbe 7d66 903e
000002b0: 7e0f 373e 69b1 ab3e e44f 8dbe de7e b83d
000002c0: 6145 8e3d a4f8 07be 7e76 5dbd 9837 943d
000002d0: b92c f0bd 9b9f c23e 3788 bebe 072c 84bd
000002e0: 8b4e 4cbe 1b43 9c3e 0d91 14be 3c87 bbbd
000002f0: 01b3 b43e 2ddb b5be 24aa 08be 99c3 b43e
-0.11918238 0.30031958 -0.2514356 -0.082640134 -0.017968237 -0.21837656 0.008355946 -0.09783541
-0.20289828 -0.33034313 -0.009856957 0.37083235 0.15161467 -0.318653 -0.2134853 0.26140088
-0.15932852 -0.044666484 -0.2020091 0.20017064 -0.2772055 -0.3864098 -0.30320048 -0.34236947
0.04847969 0.07133201 -0.12334134 0.15937887 0.046385407 0.10432696 0.21804996 0.09047903
0.39949223 0.31308183 -0.2193482 0.29344788 -0.045801744 -0.024626784 0.03314638 -0.3592128
0.2662376 0.26441357 0.3858072 0.064088255 -0.12134319 -0.069846064 -0.14382891 -0.37946868
0.13798384 0.056267038 -0.13018884 -0.2413017 -0.09410681 0.10821347 0.31581038 0.17685807
0.30023974 0.33039677 -0.19379097 -0.017108236 -0.33390617 -0.22505389 0.16875023 0.16004373
0.19016181 0.3591769 0.15964627 -0.20654929 -0.09081193 0.023849487 0.2016132 -0.2161889
-0.16291022 0.15979119 0.14797823 0.3892596 0.3477396 -0.18470863 0.15029055 -0.24151947
-0.009460287 -0.024001595 0.10197027 0.3678299 -0.33129212 0.36371365 0.27298665 -0.2095006
-0.121859215 -0.10110864 0.25063086 -0.10158112 0.1530674 -0.15970112 0.33548582 -0.054064993
0.39386576 -0.29783478 -0.11976607 0.2677436 0.14037767 -0.20353565 -0.33894825 -0.31465656
-0.33506295 -0.2351276 -0.24525313 -0.1196281 0.3451636 -0.11635652 -0.2611146 0.19172348
-0.24840908 -0.212919 -0.06341865 -0.040721215 -0.25291044 -0.31474513 -0.40846008 -0.17356111
0.19772567 0.025408039 0.3154885 0.063619085 -0.3161685 0.028811546 -0.11068121 0.22487538
0.10459063 0.3986642 -0.3706499 -0.2022977 -0.3568468 0.025686404 -0.27223492 -0.17995174
0.37879258 -0.14867769 0.19370648 0.26845238 0.30084983 0.3271591 0.26050487 0.044438206
0.3543257 0.39386266 -0.2724463 0.09559745 0.2912613 -0.2661264 0.17401235 0.26660898
0.002310197 -0.10579571 -0.030694315 0.3431781 -0.33350232 0.1523865 -0.23097356 0.26518008
-0.17782328 0.080550276 0.2520152 -0.04768464 -0.053698182 0.36433613 0.38949034 0.22955269
0.012030057 -0.013282339 -0.24590635 0.28203192 0.17877004 0.3353379 -0.27600014 0.09008573
0.06946827 -0.13278443 -0.05406808 0.07237166 -0.1172728 0.38012394 -0.372133 -0.0645371
-0.19951837 0.30519947 -0.14508457 -0.09156653 0.3529282 -0.3551878 -0.13346153 0.3530548

encoder.lob_enc.conv_in.0.bias f4 [32]
00000000: 16dd 923e 401d eebd 2453 9dbd 6f3b 47be
00000010: a074 a53d 041a f53d 1834 8d3e 9080 373e
00000020: 38dd 523e bc25 85bd 1e62 95be 38d3 663e
00000030: dc58 e8bb c9c5 88be 849d 153d 64d0 ce3e
00000040: 6cfb 0cbd 329b aebe 3478 7c3e c46d 9b3e
00000050: 0c93 85be 53d1 b6be e78d 95be 68e1 2b3e
00000060: 4291 2bbe fb52 cdbe 0cfe efbc be65 54be
00000070: e87d f7bd b5fd 24be 4846 0cbe 1618 88be
0.286843 -0.11626673 -0.076818734 -0.19456266 0.08078885 0.11967853 0.27578807 0.17920136
0.20592201 -0.06501338 -0.2917642 0.22541511 -0.007090671 -0.26713398 0.03652717 0.40393364
-0.034419462 -0.3410278 0.24655229 0.30357182 -0.2608875 -0.35706577 -0.29209825 0.16785204
-0.1675463 -0.40102372 -0.029295944 -0.20741937 -0.120845616 -0.16112407 -0.13698685 -0.26580876

encoder.lob_enc.conv_in.1.weight f4 [32]
00000000: b3d8 803f 03bf 803f fd38 813f 708e 803f
00000010: 127b 803f 585b 803f 896b 803f 6f3a 813f
00000020: fff5 803f 0df6 803f 9054 7c3f 15f4 7c3f
00000030: a300 813f 73f9 7f3f 4cc6 7d3f 7ac7 803f
00000040: 3f3f 7e3f 7142 813f 492b 813f fa0d 803f
00000050: e79c 7d3f 96bc 7e3f bfb3 803f cd97 7e3f
00000060: e4e8 803f 0244 7f3f 432c 813f 6f69 813f
00000070: fc81 803f a654 803f 24f1 803f 9aec 803f
1.0066131 1.0058292 1.0095516 1.0043468 1.0037558 1.0027876 1.0032817 1.0095958
1.0075072 1.0075089 0.9856653 0.9880994 1.0078319 0.99990004 0.991307 1.0060875
0.99315256 1.0098401 1.0091335 1.0004265 0.9906754 0.9950651 1.0054854 0.9945038
1.0071073 0.99713147 1.0091633 1.0110301 1.0039668 1.0025833 1.007359 1.0072205

encoder.lob_enc.conv_in.1.bias f4 [32]
00000000: 8502 ee3b ec57 b93b 5e4c 273c 047a 093b
00000010: b68e 8bbb 374e 443c 96d6 233c 5248 273c
00000020: d969 033c 5cf0 213c 71a0 61bc 6228 6c3a
00000030: c105 3bbc f9c3 c73b f435 61b9 dc36 0f3c
00000040: 8694 ba3b 1f0d 113c 574c 223c 2966 723b
00000050: b6cb 273c f7b9 083c 5ce9 d63b 85eb 363c
00000060: 86ea 063c 5a94 893a ca37 343c 5232 2a3c
00000070: 7de3 253c 58e9 e1ba 07fe 243c 59bf 1e3c
0.007263484 0.005656233 0.010211078 0.0020977268 -0.004258956 0.0119815385 0.009999892 0.010210114
0.0080208415 0.009883966 -0.013771162 0.0009008703 -0.011414946 0.00609636 -0.00021477771 0.008741107
0.005693975 0.008853226 0.009905896 0.0036987162 0.01024144 0.008345119 0.0065585803 0.011164551
0.008234626 0.0010496483 0.010999629 0.010387974 0.010125038 -0.001723568 0.01007033 0.0096891755

encoder.lob_enc.conv_in.1.running_mean f4 [32]
00000000: e1af 83cd fbd6 34cd 8c04 63cd f420 61ce
00000010: 620d 544d 196d 3b4e d842 bc4c 36d3 36cd
00000020: 710e e3cc b94a 1c4e 23fe 5b4d fad9 b0cc
00000030: d31d f24d a157 6b4d 61cb a7cc d914 934d
00000040: 9d62 f44c d8ed 88ce 8cf8 53cd ba1e 58ce
00000050: 421b 554d 7a13 db4b d53e bbcd f5b7 704e
00000060: 5132 d04d 8519 e04d e39e 28cd 2495 434e
00000070: 9676 bd4d f729 1ecd dd11 34cc 1371 7acb
-2.761677e+08 -1.8962424e+08 -2.3804538e+08 -9.442583e+08 2.2235293e+08 7.861223e+08 9.870304e+07 -1.9170595e+08
-1.1904295e+08 6.555357e+08 2.3067909e+08 -9.27211e+07 5.077551e+08 2.4677429e+08 -8.7972616e+07 3.0845213e+08
1.2812823e+08 -1.1486444e+09 -2.2226758e+08 -9.064731e+08 2.2345834e+08 2.871474e+07 -3.9268214e+08 1.0096469e+09
4.366198e+08 4.699711e+08 -1.7681157e+08 8.203328e+08 3.973332e+08 -1.658469e+08 -4.7204212e+07 -1.6412947e+07

encoder.lob_enc.conv_in.1.running_var f4 [32]
00000000: ee6c bd5b 8b19 535b a57e a15b fe21 6b5d
00000010: ffa4 575b 4d2a 265d 6f3c f65a a756 7b5b
00000020: 5546 985a e13a e85c 1a81 9d5b a667 9f5a
00000030: a16b 8c5c a410 955b 87e1 0c5b d5fb d55b
00000040: 0bc3 515b e7b7 ab5d c500 aa5b 921a 565d
00000050: 410a 865b e0ac a05a 07e4 3b5c 30ba 845d
00000060: f756 705c f360 6d5c 957f 305b c948 315d
00000070: 3cc4 2c5c 5493 1c5b ab67 a65a c0d2 375b
1.0663708e+17 5.9419305e+16 9.091344e+16 1.0589439e+18 6.0698535e+16 7.483417e+17 3.4654646e+16 7.0745494e+16
2.1430764e+16 5.2293546e+17 8.866704e+16 2.2434242e+16 3.161987e+17 8.391614e+16 3.9654467e+16 1.20462125e+17
5.904272e+16 1.5467016e+18 9.5703184e+16 9.6423775e+17 7.545784e+16 2.2613037e+16 2.1154616e+17 1.1955012e+18
2.7059845e+17 2.6726467e+17 4.9679874e+16 7.984176e+17 1.9451783e+17 4.4072085e+16 2.3419415e+16 5.1741643e+16

encoder.lob_enc.res_blocks.0.conv1.weight f4 [32, 32, 3, 1]
00000000: 1655 07bd aaa0 99bd 2e28 cdbc e23a 9dbd
00000010: cdc3 bfbb 2bc1 7b3d 4865 60bd e3e5 cebc
00000020: 11eb ecbc c738 3cbd 1ecd a7bd 53e8 693c
00000030: 0488 a8bc 958a c8bb b3af 04bd 4772 98bd
00000040: 970f 3dbd f3a2 3a3d df0b 7b3d a16b 14bd
00000050: 93cb 663d 481d 91bd e052 86bc 7886 d2bd
00000060: 8b9d debc 300b 983c 7313 553d f5c8 cf3c
00000070: 68de 173d a8af edbc f952 c03d fe5c b0bd
00000080: 6583 e1bc 5370 afbc aa32 6a3d 3e27 243c
00000090: d8ea b23d 9ee8 a1bd ba19 dc3c c6b0 bbbd
000000a0: 99fc c83c f645 51bd 516b 66bd bb82 003c
000000b0: 0908 363c de20 b93d d707 933d 4a45 36ba
000000c0: b58a 193d 2e23 013c e87a e7bc e895 afbd
000000d0: f407 bfbd 24e1 ccba d5a9 5ebd 5351 a73d
000000e0: 7327 68bd b501 803c c268 78bd 35b4 b83d
000000f0: 9ca0 1a3d d1b1 3e3d c8b0 a53c b958 bfbc
00000100: 5fb2 24bd c7a1 5bbd e43f ccbd f3b4 e5bc
00000110: 46f3 56bd 59b2 a63d 2fdb b23d 4bcc 97bd
00000120: fabb b1bb 38a3 c2bd fe88 353d 460c 883d
00000130: 78f1 85bd 6823 9fbd e31f f3bc 2600 963d
00000140: a70b 7b3d 2149 84bd 5fa4 c4bb 55ef acbd
00000150: 9453 ac3d 2d30 0d3d 2079 40bd cda9 093d
00000160: 39e7 93bb 4940 96bd 810b e0bd 5453 8e3d
00000170: 7feb 88bd 2ce5 6f3d 02e6 08bd 1066 633d
00000180: 9d89 053d 8783 533d 04cc 64bd 010b 403d
00000190: 32b2 653c 53de 0abc 2383 35bc be13 fabb
000001a0: d91c 483d 820f 4f3d d69a 47bd b4e6 56bc
000001b0: d451 6dbc 97b7 f1bc e253 5c3d 4eee d13d
000001c0: 921c 6e3d f23e 8fbc 3e8f 923d aa60 d33d
000001d0: bd8b 8a3c f0d2 a23d b49b bc3c 8886 febc
000001e0: 8d3b cb3c 656f 533c 0484 983c 3311 97bc
000001f0: 4d03 89bd 8f3c b0bd 64f5 69bd 9e9c 853d
00000200: d990 93bc 4212 bdbd 2808 a83d 21f5 d9bd
00000210: 228c cd3c b2e8 c73d fc8a 32bd 03cd d33b
00000220: 8244 d53d 730e bf3d 4274 a03d cf16 74bc
00000230: e69f 623d 83e0 453d 1d77 753c b702 c63d
00000240: 89f4 e73c a2ed 9a3d 5f17 8ebd d54b a53c
00000250: 0efd d6bd 885c ca3b 9399 913c dbc3 543d
00000260: a2f8 363d ab4e 65bd 9e11 4c3d a2d8 e6bd
00000270: 36f7 b73d ba9f 543d 87d6 f4bb 7c0c 003d
00000280: 3afa 7e3d e3be 91bd 67f8 6b3d b2fc 9c3c
00000290: 8cbf b53d d7e7 463c f61b 953c da4a 003d
000002a0: 4b15 b33d df2d 99bd 8b6a 7e3d b10a 8c3d
000002b0: 499d 5cbb b910 80bd ee47 8c3d 9c5c 4c3d
000002c0: 10f3 08bd 7fc4 d23c b83e bbbc 6a8e 1fbd
000002d0: 5be0 e13d c8dd 453d 11ff 673c 12f6 803d
000002e0: c01d 7b3d 9f0e 373d 0639 653d f65a 9fbd
000002f0: 7314 07bd d348 bd3d 59fc c83c 3c9b 0f3d
00000300: 9e6b 9cbd f009 77bd cc2f 44bd e06f 1a3d
00000310: 88b0 4bbd 9503 943d 9c3d abbd 2952 e9bc
00000320: 8ddd 943d 6358 58bd c2e4 0ebc 3f9f 24bd
00000330: c0de 003d fa78 66bd 6bde a5bd 0f4a 30bd
00000340: 3d1a 193d db85 00bd 4205 a2bd 7188 e8bc
00000350: b91c 45bd 0993 a43d 08a7 d7bc f197 013d
00000360: bb7f b33d ec83 a3bd 7034 083d 306f 1a3c
00000370: 855f a93d ff85 e3ba a3fc c13c 01e3 d0bd
00000380: 089e be3d 927f 8cbd f748 813d e6fe 9fbd
00000390: 7db2 8d3c 11d4 48bb e8bb 923d 2dce ccbd
000003a0: fc05 a73d 7104 c13d 7a2d c23c a188 b23d
000003b0: 0ab9 a03d 4c51 053b 519f 593d 6e43 fd3a
000003c0: 422e c43c e538 9bbd ea0f 0abd 9cc4 86bd
000003d0: 6823 90bd 03a4 9abd b686 57bd d556 c43b
000003e0: e5b2 90bc fcf6 113d 3ed8 0c3d 3fa5 20bd
000003f0: 555b 8a3d ba0a 97bd 3f0e 81bd 5601 c13d
-0.03304013 -0.07501347 -0.025043573 -0.07677247 -0.0058521987 0.061463516 -0.05478409 -0.025256103
-0.028920682 -0.045952585 -0.0819342 0.014276582 -0.02057267 -0.006120036 -0.032394122 -0.07443672
-0.046157446 0.045565557 0.061290618 -0.036235455 0.056346487 -0.07085663 -0.01639694 -0.10279554
-0.027174732 0.018560022 0.0520205 0.025364378 0.037077338 -0.029014423 0.09390826 -0.08611487
-0.027528474 -0.021415865 0.057177223 0.010019122 0.08736199 -0.07905696 0.026867736 -0.09164576
0.02453451 -0.05109211 -0.05625469 0.007843669 0.011110314 0.09039472 0.0717923 -0.0006953074
0.037485797 0.007881923 -0.028256848 -0.08573514 -0.09327689 -0.0015631062 -0.054361183 0.08169808
-0.056678247 0.015625814 -0.06064678 0.09018747 0.037750825 0.046556298 0.020225897 -0.023357736
-0.04020917 -0.05362108 -0.09973124 -0.028040385 -0.052478097 0.08139486 0.08733212 -0.07412013
-0.00542402 -0.09503788 0.0443201 0.06642966 -0.06540197 -0.07770425 -0.02967829 0.07324247
0.06129041 -0.06459261 -0.00600104 -0.084440865 0.08414379 0.034469772 -0.046990514 0.0336092
-0.004513648 -0.0733648 -0.10939694 0.06949487 -0.06685542 0.058568165 -0.033422478 0.055517256
0.03260194 0.051639106 -0.055858627 0.046885494 0.014019536 -0.008475858 -0.011078629 -0.007631748
0.048855636 0.0505519 -0.048731647 -0.013116527 -0.014484841 -0.029506488 0.053790934 0.10250531
0.058132716 -0.01748607 0.071562275 0.103211716 0.016912336 0.079503894 0.023023464 -0.031070009
0.02480867 0.0129049765 0.018617637 -0.018440818 -0.06690083 -0.08605301 -0.05711879 0.06524013
-0.018013405 -0.09231998 0.08204681 -0.10642458 0.025091235 0.0976118 -0.043589577 0.0064636483
0.104134575 0.09328928 0.078346744 -0.014898016 0.055328272 0.048309814 0.014982012 0.096684866
0.028314846 0.07564856 -0.069380514 0.020177761 -0.10497485 0.0061755814 0.017773425 0.051944595
0.04467071 -0.055983227 0.04982149 -0.11271788 0.089826986 0.05191014 -0.0074718627 0.031261906
0.062250353 -0.07116487 0.05760994 0.019163463 0.08874425 0.012140236 0.01820181 0.031321384
0.08744296 -0.07479452 0.062113326 0.06837977 -0.0033663085 -0.062531896 0.06849657 0.049893007
-0.033434927 0.025728462 -0.022857055 -0.038954176 0.110291205 0.04830721 0.014159934 0.06296934
0.06130767 0.044691678 0.055962585 -0.07781021 -0.032978486 0.09242406 0.024534391 0.035060152
-0.07637714 -0.06031221 -0.047897145 0.03770435 -0.0497289 0.07227246 -0.083613604 -0.02848156
0.0726882 -0.052818667 -0.008721532 -0.04019093 0.03146243 -0.056267716 -0.080990635 -0.043039378
0.03737854 -0.031377655 -0.07911159 -0.028385373 -0.048123095 0.08035857 -0.026324764 0.031639043
0.08764597 -0.079841465 0.033253133 0.009425923 0.08270172 -0.001735866 0.023680037 -0.101995476
0.09307486 -0.068602696 0.06312745 -0.0781229 0.017297024 -0.003064398 0.071647465 -0.100002624
0.08155438 0.09424675 0.023703326 0.08717466 0.078477934 0.0020342646 0.05313045 0.0019322464
0.023947839 -0.07579211 -0.033706583 -0.06580469 -0.07038003 -0.07550814 -0.052618705 0.0059917965
-0.017663429 0.035635933 0.034385912 -0.03922009 0.067557015 -0.07375093 -0.06301545 0.09424083

encoder.lob_enc.res_blocks.0.conv1.bias f4 [32]
00000000: 454b 1bbd 0ac6 48bd b991 09bd e582 f0bd
00000010: 2eee 05be fdad 90bd 4c6c f8bd bb80 a23c
00000020: fb22 89bd 5202 95bd c463 b0bc ffbe 8ebc
00000030: a4f1 a43c 92fe 0cbd 82b9 9b3b 6757 cdbb
00000040: c438 5e3d 9d52 c6bb fa5b ce3b 4ce9 f1bc
00000050: e9ab 073c 515a 0cbd a7f1 b3bd dc1a c0bd
00000060: e1be e13c ec21 08bd 9257 863d 1c41 e53c
00000070: 09cc 5f3d 6440 35bd 2bdd e63c 1fd8 7dbc
-0.03791358 -0.04901699 -0.033586238 -0.11743716 -0.1307914 -0.07064436 -0.12130031 0.019836774
-0.06696125 -0.07275833 -0.021531947 -0.017425058 0.020134754 -0.034422465 0.004752339 -0.0062665227
0.054253355 -0.0060523287 0.0062975856 -0.02953019 0.008280733 -0.03426582 -0.08786326 -0.09380123
0.027556838 -0.033235475 0.065596715 0.027985148 0.054637942 -0.04425086 0.028181633 -0.015493422

encoder.lob_enc.res_blocks.0.bn1.weight f4 [32]
00000000: 3156 7f3f 2e45 803f 9ec8 803f 03ec 7e3f
00000010: 1487 7c3f 8250 803f 6709 7e3f a9fc 7e3f
00000020: 4737 7f3f 7991 7f3f 5b94 7e3f bce8 7f3f
00000030: 0109 803f ac86 7f3f c4da 7e3f 9193 803f
00000040: ecdf 7e3f 7076 813f 4074 7d3f 9a78 7c3f
00000050: e55c 803f 1147 7d3f 7b83 813f 401e 813f
00000060: 8c23 813f b5a2 803f 97cc 803f 3d9a 803f
00000070: 26df 7d3f 571a 813f 0884 813f 3216 813f
0.9974089 1.0021112 1.0061224 0.99578875 0.9864361 1.0024569 0.99233097 0.9960428
0.9969372 0.9983135 0.9944512 0.999645 1.0002748 0.9981487 0.9955256 1.0045034
0.9956043 1.0114269 0.9900551 0.98621523 1.0028349 0.98936564 1.011825 1.0087357
1.0088973 1.0049654 1.0062436 1.004707 0.9916862 1.0086163 1.0118418 1.0084898

encoder.lob_enc.res_blocks.0.bn1.bias f4 [32]
00000000: 3d50 133c 70ad adba 5b86 923b 687c 303c
00000010: 4df9 9e3b bae4 263c a2c4 063c e9e9 f53b
00000020: a902 e1bb b777 2e3c 6d4f 04bc e19b 1e3c
00000030: 6dbb 7a3b 6cdf 1b3c c3fa db3b d51c ad3b
00000040: 345b bb3a 8b1b 253c af28 cd3b 90f6 43bc
00000050: 132f 5a3c a939 d93b 50fc 3e3c 9b70 3b3c
00000060: c57b 343c e709 a0b9 2c62 303c 1009 073c
00000070: d46c 1cbb 8115 5e3c 4840 473c bfe5 2f3c
0.008991298 -0.0013250541 0.004471583 0.010771848 0.0048514963 0.010186369 0.008225592 0.007504691
-0.006866772 0.010648659 -0.008075577 0.009680719 0.0038258687 0.009513717 0.0067132427 0.005282978
0.0014294148 0.010077368 0.0062609534 -0.011960641 0.013316887 0.006629188 0.011656836 0.011440421
0.011015837 -0.00030524956 0.0107655935 0.008241907 -0.0023868578 0.013554932 0.012161322 0.010735928

encoder.lob_enc.res_blocks.0.bn1.running_mean f4 [32]
00000000: c35c a8be 4c2f fc3e 0503 c2be e71b e1be
00000010: ff49 79be 27b8 bdbe d404 6dbd bcd0 d13d
00000020: b89d dd3d 8d75 fbbc 8856 dc3e fd39 da3e
00000030: a45b cbbd e2da b6bd c162 9dbe d5db 953e
00000040: 8d90 293e f0b5 253d 9db0 31bd 5ee8 44bd
00000050: ae8e 08bd ceee 4d3e c32f 57be 30f9 40be
00000060: 6b55 073d 3f1b 06bf 0e62 3c3c 2aa7 40be
00000070: abb8 92bd 5fe3 c5bd b890 f2bd 2772 f63d
-0.32883272 0.49254835 -0.3789293 -0.439666 -0.24344634 -0.3705456 -0.057865933 0.10244891
0.10821098 -0.030695701 0.43034768 0.42622367 -0.099295884 -0.08928467 -0.30739406 0.2926928
0.16559048 0.040456712 -0.043381322 -0.048073165 -0.033339195 0.20110628 -0.21014313 -0.18845057
0.033040445 -0.52385324 0.011497987 -0.18813768 -0.07164129 -0.09662508 -0.11844009 0.120334916

encoder.lob_enc.res_blocks.0.bn1.running_var f4 [32]
00000000: f807 463d c186 193f a4a9 933d e770 903d
00000010: a7ed 4e3d 1962 763d 1861 9a3e 6392 163e
00000020: c387 233f 6815 343e defa ff3e 59d5 cc3d
00000030: df21 f33d 7f11 173d 8dbb a23d 448e bc3d
00000040: e3c9 0f3f 505b 3b3e 22f8 193e ee41 cb3d
00000050: a554 1c3e f891 dc3e f105 c93d f222 743e
00000060: 4d1b 1e3e dc50 c03d 6475 713e 79da ad3d
00000070: 29ce e93c 5a98 a03e 089d 103e 8c4a eb3d
0.048347443 0.59971243 0.07210091 0.070527844 0.05051961 0.060152147 0.30152202 0.1470428
0.6387903 0.17586291 0.49996084 0.1000163 0.11871695 0.03688192 0.07945929 0.092068225
0.5616743 0.18296552 0.15036061 0.099246845 0.15266664 0.43080115 0.09815586 0.23841456
0.15440102 0.09390423 0.23579937 0.08488936 0.028540688 0.31366235 0.14122403 0.11488828

encoder.lob_enc.res_blocks.0.conv2.weight f4 [32, 32, 3, 1]
00000000: bd7c 873c 5e99 cd3c 9a8b 89bd 9fa1 b03d
00000010: 84b3 023d 9230 f9bc 4885 a4bd 4f6b 7ebd
00000020: 3c88 86bc 32bc 353c 9239 013d 7ade c63d
00000030: 1a38 8e3d 6583 3abc 8bb4 babc 42ca a23d
00000040: 5d17 12bb 12ce 613c 2338 46bb 03a8 b83d
00000050: 6f46 7e3d 207d 2a3d 84d0 063d 55f9 90bc
00000060: e28c e43c fea3 9ebd b83b 94bd b13b 093d
00000070: a471 cb3c 0fab 80bd 9bca 133d 35dd 203d
00000080: 91c6 543d a9d9 33bd 9377 4dbd e1b4 323a
00000090: cbe6 32bc da3a cfbb 7932 9fbd bea0 903d
000000a0: 9d92 c43d 4d2c 43bd 5b7c 973d 2bac a13c
000000b0: 0024 d43c ec2e d0bb c156 c13d fb31 b8bc
000000c0: b089 9a3c 1772 9cbb a6ae 153c 8730 37bd
000000d0: 57ee 81bd 9b08 913d 18ea cbbd dac9 99bd
000000e0: 0099 bb3d 5af8 55bd 79dd 66bc ece0 c5bd
000000f0: 5056 edbc 1b72 3dbd ffaa 1a3d 8bac 493d
00000100: 363d b73d 45cc 0fbd 3fc3 c13d 1bbe 323d
00000110: fc02 9cbd 2349 b5bd e6b2 34bc c1de c23d
00000120: 5477 a43a ca36 72bd c7a1 823d 45b7 dbbd
00000130: 00ec 903d f536 bbbb 29cf f83b a10f 0abd
00000140: d497 933c c0c6 ddba b4a1 993d 580a af3d
00000150: 8121 183d 818e 8bbc db48 7ebb 41f5 78bd
00000160: d400 833d 8082 a8bc 60ef cabd 1556 f8bc
00000170: 4bfe 8bbd fd19 a3bd 2d99 993c cf04 293c
00000180: a07e 5dbd 60cc 91bd 8dfa 0f3d feb9 bf3c
00000190: f3c1 8f3d 47b5 603d 4bc1 7bbd 893d 6c3d
000001a0: f76d b4bd 8e43 adbd c373 353d d57b ca3d
000001b0: b81b 483d ac47 26bb b8c4 3ebd 0fde cf3d
000001c0: 350e 86bd 65f5 be3d 3414 86bd 9338 cabd
000001d0: 57b6 86bb db5f 023d fb66 a8bd 3512 efbc
000001e0: 4273 4bbb 0a59 cabb 8e57 44bd fd18 c53d
000001f0: 1091 92bd 9048 8b3d 7454 fb3c fc47 28bd
00000200: 5b7a 3a3d f39d a8bd 9292 8bbd 5af4 6c3d
00000210: a726 4fbd fc29 4f3d a189 c0bd 5f63 9a3c
00000220: 8db2 c1bd 47e5 473d 74d1 ca3d e0ee 793d
00000230: 25df eb3c 43ef 883d d850 b83d 150e 683d
00000240: ba26 3a3d 2787 0a3d 4c47 c63c a0e3 843d
00000250: 4f01 9c3d 0006 0dbd b13f 913c ec1c 643d
00000260: 4c3d aabd 2595 99bd 569f bfbc 93f1 943c
00000270: 4b92 893d 2829 5a3d aea2 583d fd66 a8bc
00000280: 1e68 d1bc 109b c7bd e61a cabb 9e2b e6bc
00000290: be0e a7bd 86a8 3c3d ec51 703d 920a dd3c
000002a0: 37d6 95bd 266a edbc aa11 bebd eae7 2ebc
000002b0: 3e19 693d e345 b13d 72a4 afbd f8d3 afbc
000002c0: a8fe 54bd 271b 9f3d 9c66 ce3d 21ab b3bd
000002d0: 693c 21bd 836e a63b 78b8 b9bd 59f9 cfbd
000002e0: 2e9a 8cbd 261f 933d dcf3 9c3c 5efe 58bd
000002f0: 8654 8cbc 2f59 c23d d9a3 c0bd 7750 2a3d
00000300: c180 87bc 5f20 e4bd 81d8 9a3d a7fd 6ebd
00000310: be21 903d c0f5 5cbb d672 4f3c f798 cebc
00000320: 89a4 bebd c309 233d b539 3cbd c7a7 e13c
00000330: 0ebd aa3d 7915 2cbd e7c4 93b9 d7d7 cb3c
00000340: 4a11 35bd a111 0d3d f556 5cbd 114b 903d
00000350: 88a2 e6bc ba6a 6fbc 8ead 31bd 1bce 99ba
00000360: 219d 743d 81d5 023c 5736 3ebd 59d2 c83d
00000370: fc8f c03d 3530 18bd ff1c 8abd beab a8bd
00000380: eadf dc3b cfb0 c33d b324 003d e764 2a3d
00000390: c154 dabd 0c5f 013d 457f 343d 6b1b 2ebd
000003a0: d674 9abd bea8 d2bc df76 c7bd a08d aa3d
000003b0: 06ba 92bd 3b00 d03d 39ac bdbd 63eb 983d
000003c0: 78b5 53bd b4fb b7bd 7d69 8d3c 8b24 d63d
000003d0: 52f9 1cbd e2f5 cd3c 9cfc 98bd a1c4 633d
000003e0: 737a a43d c024 29bd 6f23 ad3d 246e 233d
000003f0: d7d7 413b 2ff6 60bd 800e 6c3d 8caf d8bb
0.016538972 0.025097545 -0.0671608 0.08624577 0.03190948 -0.030418668 -0.08033234 -0.062114056
-0.016422383 0.011092233 0.031549044 0.09710403 0.06944294 -0.011383866 -0.022791168 0.07948734
-0.0022291758 0.013782041 -0.0030245862 0.09016421 0.06207889 0.041623235 0.0329137 -0.017697016
0.02789921 -0.07746123 -0.07237953 0.03350419 0.024834462 -0.06282627 0.03608189 0.03927346
0.05194718 -0.04390875 -0.050162863 0.0006817114 -0.010919283 -0.0063241543 -0.07773299 0.07061909
0.09598277 -0.04764967 0.07396766 0.019735416 0.025896072 -0.00635325 0.09440375 -0.02248477
0.018864483 -0.0047743428 0.009135878 -0.044724014 -0.06344288 0.070817195 -0.09956759 -0.07509203
0.09160042 -0.0522388 -0.014090889 -0.09662041 -0.028971821 -0.046251398 0.03776073 0.049236815
0.08947222 -0.035106916 0.09461068 0.04363833 -0.07617757 -0.0885184 -0.011028981 0.09515143
0.001254777 -0.059134282 0.06378513 -0.10728315 0.070762634 -0.0057133385 0.007593055 -0.03370631
0.018016733 -0.0016920194 0.075015455 0.08546895 0.037141327 -0.017035725 -0.003880075 -0.060780767
0.06396642 -0.02057004 -0.099089384 -0.030314485 -0.06835612 -0.07963941 0.018749798 0.010316088
-0.054075837 -0.071190596 0.035151053 0.023404118 0.07019415 0.05486038 -0.061463635 0.057675872
-0.08810037 -0.08460151 0.044299852 0.098869 0.04885456 -0.002537231 -0.046574324 0.10149776
-0.065456785 0.09324149 -0.06546822 -0.09874072 -0.004111092 0.031829696 -0.08222767 -0.029183486
-0.003104404 -0.006175165 -0.04793506 0.09623907 -0.07156575 0.068009496 0.030679919 -0.041084275
0.045526844 -0.082332514 -0.068150654 0.05785022 -0.05057397 0.05057715 -0.09401251 0.018846212
-0.09457884 0.04880264 0.09903231 0.061018825 0.028792927 0.066862606 0.08999795 0.056654055
0.04544709 0.033820298 0.024203919 0.064887285 0.07617437 -0.03442955 0.017730566 0.055691645
-0.08312473 -0.0749915 -0.023391407 0.018181598 0.06717356 0.053261906 0.05288952 -0.020556921
-0.025562342 -0.09746373 -0.0061677573 -0.02809697 -0.08157109 0.046059154 0.058671877 0.02698258
-0.07316249 -0.02898128 -0.09280713 -0.01067541 0.05690884 0.08655908 -0.08576287 -0.02146338
-0.05200067 0.07768851 0.10078165 -0.087728746 -0.039364252 0.005079092 -0.09068388 -0.10154981
-0.06865345 0.071836755 0.01915925 -0.05297696 -0.017130148 0.09489667 -0.094062515 0.041580644
-0.016540887 -0.11138987 0.07560826 -0.05834737 0.07037686 -0.0033715814 0.012661656 -0.025219424
-0.09308726 0.03980423 -0.04595347 0.027545823 0.083368406 -0.042012665 -0.0002818473 0.024883194
-0.04420594 0.03444064 -0.053793866 0.07045568 -0.028153673 -0.014612848 -0.043378405 -0.0011734398
0.059720162 0.007985474 -0.04643854 0.09805746 0.09402463 -0.03715535 -0.06743812 -0.08235882
0.00674056 0.09555208 0.031285 0.041600134 -0.10660697 0.031584784 0.044066686 -0.042506617
-0.07541816 -0.025715228 -0.0973947 0.08327794 -0.071643874 0.10156294 -0.092613645 0.074667715
-0.051686734 -0.089835554 0.017262215 0.10456189 -0.038323708 0.02514166 -0.074700564 0.05560744
0.08031168 -0.041294813 0.08454024 0.03989996 0.0029578113 -0.05492228 0.057631016 -0.0066127237

encoder.lob_enc.res_blocks.0.conv2.bias f4 [32]
00000000: 3f9c e0ba d5b5 29bd af18 3fbd 1b87 82bc
00000010: aac3 bebc 194a 20bd cec0 8dbd 2b58 9cbd
00000020: 367d 73bd 4a3e d8bd 66d9 93bd 90d9 26bd
00000030: 188b a2bd 9821 82bc 92b4 893c 3d34 45bc
00000040: 5a2a 9bbd 2ef9 f2bc 76cc a8bd 00c9 353d
00000050: 99e9 333d e262 693d 935c 6fbd 3c28 3b3d
00000060: 639e 65bc 37d6 63bd 50b0 0b3d 1cd9 cbbd
00000070: 66ed f8bd 5037 5b3d f187 0bba 582e e13c
-0.0017136409 -0.041433174 -0.0466544 -0.015933564 -0.02328666 -0.039133165 -0.0692154 -0.07634004
-0.059445582 -0.10558756 -0.072192 -0.040734828 -0.07936686 -0.01588516 0.016809735 -0.01203638
-0.07576437 -0.029659834 -0.08242123 0.04438114 0.043923948 0.056979068 -0.058437895 0.045692667
-0.014014813 -0.055624213 0.03410369 -0.0995352 -0.12154655 0.053519547 -0.0005322686 0.027487919

encoder.lob_enc.res_blocks.0.bn2.weight f4 [32]
00000000: 69d1 7d3f b722 803f 3e3c 813f b8c7 7d3f
00000010: b504 813f 7044 803f 2f50 813f 99f2 803f
00000020: 0bd0 803f 07cc 803f e604 803f 9d80 7f3f
00000030: 1834 813f 6b79 803f b603 7e3f 96d5 803f
00000040: 620e 803f 8c33 803f 2805 813f bc4d 803f
00000050: 08e6 7f3f 200d 813f 3620 803f 4f2b 813f
00000060: a0e8 803f 7059 803f 2240 813f 0f23 813f
00000070: 92e3 803f 55b2 7e3f ede3 803f a42d 813f
0.9914766 1.0010594 1.009651 0.9913287 1.0079561 1.0020885 1.0102595 1.0074035
1.006349 1.0062264 1.0001495 0.99805623 1.0094023 1.0037054 0.9922441 1.0065181
1.0004389 1.0015731 1.0079699 1.0023723 0.99960375 1.008213 1.000983 1.0091342
1.0070992 1.0027294 1.0097697 1.0088824 1.0069449 0.99490863 1.0069557 1.0092053

encoder.lob_enc.res_blocks.0.bn2.bias f4 [32]
00000000: eed5 cf3b 2d1f 9838 9592 2a3c 7151 81bb
00000010: 48df 0c3c d45b c53b e22d 233c ec14 293c
00000020: 190e 1b3c c768 f63b 351a 2abb d37f 2738
00000030: f36e 0a3c 7ef2 983b 2bc8 0fbc d8a4 c63b
00000040: 7ba7 833b 1cff 5e3a 36f6 223c 7371 4e3a
00000050: 5137 a1ba 5012 1e3c 8620 96bb eb7f 153c
00000060: c132 083c 59dd 913b 84ab 233c 0501 1a3c
00000070: 41a1 063c bd55 20bc 8461 123c 26f6 1b3c
0.006342641 7.253732e-05 0.010410924 -0.003946476 0.008598156 0.0060229097 0.00995967 0.01031993
0.00946381 0.0075198147 -0.0025955562 3.993495e-05 0.008449304 0.004667579 -0.008775751 0.0060621314
0.004017768 0.0008506642 0.009946397 0.00078751816 -0.0012299811 0.009647921 -0.004581514 0.009124736
0.008312882 0.0044514355 0.009989623 0.009399657 0.008217157 -0.009786067 0.008934382 0.009519136

encoder.lob_enc.res_blocks.0.bn2.running_mean f4 [32]
00000000: 0ded 8e3d 2dfb 1bbd 2b18 20bc 16cd 663d
00000010: 236c a5bc a6ae a13e 004b aebe a91a 1a3e
00000020: 594b c53d 213b 803d 3bba 80be 5485 43bd
00000030: a0b7 cebc 0732 20be 8ada 913e 01d6 12be
00000040: e978 e3bc c57b 073e fb5d 70be f554 8f3d
00000050: 21e9 93be 51b2 473e 894d 903d 33bb 24bd
00000060: 23d0 a8be a2ef a8bd bafc dc3c f756 123d
00000070: 0f7d 1abe 3fde 153e 2ee1 4a3c 89e3 bb3d
0.069788076 -0.038081337 -0.009771387 0.05634793 -0.020193165 0.3157856 -0.34041595 0.15049233
0.09633512 0.06261278 -0.25142083 -0.047734573 -0.025234044 -0.15644084 0.28487045 -0.14339449
-0.027767615 0.13230808 -0.2347335 0.06998626 -0.288888 0.19501616 0.07046039 -0.04021759
-0.32971296 -0.08248831 0.026975978 0.035727467 -0.15086769 0.14635561 0.012382789 0.09174258

encoder.lob_enc.res_blocks.0.bn2.running_var f4 [32]
00000000: c643 543d 233b 123d c174 353e add5 0f3e
00000010: b10a ad3d a2c2 503e d62d 283e f47d 6f3e
00000020: f3d0 073e 84a3 cc3d 15a2 6a3e 5bf4 f33c
00000030: 1622 9d3d b577 4b3d d9d1 b73d 8c9d 3c3e
00000040: 2a0d c23d 4283 023e 9128 293e 69dd d23e
00000050: 5ff3 6e3e 4fb3 4f3e 4491 8b3e d37a 5e3e
00000060: 3a9d fc3d 7c32 a03d 4b9e d23d 738f a33e
00000070: c384 273e e2e5 fd3e 44c7 6e3d f214 1a3e
0.051822446 0.03570093 0.1772032 0.14046355 0.08449305 0.20386747 0.16423735 0.23387891
0.13263302 0.09992126 0.22913392 0.029779604 0.07672517 0.04967471 0.08975572 0.18419474
0.09475167 0.12745383 0.16519381 0.41184548 0.23335026 0.20283245 0.27259266 0.21726541
0.12334676 0.07822129 0.10284098 0.3194538 0.16359238 0.4958945 0.058295503 0.15047053

encoder.lob_enc.res_blocks.1.conv1.weight f4 [32, 32, 3, 1]
00000000: 2a4a c1bd 3cc1 933c 4dc4 2d3d ef13 e2bc
00000010: 1f70 8bbd 499a a23d 737f cf3c 0d8c 613d
00000020: 9099 c23d 2f69 b5bd 05c8 933d 3d53 20bd
00000030: dea2 2e3d e7a5 8e3d e3d8 9a3d 8afe 0e3d
00000040: bbfc 613c 2bf1 863b 645c dabc 738d 5d3d
00000050: d2e0 c63d 941f ab3b 6096 a7bd 0d9f 9fbc
00000060: 8849 0cbd 3dfa 4d3d 4db6 a1bd fc6e f4bc
00000070: 2958 35bd 6420 9fbd 62c5 55bd b0cd 823d
00000080: 1663 fb3c bfa4 9f3d 9bbc bcbb 7635 593d
00000090: 83be 2c3d 133d 893d 5b80 08bc 217c a63d
000000a0: e99e a4bb c5e7 fabc fea5 273d c9cb 193d
000000b0: 6df8 86bd b2eb 0dbd 85cf bdbd b27a c13d
000000c0: e5bd e63c 7506 aa3d 02e0 b0bd f43f cf3d
000000d0: d402 c83d ba2d c33d 97d1 8fbd 8077 c83d
000000e0: d67e b0bd a961 99bd ef3d 0ebd a55d d03d
000000f0: 3de4 e6bc 52e9 1a3d 78db 7bbc dd67 593d
00000100: 8d99 513d e135 b03d ce69 6f3d 91e4 ae3d
00000110: da06 bd3d f025 183d 019c 793d 65c6 af3d
00000120: da2a 423d 761f 00bd 6fe4 9c3d c4ac b13c
00000130: cd30 883d ea3a dfbc df30 c4bd deb0 7cbd
00000140: 6ee8 ddbb aeca 88bd 0ed4 2cbd c062 563d
00000150: e987 183d f1ee dcbc 986e 68ba c554 c8bd
00000160: 574f 0ebb fa50 be3a 761a 6bbd ab32 c23d
00000170: 4788 4abd 9a8d 413c ec95 85bd 0174 a13c
00000180: 732f afbd 372a 29bc b288 0c3d 94aa 9b3d
00000190: 6918 1a3c be3b 473c 6525 333c 27b2 67bd
000001a0: b6c9 a73c 034f c6bd 9884 2ebd 81b3 eabb
000001b0: b1f0 0bbd afc3 2f3d 3141 8ebd c128 e23c
000001c0: 88af 88bd bde4 b5bd a3af 84bc e273 5dbc
000001d0: 091e 48bd 1850 c73d cf4e 12bd f013 cabc
000001e0: 10b3 ee3b 6ed8 28bd 360f 8e3c 97d8 c33d
000001f0: b2fa 22bb cd9d 20bd 4810 853d d28c de3c
00000200: bfde 6a3d 898a 9c3c 9388 53bd 0f77 9abd
00000210: f691 31bd ec3e c3bd 418c c3bd a962 6e3d
00000220: 7b82 c8bb deb1 24bb 0bb6 a8bd 6ef7 433d
00000230: 5b3e 973d 0df6 923d 06f3 5abd d115 823c
00000240: ff44 65bd 1b95 303d 944b 513d 5735 81bd
00000250: 30ba acbd 9674 abbd 45aa 113d 6387 873c
00000260: dbf1 7f3d 53c3 c1bc deb4 923d 7a4e ae3d
00000270: ec8d 8fbd 6588 12bc 575a ad3c b697 833d
00000280: d6ba c2bd 9c7a 3b3d be62 80bb 56c4 823d
00000290: 6006 cfbd ea1a 963d 3f5e 923d ee40 ca3a
000002a0: 0e0d efbc e255 503d 0e57 d8bc e395 e9bc
000002b0: a91b 83bd 9b1e b83d 23e4 763d 16f2 f33b
000002c0: 5f95 ddba 374f 92bd 29bf 9c3d d827 1b3d
000002d0: dfaa 0d3d 106e 2f3d 71ef abbd 6d2b 24bd
000002e0: efb4 833d f174 1dbd 65e5 b03d fdcd 8fbd
000002f0: 63f7 993d 919a dd3d 3311 a7bd 2a04 a53d
00000300: 0d77 8b3c ed91 213d 2a5b 26bd 7efc 833d
00000310: 190f 3e3c 38f3 abbd 5ffc c23d 5b29 8eb9
00000320: fa51 94bc 1871 bd3c 3093 313c 27a0 c4bd
00000330: 12ea b83d 655d b0bc 2d85 a23c 5f03 e3bc
00000340: da94 d3bd ef0d c4bd e07c 0ebd 90fb 02bd
00000350: 2722 b23d 9490 643c 461c d43d 6605 aa3d
00000360: 0432 043c 7485 22bd 1244 44ba 9cf0 3dbd
00000370: d2b1 e3bd 4b17 913c b7bc ea3c d315 38bd
00000380: cb4d a83d b0b6 aaba 0406 99bc 9323 05bd
00000390: 915a bb3d ca51 493d 7ba7 9dbd 75ca b3bd
000003a0: 5d07 c1bd 591f ac3d 7051 993d c779 2c3d
000003b0: d757 283d c5a5 a3bd 15f4 813d 6576 95bc
000003c0: 2100 51bc 152b 163b 15c4 20bd caed b33d
000003d0: f3a6 c53b 2be5 7e3d 9888 7bbd 898e b4bd
000003e0: 345c f1bc a372 b63c b9f6 a1bd 9677 81bd
000003f0: 51c0 b53c cbdc b43d c50d 9c3d e381 b83d
-0.09437974 0.018036477 0.042423535 -0.027597396 -0.06808495 0.07939584 0.025329327 0.055065203
0.09501946 -0.08857953 0.07215885 -0.039141882 0.04263579 0.06965237 0.07560899 0.034910716
0.013793166 0.004118105 -0.026655383 0.054089975 0.0971085 0.0052222703 -0.08182979 -0.019485021
-0.034249812 0.050287474 -0.07896099 -0.029838078 -0.04427353 -0.0776985 -0.052190192 0.06386888
0.030686896 0.07795095 -0.005759788 0.0530295 0.042173874 0.06701102 -0.008331384 0.081291445
-0.0050238264 -0.030628094 0.040929787 0.03754786 -0.06590352 -0.034648605 -0.09268097 0.094472304
0.02816672 0.08302013 -0.08636476 0.1011962 0.097661644 0.09530206 -0.07022398 0.09788418
-0.08617942 -0.0748933 -0.034727033 0.10174111 -0.028185004 0.037820168 -0.01537215 0.053077567
0.051171828 0.086040266 0.058450513 0.08539689 0.092298225 0.037145555 0.060939793 0.08582763
0.047404148 -0.031280003 0.07660758 0.021688826 0.06649933 -0.027249772 -0.09579634 -0.06169211
-0.0067720925 -0.06679283 -0.04219442 0.05234027 0.03723899 -0.026969405 -0.00088665774 -0.097817935
-0.002171477 0.0014519983 -0.057398282 0.094823204 -0.04944637 0.011813546 -0.06522736 0.019708635
-0.08553972 -0.010325006 0.03431005 0.076008946 0.009405234 0.01216024 0.0109342085 -0.056566384
0.020481925 -0.09683039 -0.04260692 -0.007162512 -0.034165088 0.042911228 -0.06946028 0.027607324
-0.06674105 -0.08881519 -0.016197031 -0.013516398 -0.04885677 0.097320735 -0.03571969 -0.02466771
0.0072845295 -0.04122203 0.017341238 0.095627956 -0.0024868664 -0.03921299 0.06497246 0.027166758
0.057341333 0.019109027 -0.05164392 -0.0754224 -0.04335209 -0.09533486 -0.09548236 0.05819956
-0.00611907 -0.0025130431 -0.08237847 0.04784339 0.0738494 0.07175837 -0.05345442 0.015879543
-0.055974003 0.043110948 0.051097468 -0.06309002 -0.0843395 -0.083718464 0.035562772 0.01654405
0.06248651 -0.023652708 0.07163404 0.08511062 -0.07009491 -0.008943652 0.021161241 0.06425421
-0.095082924 0.045771226 -0.003918021 0.06385104 -0.10108638 0.07329352 0.07146882 0.0015430728
-0.02918103 0.050863154 -0.026408698 -0.028513854 -0.0640176 0.089902125 0.060276162 0.0074446304
-0.0016905478 -0.07144015 0.076536484 0.037879795 0.034586783 0.042829573 -0.08395279 -0.040080477
0.06430995 -0.038441602 0.086375035 -0.07021711 0.075178884 0.10820497 -0.08157577 0.08057435
0.017024541 0.039445806 -0.040614285 0.064446434 0.011600279 -0.08396 0.09520792 -0.00027115163
-0.018105496 0.023125216 0.010838315 -0.09600859 0.0902902 -0.021528909 0.019838894 -0.027711568
-0.103311256 -0.0957297 -0.03478706 -0.03197819 0.0869792 0.013950486 0.10356955 0.08301811
0.008068565 -0.039678052 -0.000748695 -0.04637204 -0.11117901 0.017711302 0.02865444 -0.04494269
0.08217963 -0.0013024416 -0.018679626 -0.03250463 0.091481335 0.049150266 -0.0769796 -0.0877885
-0.094252326 0.084044166 0.07486236 0.042108323 0.041099396 -0.079906024 0.06345383 -0.018244931
-0.012756378 0.0022913862 -0.0392495 0.08785589 0.006031865 0.06223027 -0.061409563 -0.08816249
-0.029462911 0.02227146 -0.07908387 -0.06321637 0.02218643 0.088311754 0.07619814 0.09009149

encoder.lob_enc.res_blocks.1.conv1.bias f4 [32]
00000000: 4426 2f3c 4175 e33c bc65 873d 114e dd3b
00000010: fde4 3a3d c150 823c 1d36 aebd aa3c 17bd
00000020: ed23 a6bd 82a4 3b3d 0a29 95bb d102 e3bd
00000030: 2dca 773d 2a70 9a3c 7d87 11bd 244a e6bd
00000040: 8531 a4bd 6139 05be fd25 debd 239b 733d
00000050: 7501 2ebd e6e0 6f3d 92a3 aa3c 76a0 603d
00000060: 5199 943b b760 bdbd c94d 5b3d e66e f1bd
00000070: 8842 17bc 5387 b4bb bd4c 003d 3b9e dbbd
0.010690276 0.027765872 0.06611201 0.006753691 0.045628536 0.015907647 -0.08506415 -0.036923088
-0.08112321 0.045811184 -0.0045520114 -0.110845216 0.060495544 0.018852312 -0.035529602 -0.1124461
-0.080172576 -0.1301017 -0.108470894 0.05947412 -0.04248186 0.05856409 0.02082995 0.054840527
0.0045348783 -0.092469625 0.05354098 -0.1178873 -0.009232171 -0.005509296 0.031323183 -0.107235394

encoder.lob_enc.res_blocks.1.bn1.weight f4 [32]
00000000: 7e1e 7e3f 7847 803f 3050 7e3f 483d 803f
00000010: 0a47 813f 4cde 7e3f 63f9 7d3f cf67 7e3f
00000020: 775c 7e3f 4733 7d3f e387 813f f62c 813f
00000030: 3d19 803f 3ca5 813f b518 803f c892 7f3f
00000040: de12 813f d620 803f 4778 813f 2b0a 7f3f
00000050: 7c9d 7e3f 5a2d 803f 07dd 7f3f 8dec 7e3f
00000060: ac5b 813f 1f12 803f 8d1b 7f3f 7439 803f
00000070: f273 7d3f 96b9 7e3f cd90 7e3f cd5c 813f
0.9926528 1.002181 0.99341106 1.0018702 1.0099804 0.9955795 0.9920866 0.9937715
0.9935984 0.9890637 1.0119594 1.0091846 1.0007702 1.012855 1.000754 0.99833345
1.0083883 1.0010021 1.0114831 0.9962489 0.9945905 1.001384 0.99946636 0.995797
1.0106101 1.000553 0.99651414 1.0017533 0.99005044 0.9950193 0.994397 1.0106446

encoder.lob_enc.res_blocks.1.bn1.bias f4 [32]
00000000: 55db e1bb 673d eb3b 2c82 6536 f326 d8ba
00000010: faf9 473c 38fb 21bc f601 08bb c6d4 9bbb
00000020: 822d 933b 3d0a 19bc a8ee 213c 5a8e e03b
00000030: 3a3c 3c3c a805 263c f009 993b 222f 2bbc
00000040: 2085 e03b 887f a5ba 94c2 a23b 1cc6 553c
00000050: 181a 063c b2cd 4c3c 75da bd3b 4ba0 12ba
00000060: d3b7 1f3c 5a5c 36bb 40e2 283c 2a4b c03b
00000070: 44fe 2bbc 82e9 733b 9ba9 a1bb 6b8b e23b
-0.0068926015 0.0071789506 3.419943e-06 -0.00164911 0.012205595 -0.009886555 -0.0020753122 -0.004755589
0.004491509 -0.00934082 0.00988356 0.006852907 0.0114889685 0.0101331845 0.004670374 -0.010448249
0.0068518072 -0.0012626508 0.004967043 0.013047721 0.008184932 0.012500213 0.0057938644 -0.00055933435
0.009748417 -0.0027826042 0.010307848 0.0058683353 -0.010497633 0.003721804 -0.0049335486 0.0069135926

encoder.lob_enc.res_blocks.1.bn1.running_mean f4 [32]
00000000: f6f7 043f e4a5 d1bc 6226 1e3d 1045 07bf
00000010: fbf8 13be adeb 90bd a391 b1be 059a 323f
00000020: 2bde 2ebd 1e32 b8be 97a4 c6be 95d5 4cbf
00000030: 9929 2bbf 0e9a 0dbf 7fac 4a3f 35f4 9ebe
00000040: b818 4abf a4a5 d8be 98db 58bf 6cb4 0dbf
00000050: 30a3 85be d18b 2abe 61ba 0ebe 7bc9 e13e
00000060: e422 15bf 7f14 3dbe a635 c13e 3411 d7be
00000070: cf68 05be aa05 40be 2c9a d2bc 4449 b5be
0.5194086 -0.025591798 0.038610823 -0.52839756 -0.14450447 -0.070762016 -0.34681424 0.69766265
-0.042692345 -0.35975736 -0.38797447 -0.800134 -0.6686035 -0.55313194 0.7916946 -0.3104569
-0.7894397 -0.42313874 -0.84710073 -0.55353427 -0.26101065 -0.16654898 -0.13938285 0.4409903
-0.58256364 -0.1846485 0.37736243 -0.42005312 -0.13028263 -0.1875216 -0.02570828 -0.3540746

encoder.lob_enc.res_blocks.1.bn1.running_var f4 [32]
00000000: afb3 103f cad2 b43e e5d8 9a3e 7410 033e
00000010: a4a0 b93e 06e4 7e3e 7dc7 b93d b234 f13e
00000020: bf72 eb3e 09e1 d63e 3466 193e fb5d 103e
00000030: 6ece 693e b40b ff3d 47a9 ea3e a458 aa3d
00000040: 069e 813e d6a5 7f3e eff9 1f3e 0588 fb3d
00000050: f524 1a3e b988 353f 0566 623e 8d3c 333f
00000060: e5b0 943e e688 d13e 0b43 3f3f cc01 803e
00000070: 14fe 923e ee0d b83e 5fb8 9b3e c2b6 653e
0.56524175 0.3531707 0.30243602 0.12799245 0.36255372 0.24891672 0.090712525 0.47110516
0.45985982 0.41968563 0.14980394 0.1409835 0.22832653 0.12453404 0.45832273 0.08317688
0.25315875 0.24965605 0.15622686 0.12281803 0.1505316 0.7091175 0.2210923 0.7001427
0.2904121 0.40924758 0.74711674 0.2500137 0.2870947 0.35948128 0.304141 0.22432998

encoder.lob_enc.res_blocks.1.conv2.weight f4 [32, 32, 3, 1]
00000000: 414a 153d 7417 473c 4eaa 97bd 628d fa3b
00000010: a864 8fbc 42c3 963d 8ba4 d6bd 6786 703b
00000020: f6f5 bd3d 5000 96bd b457 c13d fd9e e1bc
00000030: 0290 b53d c3c8 57bc f888 a23d fd07 bfbd
00000040: 4663 113d d86c 5abd e5eb 153d fa8f bbbd
00000050: 7e7c 1ebd bd69 913b c4a8 99bd b16a 743d
00000060: bccf 4dbd 7ac1 9fbc 6e3f 71bc 3027 433d
00000070: 18d0 2abd 81bb f63c bbf5 25bd 3729 8e3c
00000080: f764 a8bd 2a1a f0bc 8bc1 acbd 9d6b a2bd
00000090: 72b4 ac3d d5ab d2bd 63c5 283d bb45 2bbd
000000a0: 6909 c93d 76b1 0fbd ff15 23bd f5f6 293d
000000b0: 475a 8ebd 1596 7dbd 4e71 aabd 7117 9b3d
000000c0: 9191 ad3d f7c9 6fbd 3d0f 8b3d ab00 ccbd
000000d0: 0fc8 593d c2bc ddbd 407f ee3d 262b f7bc
000000e0: 2ab8 21bd e9ab e93c 8d67 a1bd b305 a43d
000000f0: 4804 b4bc f27a 373d 4613 753d 2df6 193d
00000100: 7f74 16bd e673 b83c 3a33 dcbd e5c2 8bbd
00000110: ddee cfbd 57e4 1fbc a682 6abd 57fb 97bd
00000120: 7cad 20bd 6bc6 95bd 9b1e 123d 2435 c7bc
00000130: 3e64 bf3d a308 783d abac dabc 8a5a 50bc
00000140: 53e2 c4bd 47df 303d a4a3 05bb 312c a13d
00000150: b92f c7bd 1de5 7f3b e976 60bd 2771 78bd
00000160: 88f7 e5bb 03aa 353d 83c0 393d 3997 31bd
00000170: bedf 93bd e176 093d eca4 95bd 5864 8ebb
00000180: ba8f c73d 6665 b8bd 54fe 4fbd 22d8 e03b
00000190: 3ee2 1abd d8b0 3d3b 11cf 693d 9976 e53a
000001a0: 976d 773d 0e0e a8bd 3d39 b1bd 98d8 c1bd
000001b0: 23e9 833c 6d0e 8abd 4e96 9f3d 71a8 4a3d
000001c0: 3e99 033d 2830 51bc 670d 9dbd 9bd6 883c
000001d0: f40f afbd 74e8 c4bd 8a64 49bd 5bb2 40bd
000001e0: 8893 99bd 21f1 373c 9403 c6bd e0d5 c53d
000001f0: 934d 0cbd a8b3 13bc cbad 363c 7d23 c83d
00000200: 4cb8 353d d65d 843d f84f a6bc 764c 33bc
00000210: fb29 81bc b24b 853d 2fdc 413d e58a 8f3d
00000220: b762 803d eb3f c3bd c4e0 4abd 9f37 443d
00000230: ceb2 093d fdc8 b1bd e536 8d3d 67df 03ba
00000240: 9644 043d f3bc 3e3c 7043 81bd 9c9c 333d
00000250: 6ee2 963c 7604 b03d 962d c63d e6d7 46bd
00000260: 6dd7 15bc 9c72 a7bd 68e8 093d 3dd2 8ebd
00000270: 1fbf 443d 5fbf 91bd 88ab c23d 5d57 913d
00000280: 3537 b8bd 3b61 f6bb b0e2 cb3c 0fef 88bc
00000290: 796c 90bd dba7 0cbd b5ad 94bd 43da bfbc
000002a0: 81c1 b73d a2a2 51bd 23ae 1f3d 9171 233c
000002b0: 9bd9 133d fdb7 5f3d 0dd8 62bb b177 993a
000002c0: c7a6 25bd a76e ab3d c412 213d 7db0 183d
000002d0: 7be8 cdbb 36b3 8ebd 0ccf b4bd 776a 303d
000002e0: 1ef3 a23c c21d 953d 43f0 a33d 2628 88bb
000002f0: 0d1d 803d 69b3 02bd 4ea2 aabd ab34 9d3c
00000300: 41d9 35bd 8ef1 a53d ba24 b43d 3fce 67bd
00000310: 6cf5 023a 2d49 a93c 015d c1bd c786 083d
00000320: baa1 bc3c 4186 5f3c fea2 20bd bcaa 983d
00000330: 89c4 97bd 5b62 333d 5692 463c 0111 bebd
00000340: dc9d 4d3c 5dc7 28bd 9e33 64bd cca4 19bd
00000350: 2f60 7f3d 85fd cc3b e815 4fbd 3a2b 75bb
00000360: b788 62bc 5c8d 803c 11b3 1ebb 781e 4abd
00000370: e497 703d 8bb5 c2bc 9ccc 1f3d c003 473d
00000380: a644 a73d 17c0 d63c 9fe7 5a3d 8050 673c
00000390: e820 14bc 112f b53d 87f7 91bd 0025 6bbd
000003a0: 1d1a 88bd 6c29 dc3c 683d 7e3d d1b2 eabd
000003b0: b639 66bd 299e 91bd 5474 883b 03d3 5139
000003c0: 8ae4 86bc 7a56 57bc a316 a6bd f789 963d
000003d0: da73 76bd 479f 39bc 1080 1cbc 3b11 d6b9
000003e0: 3223 c53d 893d 80bd 49cb aabc 3914 763d
000003f0: 88af 813d 0650 61bd cb25 493d a832 a83d
0.036447767 0.012151588 -0.0740553 0.0076462487 -0.017504051 0.07361461 -0.10480603 0.0036701204
0.09275429 -0.07324278 0.09440556 -0.027541632 0.08865358 -0.013170424 0.07936281 -0.093276955
0.035495065 -0.053326458 0.03660192 -0.09158321 -0.038692944 0.004437654 -0.075028926 0.05967206
-0.05024694 -0.019501437 -0.0147245955 0.047644794 -0.04170236 0.030118706 -0.04051755 0.017353637
-0.082223825 -0.029309351 -0.08435353 -0.07930682 0.08432855 -0.102866806 0.041203868 -0.041814547
0.09816248 -0.03508135 -0.0398159 0.041495282 -0.06950813 -0.061910708 -0.083223924 0.075728305
0.0847503 -0.058542218 0.06790016 -0.09961065 0.053169306 -0.10827018 0.11645365 -0.030171942
-0.039482273 0.028524356 -0.07881079 0.080088995 -0.021974698 0.044794984 0.059832834 0.037588287
-0.036732193 0.022516202 -0.10751958 -0.068242826 -0.101529814 -0.00975903 -0.057253502 -0.07420986
-0.039227948 -0.07313236 0.03567372 -0.024317332 0.093452916 0.06055511 -0.026693663 -0.012716899
-0.096134804 0.043181684 -0.0020391727 0.07869757 -0.09725899 0.0039046474 -0.0548009 -0.060654785
-0.0070180334 0.04435159 0.04534961 -0.043357108 -0.0722041 0.033560637 -0.07306847 -0.004345458
0.097442105 -0.09003715 -0.050779656 0.0068617025 -0.037813418 0.0028944518 0.05708224 0.0017506658
0.060407247 -0.08205806 -0.086534955 -0.0946514 0.01610238 -0.06741033 0.0779234 0.049477044
0.032128565 -0.012767829 -0.07668572 0.016703894 -0.08547965 -0.096146494 -0.049168147 -0.047045093
-0.074988425 0.011226923 -0.09668651 0.09659934 -0.034253668 -0.009015001 0.011149834 0.09772394
0.044365212 0.0646321 -0.020301804 -0.010943523 -0.015767088 0.06508578 0.047329124 0.07008914
0.06268828 -0.09533676 -0.04953076 0.047904607 0.033617787 -0.086809136 0.06895236 -0.0005030543
0.03229197 0.011641729 -0.06311691 0.043850526 0.018418517 0.08594601 0.096766636 -0.04854574
-0.0091456 -0.08176157 0.033668905 -0.069736935 0.04803383 -0.07116579 0.09505373 0.07096741
-0.08994905 -0.007518915 0.024888366 -0.016715555 -0.070519395 -0.034339767 -0.072596945 -0.023419505
0.08972455 -0.05118049 0.03898443 0.009975807 0.036096197 0.054618824 -0.003461364 0.0011708644
-0.040442254 0.08370715 0.039324537 0.037277687 -0.0062838173 -0.069677755 -0.088285536 0.043070283
0.019891318 0.072810665 0.08004811 -0.0041551767 0.06255541 -0.03190938 -0.083317384 0.019190153
-0.044396643 0.081027135 0.087960675 -0.056593176 0.0004995677 0.020664776 -0.09441567 0.03333166
0.023026336 0.0136428485 -0.03921794 0.0745444 -0.07410533 0.04379497 0.01211985 -0.09280587
0.012549844 -0.041205753 -0.05571329 -0.03751068 0.062347587 0.006255808 -0.050558 -0.0037409798
-0.013826541 0.015692405 -0.0024215619 -0.049345464 0.058738604 -0.023768207 0.03901349 0.04858756
0.081673905 0.026214642 0.053443547 0.014118314 -0.009041049 0.08846868 -0.0712729 -0.057408333
-0.06645606 0.02687522 0.06207028 -0.11459888 -0.05620738 -0.07110245 0.004164258 0.00020010401
-0.016466398 -0.013143176 -0.08109786 0.073505335 -0.06016908 -0.011329479 -0.009552017 -0.00040830098
0.096258536 -0.06261737 -0.020848887 0.06007788 0.06332308 -0.055007957 0.049108308 0.08212787

encoder.lob_enc.res_blocks.1.conv2.bias f4 [32]
00000000: 04fa ab3b bdeb 0c3c c15a e1bc d4ab be3c
00000010: b51e c7bd 3a4a 2ebd e3ee 85bd 5555 9b3c
00000020: 2828 d1bd 7e13 373c 0402 95bd ac2b 103d
00000030: fbdc 0cbd d930 90bc 5008 673a 4888 0c3b
00000040: a1dd 333c 944a fb3c 5812 85bd 6542 a3bd
00000050: 325a 923b 42d8 06be 66e6 0dbc 736f 843c
00000060: 06f2 363d 808e 2e3d 0b8b a9bd d327 d6bd
00000070: eac4 7cbd 1c6e ecbd 3cc5 c5bc 4ef3 a53c
0.00524831 0.008601126 -0.027509095 0.023275293 -0.09722654 -0.042551257 -0.06539705 0.018961588
-0.10212737 0.011174081 -0.07275775 0.0351979 -0.03439043 -0.017601417 0.00088131893 0.0021443535
0.010978133 0.03067521 -0.064976394 -0.07971648 0.0044663185 -0.13168433 -0.008660888 0.016166424
0.044664405 0.042616367 -0.082784735 -0.104568146 -0.06171123 -0.11544439 -0.0241419 0.020257618

encoder.lob_enc.res_blocks.1.bn2.weight f4 [32]
00000000: a408 813f 420a 803f 8c39 813f ace3 7e3f
00000010: ec0c 813f 86c4 803f bb1a 813f 0dfe 803f
00000020: 251b 813f 95db 803f f73d 7f3f ff4c 7f3f
00000030: ff11 813f 14a6 803f cf54 7d3f 079b 803f
00000040: d7ae 803f 9e16 803f 1d94 803f 5004 803f
00000050: db2b 803f cb17 813f 23ad 7f3f e301 813f
00000060: 4cd4 813f 3684 803f 2606 813f 0416 813f
00000070: 20de 803f 7461 7d3f e728 813f c809 813f
1.0080762 1.000313 1.0095687 0.9956615 1.0082068 1.0059974 1.0086282 1.007753
1.0086409 1.0067011 0.99703926 0.9972686 1.0083617 1.0050683 0.9895753 1.004731
1.0053357 1.0006902 1.00452 1.0001316 1.0013384 1.0085386 0.9987356 1.0078701
1.0142913 1.0040348 1.0080001 1.0084844 1.0067787 0.98976827 1.0090607 1.008111

encoder.lob_enc.res_blocks.1.bn2.bias f4 [32]
00000000: 34d5 0c3c 2be5 533a 029d 233c d6f7 c1bb
00000010: e41f 0f3c f003 e73b 565d 1d3c ad06 133c
00000020: d285 183c 4859 123c e3fc 50bb 0101 3939
00000030: 691d 063c bd5a a53b d3e7 21bc e37a e23b
00000040: 1e41 dc3b ed07 833a f341 183c 389a 0939
00000050: 3142 8f38 06ba 1e3c f1c3 4ebb dbe9 0c3c
00000060: 3eac 193c 2dc0 6a3b b978 213c 0022 0e3c
00000070: d7cb 123c 5344 1bbc 374f 183c 3b20 1b3c
0.008595753 0.000808316 0.009986164 -0.005919437 0.008735631 0.00705003 0.009604773 0.00897376
0.009309249 0.008932419 -0.0031889013 0.00017643349 0.008185723 0.0050462172 -0.009881931 0.006911622
0.0067216298 0.0009996869 0.009293067 0.00013122789 6.8311005e-05 0.009687906 -0.0031549896 0.008600677
0.009379445 0.0035820112 0.009855443 0.008675098 0.008959732 -0.009476739 0.00929623 0.009468134

encoder.lob_enc.res_blocks.1.bn2.running_mean f4 [32]
00000000: 8887 b5be a577 3f3d b3ab 0bbe a95e 603c
00000010: 31f3 b83c d4ac 033e 2c4c 09be de5d b03c
00000020: 5799 163e 64a3 5cbe 8645 053e dc5a a7bd
00000030: 4325 4bbe 407b 5abc 8131 6abe 903e 173e
00000040: b78d 24bd 2550 6f3e 4a40 e93b 689f 21be
00000050: 4384 803e 01e8 273c d128 b0be fa32 e2bd
00000060: a8d2 d9be e92b c13b b60e 8fbe 63f9 4a3d
00000070: 076b bebd 897e 75be b4c2 c6be 583b a03e
-0.35454965 0.04674496 -0.13639717 0.013694444 0.0225769 0.12858897 -0.13407964 0.021529134
0.14706932 -0.21546704 0.13014802 -0.08171627 -0.19838433 -0.013335049 -0.22870447 0.1476996
-0.040174212 0.23370416 0.0071182596 -0.15783465 0.25100908 0.010248185 -0.3440614 -0.11044879
-0.4254353 0.005895127 -0.2794091 0.04955424 -0.092977576 -0.2397405 -0.38820422 0.31295276

encoder.lob_enc.res_blocks.1.bn2.running_var f4 [32]
00000000: bf9f 543e 9c7c 4d3e b91c 633d 219f 073e
00000010: f1eb ff3e a1fe d53d f6b5 103e 1542 e53d
00000020: 250e cf3d 0828 973d ed7b 123e 9efb 223d
00000030: 08f1 af3d 23c1 b43d 1396 883d edbb c63d
00000040: a624 383d ba54 e13d 2c93 913d cde2 a53d
00000050: c7b1 fe3d 932b dd3d 4c77 ac3e 233d 883e
00000060: b8fd 953d e187 bd3d 0850 353e 5aa2 2a3e
00000070: 69f4 9c3d a628 f43d fa56 1a3e 91f0 bc3d
0.20764063 0.20067066 0.055447314 0.13244297 0.49984697 0.10448957 0.14131913 0.11194245
0.1011012 0.07380682 0.14305086 0.039790742 0.08590895 0.088259004 0.066692494 0.09703813
0.044956826 0.110024884 0.07108149 0.080998994 0.12436252 0.10799327 0.33684766 0.26609144
0.07323784 0.092544325 0.17706311 0.16663495 0.07663805 0.119218156 0.15072241 0.09225572
