outputs/performance_test/checkpoint_epoch_9.pt (torch, 945821 bytes, 81 tensors)

encoder.lob_enc.conv_in.0.weight f4 [32, 2, 3, 1]
00000000: 4f38 f2bd c12e 9a3e 68c6 80be 9c74 a5bd
00000010: ad0a 87bc b19b 5fbe 5c55 1e3c 4359 c8bd
00000020: a6e1 4fbe 94ac a8be 3af2 1dbc 6b10 be3e
00000030: e939 1b3e a4e0 a2be 883e 5abe 59fe 853e
00000040: 8351 24be 79fa 35bd bb3d 4dbe cdfa 4d3e
00000050: fcb9 8fbe c153 c7be a3f3 9cbe 89bd aebe
00000060: 56dd 4b3d 2ad2 933d d049 febd 9e66 203e
00000070: 2148 403d 3fbc d13d 05af 593e 8ab6 b93d
00000080: dc1c cd3e b3ae a03e 53f5 5fbe 544f 963e
00000090: 480f 3ebd 830a cdbc 2ee6 0a3d 7e45 b8be
000000a0: a3d1 873e 9920 873e be46 c53e dca4 833d
000000b0: 6cbc f8bd f8f6 8fbd 69b2 13be 5293 c2be
000000c0: 471a 0e3e 342b 673d feb4 04be f0d1 76be
000000d0: f3e6 bfbd 47ba de3d e5fc a03e 1857 3d3e
000000e0: 23f3 983e 49d0 a63e ee80 46be f7a1 92bc
000000f0: 73b8 abbe 2380 67be 2deb 2b3e 6bc5 213e
00000100: 92fe 403e 057c b73e d7ff 233e 9f38 53be
00000110: 4c5b b9bd 7599 c53c f8b9 4e3e 50ff 5cbe
00000120: 796c 25be b874 1f3e 65b5 173e 5501 c83e
00000130: 7432 b33e 74f6 3cbe 211f 1b3e 1899 76be
00000140: 9c39 32bc 9886 c0bc f684 d13d da55 bc3e
00000150: 0446 aabe 387a b93e ae01 8b3e 03f3 57be
00000160: eea2 fcbd 307a d2bd 2b64 803e f49f d8bd
00000170: 947f 193e 45a9 25be cd0e ab3e e3b0 5abd
00000180: a22c ca3e 343b 98be c18d f4bd f209 893e
00000190: 1450 103e bc98 4fbe 9263 afbe 456e a1be
000001a0: 104e a9be 5978 76be 045a 7dbe 6ae6 f2bd
000001b0: 3b12 b13e cd61 ecbd 5c83 85be df3e 453e
000001c0: b499 7dbe 1824 59be cea1 80bd 24cc 1ebd
000001d0: a61e 84be 20c7 a2be 10b3 d0be 98c4 30be
000001e0: 9a9b 473e bc65 cf3c 1de1 a23e 27c0 7d3d
000001f0: e713 a2be 54f5 d83c 9180 e1bd 0706 673e
00000200: 46d9 d23d 0dd1 cc3e 751f bdbe 86ab 4fbe
00000210: f274 b5be 44b6 e33c 0b71 89be a886 36be
00000220: be83 c33e 17ad 14be 1529 463e 94ea 883e
00000230: c0f9 993e a9d6 a63e b0aa 853e 08c0 393d
00000240: 9063 b53e 1b5a c83e 898c 8bbe a912 c33d
00000250: 0987 943e 6bb2 88be 775a 373e 4ab9 883e
00000260: f9c3 1abb ac89 d8bd 6b47 f7bc 2cc0 ac3e
00000270: 55fa aabe 9e37 1c3e 6b78 6cbe 9e94 873e
00000280: aa2b 36be 0e52 a53d f9b4 7e3e 50c1 57bd
00000290: 0208 54bd d2e9 b83e 94f9 c73e b0df 6c3e
000002a0: f33f 603c b0af 4fbc 64b7 7cbe 8089 8f3e
000002b0: e309 343e a293 ab3e 4b66 8dbe b62e b73d
000002c0: 181f 8e3d 12d9 08be db1d 5fbd 7526 943d
000002d0: 7bef efbd 9acb c23e b7a8 bebe f81a 84bd
000002e0: 7e2f 4cbe 7df5 9b3e 0f74 13be db67 babd
000002f0: 4039 b53e 568c b5be 71aa 07be c307 b53e
-0.11827146 0.30113795 -0.25151372 -0.08078882 -0.016484583 -0.21836735 0.009663906 -0.0978265
-0.20300922 -0.32944167 -0.009640271 0.371219 0.1515881 -0.31812012 -0.21312916 0.26170614
-0.16046719 -0.044428322 -0.2004308 0.20115204 -0.28071582 -0.38931087 -0.3065463 -0.3412898
0.04977163 0.0721782 -0.12416422 0.15664145 0.046943787 0.10240983 0.21258171 0.0906802
0.4006108 0.31383285 -0.21870928 0.29357398 -0.046401292 -0.025029426 0.033910923 -0.35990518
0.26527128 0.26392058 0.38530535 0.06427929 -0.121453136 -0.070295274 -0.14423527 -0.3800302
0.13877212 0.056437686 -0.12959668 -0.24103522 -0.09370222 0.10875373 0.31442943 0.18490255
0.29873 0.32580784 -0.1938512 -0.017899496 -0.3353916 -0.22607474 0.16788931 0.15797965
0.18847111 0.35836807 0.16015564 -0.20627068 -0.090506166 0.024121026 0.20188129 -0.21581769
-0.1615466 0.15571868 0.1481529 0.39063516 0.3499943 -0.1845339 0.15148593 -0.24081838
-0.010877993 -0.02350168 0.102304384 0.3678425 -0.33256543 0.36226058 0.2714972 -0.21088795
-0.12335764 -0.10277212 0.25076422 -0.10577384 0.14990073 -0.16177852 0.3340973 -0.05339135
0.39487177 -0.29732668 -0.119411 0.267654 0.14093047 -0.20273107 -0.34255654 -0.3152944
-0.3306737 -0.24069346 -0.2474137 -0.11860354 0.3458422 -0.115420915 -0.26076782 0.19262265
-0.24765664 -0.21205175 -0.06280862 -0.038768902 -0.25804633 -0.31792545 -0.40761614 -0.17262495
0.19492951 0.025317065 0.31812373 0.06195083 -0.3165581 0.026484169 -0.1101085 0.22560893
0.10295348 0.40003243 -0.36938062 -0.20280275 -0.35440785 0.027796872 -0.26844057 -0.17824805
0.3818645 -0.14519154 0.19351609 0.2674147 0.30073357 0.32585648 0.26106787 0.04534915
0.35427523 0.39131245 -0.27255657 0.095250435 0.29009274 -0.26698622 0.17905603 0.26703864
-0.0023615344 -0.10573134 -0.030185422 0.33740366 -0.33394113 0.15255591 -0.23092811 0.26480573
-0.17790094 0.08072291 0.24873723 -0.05267459 -0.05176545 0.3611589 0.390576 0.23132205
0.013687122 -0.0126761645 -0.24679333 0.28034592 0.17581896 0.33511072 -0.27617106 0.08944456
0.069395244 -0.13364056 -0.05447183 0.072338976 -0.11715599 0.3804596 -0.37238094 -0.064504564
-0.19939992 0.3046073 -0.14399742 -0.0910184 0.3539524 -0.3545863 -0.13248612 0.35357484

encoder.lob_enc.conv_in.0.bias f4 [32]
00000000: 99dc 923e c31c eebd a752 9dbd f23a 47be
00000010: 2374 a53d 8719 f53d 9b33 8d3e 1380 373e
00000020: bbdc 523e 3f25 85bd a161 95be bbd2 663e
00000030: 5f58 e8bb 4cc5 88be 079d 153d e7cf ce3e
00000040: effa 0cbd b59a aebe b777 7c3e 476d 9b3e
00000050: 8f92 85be d6d0 b6be 6a8d 95be ebe0 2b3e
00000060: c590 2bbe 7e52 cdbe 8ffd efbc 4165 54be
00000070: 6b7d f7bd 38fd 24be cb45 0cbe 9917 88be
0.28683928 -0.116265796 -0.0768178 -0.1945608 0.08078792 0.119677596 0.27578434 0.1791995
0.20592014 -0.06501245 -0.29176047 0.22541325 -0.007090613 -0.26713026 0.036526706 0.40392992
-0.034418996 -0.34102407 0.24655043 0.3035681 -0.26088378 -0.35706204 -0.29209453 0.16785018
-0.16754444 -0.40102 -0.02929571 -0.2074175 -0.120844685 -0.1611222 -0.13698499 -0.26580504

encoder.lob_enc.conv_in.1.weight f4 [32]
00000000: 33e1 803f 44d5 803f 8925 813f 7cb0 803f
00000010: 0c81 803f ee36 803f ca2c 803f 994e 813f
00000020: f8eb 803f cde2 803f 2c14 7c3f a70a 7d3f
00000030: 0ac2 803f 4673 7f3f 6504 7e3f 4ac7 803f
00000040: 72db 7d3f af62 813f 0c20 813f e259 803f
00000050: e7d5 7d3f 8b2c 7e3f 0eb4 803f 91db 7e3f
00000060: 5dc5 803f 232c 7f3f a70a 813f 5867 813f
00000070: cb9d 803f 0d31 803f 2233 813f 62de 803f
1.0068725 1.0065084 1.008958 1.0053859 1.0039382 1.0016763 1.0013669 1.0102111
1.0072012 1.0069214 0.9846828 0.9884438 1.0059216 0.9978527 0.99225456 1.0060818
0.9916297 1.0108241 1.0087905 1.002743 0.99154514 0.9928672 1.0054948 0.9955378
1.006023 0.9967672 1.0081376 1.0109663 1.0048155 1.0014969 1.009373 1.0067866

encoder.lob_enc.conv_in.1.bias f4 [32]
00000000: fd7e e03b 83c6 d33b 4405 1d3c 7fdf 273b
00000010: a66b 6fbb 2c7d 453c a7c6 213c 0618 233c
00000020: d3e9 fd3b 209d 203c af4e 53bc ac23 d63a
00000030: d5b2 5abc c556 8a3b a8d6 7237 68e2 203c
00000040: ac3c 9b3b 04c4 173c 7805 153c 9a3b ad3b
00000050: b7a1 343c 3b23 b33b 2118 dd3b d7bc 433c
00000060: 16f3 083c dc62 723a 5d97 193c 6f18 2b3c
00000070: 5f1a 2d3c d91e 16bb d682 353c afc0 163c
0.0068510757 0.0064628734 0.009583775 0.0025615392 -0.003653267 0.012053769 0.009874023 0.009954458
0.0077488213 0.0098030865 -0.012897178 0.0016337535 -0.013348301 0.0042217695 1.4474303e-05 0.009819604
0.0047374573 0.009263042 0.009095542 0.005286646 0.011024884 0.0054668463 0.006747261 0.011946878
0.008358737 0.00092462986 0.009374467 0.010442837 0.010565369 -0.002290657 0.011078557 0.009201213

encoder.lob_enc.conv_in.1.running_mean f4 [32]
00000000: cd67 83cd e398 34cd 25ae 64cd 393f 63ce
00000010: 28c7 534d 5825 3c4e bb18 ba4c 2824 39cd
00000020: da9f decc 504c 1d4e 766b 574d 251d afcc
00000030: 75e7 f34d 6d27 6d4d 18a7 b6cc 1631 904d
00000040: 2d9c f94c 6537 8ace 0793 52cd d4fb 59ce
00000050: abda 524d 21f1 e44b 34e1 b6cd 79d7 714e
00000060: dee6 cf4d b538 e04d 6d75 2acd e97e 434e
00000070: 0af4 bc4d e978 20cd 3f64 36cc a188 4acb
-2.7557725e+08 -1.893699e+08 -2.3978862e+08 -9.5314285e+08 2.2206528e+08 7.89141e+08 9.7568216e+07 -1.9413466e+08
-1.1671931e+08 6.59756e+08 2.25884e+08 -9.181009e+07 5.1150403e+08 2.48674e+08 -9.576262e+07 3.02392e+08
1.3086756e+08 -1.1594431e+09 -2.2080318e+08 -9.142899e+08 2.2109662e+08 3.0007874e+07 -3.8352653e+08 1.01435757e+09
4.3600173e+08 4.702266e+08 -1.787389e+08 8.199686e+08 3.9626374e+08 -1.6826741e+08 -4.781286e+07 -1.3273249e+07

encoder.lob_enc.conv_in.1.running_var f4 [32]
00000000: f71a bb5b 2d24 515b e23d a25b fe84 6c5d
00000010: f37d 545b 0968 255d 6bd2 f45a 16b6 7d5b
00000020: 0f5f 925a b635 e85c c1e1 975b 68f9 9d5a
00000030: 88b7 8c5c c862 955b b408 135b 8b26 cc5b
00000040: 58e8 545b 7ccd ac5d f4fa a75b 820e 575d
00000050: 92ec 825b 7b5d a25a 13bf 325c a04b 845d
00000060: 2cc4 6d5c fdae 6a5c 9234 325b bdda 2e5d
00000070: f2b4 295c 63dc 1e5b 1196 a75a c357 395b
1.0533094e+17 5.8868046e+16 9.133397e+16 1.06518914e+18 5.9811178e+16 7.4492414e+17 3.4455626e+16 7.1413375e+16
2.0599932e+16 5.2289e+17 8.550188e+16 2.2232898e+16 3.1686633e+17 8.4096765e+16 4.138639e+16 1.1492655e+17
5.992816e+16 1.5564681e+18 9.456449e+16 9.6852914e+17 7.370372e+16 2.2850865e+16 2.0125054e+17 1.1916111e+18
2.6770105e+17 2.6423018e+17 5.0160348e+16 7.874744e+17 1.9107289e+17 4.4715364e+16 2.358566e+16 5.2169366e+16

encoder.lob_enc.res_blocks.0.conv1.weight f4 [32, 32, 3, 1]
00000000: b632 0cbd bcf4 99bd b91a cebc 968d a0bd
00000010: c80b ecbb 8652 713d 6038 68bd a120 e4bc
00000020: a5da f6bc 3e4b 40bd daeb a8bd 31b1 603c
00000030: bf9c a4bc e04c b0bb eef2 01bd 10d8 95bd
00000040: e887 39bd ecad 3f3d 243d 7a3d 5fc4 14bd
00000050: 27ac 653d d5bd 93bd 1d43 8bbc fa9b d0bd
00000060: 4f8f e9bc 35f4 933c 88b6 503d 45e3 da3c
00000070: fe54 1b3d b55b e3bc 88f2 bf3d 59a7 afbd
00000080: db1a dabc c1db b7bc c739 683d 48d4 453c
00000090: d91d b33d d9e2 a0bd 50e3 e23c 2892 b9bd
000000a0: 9f14 d03c 60c2 4cbd 625b 69bd 32c3 003c
000000b0: b965 ef3b 0bfb bb3d 638d 953d e523 6a3a
000000c0: f5d9 1b3d 6902 df3b db4c e3bc 9779 b1bd
000000d0: 7695 c0bd 9eb3 18bb 972a 66bd 39f7 a33d
000000e0: 9774 69bd fd5b 703c f74f 7bbd 8c5d b73d
000000f0: 37ec 233d 048b 423d 6e04 b53c 7f88 b8bc
00000100: 7e37 31bd ee70 5dbd 48c5 cebd 7dd8 e8bc
00000110: c92a 58bd 0c84 a83d d498 b43d 3a98 95bd
00000120: 7eca a3bb cca4 c0bd 7aa5 373d efd4 8a3d
00000130: 2f5d 83bd 2003 9dbd aa1f f5bc abe7 953d
00000140: 6268 793d 2fff 82bd 7be9 abbb 01ef aabd
00000150: 5ffb ac3d 6133 103d ceac 3dbd f538 043d
00000160: eeea b3bb 102d 9cbd 3f6e d6bd 1329 9d3d
00000170: 838d 84bd f5b8 6b3d f677 0dbd 1841 563d
00000180: 751b f73c 8419 453d e4fd 6cbd 6f16 323d
00000190: 3ee8 3e3c 1bfa 33bc 00fc 37bc 36c6 12bc
000001a0: 3ec6 3a3d 4462 443d fdfa 53bd e41a 83bc
000001b0: 8147 69bc 5ae1 f5bc d375 5b3d b9bd d03d
000001c0: 6367 6a3d abc6 97bc 2e39 943d b1d8 d43d
000001d0: bd92 443c 489e 9f3d 9e3d a33c 4154 12bd
000001e0: 37d1 aa3c 89ed 1f3c 85ff 7f3c eaa7 9bbc
000001f0: 4e4e 8abd 7d66 b1bd 7196 6bbd d8dd 833d
00000200: f458 a9bc 8fad c3bd a013 a33d 2218 e4bd
00000210: 3109 cb3c d8b5 c73d cdb7 34bd ac8a c93b
00000220: 16d6 d03d ff6c ba3d 7a90 a03d a25c 4bbc
00000230: fa3d 673d 27e8 423d c435 733c 6820 c13d
00000240: a609 f03c 03db 9e3d f04d 8abd cf8b 8e3c
00000250: b509 ddbd 3922 593b 5c9d 933c 6b4a 503d
00000260: 870e 223d cf6c 70bd 1d4a 403d e9db ecbd
00000270: 8c95 b53d 16e5 4e3d 5b81 05bc d2eb 013d
00000280: e972 7b3d eea3 8fbd 4e0d 623d 650d 7c3c
00000290: 146b b13d 61c3 3f3c 2a6e 913c 9b58 f83c
000002a0: a79d b33d ca8c 98bd 2205 833d 97ea 8a3d
000002b0: 88b1 99bb e081 83bd 139d 843d b2a1 393d
000002c0: d8bc 1bbd 118d d13c aad1 bebc d25f 23bd
000002d0: dc51 e23d fe7d 433d 3710 5b3c 99d0 7c3d
000002e0: b56f 773d 4f4a 313d 55f2 573d 6095 a9bd
000002f0: 5973 14bd 3065 bd3d ce26 da3c c3fa 0a3d
00000300: 48c5 9abd 208a 75bd aaf5 3dbd 6f7b 1c3d
00000310: 59ef 49bd 9e6d 973d 683f a9bd 900a efbc
00000320: 62d9 933d 025a 55bd 64b3 04bc eeb0 20bd
00000330: 5a6a 013d cfd9 65bd ebce a5bd 5cdd 30bd
00000340: 3010 183d 4215 01bd 6525 a5bd 14c6 ecbc
00000350: 4c03 43bd 5b6c a63d 4d5b d8bc 3ccc 013d
00000360: d6c0 b53d e530 a3bd 912e 0f3d 03e9 173c
00000370: cda0 a83d 092b 0abb 83bd c53c 10ae cfbd
00000380: 1161 c03d 54e8 88bd 1a4d 813d 59f2 a4bd
00000390: aed7 8e3c f22b 4cbb 1265 923d 6618 ccbd
000003a0: 4d7b a73d 9ae8 c13d c83b a53c 1d92 b23d
000003b0: 3f73 a23d 3d5c f43a 4d9a 573d 9591 e73a
000003c0: 0551 c53c c9d1 9cbd 150a 0fbd 782d 85bd
000003d0: 00d8 8ebd 054e 99bd e893 52bd a9d3 a03b
000003e0: 891c 93bc 8951 153d 828b 0f3d 0ca5 1dbd
000003f0: 0f5a 893d 646c 98bd 0316 82bd fd8a c03d
-0.03422805 -0.075173825 -0.025159227 -0.078395054 -0.007203553 0.05891659 -0.05669439 -0.02784759
-0.030133555 -0.046946757 -0.0824811 0.013714121 -0.020094274 -0.005380258 -0.031725816 -0.07316601
-0.045295626 0.046796724 0.061093464 -0.036320087 0.05607238 -0.07213942 -0.016999776 -0.10186
-0.028510718 0.018060783 0.050955325 0.026719699 0.03792285 -0.02775369 0.09372431 -0.08576841
-0.026624134 -0.022443654 0.056695726 0.012074538 0.08745927 -0.07855768 0.027696282 -0.0906108
0.025400458 -0.049990058 -0.056971915 0.007859038 0.0073058275 0.09178742 0.07302358 0.00089317403
0.038049657 0.0068057072 -0.027746608 -0.086657695 -0.094035074 -0.002330042 -0.05619296 0.08006138
-0.056995954 0.014670369 -0.061355557 0.089533895 0.040020194 0.047495857 0.022096839 -0.022526024
-0.043265812 -0.054062776 -0.10096222 -0.028423542 -0.052775178 0.08228311 0.08818212 -0.073044255
-0.004998504 -0.094064325 0.044835545 0.06778895 -0.06414258 -0.07666612 -0.029922325 0.07319578
0.060890563 -0.06396329 -0.005246339 -0.083463676 0.08446383 0.03520525 -0.046307378 0.03228088
-0.0054906523 -0.076257825 -0.104702465 0.0767385 -0.06472304 0.057549436 -0.03453823 0.052308172
0.03016446 0.048120037 -0.057859316 0.043478426 0.011652051 -0.010984923 -0.011229515 -0.00895839
0.045599215 0.047945276 -0.051753033 -0.016004033 -0.014238239 -0.030014683 0.053579163 0.10192437
0.057227504 -0.01852735 0.07237469 0.10392893 0.011997876 0.07793862 0.019926842 -0.035724882
0.020851715 0.009761223 0.015624885 -0.019000966 -0.06753217 -0.08662126 -0.05751652 0.06438798
-0.020672299 -0.09554588 0.079627275 -0.111374155 0.024784656 0.09751481 -0.0441206 0.006150564
0.10197084 0.091028206 0.07840057 -0.012412222 0.05645559 0.04758468 0.014844362 0.09430009
0.029301476 0.07756617 -0.06753147 0.01740065 -0.10792867 0.003313197 0.01801937 0.05085222
0.039564636 -0.058697518 0.04694568 -0.11565382 0.088664144 0.050511442 -0.0081485165 0.031719036
0.061388884 -0.07013689 0.05518847 0.015384053 0.08663002 0.011704297 0.017752726 0.030315688
0.08770304 -0.074487284 0.063974634 0.06783026 -0.004690353 -0.06421256 0.06475272 0.04532022
-0.038021892 0.025579961 -0.023293335 -0.039886303 0.1105077 0.047727577 0.013370565 0.06172237
0.060409267 0.043283757 0.05272134 -0.08280444 -0.036242817 0.092478156 0.026629832 0.03393055
-0.0755716 -0.05994618 -0.04637686 0.038203653 -0.049300525 0.07393955 -0.08264047 -0.029179841
0.07219197 -0.05208779 -0.008099411 -0.039231233 0.031595565 -0.05611592 -0.08096107 -0.043179855
0.037124813 -0.031514414 -0.08063773 -0.028903045 -0.047610566 0.08126136 -0.026410723 0.031688914
0.08874671 -0.0796831 0.03495652 0.009271863 0.08233795 -0.002108278 0.024138218 -0.10140622
0.09393514 -0.06684938 0.06313534 -0.08054037 0.017436828 -0.0031154123 0.07148184 -0.09965591
0.08177815 0.09468193 0.020170107 0.08719275 0.07932138 0.0018643212 0.052637387 0.0017667288
0.024086485 -0.07657201 -0.034921724 -0.06502813 -0.069747925 -0.07485584 -0.051410586 0.0049080444
-0.017957943 0.03645471 0.035045154 -0.03848748 0.067066304 -0.07442549 -0.06351855 0.0940151

encoder.lob_enc.res_blocks.0.conv1.bias f4 [32]
00000000: 4bcc acbd 0596 bdbd 0d3a 9cbd b39b 2abe
00000010: 4f3d 32be 4e66 efbd 393f 22be 7edd e1bc
00000020: 8907 e6bd 8b60 dabd 0b54 78bd d71d 4bbd
00000030: b3ba 9fbb 4751 a6bd ff9b 1dbd aa7f 42bd
00000040: d629 483c 9a71 52bd 08e8 10bd 8572 8ebd
00000050: 2db5 07bd 9ebf a8bd 4d52 05be 3409 02be
00000060: 82bd 38bc 8e0b a3bd 4cc2 c63c 27ad 9cbc
00000070: 791b 493c 9a95 b2bd 0c88 c5bc 07f5 3fbd
-0.08437403 -0.092571296 -0.0762826 -0.16660957 -0.174062 -0.11689435 -0.1584443 -0.027571436
-0.11231906 -0.10662945 -0.060627025 -0.049589004 -0.004874551 -0.08120971 -0.038478848 -0.04748503
0.012217006 -0.05137787 -0.035377532 -0.069554366 -0.033131767 -0.08239673 -0.13019677 -0.12698823
-0.011275651 -0.07961188 0.02426257 -0.019125534 0.012274616 -0.087199405 -0.024112724 -0.046864536

encoder.lob_enc.res_blocks.0.bn1.weight f4 [32]
00000000: 512d 7f3f 5038 803f f385 803f 8c32 7f3f
00000010: 6d8a 7c3f 2072 803f b5ea 7d3f e9e6 7e3f
00000020: 9bca 7e3f 3389 7f3f 5165 7e3f a51a 803f
00000030: 6b00 803f 7d24 7f3f db6c 7f3f 98db 803f
00000040: b29f 7e3f a84e 813f 1499 7d3f 2045 7c3f
00000050: bd65 803f 12f8 7c3f c4b1 813f c5f2 803f
00000060: d436 813f 9ea1 803f 1bbc 803f d1c5 803f
00000070: ca36 7e3f c306 813f 1aab 813f 262a 813f
0.9967852 1.0017185 1.0040878 0.99686503 0.9864872 1.0034828 0.9918626 0.9957109
0.995279 0.99818724 0.99373347 1.0008131 1.0000128 0.9966505 0.99775475 1.0067015
0.99462426 1.0102129 0.99061704 0.98542976 1.0031048 0.98816025 1.0132375 1.0074087
1.0094857 1.0049322 1.0057405 1.0060369 0.9930235 1.0080189 1.0130341 1.0090988

encoder.lob_enc.res_blocks.0.bn1.bias f4 [32]
00000000: 57b1 083c df3c a33a 7aba 0f3b f4a4 093c
00000010: d089 b33b e0c5 253c d320 193c eff4 e83b
00000020: b487 e1bb 5c5f 163c f313 12bc cdb3 473c
00000030: 00b3 9b3b ae9c fa3b 2e70 fa3b cce3 9d3b
00000040: 5311 713a c16b fd3b 9a0a 8c3b 6482 41bc
00000050: d813 4b3c c1c6 713b 4b7b 463c 017f 393c
00000060: 3fdf 3d3c 46fa 6eba c7c0 293c 350b 383c
00000070: 59d9 28bb 9911 543c f476 463c 269a 1a3c
0.008343062 0.0012454054 0.0021931217 0.008401144 0.005479075 0.010117978 0.009346205 0.0071092765
-0.006882632 0.009178009 -0.008915889 0.012188864 0.004751563 0.007648072 0.0076427674 0.0048184153
0.0009196002 0.0077337925 0.0042737247 -0.011810873 0.012394868 0.0036892148 0.012114356 0.011321784
0.011588871 -0.0009116273 0.010360903 0.011233141 -0.0025764315 0.012943649 0.012113322 0.009436166

encoder.lob_enc.res_blocks.0.bn1.running_mean f4 [32]
00000000: c96c bfbe b106 d03e 158c d6be e1b4 02bf
00000010: ba15 91be df41 dabe d1af 00be b990 433d
00000020: 6c4e f33b 4eed 6cbd c432 c73e 8fbc d03e
00000030: f747 2bbe 626d 0ebe dcfe b6be 8c62 9b3e
00000040: 0032 d13d 6533 a4bc 4709 3dbd 5177 02be
00000050: b84f b5bd 239e 0c3e d4a0 86be 8409 95be
00000060: c630 55bc dcc8 17bf 04b2 18bd fe6b 77be
00000070: 7803 9bbd 04f0 1dbe a76f 19be 658c 063e
-0.37387684 0.40630105 -0.4190375 -0.5105725 -0.2833689 -0.4262838 -0.12567069 0.04774544
0.00742512 -0.0578435 0.3890592 0.4076886 -0.16726671 -0.13908914 -0.35741317 0.30348623
0.10214615 -0.020044038 -0.046151426 -0.12740828 -0.08853096 0.137322 -0.26294577 -0.29108822
-0.013012117 -0.5929086 -0.037279144 -0.2416229 -0.07569021 -0.1542359 -0.14983998 0.13139494

encoder.lob_enc.res_blocks.0.bn1.running_var f4 [32]
00000000: bf3f 633d 8066 143f 6458 973d 66bc 973d
00000010: 9f01 773d c3be 863d 89c4 a43e bd57 f13d
00000020: a69e fc3e 3573 323e 2d24 ec3e 58b3 ae3d
00000030: 69f3 053e ee73 1a3d 4c8b 873d a1ab 923d
00000040: c2d8 023f bfd1 573e 2054 003e 80a7 ee3d
00000050: 884f 0b3e 4891 bb3e 7bfd 903d e7a0 a83e
00000060: e059 1e3e dd75 c83d a662 733e 64a0 c53d
00000070: b0e7 eb3c 8858 b03e 1e75 c03d de75 c63d
0.055480715 0.579689 0.07389906 0.07408981 0.06030428 0.06579354 0.32181194 0.11784313
0.4933979 0.1742676 0.4612135 0.08530301 0.13081135 0.037708215 0.06618366 0.07161642
0.51111996 0.21076106 0.12532091 0.11653042 0.13604558 0.36634278 0.070795976 0.3293526
0.15463972 0.09788106 0.237681 0.09649733 0.028797 0.34442544 0.09397338 0.0969045

encoder.lob_enc.res_blocks.0.conv2.weight f4 [32, 32, 3, 1]
00000000: 3745 8b3c 8c85 e03c d90e 89bd 3ac9 b03d
00000010: ad07 033d f049 f4bc e3d1 a2bd a430 7abd
00000020: e8ed 84bc d9eb 463c 3bf2 053d e76f ca3d
00000030: d381 903d fa4c 27bc e319 a3bc e28d a63d
00000040: ca56 b5ba 0552 643c ca45 56bb fd43 b73d
00000050: 0535 7a3d a3ca 263d fb10 023d 3452 95bc
00000060: f2dc e93c b695 9dbd 175f 93bd 0abf 043d
00000070: 65fc c43c 5654 82bd 18bd 153d fe58 233d
00000080: acdc 523d c2e7 2fbd 262a 53bd 0ef7 cc3a
00000090: 7533 4abc 0a9d 0ebc ce8d a1bd 59b8 913d
000000a0: 567e c03d 5a76 44bd 5ce8 983d ac57 a83c
000000b0: a5ba dd3c 1d5b eabb 7844 c03d 93bf bebc
000000c0: 1cf9 9a3c e74f a4bb 3d73 073c 0f1f 38bd
000000d0: 8c34 84bd fe28 8e3d b82e cabd 2a99 95bd
000000e0: da88 b63d 8b2c 50bd 2d6c 4fbc 1bf8 c5bd
000000f0: 580e e8bc d61a 38bd 691c 1f3d d4a6 4a3d
00000100: 08e4 b73d 8336 0ebd 8b1d c23d 3b11 2e3d
00000110: ed9b a4bd 47fc b4bd d968 3fbc 5d42 bf3d
00000120: 1af7 743a 68e0 77bd 3a74 7f3d 58f0 d9bd
00000130: 21f8 933d 61ef d1bb 569f eb3b 470b 0ebd
00000140: 7c57 8b3c 078b d0ba 1418 9c3d cdb9 af3d
00000150: 58e7 213d 0ef2 8abc 0910 12bb 3354 7fbd
00000160: d7a4 803d d8e7 b3bc 9b72 cabd 1c80 01bd
00000170: 9d8f 8ebd d59f a4bd 62c2 943c 15ce 1f3c
00000180: 0a27 59bd c870 90bd 6c80 143d 881a c03c
00000190: 9ed3 903d a4bb 623d 26a8 6ebd 8428 763d
000001a0: fe8e adbd 3e3f aabd da88 3d3d cd3d ca3d
000001b0: 7f9a 4c3d 9d90 79ba d0cb 3bbd e790 d23d
000001c0: 832e 83bd 64b0 c13d 427b 87bd eac1 cabd
000001d0: 5ca7 93bb a036 013d 488c a8bd 5b24 ecbc
000001e0: 4372 38bb e67c c9bb df72 42bd f8d7 c33d
000001f0: 28c6 92bd 6d11 8b3d 4bfe ff3c 7461 27bd
00000200: 9cd1 3d3d f5fd a5bd 64bd 87bd 2276 743d
00000210: 0019 4bbd 628a 523d 95e8 bebd 904f 9c3c
00000220: 4eb7 bfbd 2530 4c3d 24ae ce3d b05c 823d
00000230: 5a2e fd3c 0814 883d 170e b93d 3e12 683d
00000240: d209 3a3d 54d5 0a3d aefe cb3c ed3a 823d
00000250: a5fa 9a3d b046 10bd 6432 8d3c 24df 5e3d
00000260: 445f a9bd e4bb 97bd 0e87 bcbc f4dc 983c
00000270: b29d 893d 411b 5d3d 988b 5a3d 9d0d a7bc
00000280: bcc9 cdbc fa4c c7bd ae8a 30bb 8fd6 e9bc
00000290: bf57 a5bd 7143 383d 6713 6d3d 19c6 d83c
000002a0: c958 96bd 820c efbc deec bfbd 3866 19bc
000002b0: 5d63 7d3d 133c b63d 09aa b1bd 00a7 b4bc
000002c0: b4e5 59bd de4b 9e3d 59a1 d03d 2311 b0bd
000002d0: 2363 1bbd 54ff 093c f8f4 b6bd 87cf d1bd
000002e0: 2eae 8dbd ee51 923d 176f 903c 38fb 53bd
000002f0: 70be 97bc af6d c03d 8bad c1bd 9f0b 283d
00000300: 4dfd 81bc 51cb e1bd 5b6e 9a3d 6e36 70bd
00000310: 8bff 8f3d c4d4 6ebb 700c 643c 4e69 c4bc
00000320: ca79 bcbd 883e 273d 46c2 35bd aeca e73c
00000330: 8f57 ac3d 8e67 28bd f8f2 f839 d898 d63c
00000340: 5d2c 32bd 177e 0f3d 44fc 5cbd 4600 903d
00000350: 7b78 e7bc ddb2 78bc c9f7 32bd 4c94 b3ba
00000360: b233 743d dd6d fd3b e77e 3ebd 0273 c93d
00000370: 06d8 bf3d 9ab8 18bd 4131 8abd 42f5 a8bd
00000380: df8c de3b f66d c63d 40fd 053d 8c15 2f3d
00000390: 39da d9bd cc2c 003d cf65 2f3d ddd2 22bd
000003a0: 0e74 98bd 2750 d4bc 02c1 c4bd 9a33 ac3d
000003b0: beda 8fbd f998 cf3d d652 bebd df4c 9a3d
000003c0: 36fa 54bd 153a b8bd f363 8d3c 6dc3 d53d
000003d0: bf79 1ebd 6c49 cc3c af7e 99bd 2b01 663d
000003e0: 2157 a43d 0612 2cbd b681 ac3d 243b 233d
000003f0: 31ee 3d3b 88bb 5ebd 3da4 6c3d 9bfb e3bb
0.017000778 0.02740743 -0.06692285 0.08632131 0.031989742 -0.029820412 -0.07950189 -0.061081544
-0.016226724 0.012141191 0.032701712 0.09884625 0.07056012 -0.010211224 -0.019909805 0.08132531
-0.0013835069 0.013935571 -0.0032695406 0.089485146 0.06108572 0.040720593 0.031754475 -0.018227674
0.028547738 -0.07694571 -0.07195871 0.03240875 0.024046132 -0.06363742 0.036557287 0.03987979
0.05147998 -0.04294563 -0.051553868 0.0015637593 -0.01234137 -0.008704433 -0.07888375 0.0711524
0.09399097 -0.04796443 0.07466194 0.020549618 0.027066538 -0.007151975 0.093880594 -0.02328471
0.018917613 -0.005014408 0.008267221 -0.044951495 -0.06455335 0.069414124 -0.09872192 -0.07304604
0.08912821 -0.05082373 -0.012660068 -0.09666463 -0.028327152 -0.044947468 0.038845453 0.049475506
0.089790404 -0.034719955 0.09478291 0.0424969 -0.08037553 -0.088371806 -0.0116827125 0.0933883
0.00093446823 -0.060516745 0.0623667 -0.10641545 0.07225061 -0.00640671 0.007190625 -0.034678724
0.01700949 -0.0015910574 0.0762178 0.085803606 0.039527267 -0.016961124 -0.002228739 -0.062336158
0.06281441 -0.021961138 -0.098851405 -0.031616315 -0.06960986 -0.08038298 0.018159095 0.009753724
-0.053015746 -0.07052761 0.036255285 0.023450151 0.07071613 0.05535473 -0.058265828 0.060097232
-0.08474539 -0.08312844 0.04627309 0.09875069 0.049952026 -0.0009520145 -0.045848668 0.10281544
-0.06405356 0.09457472 -0.066153064 -0.099002674 -0.004506035 0.031546235 -0.082298815 -0.02882593
-0.0028144277 -0.0061489223 -0.04747283 0.09562677 -0.071667016 0.06790433 0.031249186 -0.040864423
0.046342477 -0.08105079 -0.0662792 0.059682973 -0.04958439 0.051401503 -0.09321705 0.019080907
-0.093611345 0.0498506 0.100918084 0.06365335 0.030905891 0.06644446 0.090358905 0.056658022
0.04541952 0.03389485 0.024901714 0.063588955 0.07567338 -0.035223663 0.017235942 0.054412022
-0.082701236 -0.07408884 -0.023013618 0.018660046 0.06719531 0.05398107 0.053355783 -0.020392234
-0.025120609 -0.09731479 -0.0026938128 -0.028544692 -0.08073377 0.044986192 0.05787983 0.026461648
-0.07341153 -0.029180769 -0.09371351 -0.00936275 0.06186234 0.08898177 -0.0867501 -0.022052288
-0.053197578 0.07729314 0.101870246 -0.085970186 -0.03793634 0.008422691 -0.08933443 -0.10244661
-0.06917988 0.07144533 0.017631097 -0.051753253 -0.018523425 0.093959205 -0.09456929 0.041026708
-0.015867854 -0.11025108 0.0754058 -0.05864566 0.07031163 -0.0036442736 0.013918981 -0.023975994
-0.09202917 0.04083112 -0.044374727 0.028294887 0.08415138 -0.041114382 0.00047483272 0.026195928
-0.04349934 0.035032358 -0.053951517 0.07031302 -0.028255692 -0.015179363 -0.043693338 -0.0013700812
0.059619613 0.007734044 -0.046507742 0.09836389 0.09367375 -0.037285425 -0.06747676 -0.08249904
0.0067916955 0.09688942 0.03271222 0.042745158 -0.10637326 0.03129272 0.0428217 -0.039751876
-0.07444011 -0.025917126 -0.09607126 0.0840828 -0.07024144 0.10136599 -0.092931435 0.07534193
-0.051996432 -0.08995453 0.017259574 0.10437665 -0.038690325 0.024937354 -0.07494866 0.056153458
0.08024431 -0.042009376 0.08423178 0.039851323 0.0028981084 -0.054378062 0.057773817 -0.006957484

encoder.lob_enc.res_blocks.0.conv2.bias f4 [32]
00000000: cf66 48bd 65f0 a6bd 379a b8bd fcab 5fbd
00000010: d3aa 89bd bd27 adbd 02cb c7bd 1938 f2bd
00000020: 5c38 cbbd 2458 16be c9ee e7bd a48a a8bd
00000030: 028e f2bd 99cb 81bd 5182 11bd 6999 32bd
00000040: d8df fdbd cb11 94bd 3c02 00be b469 0cbc
00000050: 7598 7439 483a cc3c d16e ddbd 5855 503c
00000060: a8c1 6abd bc29 bcbd 7649 babb 970b 0dbe
00000070: 3ffe 29be 0c36 763c d9dc 33bd 41e5 78bc
-0.04892617 -0.0815132 -0.09013789 -0.054607376 -0.06722035 -0.08454845 -0.097555175 -0.11827106
-0.09922859 -0.1468206 -0.113248415 -0.082295686 -0.11843492 -0.06337661 -0.03552467 -0.043603335
-0.123962104 -0.07229956 -0.12500852 -0.008570123 0.00023326448 0.024930134 -0.10812152 0.01271566
-0.05731359 -0.09187648 -0.0056850268 -0.13773952 -0.16600893 0.015027534 -0.04391179 -0.015191377

encoder.lob_enc.res_blocks.0.bn2.weight f4 [32]
00000000: 43d8 7d3f 3449 803f 0531 813f f4ca 7d3f
00000010: 8119 813f 4e38 803f 6a41 813f 6beb 803f
00000020: 0ac0 803f 94d7 803f b3f2 7f3f cfa9 7f3f
00000030: 632b 813f f196 803f b54a 7e3f eadb 803f
00000040: 9c1e 803f b70c 803f 8ef1 803f 9850 803f
00000050: 43ee 7f3f 56f5 803f 3b16 803f a53d 813f
00000060: dfe9 803f 934a 803f 6544 813f e92d 813f
00000070: 66e6 803f 4eea 7e3f 96fd 803f 3d35 813f
0.99158114 1.002234 1.0093085 0.99137807 1.0085908 1.0017183 1.0098088 1.0071844
1.0058606 1.0065789 0.99979705 0.9986848 1.0091366 1.0046064 0.99332744 1.0067112
1.0009341 1.000388 1.0073717 1.0024595 0.99972934 1.007487 1.0006784 1.0096937
1.0071372 1.0022758 1.0098997 1.0092136 1.0070312 0.9957627 1.0077388 1.0094372

encoder.lob_enc.res_blocks.0.bn2.bias f4 [32]
00000000: ba38 c83b b15e ee37 45b9 253c 7c97 76bb
00000010: aa59 173c 92df c23b b01c 203c 6428 283c
00000020: 5f7f 173c 89ae f93b 8ae2 94bb 26c9 833a
00000030: 912e ea3b 53a1 993b 9159 0bbc 2256 dc3b
00000040: 3dd9 863b 1c66 333a 4e64 203c ef77 053b
00000050: cbd6 c8ba f61d 163c 049e 75bb a3e4 133c
00000060: 7b56 073c 8517 953b df17 133c bc1c 1f3c
00000070: c9d4 073c 1d7d 1bbc 0729 1e3c 8962 233c
0.006110278 2.8415905e-05 0.0101149725 -0.0037626913 0.009237686 0.005947062 0.009772465 0.010263536
0.009246676 0.007619683 -0.004543607 0.0010054454 0.0071466644 0.004688421 -0.008505241 0.006724135
0.0041152523 0.00068435236 0.0097895395 0.0020365675 -0.0015322802 0.009162417 -0.0037478218 0.009026679
0.008260365 0.004549923 0.008977859 0.009711441 0.008290478 -0.009490279 0.009653336 0.009972223

encoder.lob_enc.res_blocks.0.bn2.running_mean f4 [32]
00000000: d51c 9a3c 7ac5 5cbd 4f09 22bd b4e5 a13c
00000010: c048 babd e63e 623e 4097 c2be a959 d73d
00000020: 0d5f 4d3d aef7 053d 986f 8ebe 7d2d 04be
00000030: f9aa 8ebc e1e7 6cbe 44ad 723e 449e 3cbe
00000040: daaf f0bd dd9c e33d 3976 95be af9a 90bd
00000050: e67a a4be 5986 223e bc5f bf3c 0854 c8bd
00000060: 8135 cfbe f68f 14be 9179 113d 3a5e e63b
00000070: d81a 4cbe 1c9a d23d bb96 20bd 093e 103d
0.018812576 -0.053899266 -0.03955966 0.019762851 -0.09095907 0.22094306 -0.3800602 0.10515148
0.050139476 0.03270691 -0.27819514 -0.12907977 -0.01741551 -0.2313533 0.23698908 -0.18419749
-0.11752291 0.11113904 -0.2919176 -0.070607536 -0.32125014 0.15871562 0.02336108 -0.09781653
-0.40470508 -0.14508042 0.035516325 0.0070302757 -0.19932115 0.102833 -0.039206248 0.03521541

encoder.lob_enc.res_blocks.0.bn2.running_var f4 [32]
00000000: 3d41 7c3d 8859 2d3d 7adf 453e 4846 043e
00000010: 17ae c53d 5174 1e3e 3c10 343e f932 783e
00000020: 83f3 073e 22ba bf3d 5525 113e 1b15 123d
00000030: b613 9d3d 6386 4c3d ebbf 883d 78de 3c3e
00000040: f986 993d a009 003e 0dad 203e 7958 913e
00000050: 2c05 6d3e 1359 543e 52c6 8f3e 9274 3f3e
00000060: 42a5 e33d 9272 803d 46f1 c53d 1629 a33e
00000070: 069e 1d3e e987 043f c266 953d b05e 133e
0.061585654 0.04232171 0.19323531 0.12917435 0.09652346 0.15474059 0.17584318 0.24238195
0.13276486 0.09361674 0.14174397 0.03566466 0.07669775 0.04993285 0.066772304 0.1844424
0.07496447 0.12503672 0.15691014 0.28387812 0.23146504 0.20737104 0.28080994 0.18696812
0.11115505 0.062718526 0.0966516 0.31867284 0.15392312 0.5176988 0.0729499 0.14391589

encoder.lob_enc.res_blocks.1.conv1.weight f4 [32, 32, 3, 1]
00000000: 24e3 c4bd 6b13 863c 490e 2f3d 59f4 07bd
00000010: 8f6f 9cbd de0f 9b3d 0608 bf3c cc7d 523d
00000020: f0fa be3d fb37 bcbd 22de 8e3d ce7d 27bd
00000030: 0638 223d ec00 833d 273f 983d 399a fb3c
00000040: fa8c 0c3c 5113 ceba e0b8 01bd 97b4 593d
00000050: 4477 ba3d 1229 873b e622 acbd 3f02 babc
00000060: bf7e 0cbd 8b7d 473d 7069 a6bd 2071 10bd
00000070: c73c 64bd 35d2 a9bd 16f3 38bd 4eb0 923d
00000080: 7c73 283d a138 a93d dbed 4aba 8ca5 6c3d
00000090: efce 1d3d 6cc7 803d ef68 43bc 1d5a af3d
000000a0: 56ee c4bb 258c f5bc 96fe 1d3d bfaf 163d
000000b0: a575 8cbd 1f35 1abd bd53 c5bd 9b15 be3d
000000c0: f573 ea3c 16ac a63d f793 b5bd af10 c63d
000000d0: 2c86 be3d 3527 be3d b951 8cbd 303d c83d
000000e0: 3167 b2bd 4778 9ebd 7f70 1fbd e208 c93d
000000f0: fd73 f7bc 6d7a 113d 2846 96bc 5461 433d
00000100: cca5 343d 6958 a43d 8b1c 503d 0cb7 a03d
00000110: 83e6 b13d e22f 023d d9d7 613d 8131 ae3d
00000120: 7501 3d3d 5f00 0abd 8666 933d a444 9c3c
00000130: 05d0 853d 1f6d febc 8e45 c7bd c905 84bd
00000140: 4f06 0abc 40fe 8fbd 0cfc 40bd 47cd 443d
00000150: 039f 0c3d e5b8 fbbc 867b 82bb 34e4 d2bd
00000160: c549 06bc b811 57bb ec5b 72bd 7a10 b83d
00000170: 8c24 56bd 87c3 563c 2b9b 80bd 841d c33c
00000180: cba3 afbd 6516 16bc c643 093d 9228 9e3d
00000190: 31fa eb3b 09d6 403c 7157 683c aabf 4fbd
000001a0: 1ed7 bd3c 43f1 c1bd 532a 29bd 1a52 aebb
000001b0: 82c0 0abd 5da8 313d 8936 8ebd 4dc2 ea3c
000001c0: 05a5 87bd f188 b4bd 1bee 13bc 9f8a 34bc
000001d0: a615 41bd 31c1 ce3d 678a 0bbd d4a5 aabc
000001e0: 5ad9 0a3c 6785 23bd ebbc b23c ca6f c23d
000001f0: d791 76bb 142f 2cbd 8181 833d a3b7 ba3c
00000200: 51ec 603d a832 513c 4b01 64bd 6261 9bbd
00000210: ba92 29bd 4be2 bdbd 200b bfbd 1eb9 683d
00000220: 30f9 11bc 4fbc 72bb fe21 aabd 9329 493d
00000230: 65c9 953d e70e 8f3d 84e3 64bd 5998 543c
00000240: 535d 65bd c1b9 333d 0f0f 543d 2425 81bd
00000250: f3f3 acbd 4784 a9bd b273 1c3d 9375 a43c
00000260: 3117 853d d5af b7bc cf2c 973d 7d50 b03d
00000270: 1789 97bd 635a 62bc 3510 9c3c 3852 863d
00000280: d59f c3bd 695b 3f3d 1ac7 33bb dcd3 863d
00000290: e858 cfbd 449d 923d ab86 8a3d 7b5a 53ba
000002a0: d82d 02bd 6b6b 4d3d da04 e2bc c401 e9bc
000002b0: ddad 83bd 4f67 bb3d 73cb 7d3d 45d6 433c
000002c0: 8a6f 253a bdce 93bd fc9f 9b3d fe6b 193d
000002d0: cb86 073d bf2f 2b3d 3d9d adbd 03c1 1abd
000002e0: adff 873d 7c40 17bd 7515 af3d 276f 8fbd
000002f0: 37bd 943d 515c d93d 0d1e aebd 6cf7 9b3d
00000300: c04c 923c 241a 2e3d c148 1abd 7591 963d
00000310: ee15 9d3c c161 9bbd 661a c73d 61fc d23a
00000320: e23f 7ebc d296 c73c bf0c 4e3c 09ee c1bd
00000330: 87d8 bb3d 1163 98bc a6d5 be3c ddbf c3bc
00000340: 0784 cabd 8210 bcbd 9ced 12bd b5ab 06bd
00000350: 50c2 ac3d ab0c 6c3c 126e d73d 26fb ac3d
00000360: 1d7d 0d3c 1c03 1ebd a050 9b39 0a56 32bd
00000370: 3dac d9bd aeb4 ad3c 7abc f73c 4b72 2ebd
00000380: e787 a43d 8429 fabb ae23 bfbc 6fe1 1dbd
00000390: 4196 c43d e27a 603d 78b0 91bd 7e77 acbd
000003a0: b54c b9bd 1e4a af3d 08c7 a43d ae47 493d
000003b0: 7fa4 443d 3e78 9cbd 98d2 883d 9055 79bc
000003c0: aa3b 17bc 236c 9a3b 4893 0fbd e31e bd3d
000003d0: 43ae 333c 1393 8a3d f849 84bd 99bb b9bd
000003e0: b8b7 01bd 04e3 d23c 87c5 97bd 33fb 6cbd
000003f0: f2d4 d43c 2154 b73d 79c7 a13d a21e b93d
-0.09613636 0.016366681 0.042738233 -0.033192012 -0.076384656 0.07571386 0.023319256 0.0513895
0.09325206 -0.09190365 0.06975962 -0.04089146 0.03960421 0.0639666 0.0743392 0.030713188
0.008578533 -0.001572231 -0.03167045 0.05315074 0.09104779 0.004124769 -0.08405094 -0.02270615
-0.034300562 0.04870371 -0.08125579 -0.035264134 -0.055722024 -0.08292047 -0.0451537 0.07162534
0.04112576 0.08262754 -0.00077411317 0.057775065 0.038527425 0.06288037 -0.011926874 0.085621096
-0.006009857 -0.029974053 0.03857287 0.0367887 -0.068583764 -0.037648316 -0.096351124 0.09281465
0.028619746 0.081382915 -0.08866113 0.09671151 0.09302935 0.09284822 -0.06851525 0.097772956
-0.087110884 -0.07737785 -0.038925644 0.098161474 -0.030206675 0.035517145 -0.018344 0.04770024
0.04410343 0.080246754 0.05080847 0.078474134 0.08686545 0.031783946 0.05513749 0.08505536
0.046143968 -0.03369176 0.07197289 0.0190757 0.06533817 -0.031057892 -0.097300634 -0.06446416
-0.008424356 -0.07030916 -0.04711537 0.04804733 0.034331333 -0.030727813 -0.0039820103 -0.102974325
-0.008196299 -0.0032816958 -0.059169695 0.08987518 -0.052280948 0.013108141 -0.06279596 0.023817785
-0.08576163 -0.009160613 0.0335119 0.07722582 0.007201456 0.01176978 0.014181004 -0.050719894
0.023173865 -0.09469845 -0.04130013 -0.005319846 -0.033874996 0.043373454 -0.069439955 0.028657103
-0.06623272 -0.08815182 -0.009028937 -0.011019378 -0.047139786 0.10095442 -0.034067538 -0.020831026
0.008474672 -0.039922144 0.021818599 0.09493978 -0.0037623548 -0.042037085 0.06421185 0.022792643
0.05491287 0.012768425 -0.055665296 -0.07586934 -0.041399695 -0.092716776 -0.09328294 0.056817167
-0.008909509 -0.003703851 -0.08307265 0.049111914 0.073138036 0.06985264 -0.05588104 0.012975776
-0.055997204 0.04387832 0.051772173 -0.06305912 -0.08444967 -0.08277183 0.038196273 0.020075595
0.06498564 -0.02242271 0.073815934 0.08609102 -0.07399195 -0.013815495 0.019050697 0.06558651
-0.0955197 0.046718035 -0.0027431906 0.06583378 -0.101243794 0.07158902 0.06763967 -0.0008062494
-0.031782 0.05015127 -0.027590204 -0.028443225 -0.06429646 0.09150564 0.061961602 0.011952941
0.0006310871 -0.072171666 0.07598874 0.037456505 0.033087533 0.04179358 -0.084772564 -0.037781727
0.06640563 -0.03692673 0.085490145 -0.070036225 0.07262652 0.10613311 -0.085018255 0.07615551
0.017858863 0.0425054 -0.03766704 0.073519625 0.019175496 -0.075870045 0.09721832 0.0016096943
-0.015518161 0.024363909 0.012576281 -0.0946923 0.09172159 -0.018601926 0.023295235 -0.023895198
-0.098884635 -0.09182836 -0.035871133 -0.032878596 0.084355 0.014407317 0.10519041 0.0844634
0.008635786 -0.038577184 0.00029623974 -0.043539084 -0.10628555 0.021204319 0.03024124 -0.042589467
0.08033734 -0.0076343436 -0.023332443 -0.03854507 0.09598971 0.05480469 -0.07113737 -0.08421229
-0.09047834 0.085590586 0.08045775 0.049140625 0.04800844 -0.07640122 0.066807926 -0.015218154
-0.009230534 0.004712598 -0.035052568 0.09234407 0.01096684 0.067663334 -0.06459421 -0.090689845
-0.03166935 0.025743015 -0.07410722 -0.05785675 0.025980446 0.08951593 0.078993745 0.09039046

encoder.lob_enc.res_blocks.1.conv1.bias f4 [32]
00000000: 18cf 11bd c5a0 6ebc 7f3b 833c b826 41bd
00000010: 1992 cc3b 514a fbbc 37a8 f1bd 0da3 a7bd
00000020: de18 ffbd 5d7a b33b 3abb 5cbd fc68 20be
00000030: 58be 863c 5479 a0bc 5550 a9bd 3b71 1fbe
00000040: f77b efbd 53f3 34be e1f4 1cbe 326e b93c
00000050: e5ba b3bd 58a1 ad3c 7c55 bdbc 19c3 043c
00000060: 4c02 09bd 2fc9 12be 0f5a c83b b517 2bbe
00000070: f0f3 4dbd d89e 3dbd 8b5b 8bbc 2f95 17be
-0.03559789 -0.014564698 0.01601958 -0.047156066 0.006243002 -0.030675085 -0.117996626 -0.08185396
-0.12455915 0.0054772333 -0.05388949 -0.15665048 0.016448185 -0.019589104 -0.08267275 -0.15570538
-0.11693566 -0.17670946 -0.15327789 0.022635553 -0.08775882 0.021195099 -0.023112051 0.0081031555
-0.033449456 -0.14334558 0.0061142514 -0.16708262 -0.050281465 -0.046294063 -0.017011425 -0.14803003

encoder.lob_enc.res_blocks.1.bn1.weight f4 [32]
00000000: 4908 7e3f 0624 803f 1250 7f3f 7b8f 803f
00000010: f2d8 803f ab23 7e3f ca4b 7e3f bc04 7e3f
00000020: 8064 7e3f b7f0 7c3f 26b6 813f e930 813f
00000030: 14f2 7f3f a6f0 813f 1054 803f ef10 7f3f
00000040: d5df 803f f811 803f ab49 813f 8ef4 7f3f
00000050: 56b8 7e3f 990c 803f 2ff3 7f3f f7e6 7e3f
00000060: e22f 813f d00e 803f ddfd 7e3f 0e38 803f
00000070: b644 7d3f 6654 7e3f 09e0 7e3f 72cb 803f
0.9923139 1.0010993 0.9973155 1.0043787 1.0066206 0.99273175 0.99334395 0.99225974
0.993721 0.988048 1.0133712 1.0093051 0.99978757 1.0151565 1.0025654 0.99635214
1.0068308 1.0005484 1.0100607 0.99982536 0.99500024 1.0003844 0.99980444 0.99571174
1.0092738 1.000452 0.99606115 1.0017107 0.9893297 0.9934753 0.995606 1.0062087

encoder.lob_enc.res_blocks.1.bn1.bias f4 [32]
00000000: c2a8 d9bb 906f 563b 8802 7bbb 5cab 8fba
00000010: c82f 243c 5ab2 4abc dd75 87bb df33 c0bb
00000020: d438 983b dec3 22bc c3d3 283c a129 bf3b
00000030: 9901 263c 50d8 4e3c abee 403b bebe 37bc
00000040: 9062 b83b a456 85bb 6da4 823b a843 953c
00000050: aa97 103c c8d1 383c 5a54 d33b be58 9eba
00000060: 18d1 0a3c b10c 55bb e334 2a3c f1c7 5e3b
00000070: 0c13 55bc b6aa 0e3b bd3f d8bb bebd 963b
-0.006642432 0.0032720305 -0.003830107 -0.0010961103 0.010021158 -0.012371624 -0.0041339234 -0.0058655585
0.0046454463 -0.009934394 0.010304394 0.00583382 0.010132217 0.012624815 0.0029439132 -0.01121491
0.005626984 -0.0040691663 0.0039868862 0.018220738 0.008825222 0.0112804845 0.0064492645 -0.0012080891
0.008472703 -0.0032508785 0.010388586 0.0033993686 -0.013005029 0.0021769232 -0.006599395 0.0046002558

encoder.lob_enc.res_blocks.1.bn1.running_mean f4 [32]
00000000: 7c25 b53e 3681 3dbd 8ee7 be3d e12f 1ebf
00000010: 8424 9bbe 70e3 46be acde cbbe cb8e 233f
00000020: 335e bebd 4a69 cdbe 6f28 01bf 0a7c 5bbf
00000030: c07b 40bf 16f9 27bf 6c0e 413f c293 b6be
00000040: 7046 4ebf 9aeb e7be 680f 7abf b2d8 1cbf
00000050: 68fb 94be f102 81be e502 3ebe 08e6 cc3e
00000060: b9c5 18bf 1287 86be 1df5 a53e 82fc e5be
00000070: a577 42be 82f5 83be fb27 a8bc d4b1 e4be
0.3538016 -0.046265803 0.09321509 -0.6179181 -0.30301297 -0.19422698 -0.39818323 0.6388976
-0.09295311 -0.40119392 -0.5045232 -0.85736144 -0.7518883 -0.6561445 0.7541263 -0.35659605
-0.8057623 -0.45296937 -0.9767976 -0.6126815 -0.29098058 -0.25197557 -0.18555792 0.4001925
-0.596767 -0.26274925 0.3241357 -0.4491921 -0.18990953 -0.25773245 -0.020526877 -0.44666922

encoder.lob_enc.res_blocks.1.bn1.running_var f4 [32]
00000000: eca4 c73e 5705 9c3e 5e22 803e a05a 183e
00000010: dd8c 0a3f 5ac9 893e 4818 c83d 402b c43e
00000020: a5ac d93e a8c5 c03e 96ac 203e 56da ff3d
00000030: 9686 513e 5eb0 073e 7c5b db3e bc6c c23d
00000040: 2dfa 993e c6e9 4e3e 6cfa 343e e1b2 5e3e
00000050: c521 553e 8ab8 2d3f 7cb0 6f3e e43f 513f
00000060: 48a0 973e 81b0 cc3e d2e0 323f c673 713e
00000070: 942b a13e 24a3 aa3e 914b 943e 8f9a 8a3e
0.38993013 0.30472824 0.2502622 0.1487832 0.5412119 0.26911432 0.09770256 0.38314247
0.4251453 0.376508 0.15690836 0.12492816 0.20461497 0.13250872 0.42843235 0.09493396
0.3007368 0.20206365 0.17673653 0.21747924 0.20813663 0.6785971 0.23407167 0.81738114
0.29614472 0.39978412 0.698743 0.2357932 0.3147856 0.3332759 0.28963903 0.27071044

encoder.lob_enc.res_blocks.1.conv2.weight f4 [32, 32, 3, 1]
00000000: 4150 133d 7a08 453c 2d43 99bd 322a 083c
00000010: fe3d 8bbc 0d50 993d 717d dcbd fedc 483a
00000020: 6ecf b73d 7ea8 94bd e4a0 c53d 2672 dbbc
00000030: 88a1 b23d 8c84 74bc 9909 9f3d 1d3f c2bd
00000040: 4247 0c3d 2951 61bd 970b 273d bf61 b5bd
00000050: 6e70 0bbd 8316 8c3b 2500 99bd 2a3b 753d
00000060: c06c 4fbd df3d a3bc ca53 76bc d4b0 423d
00000070: d557 2dbd c57d f63c fb63 24bd c6f9 903c
00000080: cb24 a9bd bfac e3bc e387 a9bd e582 a0bd
00000090: c807 ad3d 0a7d d3bd c7ee 2a3d e45e 20bd
000000a0: fe0e ce3d 3803 07bd 5ac6 25bd 703e 273d
000000b0: 6c0d 90bd b0b1 7cbd 340f a9bd 0c5a a13d
000000c0: baa6 af3d c28d 6ebd 3995 8a3d 6a7a cbbd
000000d0: 7b05 5c3d 0fdb dcbd 4767 f13d cfe9 ebbc
000000e0: cfa2 19bd 5bc5 f43c bb00 9fbd e887 a63d
000000f0: 8c49 d4bc 0985 2d3d 9af3 673d 0c6c 183d
00000100: 2a22 18bd f3f1 b63c 95f4 d9bd 4aa3 8bbd
00000110: 9ced cebd 68c3 15bc a862 66bd 3ba8 95bd
00000120: 378b 1fbd ec67 95bd f07a 143d 9a55 cfbc
00000130: ceec bd3d 60bc 753d 016d d8bc fe6b 4dbc
00000140: b072 c4bd ab13 2a3d 08d2 72bb 400b 9e3d
00000150: cbb2 c6bd 46c5 863b 6613 61bd b8e4 7bbd
00000160: 75fa fdbb 7e71 333d d0f6 353d 3d12 36bd
00000170: ff27 96bd b223 e53c 4ee1 a4bd dfec 01bc
00000180: 3fd2 cb3d 9be3 b4bd de1a 44bd bfea 163c
00000190: aac4 10bd 669a 983b fa31 753d a79f 9a3b
000001a0: 45c1 803d 5376 a1bd 5911 aabd b59a bbbd
000001b0: f84c 1e3c ab4f 96bd 9679 933d 791b 433d
000001c0: 3588 f53c 8683 65bc 8ab0 98bd ea8a a83c
000001d0: 59bc a5bd 6044 c0bd 00a7 3ebd 0d53 31bd
000001e0: bb79 9ebd b020 143c 5cb0 c9bd c848 bb3d
000001f0: a6db 24bd 9b7a 62bc 3fe1 5a3b f945 bb3d
00000200: c86b 183d 55d5 8a3d 7726 8abc 644f 0ebc
00000210: babc 3abc 8214 8b3d c819 4e3d 6b25 8d3d
00000220: c1a3 7d3d 45ba c4bd a7b0 40bd 9b3e 503d
00000230: 356a 133d 1e18 aebd b847 a83d 82f8 893b
00000240: a82c 083d 9460 4f3c e3d6 81bd ece4 433d
00000250: 33a5 ba3c 26c5 b73d b5c8 c13d c448 53bd
00000260: 2543 4bbc 6340 b3bd 7869 df3c 438f 9bbd
00000270: 551d 503d 670a 87bd 624d c93d 93b2 8c3d
00000280: 9700 bdbd 37d4 16bc d6a7 e33c 795f 67bc
00000290: 37f3 88bd 1004 f2bc 50c9 89bd 9289 97bc
000002a0: 8f4e c03d 805a 43bd d65f 2c3d 95f9 1f3c
000002b0: 5015 123d aadb 5f3d da70 f8b8 4f1f b53b
000002c0: 6a35 16bd 6462 aa3d 6ebc 1f3d 2581 163d
000002d0: 9389 18bc 6eeb 94bd fd92 bebd 6344 223d
000002e0: 7a82 8a3c ccc6 8f3d bf88 a63d c89d 19bb
000002f0: eaa8 823d c55b 0dbd 0c33 acbd ce02 8f3c
00000300: faf6 34bd b339 a63d 8dbf b33d 1a1b 66bd
00000310: eb0b 593a 3580 ac3c 1d7c c9bd 8065 f03c
00000320: 72aa 9a3c ab93 683c 4fd6 1ebd 67fc 9a3d
00000330: 4a62 99bd 7c29 2f3d a8ea 2e3c 8589 c0bd
00000340: 490d 373c 9aeb 2ebd 86fc 58bd abb3 0ebd
00000350: 6a62 853d fe82 e33b 4b0e 4cbd 9eae 5cbb
00000360: 54b4 6ebc 465f 743c 0adf 49bb 1e88 49bd
00000370: 755b 703d 166c c3bc 2936 253d 37a1 483d
00000380: 0b9d a83d 3437 da3c f6aa 5b3d 37b2 783c
00000390: d992 10bc f42a b63d a02a 90bd 0fb0 67bd
000003a0: 8309 87bd 46e5 dd3c b437 763d 6492 eebd
000003b0: 7c78 6ebd 7a27 8cbd 0914 733b ea90 103a
000003c0: d578 80bc 5d8b 51bc 94e1 a4bd 59b4 963d
000003d0: 10a8 75bd ff79 2dbc da58 17bc 1370 bbb9
000003e0: f3f6 c53d 5545 7abd 733d a3bc a167 793d
000003f0: 12f3 7e3d 4e30 60bd 1065 473d e006 a63d
0.035965208 0.012025947 -0.07483516 0.008310841 -0.016997334 0.074859716 -0.107661135 0.0007662325
0.08975111 -0.072587 0.09649828 -0.026787829 0.08722216 -0.01492418 0.077655025 -0.09484694
0.034247644 -0.05500904 0.040782537 -0.08856534 -0.03404277 0.0042751445 -0.07470731 0.059870876
-0.05064082 -0.019926963 -0.015034625 0.047531918 -0.04232009 0.030089268 -0.04013441 0.017697226
-0.08258971 -0.027792333 -0.082778715 -0.07837466 0.0844875 -0.10326584 0.041731622 -0.039152995
0.10061453 -0.032962054 -0.040472366 0.04083103 -0.0703381 -0.061692894 -0.08254853 0.07878503
0.085767224 -0.05824066 0.06766743 -0.09935458 0.053716164 -0.107839696 0.11787277 -0.028798012
-0.037508782 0.029879263 -0.07763811 0.08131391 -0.025913976 0.0423632 0.0566288 0.037212417
-0.037141956 0.022332167 -0.106423534 -0.06818254 -0.10103914 -0.009140827 -0.05624643 -0.07307478
-0.038951125 -0.07295212 0.036250055 -0.025309373 0.092736825 0.0599941 -0.026419165 -0.012537954
-0.095921874 0.041522663 -0.0037051458 0.077169895 -0.09702071 0.0041128723 -0.05495014 -0.06149742
-0.007750804 0.043809406 0.044424832 -0.044450987 -0.073318474 0.027971122 -0.08050786 -0.00793001
0.09952211 -0.08832475 -0.047877185 0.009211241 -0.035343803 0.0046570776 0.059862114 0.004718739
0.06286863 -0.07883897 -0.0830409 -0.091603674 0.0096619055 -0.07339414 0.07200925 0.04763362
0.029972175 -0.014008408 -0.07455547 0.020574052 -0.08092565 -0.093880415 -0.046545982 -0.043292094
-0.07738062 0.009040996 -0.09848091 0.09144741 -0.040248536 -0.013823177 0.0033398417 0.091442056
0.037212163 0.06778971 -0.016864045 -0.00868592 -0.011397535 0.06791021 0.050317556 0.068919025
0.061923746 -0.096058406 -0.04704347 0.050840955 0.03598996 -0.08500694 0.08216804 0.0042105326
0.033245713 0.012657303 -0.063398145 0.04782574 0.022783851 0.0897315 0.0946211 -0.051583067
-0.012406145 -0.08752515 0.027271971 -0.075956844 0.050809223 -0.06593781 0.09829213 0.06869998
-0.09228628 -0.009205869 0.027789991 -0.014121884 -0.066870145 -0.029542953 -0.067278504 -0.018498216
0.09389984 -0.04769373 0.042083584 0.009764095 0.035664856 0.054652847 -0.00011846582 0.005527414
-0.036672033 0.08319548 0.03899806 0.036744256 -0.009310144 -0.07271467 -0.093053795 0.039616
0.01690792 0.07020339 0.08131551 -0.0023439992 0.06379874 -0.034511346 -0.08408174 0.017457392
-0.044180848 0.08116474 0.0877677 -0.05617819 0.0008279669 0.021057228 -0.09838126 0.029345274
0.018880103 0.014195363 -0.0387786 0.07567673 -0.0748945 0.042764172 0.010676064 -0.0940123
0.011172601 -0.042705156 -0.0529752 -0.034839313 0.065129116 0.0069431057 -0.04981832 -0.0033673416
-0.014569361 0.014915293 -0.0030803108 -0.049202077 0.05868097 -0.02385525 0.040334854 0.04898187
0.082330786 0.026637651 0.053629838 0.0151792085 -0.008824074 0.088949114 -0.0703938 -0.056564387
-0.06593611 0.027086865 0.060111716 -0.116490155 -0.05822037 -0.06843467 0.00370908 0.0005514758
-0.015682617 -0.012789574 -0.08050838 0.07358617 -0.05997473 -0.010588168 -0.009237492 -0.0003575092
0.096662425 -0.061101276 -0.019926762 0.060889844 0.06224353 -0.054733567 0.048680365 0.0810678

encoder.lob_enc.res_blocks.1.conv2.bias f4 [32]
00000000: 3580 4dbd 5bdd 13bd 2bea 96bd eec6 d6bc
00000010: 0afb 06be ddb3 a8bd 9fc6 d6bd e63a aebc
00000020: 3dab 14be 0d6d 16bd f410 01be ce70 6fbb
00000030: f5a2 93bd 218a 82bd 2ab9 3ebd f0f2 23bd
00000040: 1450 16bd 5de6 a2bc 60b2 e7bd b6fa fdbd
00000050: 2b43 ddbc 482b 34be 890b 42bd 73e5 71bc
00000060: 2f5f dfba 71b6 0ebb 2b02 f8bd bd2a 16be
00000070: a448 d8bd b50b 2abe 2175 89bd dbef ccbc
-0.050171096 -0.036099773 -0.07368883 -0.026217904 -0.13181701 -0.08237431 -0.10487103 -0.02126832
-0.14518447 -0.036725093 -0.12604123 -0.0036535743 -0.07208816 -0.06374002 -0.046563305 -0.040026605
-0.036697462 -0.019885236 -0.11313319 -0.12401335 -0.027009567 -0.17594635 -0.047374282 -0.014764178
-0.0017041917 -0.0021776224 -0.121097885 -0.14664741 -0.1056073 -0.16606028 -0.06711794 -0.025016716

encoder.lob_enc.res_blocks.1.bn2.weight f4 [32]
00000000: f9e4 803f dff6 7f3f dc48 813f 292f 7f3f
00000010: 4b1a 813f d2cb 803f ab15 813f 0a02 813f
00000020: 7019 813f eac1 803f 7b64 7f3f de6e 7f3f
00000030: 3432 813f 6ca6 803f df7b 7d3f 87bd 803f
00000040: 84ae 803f b9e3 7f3f 7186 803f 3a21 803f
00000050: 1b30 803f a40a 813f b6a8 7f3f 1407 813f
00000060: f42a 823f 3ea9 803f 39fa 803f 9c10 813f
00000070: 14e8 803f 3682 7d3f 4e44 813f 5f1b 813f
1.0069877 0.9998607 1.010036 0.99681336 1.0086149 1.0062201 1.0084738 1.0078747
1.0085888 1.0059178 0.99762696 0.99778545 1.0093446 1.0050788 0.9901714 1.0057839
1.0053258 0.9995685 1.0041028 1.001014 1.0014681 1.0081372 0.9986681 1.0080285
1.0169358 1.0051649 1.0076362 1.0083194 1.0070825 0.9902681 1.009897 1.0086478

encoder.lob_enc.res_blocks.1.bn2.bias f4 [32]
00000000: 3949 073c ba27 263a bd8d 223c e18c b3bb
00000010: 321b 173c 1943 ed3b c25a 1c3c cc35 113c
00000020: 51a2 163c 9ee1 0d3c 4cab 4dbb 7be6 253a
00000030: 9f29 f73b 9763 973b 49a0 2bbc 4cc6 f93b
00000040: 7116 db3b 7ed8 7f3a 43f0 133c 662f 6f3a
00000050: 7642 2aba d91f 1a3c c9a5 69bb a889 0c3c
00000060: f55b 213c 8a3d 743b 7a24 173c bae7 0e3c
00000070: 9ae0 163c fc07 15bc 0c3f 1e3c 1136 203c
0.008257204 0.0006338317 0.009921488 -0.0054794406 0.009222792 0.0072406647 0.009543123 0.008862924
0.009193973 0.008659748 -0.0031382618 0.0006328595 0.0075428034 0.0046200263 -0.010475227 0.007622516
0.006686025 0.0009759738 0.009029451 0.00091241894 -0.0006494889 0.009407007 -0.0035651794 0.008577742
0.009848584 0.0037268125 0.009225005 0.00872224 0.009208823 -0.009096142 0.009658586 0.009778515

encoder.lob_enc.res_blocks.1.bn2.running_mean f4 [32]
00000000: 9cc8 d4be 4af6 343c a8df 43be eecc aabd
00000010: bbb3 33bd e65e ab3d 71d4 33be 1c80 f1bc
00000020: 0975 d33d d7ae 86be 3796 683d 4eab ffbd
00000030: affb 69be 780c 40bd e7cc 93be b18e 973d
00000040: 09d7 babd 71da 213e d75f 5fbd f8bb 6fbe
00000050: 071f 653e 7944 1dbd c51a c7be c626 11be
00000060: e5a8 f3be 8afb 02bd f090 9bbe d7c1 233c
00000070: 4b9e 11be 9815 9ebe 1672 d6be ea09 843e
-0.41559303 0.011045048 -0.19128287 -0.083398685 -0.043872576 0.0836771 -0.17561509 -0.029480033
0.10325057 -0.26305267 0.05678388 -0.12483846 -0.22849916 -0.04688689 -0.28867266 0.07400263
-0.09123046 0.15805985 -0.05453476 -0.23411548 0.22375117 -0.03839538 -0.3888761 -0.14174947
-0.47589794 -0.031978168 -0.30384016 0.0099949455 -0.1422054 -0.3087585 -0.41883916 0.25788814

encoder.lob_enc.res_blocks.1.bn2.running_var f4 [32]
00000000: 8597 443e f4e6 323e d81f 813d 6516 be3d
00000010: a7f1 e73e 5707 fd3d 283a 103e cee6 003e
00000020: 19ea f53d a939 3b3d 7b9b dd3d d370 473d
00000030: 949e e03d 9c6c 983d 5d9d 833d 5767 b13d
00000040: a2e0 293d 622a 243e cbbf 853d eb02 be3d
00000050: d331 f13d 4e99 b73d 5a94 a73e 4512 683e
00000060: 8831 7f3d e113 a33d 01dc 163e 53ab 263e
00000070: d0a7 863d 00dd bc3d 3db6 123e 53fa a93d
0.19198425 0.17470914 0.06304902 0.09281615 0.45301554 0.123549156 0.14084685 0.12588045
0.12007541 0.045709286 0.10820671 0.048691582 0.109677464 0.074425906 0.06426499 0.08662289
0.041473992 0.16031793 0.06530722 0.092779 0.11777081 0.089647874 0.3273037 0.2266322
0.062303096 0.07962776 0.14732362 0.16276293 0.065749764 0.0922184 0.14327331 0.08299699
