outputs/performance_test/checkpoint_epoch_13.pt (torch, 945914 bytes, 81 tensors)

encoder.lob_enc.conv_in.0.weight f4 [32, 2, 3, 1]
00000000: 2836 eebd df67 9b3e e60e 80be 78df 9dbd
00000010: 8a9e 60bc 4d14 5ebe 82a7 3c3c d572 c6bd
00000020: d045 4fbe 1dc0 a7be 9086 0ebc 1cb4 be3e
00000030: 816c 1c3e 0c24 a2be d837 59be e3ab 863e
00000040: bf7b 23be 39e2 32bd b5a9 4abe c20c 4c3e
00000050: 0465 8ebe 6174 c7be afdc a1be cc49 afbe
00000060: 3264 4c3d c88b 963d 8fd1 02be 388d 1a3e
00000070: e4dd 403d fe52 ca3d 5ea9 543e 6f10 b83d
00000080: ef10 cc3e 72b9 a03e fdfb 5fbe 5602 983e
00000090: 68ca 42bd 8672 d3bc 02af 0a3d 1fca b8be
000000a0: f56d 873e 335b 863e 5ab1 c53e f4b1 863d
000000b0: 8b7c f5bd c65b 8ebd 4705 13be ee48 c2be
000000c0: 3baf 103e 2592 6c3d 5012 02be 8587 74be
000000d0: 4b90 bdbd 27d9 e33d 7e7a a03e 8b58 443e
000000e0: f523 983e 04da a53e 729b 44be fcbd 95bc
000000f0: 5c59 abbe baba 66be 0429 2d3e 6c1a 223e
00000100: 3511 413e d4ff b73e ec52 243e ed9d 52be
00000110: 5f76 b9bd 748e c73c ae35 4f3e 92bd 5cbe
00000120: 2e90 23be 0aff 1e3e a3b1 1a3e 4b7b c93e
00000130: 04ad b33e ed39 39be 5a0c 1c3e 3be8 74be
00000140: c81c 26bc 3b6b bbbc bc66 d23d ab71 bd3e
00000150: d052 aabe f35a b93e 40f7 8a3e 3261 58be
00000160: ab4c fdbd cade d2bd 47b0 7f3e 42a2 dfbd
00000170: d67d 183e fbe0 29be 0f8a a93e a2b4 4ebd
00000180: af82 ca3e 5e6a 98be e51a f4bd 46b0 883e
00000190: 2e54 103e 51cf 4ebe 5b56 b1be 1443 a1be
000001a0: 4ff6 a7be 9576 7bbe 1103 7fbe 6d98 f1bd
000001b0: c2ee b13e 1606 e8bd 5ae3 84be f131 473e
000001c0: ce6f 7bbe 5598 57be ce05 74bd 96cd 13bd
000001d0: 889d 87be c5c2 a3be c4f4 d0be 42f2 2fbe
000001e0: 9593 483e 2e4b e23c dacd a43e a3cf 7d3d
000001f0: f0f9 a0be 2f87 d93c fe00 debd d817 693e
00000200: ffd9 d33d f2ea cd3e 5417 bcbe cf39 4ebe
00000210: 8b0f b3be d423 013d 9c81 87be a971 32be
00000220: 85f4 c53e 4fae 10be 22f4 443e 6bb9 893e
00000230: d50f 9a3e 8210 a63e a3ae 853e 6664 373d
00000240: 2944 b53e 0061 c93e 6624 8bbe 91a4 c03d
00000250: e795 943e aae5 88be 159f 393e 0415 893e
00000260: 69d7 92b9 dfb8 d8bd f0e5 02bd 7369 aa3e
00000270: 9c67 abbe 73e2 1b3e c546 6dbe f024 873e
00000280: e290 36be 403b a43d e915 7e3e 1f16 5ebd
00000290: 6d26 42bd 4dac b73e 1e16 c73e 51fe 713e
000002a0: c53f 853c 2a80 4cbc 657f 7dbe d89b 8f3e
000002b0: 8665 2e3e 6996 ab3e 9fbf 8cbe c7ee b83d
000002c0: 686c 903d 4d7b 08be aa78 5bbd e565 973d
000002d0: 61c5 f2bd a650 c23e bf38 bfbe bd1d 87bd
000002e0: 1f72 4dbe 4e28 9b3e 1aa8 12be 49d2 b9bd
000002f0: 8b96 b53e 865a b5be 090c 07be bc2d b53e
-0.11631423 0.30352685 -0.25011367 -0.07708639 -0.013709674 -0.21687432 0.011514546 -0.09689871
-0.20241475 -0.32763758 -0.008699074 0.37246788 0.15275766 -0.31668127 -0.21212709 0.26303014
-0.15965174 -0.043672774 -0.197913 0.19926742 -0.27811444 -0.38955978 -0.3161368 -0.3423599
0.04990024 0.0735088 -0.12775253 0.15092933 0.04708661 0.09879111 0.20767733 0.089875095
0.3985667 0.31391484 -0.2187347 0.29689282 -0.04755631 -0.025811445 0.033858307 -0.36091706
0.26451078 0.26241454 0.3861187 0.065769106 -0.11986645 -0.06951098 -0.14357482 -0.37946266
0.14129345 0.05775656 -0.12702298 -0.23879822 -0.09256037 0.11125403 0.31343454 0.19174401
0.29714933 0.32392895 -0.19199923 -0.018279068 -0.33466613 -0.22532168 0.16910177 0.15830392
0.1885422 0.3593737 0.16047257 -0.20568056 -0.090557806 0.02435992 0.20235321 -0.2155669
-0.15972969 0.15526977 0.15106826 0.39351878 0.35092938 -0.18088503 0.15239087 -0.23916714
-0.010138698 -0.02287828 0.10273501 0.37000784 -0.33266306 0.362022 0.27141762 -0.21130827
-0.12368139 -0.102964 0.24969588 -0.1091962 0.14891753 -0.1658973 0.33113143 -0.050465234
0.3955283 -0.29768652 -0.11919192 0.26696986 0.14094612 -0.20196272 -0.34636196 -0.3149649
-0.32805106 -0.24556954 -0.24903513 -0.11796651 0.3475247 -0.11329286 -0.25954705 0.19452645
-0.24554369 -0.21054204 -0.05957585 -0.036084734 -0.26487374 -0.31984535 -0.4081174 -0.17182258
0.19587548 0.02762374 0.32188302 0.061965596 -0.31440687 0.026553718 -0.10840033 0.22763002
0.10344314 0.40218312 -0.36736548 -0.2013924 -0.34972796 0.03152831 -0.26466072 -0.1742617
0.38663116 -0.14128993 0.19233754 0.26899275 0.30090204 0.3243447 0.261098 0.04477348
0.35403565 0.39331818 -0.27176207 0.094063886 0.29020616 -0.2673772 0.18127091 0.26773846
-0.00028007783 -0.10582136 -0.031957567 0.33283576 -0.33477485 0.15223102 -0.23171528 0.2639537
-0.17828706 0.080191135 0.24813046 -0.054220315 -0.047399927 0.35873643 0.38884062 0.2363217
0.01626576 -0.012481729 -0.24755628 0.28048587 0.17030916 0.3351319 -0.27489945 0.09029918
0.07051927 -0.13328286 -0.05358187 0.07392482 -0.11854053 0.37952155 -0.3734798 -0.06597469
-0.20063065 0.30304188 -0.14321938 -0.09073312 0.35466418 -0.35420626 -0.13188185 0.35386455

encoder.lob_enc.conv_in.0.bias f4 [32]
00000000: 35dc 923e 5f1c eebd 4352 9dbd 8e3a 47be
00000010: bf73 a53d 2319 f53d 3733 8d3e af7f 373e
00000020: 57dc 523e db24 85bd 3d61 95be 57d2 663e
00000030: fb57 e8bb e8c4 88be a39c 153d 83cf ce3e
00000040: 8bfa 0cbd 519a aebe 5377 7c3e e36c 9b3e
00000050: 2b92 85be 72d0 b6be 068d 95be 87e0 2b3e
00000060: 6190 2bbe 1a52 cdbe 2bfd efbc dd64 54be
00000070: 077d f7bd d4fc 24be 6745 0cbe 3517 88be
0.2868363 -0.11626505 -0.07681706 -0.1945593 0.080787174 0.11967685 0.27578136 0.17919801
0.20591865 -0.0650117 -0.2917575 0.22541176 -0.007090566 -0.26712728 0.036526334 0.40392694
-0.034418624 -0.3410211 0.24654894 0.3035651 -0.2608808 -0.35705906 -0.29209155 0.16784869
-0.16754295 -0.401017 -0.029295525 -0.20741601 -0.12084394 -0.16112071 -0.1369835 -0.26580206

encoder.lob_enc.conv_in.1.weight f4 [32]
00000000: cbd6 803f b2e1 803f 4113 813f 1598 803f
00000010: a549 803f aae4 7f3f a5b4 7f3f 0f58 813f
00000020: 4ade 803f eac6 803f 0071 7b3f fa23 7d3f
00000030: 4aaf 803f 9d93 7e3f ea74 7e3f 06bd 803f
00000040: 0b77 7d3f 5867 813f 620a 813f 975d 803f
00000050: 4e77 7d3f 061e 7e3f 99d0 803f 77a1 7e3f
00000060: ffb3 803f d7fc 7e3f d3ea 803f 7857 813f
00000070: 0c80 803f 970b 803f 886b 813f 06bf 803f
1.006555 1.0068877 1.0084001 1.0046412 1.0022475 0.9995829 0.99885017 1.0104998
1.0067837 1.0060704 0.982193 0.9888302 1.0053494 0.9944399 0.99397147 1.0057685
0.9900977 1.0109663 1.0081294 1.0028561 0.9901017 0.9926456 1.0063659 0.99465126
1.005493 0.99604553 1.0071663 1.0104818 1.0039077 1.0003537 1.0110941 1.0058296

encoder.lob_enc.conv_in.1.bias f4 [32]
00000000: b685 b93b b748 bf3b 6b35 103c 5e6e 843a
00000010: f100 8ebb a570 313c f9da 183c 1d5e 133c
00000020: c5b2 e33b cc2f 1c3c 44ab 52bc 0f5d 993a
00000030: aa93 48bc aba7 d43a a47e dbba a255 253c
00000040: 5029 573b 0d0d 143c ee00 ef3b 73e3 873b
00000050: 1ed8 1c3c d701 3e3b 1678 be3b 3986 3d3c
00000060: 1300 123c 6767 2e3a 16c5 f93b 7a18 213c
00000070: 66f2 253c 07e1 81bb e3e2 423c eae9 033c
0.0056616915 0.0058375257 0.008801798 0.0010103693 -0.0043336083 0.010830079 0.009329551 0.008994606
0.006948801 0.00953288 -0.012858216 0.0011700707 -0.012242237 0.0016224285 -0.0016746116 0.010091217
0.003283102 0.009036315 0.007293812 0.004146987 0.009573011 0.0028992796 0.005812655 0.011567646
0.0089111505 0.00066529814 0.0076223714 0.009832496 0.010128593 -0.003963593 0.011894914 0.008051375

encoder.lob_enc.conv_in.1.running_mean f4 [32]
00000000: 7bd0 7bcd 4254 2dcd 2937 60cd cb48 65ce
00000010: 6980 4c4d f49e 3b4e 84a6 b54c ccec 32cd
00000020: a964 c8cc 3f3e 1e4e 59b5 584d 9ae6 abcc
00000030: 757c f84d 9aa9 714d 7b0f b3cc 2cd2 8c4d
00000040: 7674 fa4c a047 8bce 8fa5 49cd a158 5bce
00000050: 8036 584d 8f33 1b4c a82f afcd dc5a 724e
00000060: 4242 d14d 8f24 e04d 179b 2acd 2ca2 444e
00000070: 40fc bc4d 931d 1ccd 4300 3fcc cc73 29cb
-2.6404651e+08 -1.8174877e+08 -2.3510696e+08 -9.6168826e+08 2.1443547e+08 7.8693914e+08 9.523715e+07 -1.8761645e+08
-1.0506375e+08 6.637199e+08 2.2723522e+08 -9.012552e+07 5.2111325e+08 2.534015e+08 -9.3879256e+07 2.95323e+08
1.3131051e+08 -1.1683635e+09 -2.114419e+08 -9.200047e+08 2.2671565e+08 4.0685116e+07 -3.67392e+08 1.0165102e+09
4.3884755e+08 4.7006154e+08 -1.7889317e+08 8.247406e+08 3.96331e+08 -1.6369899e+08 -5.0069772e+07 -1.1105228e+07

encoder.lob_enc.conv_in.1.running_var f4 [32]
00000000: 9e0b ae5b 19c6 445b 3449 9d5b 58ec 6f5d
00000010: 006b 465b 9bf4 235d fe5c f15a b079 735b
00000020: 2136 7a5a f5e3 e95c ea33 995b 7c25 9b5a
00000030: a251 915c 8913 9a5b c2b3 115b 3fd5 c25b
00000040: 9ff6 545b 45d1 ae5d 369b 9f5b 2a13 595d
00000050: 2ead 875b 3375 a95a 58ba 255c 8e5f 845d
00000060: 648a 6f5c 598c 695c 23d0 315b 3e47 305d
00000070: 3577 295c e34d 185b e372 a95a 3d0d 395b
9.797884e+16 5.5386906e+16 8.854412e+16 1.0805181e+18 5.5849693e+16 7.383899e+17 3.3968858e+16 6.8532216e+16
1.7607065e+16 5.266745e+17 8.62455e+16 2.1834918e+16 3.2722902e+17 8.673725e+16 4.1011517e+16 1.0968122e+17
5.9943858e+16 1.5746157e+18 8.9850355e+16 9.7761826e+17 7.637907e+16 2.3849066e+16 1.8659303e+17 1.1923123e+18
2.6969873e+17 2.6295193e+17 5.004992e+16 7.9388684e+17 1.9080136e+17 4.2869834e+16 2.3847795e+16 5.2087426e+16

encoder.lob_enc.res_blocks.0.conv1.weight f4 [32, 32, 3, 1]
00000000: b3b4 14bd 20d3 99bd 0c53 cebc 2cec a2bd
00000010: 702a 04bc 1b24 673d a3b0 73bd 0681 fdbc
00000020: 5f14 fabc b704 44bd b260 a9bd 1ae1 5e3c
00000030: 9634 a6bc 420a acbb ab1a 01bd 6489 94bd
00000040: 4fdc 39bd 600f 413d 504e 763d 706d 17bd
00000050: 41ab 5c3d ceab 99bd 9419 8ebc a4e2 cebd
00000060: f5a4 f1bc 889d 903c 018f 4c3d 5ba3 df3c
00000070: b83a 1b3d 1209 e0bc b550 bf3d a867 b0bd
00000080: f724 debc dd50 dfbc b89f 6a3d d70e 673c
00000090: c83b b23d cea4 a0bd abe0 e23c e788 b8bd
000000a0: c921 ce3c 120c 4cbd 0a89 74bd 1a39 ed3b
000000b0: e472 1c3b 650a bd3d 65a5 963d d1d4 ab3a
000000c0: 92e2 183d 833f b33b a87f e1bc f95b b3bd
000000d0: e187 c1bd 17a8 34bb 9016 74bd 2c00 a03d
000000e0: 811e 69bd 0a45 623c 19e8 7cbd 4ad8 b63d
000000f0: 1205 2a3d 634a 413d 659b ba3c a846 babc
00000100: 06e4 3dbd 3814 60bd 98e5 d1bd 84e9 e9bc
00000110: 78d8 58bd 3bfb a83d 19f3 b43d 3d2c 95bd
00000120: 5581 b6bb ba26 bfbd 088b 373d 4927 8c3d
00000130: 2d97 82bd 26a2 9cbd b17f ffbc ab8f 943d
00000140: c89b 7a3d 2bf5 82bd ebea a8bb 3262 aabd
00000150: 4497 ac3d b558 103d 67f1 3cbd c529 fa3c
00000160: 8671 d2bb 77e7 a2bd c391 d2bd 8f4b a43d
00000170: 6ade 81bd 9885 643d e4db 10bd ae99 3d3d
00000180: 4624 e73c ca3a 393d fbba 72bd a5be 263d
00000190: d2b0 343c 4f3c 63bc 6ec6 4dbc c5d8 33bc
000001a0: cff8 303d 956e 3d3d 37b8 5dbd 9c1a 95bc
000001b0: 03a7 57bc 1bba f1bc 1e8e 5e3d 07bd d23d
000001c0: 1aa6 653d 241d 9bbc 4220 963d 61ba d63d
000001d0: fee0 263a cf61 9a3d 20a4 943c 8817 1dbd
000001e0: 086c 923c 6bd2 e43b 529c 553c 52a5 96bc
000001f0: 92f3 8abd 34b0 b0bd bc9e 69bd 293c 803d
00000200: 5ac6 bfbc e8a5 d0bd bd16 a43d f1c1 e8bd
00000210: e75d ca3c ecab c93d 8008 33bd c4a9 ea3b
00000220: 4f1f cd3d 1fb6 b53d 4011 a03d ab5a 34bc
00000230: 9bf7 613d be6a 413d 2049 873c e31c bc3d
00000240: 97cd e63c 3b28 a43d d4e5 82bd 768e 7d3c
00000250: 3fa0 e1bd 7c0f 933a f68d 883c 8c31 4b3d
00000260: 450b 133d 9925 78bd 5a4f 373d a67c f1bd
00000270: 0f3c b63d c671 3e3d 7372 05bc 746d 033d
00000280: 0e59 703d 1c5d 8bbd ecf3 593d 094a 3f3c
00000290: 591b ae3d be19 483c 7b63 953c 63f9 f43c
000002a0: 308f b33d 0ddf 93bd 786a 883d c167 8d3d
000002b0: c9a9 a5bb 4741 87bd 48f6 7e3d 3af0 283d
000002c0: eb80 29bd b85a d63c b39e b9bc 8d07 24bd
000002d0: 1e87 e43d a046 443d 4fe2 593c 3fc6 783d
000002e0: df54 763d 7822 2b3d f2bd 563d 6ed2 b2bd
000002f0: 3d39 24bd c5d3 bc3d 755f da3c 84ec f23c
00000300: 5f8c 99bd bdbc 72bd 0d86 39bd 62ab 213d
00000310: 222b 49bd e84d 993d 6140 a8bd d940 f7bc
00000320: 6af7 923d a0b0 50bd 61b4 e4bb 7cc4 1bbd
00000330: 0e05 043d 3c68 63bd 127f a4bd a15b 30bd
00000340: 8c70 183d eb8f 00bd da29 a6bd 1e21 f0bc
00000350: cc09 42bd 550f a93d bf05 dabc 01ac 013d
00000360: b31f ba3d 475b a2bd 1dc3 133d 4e3c 183c
00000370: 8a63 a83d 67fd 0ebb 16fd cd3c f587 cdbd
00000380: 72db c23d 5daf 88bd 73a0 803d c5e2 aabd
00000390: 5d97 923c 39ca 32bb f542 933d b7a2 cabd
000003a0: cb17 a93d c616 c33d 5be5 8b3c 8634 b23d
000003b0: 87aa a03d 9f84 ea3a 6cb6 573d 8ee9 ed3a
000003c0: 41c9 c43c 9373 9dbd 6e08 12bd 6b16 83bd
000003d0: abd7 8cbd 0d92 97bd 81fb 4ebd 3f16 513b
000003e0: d3b9 96bc 7c62 1a3d b2f3 133d 8b5f 19bd
000003f0: 1a3b 883d c0c9 99bd 8434 83bd df13 c03d
-0.03630514 -0.07510972 -0.025186084 -0.079552025 -0.0080667585 0.056430917 -0.059494626 -0.030945312
-0.030527292 -0.04785606 -0.08270396 0.013603473 -0.020288747 -0.0052502463 -0.031519573 -0.07252768
-0.04537612 0.047133803 0.06013328 -0.036969602 0.053874258 -0.07503472 -0.017346181 -0.10101822
-0.029497603 0.017653242 0.049941067 0.027299574 0.037897795 -0.027348075 0.093415655 -0.08613521
-0.027117236 -0.027260238 0.057281226 0.014102659 0.087028086 -0.07843934 0.02769502 -0.09010487
0.025162594 -0.0498162 -0.059701003 0.007239473 0.002387219 0.09230498 0.07355765 0.0013109689
0.03732545 0.0054702177 -0.027526692 -0.08757777 -0.09449745 -0.002756601 -0.05959183 0.07812533
-0.056913856 0.0138104055 -0.061744783 0.089279726 0.04150874 0.04719008 0.022779176 -0.02273877
-0.04636004 -0.054706782 -0.1024887 -0.028553732 -0.052940816 0.082510434 0.0883543 -0.072838284
-0.005569617 -0.093335584 0.044810325 0.068434305 -0.06376491 -0.07648115 -0.031188818 0.07253965
0.06118372 -0.06394418 -0.0051549575 -0.083195105 0.08427289 0.035240848 -0.046128657 0.030537495
-0.0064222245 -0.07954305 -0.10281708 0.08022224 -0.0634125 0.055791467 -0.035365954 0.04628914
0.028215539 0.04522208 -0.05926035 0.040709157 0.011028485 -0.013869359 -0.012559516 -0.010976975
0.043206032 0.046248037 -0.05413076 -0.018201165 -0.013162377 -0.029507687 0.054334752 0.1028996
0.05606661 -0.018934794 0.073303714 0.10484768 0.0006365924 0.07538187 0.018144667 -0.03835252
0.017873779 0.0069830916 0.013037758 -0.018389378 -0.067847386 -0.08627358 -0.057036147 0.06261475
-0.023410011 -0.10187894 0.080121495 -0.113651164 0.02470298 0.098472446 -0.043709278 0.007161351
0.10015737 0.088726275 0.0781579 -0.011007945 0.055167776 0.047220938 0.01651436 0.09185197
0.028174205 0.08015486 -0.063914925 0.01547586 -0.11016893 0.0011219825 0.016669255 0.0496078
0.03589942 -0.06058273 0.04475341 -0.11791353 0.08898174 0.04649522 -0.008144963 0.032086805
0.05867868 -0.068048686 0.053211138 0.011675366 0.0850131 0.012213169 0.018235913 0.029904073
0.08767545 -0.07220278 0.06660932 0.06904555 -0.0050556404 -0.066042475 0.06224659 0.041244723
-0.04138271 0.026166305 -0.022658681 -0.040046263 0.11158584 0.047918916 0.013298585 0.060735937
0.060139533 0.04178092 0.05242724 -0.087315425 -0.04009365 0.09220079 0.026656846 0.029653795
-0.07497477 -0.059262026 -0.045293856 0.039470084 -0.0491134 0.074855626 -0.08215404 -0.030182289
0.07176097 -0.050949693 -0.0069795107 -0.03802918 0.032231383 -0.055519328 -0.08032049 -0.043056134
0.037216708 -0.03138725 -0.08113451 -0.029312667 -0.047372624 0.082548775 -0.026614068 0.031658176
0.090880774 -0.07927566 0.036074746 0.0092917215 0.082221106 -0.002181852 0.025145095 -0.10035697
0.09514512 -0.06674073 0.06280603 -0.08344034 0.017894441 -0.0027281179 0.071905054 -0.09894317
0.08256491 0.09525828 0.017077139 0.08701424 0.078450255 0.0017892307 0.052664205 0.001815127
0.024021747 -0.0768806 -0.03565257 -0.0640076 -0.06877073 -0.07400904 -0.05053282 0.003190413
-0.018399155 0.03769158 0.036121078 -0.037444633 0.06651898 -0.07509184 -0.06406501 0.0937879

encoder.lob_enc.res_blocks.0.conv1.bias f4 [32]
00000000: ef2b e1bd 73b8 02be 956e dfbd 6a30 49be
00000010: 4c8f 56be e692 14be 175b 3cbe 4083 56bd
00000020: 4ea3 15be 9a64 0bbe e3b1 cfbd cefe a9bd
00000030: db54 1abd 76fd e6bd 7b3d 9abd e8c5 b1bd
00000040: e162 94bc aa35 afbd 62e0 82bd c9e9 d9bd
00000050: cda6 80bd 293f dfbd 2808 28be 02ee 1dbe
00000060: 5d88 1bbd d0ea d2bd 0e17 e7bb f704 15bd
00000070: dcb0 c1bc 36ce d6bd 8da4 5fbd 4971 bcbd
-0.10994708 -0.12765674 -0.10909764 -0.19647375 -0.20953101 -0.14509162 -0.18394123 -0.052371264
-0.14613077 -0.13612595 -0.10141351 -0.08300553 -0.03767858 -0.112788126 -0.07531258 -0.08680326
-0.018113555 -0.085551575 -0.06390454 -0.10640294 -0.06281815 -0.10900719 -0.16409361 -0.15422824
-0.037971843 -0.10298693 -0.007052309 -0.036381688 -0.023643903 -0.1048855 -0.054600287 -0.09201295

encoder.lob_enc.res_blocks.0.bn1.weight f4 [32]
00000000: 36d2 7e3f 30fe 7f3f 3c74 803f 482c 7f3f
00000010: 2f10 7c3f 8887 803f 2bfb 7d3f 6014 7f3f
00000020: a187 7e3f 517d 7f3f f97f 7e3f b771 803f
00000030: 9f11 803f e403 7f3f 4c43 7f3f b6fa 803f
00000040: 32b3 7e3f f928 813f deba 7d3f c9ee 7b3f
00000050: 5080 803f 27c1 7c3f a5b8 813f 77c8 803f
00000060: 7323 813f f01e 813f 1dba 803f 5afa 803f
00000070: 7543 7e3f 9302 813f 91b4 813f 141d 813f
0.99539506 0.99997234 1.0035472 0.9967694 0.98462194 1.0041361 0.99211377 0.99640465
0.99425703 0.9980059 0.9941402 1.0034703 1.0005378 0.9961531 0.9971206 1.0076511
0.9949218 1.0090629 0.9911326 0.9841123 1.0039158 0.9873223 1.0134474 1.0061177
1.0088943 1.0087566 1.0056797 1.0076401 0.9932168 1.007891 1.013323 1.0086999

encoder.lob_enc.res_blocks.0.bn1.bias f4 [32]
00000000: 36d9 f93b 80ec 073b 3599 4d3a 81eb be3b
00000010: 6333 643b 0bae 263c 3224 0f3c 0899 ff3b
00000020: a263 afbb 5926 df3b b75b 0abc 7321 583c
00000030: 257a ad3b 1992 ba3b 847b d73b aea5 143b
00000040: cd52 173b 51ca d13b 2565 023b 81ea 56bc
00000050: 76e6 3e3c 4f07 ba3a 7485 493c a9ff 363c
00000060: 7c24 293c e2ec 0b3b ff96 193c 2b03 5e3c
00000070: bddd 23bb ece5 3f3c a47a 3a3c 1343 da3b
0.0076247705 0.002074033 0.0007842959 0.005826414 0.0034820668 0.010173331 0.008736657 0.007800225
-0.0053524533 0.0068099913 -0.008444718 0.013191569 0.005294102 0.0056936857 0.0065760035 0.002268176
0.0023090125 0.006402292 0.0019896713 -0.0131174335 0.011651626 0.0014192852 0.012299884 0.011169353
0.01032364 0.002135091 0.009374379 0.01355056 -0.0025003992 0.0117125325 0.011381779 0.006660828

encoder.lob_enc.res_blocks.0.bn1.running_mean f4 [32]
00000000: 3001 cebe e186 aa3e 31c3 e2be d68c 08bf
00000010: 8b7b a2be 54ae edbe f35e 0abe f112 283d
00000020: 2ff9 e6bd aae0 abbd 7f58 aa3e 238b c83e
00000030: c748 62be 86d3 24be 922a c6be 080d 963e
00000040: 40d7 403d 02c6 ccbd 6f8b 6ebd 5784 57be
00000050: ce80 d9bd 6ec9 b33d 6c8a adbe 0727 bcbe
00000060: ac78 37bd 743d 1fbf 4fac 85bd 841b 8abe
00000070: f363 ddbd e895 26be 2623 3ebe 49ac dd3d
-0.4023528 0.3330603 -0.44289544 -0.533399 -0.3173488 -0.46422064 -0.13512783 0.04103369
-0.11277997 -0.08392461 0.33270642 0.39168653 -0.22098075 -0.16096315 -0.38704354 0.29306817
0.04708028 -0.099987045 -0.058238443 -0.21046577 -0.10620271 0.08778654 -0.3389467 -0.36748526
-0.044792816 -0.62203145 -0.06527006 -0.26974118 -0.108100794 -0.16268122 -0.18568096 0.108238764

encoder.lob_enc.res_blocks.0.bn1.running_var f4 [32]
00000000: 4a54 723d 1880 153f 8d52 8f3d c027 963d
00000010: a5fb 7b3d d23c 783d faab 983e d99c eb3d
00000020: 51f8 ad3e 587d 2d3e 0616 e43e c78a d03d
00000030: 97be 163e 53ab 1e3d c79d 963d f730 723d
00000040: 66a2 d23e d965 853e 3b79 fa3d 1a49 cd3d
00000050: 5f57 113e c42b a43e 50bb f93d e55f d43e
00000060: 1524 163e 3ede c83d 2ec4 603e b1b3 ce3d
00000070: 56f1 e23c 010a aa3e ca25 e43d 052c af3d
0.059162416 0.5839858 0.06998167 0.073318005 0.061519284 0.060604878 0.29818708 0.11504526
0.33978513 0.16942346 0.44548053 0.1018272 0.14721142 0.038737606 0.073543124 0.059128728
0.41139525 0.26054266 0.12230154 0.10023709 0.14193486 0.3206464 0.1219393 0.41479412
0.14662202 0.09808014 0.21949837 0.10092867 0.027702969 0.33210757 0.1114002 0.08553318

encoder.lob_enc.res_blocks.0.conv2.weight f4 [32, 32, 3, 1]
00000000: f25c 8f3c dd36 ee3c ace9 88bd 32e3 ad3d
00000010: 8397 fd3c 3e3b f7bc 4cfc a1bd f221 7bbd
00000020: adf6 84bc 776f 513c f087 0a3d 7788 ca3d
00000030: ed36 923d a3f2 18bc d481 92bc 6cf1 a73d
00000040: e6ed 82ba 9c46 6c3c 5dd1 4cbb 7316 b73d
00000050: 97a3 783d af9f 1c3d 4c32 ef3c 46e9 9dbc
00000060: 40da e73c 37ae 9ebd e4f9 94bd a2af 023d
00000070: 3436 c13c 9974 82bd dd34 123d b08f 203d
00000080: 331a 4e3d 7f34 2fbd 9456 5bbd 019f e03a
00000090: 33c8 53bc 9335 29bc eaa7 a3bd f16c 943d
000000a0: e595 bc3d a068 43bd 9199 993d 0c8d ab3c
000000b0: 2bc4 e23c 290b ebbb 9d1e c13d dd09 bfbc
000000c0: 504f 8d3c 5d63 d4bb 3418 db3b 3148 37bd
000000d0: 6dd5 84bd 7244 8d3d 07c8 c8bd 535d 92bd
000000e0: 7ac7 b63d 8125 4cbd 4860 36bc 4f4b c8bd
000000f0: 057a e6bc db4d 34bd b969 213d 37c1 463d
00000100: 5a2f b63d 9ca3 10bd b005 c33d 7976 2a3d
00000110: 32f8 abbd 4ff5 b3bd f0aa 41bc a8e6 bd3d
00000120: 16c9 953a 37c8 78bd 24e4 7b3d 017b dabd
00000130: 65c2 943d 1169 06bc 2e40 f03b c309 0ebd
00000140: e781 883c 8f10 deba 1eb6 9c3d 0f22 ae3d
00000150: a645 223d 5554 8cbc 6f1d a7ba 39a1 80bd
00000160: 5943 803d 9e46 b6bc 5a34 cabd f6de 00bd
00000170: 50c4 90bd 42fa a4bd 5126 963c 8a04 203c
00000180: cae7 56bd 9e47 8fbd 5fbd 193d 78aa c03c
00000190: 52c7 913d 380a 653d a5a8 62bd 5bd9 7f3d
000001a0: 2661 a8bd 9e65 a9bd b975 433d c6f7 c83d
000001b0: 48e3 503d 504e 223a d7d4 36bd 3b91 d63d
000001c0: 9047 80bd d5c6 c23d c21f 89bd be09 ccbd
000001d0: 909f a2bb f5b6 013d 5afa a8bd b9e2 e9bc
000001e0: b56a 21bb 9fb2 d2bb 95d7 41bd b8ec c13d
000001f0: 9e79 93bd efb9 8a3d ea90 023d 730a 25bd
00000200: 93d7 3f3d cc47 a3bd 6b26 85bd 7f5f 793d
00000210: f1c0 49bd 1249 583d f47f bbbd 54b8 9b3c
00000220: fd12 bdbd 9c72 4e3d 499d d13d c697 873d
00000230: e647 093d 9366 863d 0d52 b83d 8ab1 663d
00000240: b4ac 3a3d 04b1 0b3d 07bc d03c 10e8 7d3d
00000250: e009 993d 10c6 13bd c6c1 833c 7a70 553d
00000260: a286 abbd 39b4 95bd 2d28 bdbc fef0 9b3c
00000270: d343 893d d753 613d 14d4 5e3d ca94 a8bc
00000280: 6717 cbbc 3e58 c6bd 8c7d f03a 90f9 ecbc
00000290: 8563 a2bd 24d0 323d 3d48 683d 4207 d23c
000002a0: 580f 98bd 9794 f5bc 7886 c1bd a6cb 00bc
000002b0: 16bf 853d 2d2f bc3d 266a b4bd 0832 bcbc
000002c0: e367 60bd 4938 9f3d 764d d23d dc3a adbd
000002d0: f7df 13bd 33b7 403c 1c51 b4bd 4f87 d4bd
000002e0: 1177 8fbd 607e 913d 06a0 863c 741f 54bd
000002f0: 89c5 a0bc 22fc bd3d 6968 c3bd f52b 243d
00000300: 06ab 6cbc 61b7 dfbd f257 9b3d e9a6 6dbd
00000310: f857 913d 3267 4cbb 5253 813c 2323 babc
00000320: 0a65 babd 836a 2c3d 2f45 2fbd c3bb ed3c
00000330: b911 af3d 8412 23bd 8fde ce3a e29e e83c
00000340: ffe6 2cbd fafe 133d 723a 5dbd dbd7 8f3d
00000350: 91f6 e6bc 0993 74bc f9e4 2ebd 5ebb 21ba
00000360: 2de1 763d 4730 073c a97d 3cbd 091d ca3d
00000370: 2413 c03d ca5a 17bd 8998 88bd 8fa3 a7bd
00000380: 892a fa3b d8a4 cb3d fe5e 133d cb8c 383d
00000390: 3202 dabd 652c fa3c ac1a 2b3d ba95 17bd
000003a0: 12f4 96bd b44e d1bc bfd2 c1bd 81cd ae3d
000003b0: 5674 8dbd 4642 d13d 6f21 bcbd 233f 9d3d
000003c0: 2ad5 52bd 91b0 b6bd efae 943c 24b0 d53d
000003d0: dc55 1ebd ee4a cd3c c1ec 97bd 800d 663d
000003e0: aa7c a43d 724c 2cbd 87d0 ac3d 1cfe 253d
000003f0: 8bfe 8a3b 4bee 58bd 577e 703d c8fa d0bb
0.017500374 0.029078895 -0.066851944 0.084906 0.030956035 -0.030179616 -0.0790945 -0.06131167
-0.016230905 0.012782923 0.033821046 0.0988931 0.071393825 -0.009335193 -0.017884172 0.082003444
-0.0009989112 0.014421131 -0.003125272 0.08939829 0.060702886 0.038238224 0.029198788 -0.019276273
0.028302312 -0.077480726 -0.07274225 0.031905778 0.023585416 -0.063698955 0.035694946 0.03919953
0.050317954 -0.042774674 -0.053549364 0.0017137231 -0.012926149 -0.0103277145 -0.079910114 0.072473414
0.092082776 -0.0477072 0.074999936 0.02094128 0.02768143 -0.0071729613 0.09429667 -0.023320133
0.017249733 -0.0064815716 0.006686235 -0.04474658 -0.0648602 0.068978205 -0.09803777 -0.071467064
0.08924766 -0.049840454 -0.011131354 -0.09779989 -0.028134355 -0.04401956 0.039407466 0.048524108
0.0889575 -0.03531228 0.09522569 0.04161689 -0.08396949 -0.08787023 -0.01182054 0.0927251
0.0011427726 -0.060737815 0.06149687 -0.106679924 0.0726364 -0.008203761 0.0073318696 -0.03467728
0.016663505 -0.0016942191 0.076519236 0.0850259 0.039617203 -0.017130056 -0.0012749861 -0.06280751
0.062628455 -0.02225047 -0.098732665 -0.031462632 -0.07068694 -0.080555454 0.018328818 0.009766707
-0.052467145 -0.06996082 0.037534114 0.023518786 0.071180955 0.05591795 -0.055336613 0.062463146
-0.082216546 -0.08271335 0.04771969 0.09812884 0.050998002 0.0006191479 -0.044636574 0.10476919
-0.062636495 0.095105805 -0.066955104 -0.09962796 -0.004962869 0.031668622 -0.08250876 -0.028550493
-0.0024630253 -0.0064299847 -0.047324736 0.09468979 -0.07200931 0.06773745 0.031876482 -0.04029317
0.046836447 -0.079726785 -0.06501468 0.060882088 -0.04925627 0.05280406 -0.091552645 0.019008793
-0.09232137 0.05040227 0.10235078 0.06620745 0.033515833 0.06562533 0.09000025 0.05632166
0.04557486 0.034104362 0.025480283 0.06198889 0.07472587 -0.03607756 0.01608361 0.05210922
-0.083752885 -0.07309765 -0.023090446 0.019035812 0.067023896 0.055011597 0.054401472 -0.02057876
-0.024791433 -0.096847996 0.0018347963 -0.028927594 -0.07929138 0.04365553 0.056709517 0.025638226
-0.074248016 -0.02997808 -0.09449476 -0.007861054 0.065305874 0.091886856 -0.08809309 -0.022973076
-0.054786574 0.077744074 0.10268681 -0.08458492 -0.03610226 0.011762428 -0.08804533 -0.103773706
-0.07005132 0.07104182 0.016433727 -0.05178781 -0.019625442 0.09276606 -0.09541399 0.040080983
-0.014445072 -0.109236486 0.075851336 -0.058020506 0.07096857 -0.003118944 0.0157868 -0.022721833
-0.09101303 0.042093765 -0.042790588 0.029020196 0.08548302 -0.03981258 0.001578288 0.028396074
-0.042212483 0.036131836 -0.054010816 0.07023593 -0.028193744 -0.014927634 -0.042698834 -0.00061695825
0.060273338 0.008251256 -0.046018276 0.09868819 0.09378651 -0.036951818 -0.06669719 -0.08185493
0.007634465 0.09943551 0.035979263 0.045056146 -0.1064495 0.030538747 0.041773483 -0.037008025
-0.073707715 -0.025550224 -0.09464025 0.085352905 -0.06906955 0.10217719 -0.091860645 0.07678058
-0.05147282 -0.08920396 0.018149821 0.10433987 -0.0386561 0.025060143 -0.07418204 0.05616522
0.0803159 -0.04206509 0.08438211 0.04052554 0.0042417697 -0.05296163 0.058714237 -0.0063775517

encoder.lob_enc.res_blocks.0.conv2.bias f4 [32]
00000000: 684b 97bd 73d9 e5bd 1a61 e0bd a8ed adbd
00000010: 4f9e c5bd f08c 00be ac1e 04be 9fa8 06be
00000020: b57a 00be 6bae 3ebe f897 18be dc5f e2bd
00000030: 8045 15be c04b a7bd b444 8abd 7f2b 9bbd
00000040: ef8d 22be 1f6f ddbd 6701 26be 5f04 2abd
00000050: 8cdd 07bd b58e 1bbc ff00 0abe 36f7 d7bc
00000060: 9cdf c3bd 9b79 f0bd c047 1abd ef81 31be
00000070: 420b 43be 2b40 9cbc 1576 9ebd 53cc 2ebd
-0.073874295 -0.11223116 -0.10956021 -0.08492595 -0.096493356 -0.12553763 -0.12902325 -0.13150261
-0.12546809 -0.18621223 -0.14901721 -0.1105344 -0.14577293 -0.08168745 -0.06751385 -0.075766556
-0.15874456 -0.1081221 -0.16211472 -0.041508075 -0.033170268 -0.009494473 -0.13476942 -0.026362997
-0.095641345 -0.117419444 -0.037666082 -0.17334722 -0.19047263 -0.019073566 -0.07737366 -0.042675328

encoder.lob_enc.res_blocks.0.bn2.weight f4 [32]
00000000: cf95 7d3f ad5c 803f 8f28 813f 03b7 7d3f
00000010: aafa 803f 9910 803f d723 813f eeee 803f
00000020: 7fa5 803f 5cd1 803f 4702 803f 8c9a 7f3f
00000030: 860e 813f 63a9 803f 7aa7 7e3f 1cec 803f
00000040: 0d1b 803f 4b8c 7f3f 9dd9 803f 9e2e 803f
00000050: 8007 803f 92e1 803f b4dc 7f3f ff5e 813f
00000060: cbd5 803f 4337 803f 7147 813f c623 813f
00000070: a7d9 803f 76ce 7e3f a4fc 803f 6b25 813f
0.99056715 1.0028282 1.0090503 0.9910738 1.0076497 1.0005065 1.0089062 1.0072916
1.0050505 1.0063891 1.0000695 0.99845195 1.0082557 1.0051693 0.994743 1.0072055
1.0008255 0.99823445 1.006641 1.0014226 1.0002289 1.0068839 0.9994614 1.0107116
1.0065244 1.0016865 1.0099927 1.0089042 1.0066422 0.99533784 1.00771 1.0089544

encoder.lob_enc.res_blocks.0.bn2.bias f4 [32]
00000000: 5545 ba3b 470d 33b9 26bf 1d3c d01f 92bb
00000010: 6637 093c 1cc9 9b3b d703 173c 73d2 243c
00000020: 14cf 0e3c 9b34 f33b 92d0 c0bb 6cde 7a3a
00000030: cd8e c53b 0e8a 913b 69dd 09bc 4817 ec3b
00000040: 551d 493b 9b42 26b9 b95d 163c 6546 893a
00000050: 9157 a0ba 44dd 083c c0e8 64bb b087 063c
00000060: ec98 fe3b 0e1a 7c3b 1ffa 013c 1883 193c
00000070: f65b fd3b 490b 11bc d71f 1f3c 5e8d 1f3c
0.0056845346 -0.00017075716 0.009628093 -0.0044593588 0.008375024 0.0047541987 0.009217224 0.010059941
0.008716363 0.0074220425 -0.0058842385 0.00095698866 0.006028986 0.004441506 -0.008414605 0.007204924
0.003068765 -0.00015855806 0.009177619 0.001047325 -0.0012233128 0.008353535 -0.003492877 0.008211061
0.0077696946 0.0038467678 0.007933169 0.009369634 0.00773191 -0.008852788 0.009712181 0.009738294

encoder.lob_enc.res_blocks.0.bn2.running_mean f4 [32]
00000000: e7cb 56bc 33ac 98bd c049 49bd ec12 cdbb
00000010: e9c4 0dbe 7f8d 0b3e dee6 dabe d4b6 be3d
00000020: bf44 bd3c 3176 3f3b 25ae a2be 05d1 3dbe
00000030: 5346 bebc a36f 83be 0150 653e a37d 68be
00000040: bd40 4cbe c142 be3d 2f3e a9be 3b9b 27be
00000050: 9427 b6be 85cb 013e 54c1 743b 4208 1fbe
00000060: eb45 edbe 228f 51be 1731 0d3d 1401 04bd
00000070: e7b2 6abe 7253 8e3d ad5b 98bd 1add 05bc
-0.013110138 -0.074547194 -0.0491426 -0.006258359 -0.13844647 0.13628195 -0.42754263 0.093122154
0.02310407 0.0029214735 -0.31773487 -0.18536766 -0.023226893 -0.2567111 0.223938 -0.22704177
-0.1994657 0.09290076 -0.33055255 -0.1636781 -0.3557707 0.12675293 0.0037346678 -0.15530494
-0.46342406 -0.20464757 0.034470644 -0.03222759 -0.22919808 0.0694951 -0.07439361 -0.0081703905

encoder.lob_enc.res_blocks.0.bn2.running_var f4 [32]
00000000: 162c 6e3d 4415 683d 217e 1e3e 30d4 e33d
00000010: 06b6 903d a8ca d63d 610a 4b3e 4358 713e
00000020: 446e 193e e89f b83d 6532 0d3e 0e2f 673d
00000030: 1d37 a13d 0537 893d 58b4 a03d 6301 4f3e
00000040: c9cf 6c3d becb 083e 56a5 253e d747 413e
00000050: 645d 753e f968 463e 5f6a 753e 20c2 393e
00000060: 3174 cf3d dbc5 b33d 2391 9f3d a9be 943e
00000070: e7b9 183e adc4 d43e ba26 8c3d b4c7 0e3e
0.058147512 0.056660905 0.15477802 0.11124456 0.07065968 0.10487872 0.19828178 0.23568825
0.14983469 0.09014875 0.13788755 0.05644136 0.0787184 0.06699947 0.07846898 0.20215373
0.057815347 0.13358971 0.16176352 0.18875061 0.23961407 0.19375981 0.23966359 0.18140459
0.101295836 0.08777972 0.077913545 0.29051712 0.14914666 0.41556302 0.06843324 0.13943368

encoder.lob_enc.res_blocks.1.conv1.weight f4 [32, 32, 3, 1]
00000000: 7308 bebd 2f7c 793c fc49 363d e031 05bd
00000010: f77b a3bd 4024 963d 3e2f a63c fe8e 423d
00000020: c5d5 b83d eac3 c6bd f45d 863d 2470 38bd
00000030: b1c4 263d cbd1 823d f3ba 9c3d 50d0 f63c
00000040: 8b41 053c 7478 51bb 0d5b 17bd 0965 4f3d
00000050: a899 a93d 03ab 233a f65e b4bd e70c e3bc
00000060: 7409 1abd dd9a 3d3d 4e43 acbd 6ae6 15bd
00000070: 0f79 78bd be99 aebd a79d 1fbd 0812 9f3d
00000080: c789 523d deef a93d a0a8 253b 13f3 753d
00000090: 836c 233d 3caa 843d 0215 5bbc 485f bb3d
000000a0: 1144 2abc 62d7 e0bc d435 1f3d 40c0 133d
000000b0: b2d3 8abd fe37 1abd 8066 c5bd f0d7 bd3d
000000c0: 3a1d f53c c0ae a93d 6617 b0bd f0c5 c13d
000000d0: 6dee be3d fd14 b83d ae36 8ebd 7b53 c83d
000000e0: 0902 b5bd b56f 9fbd bcff 1dbd ba06 c63d
000000f0: 3712 ddbc 5b63 133d c9e0 5fbc da4d 373d
00000100: 9f95 103d 95aa 983d 41b7 493d 6439 993d
00000110: d832 ac3d 0756 e63c 80e4 553d 2349 b03d
00000120: 5365 443d 5193 f7bc c081 943d 0f67 853c
00000130: 0200 823d 2caf 02bd 74cb cbbd 179c 88bd
00000140: ec68 3dbc 3b51 8fbd 72a2 43bd 6ca7 403d
00000150: 952e 0c3d a04b fbbc a3dd b2bb b7ad d6bd
00000160: 5970 36bc 7be4 a1bb 9711 74bd 0eec b43d
00000170: 792d 5cbd edf9 883c 623f 6fbd 5cf7 043d
00000180: a294 aebd 61cf 0ebc 1d62 023d 6a71 9e3d
00000190: a2d8 9b3b df2e 2b3c ecaa 863c 141d 41bd
000001a0: 4dd4 cb3c bde0 bebd 61a7 23bd de01 47bb
000001b0: 7bbe 05bd 5cbe 333d c1ec 8dbd 88cd f83c
000001c0: 897a 85bd f474 b2bd 40f0 aabb a19e 1bbc
000001d0: 9cec 3dbd fee9 d13d 6a0e 06bd c71c 96bc
000001e0: b848 ff3b 1176 22bd b443 c33c 826a c23d
000001f0: 2b47 4dbb 675f 31bd c23a 823d 2f17 a13c
00000200: 2f03 5d3d 4076 b83b 1541 75bd 45a4 9dbd
00000210: a25b 1dbd b1e1 b9bd 78b4 bbbd 105a 633d
00000220: ed9f 2dbc f980 95bb 067d acbd 71de 513d
00000230: d08d 963d f64e 8d3d ffc2 6bbd 8e4a 3e3c
00000240: 171c 5fbd 8d07 3c3d 1da8 593d cff8 7fbd
00000250: 1d57 aebd d537 a6bd ca3a 223d 4509 b23c
00000260: cfc0 863d 5384 a4bc 1e98 9d3d 1606 b43d
00000270: b07b 9cbd f84f 8cbc d97d 8f3c 4640 8c3d
00000280: 0ca7 c5bd f02e 3b3d dc70 faba 1f14 8c3d
00000290: 306b cfbd 2934 8f3d 4fe5 833d b96d fdba
000002a0: e554 07bd e264 503d 5b5f e4bc 6cdf e5bc
000002b0: 3eb3 86bd c308 bd3d 22b9 833d 0591 783c
000002c0: 76d0 193b db30 93bd 6e40 9c3d aed6 1a3d
000002d0: 0fc6 083d 17e4 2c3d f29b acbd 6e78 0fbd
000002e0: a03d 8d3d 32f9 10bd ee87 aa3d f6bc 8dbd
000002f0: c0ed 8e3d 447d d53d f6a8 b3bd 96e3 933d
00000300: 856d 883c 9689 2e3d aa71 1dbd 4a61 a03d
00000310: 3c0a bb3c 1fd1 94bd ace2 c93d e957 473b
00000320: 2211 5abc 0339 d33c c280 6d3c 528f bebd
00000330: e3f4 b73d 8a32 9dbc b805 b53c a487 d1bc
00000340: 97e6 cbbd 7c18 bfbd 1bef 19bd 59aa 0cbd
00000350: 5d98 a63d 755a 723c 862a da3d 2d6a af3d
00000360: 3da6 1a3c c0fc 17bd 858f f53a 2443 2cbd
00000370: a23c d6bd 2d2c b93c fc44 ff3c 62a2 29bd
00000380: 1be9 a13d 4ae2 10bc de21 babc a922 1abd
00000390: 7a78 c33d 6205 633d a9dd 8fbd 3cf6 a7bd
000003a0: 106a b5bd 65c7 b23d 44fe a73d ec1e 513d
000003b0: 41ed 453d 5407 96bd 5ea3 8c3d 4120 5fbc
000003c0: ce8e 11bc 2997 a73b 0394 0cbd 0bc2 be3d
000003d0: 4999 3e3c 14c7 8c3d f6a5 88bd 9785 bcbd
000003e0: b8ba 04bd 3e2f da3c 0a7b 96bd 99e3 66bd
000003f0: 25e8 dc3c 2390 b73d f0e3 a33d 382a b73d
-0.09278955 0.015227362 0.04450415 -0.032518268 -0.07982629 0.07331133 0.020286199 0.04749965
0.09025148 -0.097053364 0.06560889 -0.04502882 0.040714923 0.06387671 0.07652845 0.030128628
0.008133302 -0.0031962665 -0.036952067 0.050633464 0.08281261 0.0006243439 -0.08807175 -0.027716113
-0.03760667 0.046290267 -0.08411275 -0.036596693 -0.060662325 -0.08525418 -0.03896871 0.07767111
0.051400926 0.08297704 0.002527751 0.060046267 0.039898407 0.06477782 -0.013371708 0.09149033
-0.010392205 -0.027446453 0.038869694 0.036072016 -0.06778659 -0.037651055 -0.09638691 0.092697024
0.029921163 0.08285284 -0.08598213 0.09461582 0.0932282 0.08988378 -0.06944023 0.09781548
-0.08838279 -0.07784978 -0.038573965 0.09669252 -0.026986225 0.035983425 -0.013664433 0.04475198
0.03529894 0.07454411 0.04924703 0.074816495 0.08408135 0.028117193 0.052219868 0.086077
0.047948193 -0.030221613 0.0725131 0.016284494 0.06347658 -0.03190534 -0.09950915 -0.06670397
-0.01156066 -0.06997915 -0.04776234 0.047034666 0.03422411 -0.03067571 -0.00545855 -0.10482352
-0.011135184 -0.004940567 -0.059587087 0.08834086 -0.053754304 0.016720736 -0.058410056 0.032462463
-0.08524443 -0.008716435 0.03183185 0.07736476 0.0047560493 0.010448187 0.016438924 -0.04714687
0.024881506 -0.09320209 -0.039954547 -0.0030366103 -0.03265236 0.043882713 -0.06929923 0.030371442
-0.06517512 -0.08713713 -0.0052166283 -0.009498269 -0.046368226 0.102497086 -0.03272859 -0.018324269
0.007790651 -0.03966338 0.023835994 0.09492971 -0.0031322937 -0.043303873 0.063588634 0.019664375
0.053958114 0.005629331 -0.05987652 -0.076973476 -0.038417466 -0.0907625 -0.09165281 0.055505812
-0.010597211 -0.004562494 -0.08422284 0.051237527 0.07351267 0.06899826 -0.05755901 0.011614455
-0.054470148 0.04590564 0.05313884 -0.06249314 -0.08512709 -0.08116118 0.039606847 0.021732936
0.06579744 -0.020082628 0.0769503 0.08790223 -0.07640779 -0.017127976 0.017516064 0.06848197
-0.09651002 0.04569906 -0.0019107121 0.06839775 -0.10127866 0.06992371 0.064402215 -0.0019335068
-0.033039946 0.05087746 -0.0278775 -0.028060637 -0.065771565 0.09230187 0.06431796 0.015171294
0.00234702 -0.07187053 0.076294765 0.03780239 0.03339201 0.04220971 -0.08428182 -0.03502696
0.0689652 -0.0353939 0.08326708 -0.06920807 0.06978941 0.10424283 -0.08772461 0.07221143
0.016653785 0.04261168 -0.038438477 0.078310564 0.022832029 -0.07266449 0.09857687 0.0030417389
-0.013309749 0.025784021 0.01449603 -0.0930468 0.08982255 -0.019189138 0.022097453 -0.025577374
-0.09956091 -0.09330842 -0.037581544 -0.034342144 0.0813453 0.014792074 0.10652642 0.08565173
0.009439048 -0.037106276 0.0018734789 -0.042056218 -0.104607835 0.022604072 0.031160824 -0.041414626
0.079057895 -0.008843014 -0.022721227 -0.03763071 0.095444635 0.055425055 -0.070247 -0.08201262
-0.088581204 0.08729438 0.08202794 0.05105488 0.048321966 -0.073256165 0.06867097 -0.01361853
-0.008884145 0.0051144552 -0.034320842 0.093143545 0.011633226 0.06873909 -0.066722795 -0.09205168
-0.03240463 0.026633855 -0.073476866 -0.056369398 0.026966164 0.08963039 0.0800246 0.089435995

encoder.lob_enc.res_blocks.1.conv1.bias f4 [32]
00000000: ea28 96bd 8034 4bbd 4c4f a2bc 19c8 9bbd
00000010: 4b64 a8bc d4bc 7dbd 0092 25be c8ea d5bd
00000020: 68d3 1abe ceb6 08bd 952f bbbd 5257 3cbe
00000030: cb71 49bb fbce 49bd cea1 ddbd 0222 4abe
00000040: aa29 18be 06fb 5abe 11d2 42be dcf7 23bb
00000050: b536 03be b6bb 2cbc 560d 79bd 99d3 ccbc
00000060: 1c28 82bd 7db3 30be d6dc b5bc b16f 52be
00000070: 8693 97bd 2722 abbd a998 4cbd 5e61 3fbe
-0.073320225 -0.049610615 -0.019813202 -0.07606525 -0.020555636 -0.06194766 -0.16168976 -0.104451716
-0.15119708 -0.03337746 -0.09139935 -0.18392685 -0.0030737992 -0.049269658 -0.108218774 -0.19739535
-0.14859644 -0.2138482 -0.19025446 -0.0025019562 -0.12813838 -0.010542801 -0.060803734 -0.025003241
-0.063553065 -0.1725597 -0.02220003 -0.2055042 -0.07401185 -0.083561234 -0.049950276 -0.18689486

encoder.lob_enc.res_blocks.1.bn1.weight f4 [32]
00000000: 5a67 7e3f 462a 803f 8f78 7f3f 69e3 803f
00000010: f27f 803f e477 7d3f 60d9 7e3f a4d7 7d3f
00000020: 1635 7e3f ca83 7c3f e4b7 813f f138 813f
00000030: b603 803f 3f2e 823f 6441 803f 2208 7f3f
00000040: 77b9 803f edd0 7f3f 9335 813f 2656 803f
00000050: 21f1 7e3f bb0b 803f 79ed 7f3f 5bb5 7e3f
00000060: 05f6 803f 0b17 803f bffb 7e3f 9246 803f
00000070: 110a 7d3f def2 7d3f 0ec6 7e3f 30ae 803f
0.9937645 1.0012901 0.9979333 1.00694 1.0039046 0.99011064 0.9955044 0.99157166
0.9929975 0.98638594 1.0134244 1.0095502 1.0001132 1.0170363 1.0019956 0.99621785
1.0056599 0.9992817 1.0094475 1.002629 0.99586684 1.000358 0.9997173 0.99495476
1.0075079 1.0007032 0.99602884 1.0021536 0.98843485 0.9919871 0.9952096 1.0053158

encoder.lob_enc.res_blocks.1.bn1.bias f4 [32]
00000000: 16f6 9dbb a211 b63a 7806 25bc 436e 003a
00000010: e17b 0e3c 57a0 77bc 47cc 8abb f228 9abb
00000020: b911 7b3b a9fb 2abc 1c76 303c ddb0 a43b
00000030: 09f4 303c 6d5a 653c 7b2c 2339 c34a 39bc
00000040: 4b7d 913b 9c3b d1bb 316f 443b cc3f a93c
00000050: 502f 183c 694f 3c3c a7ef be3b c620 34bb
00000060: af46 ec3b c74f 5fbb 1934 2e3c 55b5 613a
00000070: c425 69bc 8c96 1cb9 7812 0ebc fc19 753a
-0.0048205955 0.0013890753 -0.010072343 0.0004899243 0.008696527 -0.015113912 -0.0042357775 -0.004704588
0.0038310124 -0.010435977 0.010770347 0.0050259666 0.01080037 0.01399861 0.00015561462 -0.0113093285
0.004439985 -0.00638528 0.0029973502 0.020660304 0.009288624 0.011493542 0.0058269086 -0.0027485355
0.0072105746 -0.003407465 0.010632538 0.00086100894 -0.014230195 -0.00014933402 -0.0086713955 0.000934988

encoder.lob_enc.res_blocks.1.bn1.running_mean f4 [32]
00000000: 732b 793e 1d94 81bd 4533 c83d 1f96 30bf
00000010: 13b0 d7be 4407 80be 9841 e4be 1172 183f
00000020: a696 eebd 09a2 e1be 8459 07bf 4a07 61bf
00000030: d045 43bf 1440 35bf 787a 423f 303c ccbe
00000040: 9def 54bf ec63 edbe 7a28 88bf 6662 21bf
00000050: 7b3d a6be 20de 94be ab8e 7dbe 4031 ae3e
00000060: 41dc 1dbf a033 68be 5bed 883e f63d bebe
00000070: fdb3 66be 21ed a7be 7167 5fbd 8c0d e0be
0.24332981 -0.063270785 0.09775404 -0.68979067 -0.4212652 -0.25005543 -0.44581294 0.5954905
-0.11649828 -0.44068936 -0.52870965 -0.8790175 -0.762784 -0.708009 0.7596812 -0.3988967
-0.8317812 -0.46365297 -1.0637352 -0.6304077 -0.3246878 -0.29075718 -0.24761455 0.3402195
-0.61664206 -0.22675943 0.26743588 -0.37156647 -0.22529598 -0.32798102 -0.05454201 -0.43760335

encoder.lob_enc.res_blocks.1.bn1.running_var f4 [32]
00000000: 68ad 863e c09a 983e 35ec 2c3e 1107 2d3e
00000010: 8b2d 343f 325a 713e c75c ac3d 89c9 b03e
00000020: 143c fb3e 1bda cd3e 259b 373e 7ba2 0c3e
00000030: ba39 423e b4b0 103e ed76 da3e 096f b13d
00000040: 3765 823e 2000 173e 6bc9 403e 2010 8d3e
00000050: 8385 183e 1bf5 373f 807e 733e 0666 3f3f
00000060: e70d 943e 1dee af3e 5a2e 1d3f 9371 f33d
00000070: 5235 af3e 03cb a03e a8dd 823e da80 233e
0.26304173 0.29805565 0.16886981 0.16897227 0.70381993 0.23569563 0.084161334 0.3452876
0.49069273 0.40205464 0.17930277 0.13733856 0.18967333 0.14129907 0.42668858 0.086637564
0.25467846 0.14746141 0.18826835 0.27551365 0.1489468 0.71858376 0.23778725 0.7476505
0.28916857 0.34361354 0.6139885 0.11886897 0.34220368 0.31404886 0.25559735 0.15967122

encoder.lob_enc.res_blocks.1.conv2.weight f4 [32, 32, 3, 1]
00000000: f04e 093d 9c67 273c da3f 9ebd c5fa 103c
00000010: 4d28 87bc 877e 9b3d 61fe dabd d84c e03a
00000020: 7424 ba3d 66f5 94bd e6d4 c73d eceb d6bc
00000030: 5522 b13d 68c0 84bc 597b 9c3d c54c c2bd
00000040: 942b 0c3d f9a2 63bd 15d1 2c3d ef90 b3bd
00000050: 3f9b 09bd 0f1f 403b 31dc 9abd e7fc 6d3d
00000060: cbba 4ebd 1c08 a3bc 6b29 73bc f942 403d
00000070: 667d 30bd 4fd0 f33c b7bf 31bd 1535 733c
00000080: 5ae8 b0bd b634 e3bc 3248 a8bd 0577 9fbd
00000090: de4d ab3d 15f5 d3bd c54d 293d 4758 16bd
000000a0: 949d d13d a93d 00bd e8c6 23bd ce80 283d
000000b0: 25a8 8fbd 90b9 80bd e501 aabd d421 a43d
000000c0: 13b6 ad3d d6c2 73bd 9c86 873d 33f7 cbbd
000000d0: 6069 5e3d dd83 dcbd f7ee f13d bbf1 e8bc
000000e0: 1baa 14bd f5c6 f73c fe35 9fbd abda a53d
000000f0: ac91 e5bc 9cb6 2a3d 744e 5f3d a8da 173d
00000100: d92f 18bd 7f3d b83c 44c4 d3bd 778d 87bd
00000110: 52dc cdbd b69d 26bc 7eb0 69bd 3e6d 96bd
00000120: a0bd 1ebd 8e29 95bd 3c91 163d 2b95 cfbc
00000130: 9986 be3d 7200 783d 96f4 e0bc b0d6 5ebc
00000140: bedf c6bd dc80 283d 8e73 87bb 46ca 9d3d
00000150: b39d c7bd 887f 8f3b ec99 62bd c5f4 7dbd
00000160: e192 01bc da14 343d 319e 393d ae9f 32bd
00000170: 72b7 94bd 0295 b93c 735d b2bd ef38 37bc
00000180: a778 cf3d 4c84 b0bd 01c1 36bd 06c2 203c
00000190: dc44 0dbd b96b 8a3b 94f4 833d ebd9 203c
000001a0: 9b32 8b3d 0cb8 99bd 585b a4bd 17b8 b7bd
000001b0: d51f 653b 4b0f a0bd 0d10 8a3d 3d47 363d
000001c0: 5d1b d63c 9564 6dbc 95a2 9cbd 6334 993c
000001d0: 8da2 a9bd 55e1 b9bd 9a19 32bd 44e4 1fbd
000001e0: 110e a5bd ed0d cf3b f553 cebd 85f2 af3d
000001f0: 9945 36bd 48db 92bc 7b13 aabb a1bd ae3d
00000200: b317 fa3c f14d 8f3d 5d0a 47bc 43ae b1bb
00000210: 6d99 1ebc 7dea 8c3d 26ef 503d 90d5 8d3d
00000220: b5fd 803d 9f8d bdbd b9ec 34bd a833 5e3d
00000230: 6e07 1f3d 4693 a4bd e91e c53d da1f 503c
00000240: 358c 133d c906 8d3c 3022 71bd 58ec 483d
00000250: 5391 bf3c 8090 b83d 6c9d bb3d d703 59bd
00000260: 8e34 6ebc ea8c c0bd 68ab af3c 2aed a5bd
00000270: 4293 553d 90f6 7bbd 6574 cb3d 5cfd 863d
00000280: 1608 c2bd 2921 39bc f072 e63c 9c8e 54bc
00000290: c2ab 83bd 5906 d9bc eb9c 80bd e90f 78bc
000002a0: 8a1d c43d 815a 3abd 603f 323d 2c64 1c3c
000002b0: e134 103d 92ba 603d 583b 8f3b c329 283c
000002c0: c240 06bd a523 ac3d 680d 263d 9349 193d
000002d0: 90a2 5fbc 6309 9bbd 7d24 c4bd dfcf 0d3d
000002e0: 8cca 4a3c 6768 873d 6c19 ab3d 6570 493a
000002f0: 831a 883d 1ada 1bbd 6e90 aebd 544c 6f3c
00000300: b427 34bd cf3b a63d ef79 b33d dbb6 67bd
00000310: 01e7 c039 6c20 a83c 5934 cabd 46ba ed3c
00000320: f06d 973c b967 613c 6a69 20bd a48b 9b3d
00000330: 7e7e 99bd d567 2e3d 095f 293c 266f c1bd
00000340: 4763 2c3c c22e 31bd 97d3 57bd 7ce2 09bd
00000350: c37f 863d cd1a f83b c129 49bd 2b3b 54bb
00000360: da8e 6bbc 29ee 763c 5d6a 3cbb c6af 49bd
00000370: 07f4 6e3d 1d57 c8bc a928 273d a00c 483d
00000380: c234 a73d c64a d53c 16e5 583d d95b 7a3c
00000390: 4cbe 18bc 73fa b53d 5941 90bd c2c1 6cbd
000003a0: a341 88bd d60c d53c 81c3 763d f764 eebd
000003b0: 1ff5 6dbd e3fb 8abd db38 943b 2da2 9539
000003c0: 40a3 7abc adc6 54bc c224 a5bd 7a37 943d
000003d0: cb4b 79bd 67f1 33bc 5c88 11bc 49b9 2eba
000003e0: b432 c73d 7adb 76bd 870c a0bc 8623 7c3d
000003f0: 99b1 7b3d f4c5 5ebd 24e4 443d f73b a53d
0.033522546 0.0102175735 -0.077270225 0.008848851 -0.01649871 0.075924926 -0.1069305 0.0017112745
0.09088984 -0.072733685 0.09757404 -0.026235543 0.086491264 -0.016205028 0.07640714 -0.09487299
0.034221247 -0.055575345 0.042191584 -0.08767878 -0.03359532 0.0029315387 -0.075615294 0.058102515
-0.05047111 -0.019901328 -0.014841418 0.04693887 -0.04308834 0.029762415 -0.043395724 0.014844199
-0.086380675 -0.027735095 -0.08216895 -0.07786373 0.08364461 -0.1034948 0.041333932 -0.03670528
0.10235134 -0.031308804 -0.039984614 0.041138463 -0.07014493 -0.06285393 -0.083011426 0.08014265
0.084819935 -0.059511982 0.066174716 -0.09959259 0.054299712 -0.107673384 0.11813157 -0.028435579
-0.036295038 0.030246237 -0.0777397 0.08098348 -0.028023563 0.041678056 0.054518178 0.03707376
-0.037155006 0.022490261 -0.10340169 -0.06618779 -0.100517884 -0.010169437 -0.05705308 -0.07345055
-0.03875506 -0.072833166 0.0367596 -0.025339684 0.09303016 0.0605473 -0.027460378 -0.01360099
-0.09710644 0.041138515 -0.0041336482 0.07704596 -0.097468756 0.0043792166 -0.055322573 -0.06200101
-0.007908554 0.043965198 0.04531688 -0.043609314 -0.07261552 0.02265406 -0.0870923 -0.011183008
0.101304345 -0.086189836 -0.044617657 0.009811884 -0.034489498 0.0042242673 0.06443134 0.009817581
0.067967616 -0.07505807 -0.08025235 -0.08970659 0.00349616 -0.07815417 0.06741343 0.044501532
0.026136095 -0.014489313 -0.076481976 0.018701738 -0.08282957 -0.09076182 -0.043481447 -0.03903605
-0.080593236 0.0063187988 -0.10074607 0.08591179 -0.044499967 -0.017926827 -0.0051903105 0.085322626
0.030528879 0.06997288 -0.012148467 -0.005422385 -0.009680134 0.068806626 0.05100932 0.069254994
0.06298391 -0.09255528 -0.04417107 0.054248482 0.038825445 -0.08035903 0.09625036 0.0127029065
0.036022384 0.01721515 -0.058870494 0.04905352 0.023384726 0.09011936 0.09160885 -0.052982178
-0.014538897 -0.09401877 0.021444038 -0.08101876 0.05214239 -0.061514437 0.0993431 0.06591293
-0.094741985 -0.01129941 0.028130978 -0.012973454 -0.064292446 -0.026492285 -0.0627993 -0.015140512
0.09575947 -0.045496468 0.04351747 0.009545367 0.03520668 0.054865427 0.004371088 0.010263863
-0.0327766 0.08405236 0.04054013 0.03742368 -0.013649598 -0.0757015 -0.09577272 0.03462207
0.0123773925 0.0661171 0.08354458 0.00076842896 0.06645682 -0.038049795 -0.085236415 0.0146056
-0.043983176 0.08116876 0.08763491 -0.05657087 0.00036793205 0.020523272 -0.09873266 0.029019486
0.01848504 0.01375764 -0.03916303 0.07594994 -0.074948296 0.04257949 0.0103376 -0.09445028
0.010521716 -0.043257482 -0.052692022 -0.033663258 0.06567337 0.0075715543 -0.049112085 -0.00323839
-0.01437732 0.01507143 -0.002874992 -0.049239896 0.05833819 -0.024455601 0.04081026 0.048840165
0.0816436 0.026036631 0.05295285 0.015280687 -0.009322714 0.0888566 -0.07043714 -0.05780197
-0.06653144 0.026007097 0.06024504 -0.11640351 -0.058095094 -0.06786325 0.0045233793 0.00028540325
-0.015297711 -0.012986821 -0.080636516 0.07237144 -0.060863297 -0.010982848 -0.008882608 -0.0006665183
0.09726468 -0.060267903 -0.019537224 0.061557315 0.061448667 -0.054388 0.048069134 0.08068078

encoder.lob_enc.res_blocks.1.conv2.bias f4 [32]
00000000: 0d06 a9bd 1ddf 92bd 151a cebd 7cdc 7fbd
00000010: 0015 2dbe 1c49 e2bd 6d34 0dbe a98a 5cbd
00000020: e545 2fbe 8dbc 8dbd 7ae0 2abe c513 14bd
00000030: e63d cebd 097d c2bd 037f 98bd f491 99bd
00000040: b3a7 8fbd 8e56 16bd 8888 16be 3cb2 20be
00000050: 6810 82bd d793 4ebe 527b b8bd 8732 45bd
00000060: e94c 2abd ce3e 0dbd 8568 15be ffd2 3cbe
00000070: d04d 14be ebaa 4ebe 242f d9bd 676f 6bbd
-0.08253107 -0.07171462 -0.100635685 -0.06246613 -0.16902542 -0.11049101 -0.1378953 -0.053843174
-0.17116506 -0.06920729 -0.16687194 -0.036151666 -0.100704 -0.09496505 -0.074461006 -0.074985415
-0.07014408 -0.03670364 -0.1470052 -0.15692991 -0.063507855 -0.20173584 -0.090078965 -0.04814389
-0.041577253 -0.034483723 -0.14590652 -0.18439864 -0.14482808 -0.20182388 -0.106046945 -0.05747929

encoder.lob_enc.res_blocks.1.bn2.weight f4 [32]
00000000: 05c3 803f c009 803f f03f 813f 3741 7f3f
00000010: a802 813f 70d5 803f fb00 813f b3f9 803f
00000020: af01 813f b4a5 803f bf5c 7f3f 4650 7f3f
00000030: 7d5d 813f b3b1 803f 36ab 7d3f e7d4 803f
00000040: 16af 803f f8da 7f3f f95d 803f c50e 803f
00000050: ef32 803f 33f1 803f a467 7f3f c401 813f
00000060: b55a 823f 14ba 803f c6fc 803f 280d 813f
00000070: abe6 803f 508e 7d3f 9849 813f 670f 813f
1.0059515 1.0002975 1.0097637 0.99708885 1.0078936 1.0065136 1.0078424 1.0076202
1.0078639 1.0050569 0.99750894 0.9973186 1.0106655 1.005423 0.9908937 1.0064973
1.0053432 0.99943495 1.0028678 1.0004507 1.0015544 1.0073608 0.9976752 1.0078664
1.0183932 1.0056787 1.007714 1.008214 1.0070394 0.99045277 1.0100584 1.0082825

encoder.lob_enc.res_blocks.1.bn2.bias f4 [32]
00000000: a340 f63b 5a6c a938 b27d 1d3c 7575 c5bb
00000010: 019f 0b3c 2fac dd3b f1ca 133c f548 0b3c
00000020: 58ac 0f3c f612 073c cab1 6fbb 38fc 8f39
00000030: f543 e33b b785 893b 3e1f 2ebc ae56 ef3b
00000040: 88ec b93b 3781 9539 80e7 093c 1e74 c339
00000050: 15a6 92ba a014 113c 2478 93bb 97f0 043c
00000060: 3690 1c3c 5985 523b c33f 0c3c e593 073c
00000070: 2e0d 0e3c a23e 13bc 438a 1b3c 56ab 173c
0.0075150295 8.07873e-05 0.009612488 -0.006025965 0.008521796 0.0067649106 0.009020553 0.008501281
0.008769117 0.008244267 -0.0036574476 0.00027463003 0.0069355913 0.0041968483 -0.010627566 0.007304034
0.0056739487 0.00028515767 0.00841701 0.00037279812 -0.0011188412 0.008855015 -0.004500406 0.008114002
0.009555867 0.0032122938 0.008560124 0.008275007 0.0086701345 -0.008987101 0.009493413 0.009257158

encoder.lob_enc.res_blocks.1.bn2.running_mean f4 [32]
00000000: 0655 ebbe 1687 3ebc 2767 5bbe d37b f2bd
00000010: d59b a5bd 5b1d 403d aa41 6ebe f564 b2bd
00000020: 92ef 953d cc98 9dbe eae8 9f3c 2b7c 28be
00000030: 26bd 84be 3ac0 93bd 5a1d a2be 1732 a43b
00000040: b58a 0ebe d5a5 0b3e a098 bcbd e995 99be
00000050: e879 373e 70cb 86bd 0126 ddbe 06e3 3bbe
00000060: eb77 04bf a509 51bd 62c5 a5be 491a 13bd
00000070: 89d2 4ebe 6bb7 bebe 45f6 eebe b0fe 623e
-0.45963305 -0.011628887 -0.21426068 -0.11840024 -0.08086363 0.046902996 -0.23267236 -0.08710662
0.07321085 -0.30780637 0.019520242 -0.16453616 -0.2592556 -0.07214399 -0.31663018 0.005010854
-0.139201 0.13637479 -0.092087984 -0.29997185 0.17917597 -0.065817714 -0.43193057 -0.18348321
-0.5174548 -0.05103459 -0.32377154 -0.03591374 -0.201975 -0.37249312 -0.46672264 0.22167468

encoder.lob_enc.res_blocks.1.bn2.running_var f4 [32]
00000000: e2bd 3f3e ca7f fd3d 4d6c 913d bdfe c03d
00000010: b7e2 c53e 8555 223e aa3c 0d3e ce8d 0b3e
00000020: 3190 093e cfbe 4f3d 0def a03d 35dd 763d
00000030: 4ebf d73d 93c2 5d3d 4728 883d 0c17 8a3d
00000040: 9b27 783d 4567 2a3e 1849 7a3d ad77 c53d
00000050: 567f cd3d 9772 ba3d 7d1a a13e 84da 4d3e
00000060: d35f e53d cde7 b83d 56e6 f23d aa0a e93d
00000070: c670 713d e720 c33d 2944 1d3e 8548 843d
0.18724778 0.123778895 0.07100735 0.094235875 0.38649532 0.15852936 0.13792673 0.13628313
0.13433911 0.05071908 0.07858095 0.060269553 0.10534535 0.05414064 0.06648307 0.06742677
0.060584646 0.16640957 0.061104864 0.09641967 0.10034053 0.091038875 0.3146552 0.20102888
0.11199918 0.090285875 0.11860339 0.11378987 0.05894544 0.0952776 0.15358032 0.064591445
