outputs/performance_test/checkpoint_epoch_20.pt (torch, 945914 bytes, 81 tensors)

encoder.lob_enc.conv_in.0.weight f4 [32, 2, 3, 1]
0	0xbddda52c	-0.1082252
1	0x3e9f0252	0.31056458
2	0xbe7b7477	-0.24556147
3	0xbd874838	-0.066055715
4	0xbb88d4e4	-0.004175769
5	0xbe58de56	-0.21178564
6	0x3c6a4971	0.014299736
7	0xbdc22d7e	-0.09481333
8	0xbe4da4f5	-0.20082457
9	0xbea62eda	-0.3245762
10	0xbbce04d1	-0.0062871953
11	0x3ebfedad	0.3748602
12	0x3e1f870c	0.1557886
13	0xbea04486	-0.3130228
14	0xbe571c56	-0.21006903
15	0x3e8861c0	0.26637077
16	0xbe203552	-0.1564534
17	0xbd284e11	-0.041090075
18	0xbe406a3d	-0.18790527
19	0x3e4fb404	0.20283514
20	0xbe8df521	-0.2772608
21	0xbec7c75e	-0.39019293
22	0xbea7651b	-0.32694325
23	0xbeb09eed	-0.3449625
24	0x3d4e5672	0.05037541
25	0x3d996028	0.074890435
26	0xbe060bea	-0.13090482
27	0x3e15b7b0	0.14620852
28	0x3d3ea219	0.046541307
29	0x3dc1b8bf	0.09459066
30	0x3e558fd7	0.20855652
31	0x3db8b55d	0.09018967
32	0x3ec93a02	0.3930207
33	0x3ea1789f	0.3153734
34	0xbe5f5b79	-0.21812238
35	0x3e992f0a	0.299187
36	0xbd47411e	-0.048646085
37	0xbcd7b640	-0.02633202
38	0x3d084546	0.03326919
39	0xbeb9d883	-0.36297998
40	0x3e868fcb	0.2628158
41	0x3e851dcc	0.25999296
42	0x3ec677e8	0.38763356
43	0x3d8cb51a	0.0687048
44	0xbdf041ae	-0.117312774
45	0xbd8bb2ce	-0.06821214
46	0xbe118a5a	-0.14212933
47	0xbec194c1	-0.37808803
48	0x3e12b3d2	0.14326409
49	0x3d7506e5	0.05982103
50	0xbdfaeaf5	-0.12251846
51	0xbe72d18a	-0.23712745
52	0xbdbacfff	-0.09121703
53	0x3deb1ce7	0.11480122
54	0x3e9fb9ed	0.31196538
55	0x3e4b5134	0.19855195
56	0x3e9740d8	0.2954166
57	0x3ea54e30	0.32286215
58	0xbe428371	-0.18995453
59	0xbc9f4af1	-0.019444915
60	0xbeacc793	-0.33746013
61	0xbe697996	-0.22800288
62	0x3e2b0fec	0.16705292
63	0x3e1e7296	0.15473399
64	0x3e3ddcf1	0.18541314
65	0x3eb6cdac	0.3570379
66	0x3e260d0a	0.16215912
67	0xbe50439e	-0.20338294
68	0xbdb86786	-0.090041205
69	0x3cd8e242	0.026475076
70	0x3e509725	0.20370157
71	0xbe5be8c0	-0.21475506
72	0xbe2385c3	-0.15968995
73	0x3e19c481	0.15016367
74	0x3e1da541	0.1539507
75	0x3ecae9f8	0.3963163
76	0x3eb5089f	0.3535814
77	0xbe339552	-0.1753743
78	0x3e1c2706	0.15249261
79	0xbe722e49	-0.23650469
80	0xbc05448d	-0.00813402
81	0xbcac3027	-0.021019055
82	0x3dd57a6d	0.104237415
83	0x3ebf8bb0	0.3741126
84	0xbeaa2dad	-0.33237973
85	0x3eb93cf0	0.36179304
86	0x3e8af6f9	0.2714155
87	0xbe58daca	-0.21177211
88	0xbdff177a	-0.1245565
89	0xbdd35c65	-0.10320357
90	0x3e7da1a5	0.24768694
91	0xbdec1af0	-0.115285754
92	0x3e16091f	0.14651917
93	0xbe2b751e	-0.16743895
94	0x3ea9b17b	0.3314322
95	0xbd3316dd	-0.043722976
96	0x3ecbb833	0.3978897
97	0xbe98058e	-0.29691738
98	0xbdf206cd	-0.118177034
99	0x3e889be3	0.26681432
100	0x3e111ded	0.14171572
101	0xbe4ca5c7	-0.19985114
102	0xbeb12741	-0.3460026
103	0xbe9f1c6d	-0.31076375
104	0xbea7fc4f	-0.32809684
105	0xbe80e28f	-0.2517285
106	0xbe82c207	-0.25538656
107	0xbdf55178	-0.119784296
108	0x3eb3d6fd	0.3512496
109	0xbddeb354	-0.10874048
110	0xbe83696b	-0.25666365
111	0x3e4b568f	0.19857238
112	0xbe76d38c	-0.24104136
113	0xbe53cc7c	-0.20683473
114	0xbd626942	-0.055276163
115	0xbced11c7	-0.028939141
116	0xbe8a41e6	-0.27003402
117	0xbea63588	-0.32462716
118	0xbed03951	-0.4066873
119	0xbe32c462	-0.17457727
120	0x3e4721a5	0.19446428
121	0x3ce5567d	0.027995342
122	0x3ea3ebd0	0.32015848
123	0x3d68eab5	0.05686446
124	0xbea21609	-0.31657436
125	0x3cad5aa9	0.021161394
126	0xbdddde12	-0.10833372
127	0x3e692676	0.22768578
128	0x3dd0cb1a	0.101949885
129	0x3ecf1c69	0.40451363
130	0xbebb318f	-0.36561248
131	0xbe4e1eb2	-0.20128897
132	0xbeaee24e	-0.34157032
133	0x3d1cd3d8	0.038287967
134	0xbe848eec	-0.2589029
135	0xbe2c0d8d	-0.16802044
136	0x3ec9960f	0.39372298
137	0xbe0df447	-0.13862716
138	0x3e45d22d	0.19318457
139	0x3e890e90	0.26768923
140	0x3e9a51ef	0.30140635
141	0x3ea56cb6	0.32309502
142	0x3e8511ab	0.25990042
143	0x3d2fb5a5	0.04289784
144	0x3eb468ff	0.35236356
145	0x3ec6c184	0.38819516
146	0xbe8c5948	-0.27411866
147	0x3dbbb99b	0.09166261
148	0x3e917dc6	0.2841627
149	0xbe8b2533	-0.27176818
150	0x3e3ea984	0.18619353
151	0x3e87f37d	0.26552954
152	0xbb30fc0d	-0.0027005703
153	0xbdd643fd	-0.104621865
154	0xbd0f61bf	-0.035005327
155	0x3ea962bd	0.33083144
156	0xbeab7df1	-0.33494523
157	0x3e1d86f1	0.15383507
158	0xbe6ce873	-0.23135547
159	0x3e8737dc	0.26409805
160	0xbe34f2a2	-0.17670682
161	0x3da427a7	0.080153756
162	0x3e7c2794	0.24624473
163	0xbd67bdd9	-0.056577537
164	0xbd3309da	-0.043710567
165	0x3eb4ad92	0.35288674
166	0x3ec829b0	0.39094305
167	0x3e73728a	0.23774162
168	0x3cb10459	0.021608518
169	0xbc2874bb	-0.010281737
170	0xbe7d7e14	-0.24755126
171	0x3e9031b6	0.28162926
172	0x3e2963eb	0.16542022
173	0x3eabb1e0	0.33534145
174	0xbe8bbb44	-0.2729131
175	0x3dbb571e	0.09147476
176	0x3d94a372	0.07257737
177	0xbe0827b4	-0.13296396
178	0xbd546fd4	-0.05186446
179	0x3d9bc29a	0.07605477
180	0xbdf26c94	-0.11837116
181	0x3ec314bb	0.38101754
182	0xbebed030	-0.3726821
183	0xbd871546	-0.065958545
184	0xbe4cd446	-0.20002851
185	0x3e9ae345	0.30251518
186	0xbe11c48f	-0.14235137
187	0xbdb97339	-0.0905518
188	0x3eb626a0	0.35576344
189	0xbeb4afd5	-0.352904
190	0xbe05eb40	-0.13078022
191	0x3eb5abfa	0.3548277

encoder.lob_enc.conv_in.0.bias f4 [32]
0	0x3e92dbc3	0.2868329
1	0xbdee1bed	-0.1162642
2	0xbd9d51d1	-0.07681621
3	0xbe473a1c	-0.1945576
4	0x3da5734d	0.080786325
5	0x3df518b1	0.119676
6	0x3e8d32c5	0.27577797
7	0x3e377f3d	0.17919631
8	0x3e52dbe5	0.20591696
9	0xbd852469	-0.06501085
10	0xbe9560cb	-0.2917541
11	0x3e66d1e5	0.22541006
12	0xbbe85789	-0.007090513
13	0xbe88c476	-0.26712388
14	0x3d159c31	0.03652591
15	0x3ececf11	0.40392354
16	0xbd0cfa19	-0.0344182
17	0xbeae99df	-0.3410177
18	0x3e7c76e1	0.24654724
19	0x3e9b6c71	0.30356172
20	0xbe8591b9	-0.2608774
21	0xbeb6d000	-0.35705566
22	0xbe958c94	-0.29208815
23	0x3e2be015	0.167847
24	0xbe2b8fef	-0.16754125
25	0xbecd51a8	-0.4010136
26	0xbceffcb9	-0.029295312
27	0xbe54646b	-0.20741431
28	0xbdf77c95	-0.12084309
29	0xbe24fc62	-0.16111901
30	0xbe0c44f5	-0.1369818
31	0xbe8816c3	-0.26579866

encoder.lob_enc.conv_in.1.weight f4 [32]
0	0x3f80c94a	1.0061429
1	0x3f80dfd6	1.0068309
2	0x3f81041e	1.0079381
3	0x3f809253	1.0044655
4	0x3f800d3d	1.000404
5	0x3f7fca57	0.9991812
6	0x3f7f3b01	0.9969941
7	0x3f8159e7	1.0105561
8	0x3f80be4d	1.0058075
9	0x3f80b1b7	1.0054234
10	0x3f7b04ba	0.9805409
11	0x3f7d584b	0.9896285
12	0x3f8084be	1.004051
13	0x3f7d7757	0.99010223
14	0x3f7eb69b	0.99497384
15	0x3f80852d	1.0040642
16	0x3f7d27f7	0.98889107
17	0x3f814e75	1.0102068
18	0x3f80e6a3	1.0070385
19	0x3f801dda	1.000911
20	0x3f7db15a	0.9909874
21	0x3f7dede8	0.9919114
22	0x3f80bdb9	1.0057899
23	0x3f7eb86f	0.99500173
24	0x3f808ea7	1.0043534
25	0x3f7ecac8	0.9952817
26	0x3f80b080	1.0053864
27	0x3f814200	1.0098267
28	0x3f80720c	1.0034804
29	0x3f7f619b	0.9975831
30	0x3f81e8c1	1.0149156
31	0x3f80ae6d	1.005323

encoder.lob_enc.conv_in.1.bias f4 [32]
0	0x3b86e138	0.0041162036
1	0x3b8ad69b	0.0042370087
2	0x3c00f7c5	0.007871573
3	0x3988d1e8	0.00026096334
4	0xbba7f385	-0.0051254653
5	0x3c026164	0.00795779
6	0x3c0955cb	0.008382271
7	0x3be0e2bd	0.006862967
8	0x3bb8cc26	0.0056395708
9	0x3c0d346c	0.008618455
10	0xbc3b59d1	-0.011434988
11	0xba785de7	-0.0009474442
12	0xbc3c9581	-0.011510254
13	0xba88a5f7	-0.0010425438
14	0xbb296a39	-0.0025850667
15	0x3c310bc3	0.010806027
16	0x3b048ab7	0.0020224282
17	0x3bf8a68a	0.0075882124
18	0x3bacd794	0.0052747224
19	0x3b118679	0.0022205396
20	0x3c1080aa	0.008819738
21	0xb8c914f6	-9.588331e-05
22	0x3b57ba21	0.0032917338
23	0x3c311d8c	0.010810267
24	0x3c1f7434	0.009732295
25	0x3a188e97	0.00058195874
26	0x3ba72b23	0.005101578
27	0x3c1521df	0.009102314
28	0x3c18ba82	0.009321811
29	0xbbcff3c1	-0.0063461964
30	0x3c53cacb	0.012926768
31	0x3bf7ad2a	0.0075584846

encoder.lob_enc.conv_in.1.running_mean f4 [32]
0	0xcd5ff7e4	-2.348478e+08
1	0xcd2646f1	-1.7435419e+08
2	0xcd551cce	-2.2346467e+08
3	0xce64a7a9	-9.5904826e+08
4	0x4d4359d6	2.0484029e+08
5	0x4e3b326c	7.8516096e+08
6	0x4ca972bc	8.883965e+07
7	0xcd2f880e	-1.8405808e+08
8	0xccbce538	-9.903558e+07
9	0x4e1e650b	6.643555e+08
10	0x4d4eaeda	2.1672285e+08
11	0xcca0b263	-8.4251416e+07
12	0x4dfa5f0e	5.250667e+08
13	0x4d7a0a99	2.6218741e+08
14	0xccbd1f52	-9.915458e+07
15	0x4d8b4a31	2.921119e+08
16	0x4d0213bf	1.3639576e+08
17	0xce8ba228	-1.17133e+09
18	0xcd3be55d	-1.9702318e+08
19	0xce5a6e0a	-9.1616115e+08
20	0x4d4fc7d8	2.178738e+08
21	0x4c1645a3	3.9392908e+07
22	0xcda1ceaf	-3.3933462e+08
23	0x4e70d3c4	1.0101025e+09
24	0x4dc8fb2e	4.2148806e+08
25	0x4dde234f	4.65857e+08
26	0xcd29da55	-1.7810363e+08
27	0x4e434788	8.1906125e+08
28	0x4dbd2624	3.9667418e+08
29	0xcd169f01	-1.5793768e+08
30	0xcc47c837	-5.2371676e+07
31	0xcac14195	-6.3326185e+06

encoder.lob_enc.conv_in.1.running_var f4 [32]
0	0x5b8fc4cf	8.093463e+16
1	0x5b392e92	5.2124075e+16
2	0x5b918a58	8.1931964e+16
3	0x5d6e17bb	1.0722742e+18
4	0x5b3597ce	5.111388e+16
5	0x5d22c418	7.3303286e+17
6	0x5ae5d228	3.234442e+16
7	0x5b6c9b4e	6.6598854e+16
8	0x5a65cb6a	1.6170356e+16
9	0x5ce99be8	5.2604072e+17
10	0x5b8f1f36	8.057048e+16
11	0x5a91f2bc	2.054038e+16
12	0x5c92fed3	3.3100423e+17
13	0x5ba2f83e	9.174378e+16
14	0x5b145ec8	4.176251e+16
15	0x5bbe6ee7	1.0720437e+17
16	0x5b5889c8	6.0950087e+16
17	0x5daf4f4d	1.57905e+18
18	0x5b92873b	8.248807e+16
19	0x5d56e146	9.677334e+17
20	0x5b7d9f77	7.1388503e+16
21	0x5aa7a0ff	2.359167e+16
22	0x5c10a47c	1.62853e+17
23	0x5d826df1	1.1748041e+18
24	0x5c5f3660	2.5131482e+17
25	0x5c64dc09	2.576729e+17
26	0x5b3004c5	4.954484e+16
27	0x5d2d736b	7.811532e+17
28	0x5c296449	1.9071814e+17
29	0x5b101cfc	4.0564265e+16
30	0x5aaa0d46	2.393267e+16
31	0x5b362eaa	5.1279753e+16

encoder.lob_enc.res_blocks.0.conv1.weight f4 [32, 32, 3, 1]
0	0xbd2100da	-0.039307453
1	0xbd9bc600	-0.07606125
2	0xbcc80eeb	-0.024421176
3	0xbda58924	-0.08082798
4	0xbc200b11	-0.009768263
5	0x3d53c8e1	0.051705245
6	0xbd836961	-0.06416584
7	0xbd1408b3	-0.03614111
8	0xbd00ebbe	-0.03147482
9	0xbd4a2189	-0.049348388
10	0xbdab37c7	-0.08360248
11	0x3c5efcf6	0.013610115
12	0xbcaa41bd	-0.0207833
13	0xbba6f1fc	-0.0050947648
14	0xbcfbf519	-0.03075652
15	0xbd91fe92	-0.071286336
16	0xbd379796	-0.044822298
17	0x3d45f01d	0.048324693
18	0x3d755986	0.05989983
19	0xbd188cc3	-0.037243616
20	0x3d55d736	0.052207194
21	0xbda1b583	-0.07895949
22	0xbca6f0f5	-0.02037857
23	0xbdcb2763	-0.09919622
24	0xbd027f98	-0.031859964
25	0x3c7c3070	0.015392408
26	0x3d41765e	0.047232024
27	0x3ce8a9a6	0.028401207
28	0x3d1cb89f	0.038262006
29	0xbcd583e2	-0.026063863
30	0x3dbf33ed	0.09336076
31	0xbdb064a5	-0.086129464
32	0xbce0bbae	-0.027433243
33	0xbcf96a50	-0.030446202
34	0x3d63922c	0.055559322
35	0x3c8be13c	0.017075174
36	0x3db0c59e	0.086314425
37	0xbda002d7	-0.07813042
38	0x3ce7f65f	0.028315721
39	0xbdb679ee	-0.08909975
40	0x3ccf1cca	0.025282282
41	0xbd48a505	-0.0489855
42	0xbd6e0516	-0.05811032
43	0x3bd8ecfb	0.006620047
44	0xbab91f08	-0.0014123628
45	0x3dbf34ab	0.093362175
46	0x3d989fd2	0.07452358
47	0x3b3fc551	0.0029261897
48	0x3d179268	0.03700486
49	0x3b0f38f1	0.0021854008
50	0xbcd947d1	-0.026523503
51	0xbdb5f23e	-0.08884095
52	0xbdc37896	-0.09544484
53	0xbb5c5e9a	-0.0033625723
54	0xbd84ff26	-0.06493978
55	0x3d9701c0	0.07373381
56	0xbd6698aa	-0.056297936
57	0x3c4a1b8a	0.012335667
58	0xbd809537	-0.062784605
59	0x3db62c04	0.08895114
60	0x3d36dc37	0.044643607
61	0x3d43eba8	0.04783216
62	0x3cc752e4	0.024331518
63	0xbcbe61ed	-0.023240054
64	0xbd4d1db3	-0.05007715
65	0xbd634176	-0.05548235
66	0xbdd41bee	-0.1035689
67	0xbcefb622	-0.029261652
68	0xbd56fa33	-0.052484702
69	0x3da9e019	0.08294696
70	0x3db64df9	0.08901591
71	0xbd92e922	-0.07173373
72	0xbbd3995d	-0.0064574913
73	0xbdbe0bc1	-0.09279586
74	0x3d3b6b3d	0.045756567
75	0x3d8e6b80	0.06954098
76	0xbd7fcbea	-0.062450327
77	0xbd9a4278	-0.07532209
78	0xbd04bbfb	-0.032405835
79	0x3d9382ab	0.07202657
80	0x3d79b682	0.06096507
81	0xbd82e00b	-0.06390389
82	0xbb9fb278	-0.00487357
83	0xbda82df3	-0.08211889
84	0x3dab879a	0.08375473
85	0x3d10e1a2	0.03537143
86	0xbd3a2b76	-0.045451604
87	0x3cf8beae	0.03036436
88	0xbbff6299	-0.007793736
89	0xbdabb3d9	-0.083839126
90	0xbdcb1cfe	-0.09917639
91	0x3db3bb95	0.08776013
92	0xbd7f057e	-0.062261097
93	0x3d66862e	0.056280307
94	0xbd0fd1ba	-0.03511212
95	0x3d21765b	0.039419513
96	0x3cdcd839	0.026958572
97	0x3d2dbc7e	0.04241609
98	0xbd706aa8	-0.058695465
99	0x3d1757d9	0.036949012
100	0x3c368405	0.011139874
101	0xbc77a90b	-0.015115987
102	0xbc4b73ec	-0.012417775
103	0xbc4afbcb	-0.012389134
104	0x3d227637	0.03966352
105	0x3d367647	0.04454639
106	0xbd6707c2	-0.056403883
107	0xbca71b92	-0.020398889
108	0xbc64ad16	-0.0139572825
109	0xbd00f06a	-0.031479277
110	0x3d5ffd22	0.054684766
111	0x3dd1bf7a	0.102415994
112	0x3d5d2504	0.05399038
113	0xbcadde7e	-0.021224257
114	0x3d955ec1	0.072934635
115	0x3ddb050b	0.10694321
116	0xbbee871a	-0.007279289
117	0x3d95d976	0.07316868
118	0x3c854a86	0.016270887
119	0xbd21bde8	-0.03948775
120	0x3c7e5a4a	0.015524456
121	0x3b9f371b	0.004858864
122	0x3c3b45b4	0.011430193
123	0xbc9efd3d	-0.019407863
124	0xbd8f7e43	-0.070065044
125	0xbdb31479	-0.08744139
126	0xbd6ab469	-0.05730096
127	0x3d7fbb4f	0.06243449
128	0xbce8bae6	-0.028409433
129	0xbde29752	-0.11064018
130	0x3da2a8bd	0.079423405
131	0xbdeea2b7	-0.11652129
132	0x3cba8471	0.022768231
133	0x3dc8052b	0.09766611
134	0xbd3515d3	-0.044210266
135	0x3beb3593	0.0071780174
136	0x3dc7bc56	0.09752719
137	0x3dacd786	0.08439545
138	0x3da1a094	0.07891956
139	0xbbc6afda	-0.0060634436
140	0x3d67b21d	0.056566346
141	0x3d36c7bd	0.04462408
142	0x3c86f4d1	0.01647416
143	0x3db5a319	0.08868999
144	0x3ce09b79	0.027417885
145	0x3da693dd	0.081336714
146	0xbd75a4d1	-0.059971634
147	0x3c5d3edb	0.013503755
148	0xbde62069	-0.112366505
149	0xba9773bf	-0.0011554881
150	0x3c8ea3f5	0.017412165
151	0x3d463225	0.048387665
152	0x3d035026	0.032058857
153	0xbd7fd2a0	-0.062456727
154	0x3d2ee3d6	0.04269775
155	0xbdf62f4a	-0.120207384
156	0x3db53243	0.08847477
157	0x3d31a9b1	0.04337472
158	0xbc27e710	-0.010247961
159	0x3d00c8a1	0.031441335
160	0x3d5bf907	0.053704288
161	0xbd889edc	-0.06670925
162	0x3d4e9dd5	0.05044349
163	0x3bfa775e	0.007643624
164	0x3dab7432	0.08371772
165	0x3c2e95f4	0.010655869
166	0x3c8b4a1c	0.017003112
167	0x3ce74732	0.02823219
168	0x3daf80e7	0.08569508
169	0xbd944f24	-0.072416574
170	0x3d914acd	0.07094345
171	0x3d8b14a2	0.06791045
172	0xbbce80d7	-0.00630198
173	0xbd8cafc1	-0.0686946
174	0x3d70e553	0.05881245
175	0x3d104509	0.035222087
176	0xbd39b46a	-0.045338072
177	0x3ccb2687	0.024798645
178	0xbcc794a8	-0.024362877
179	0xbd29fe60	-0.041502357
180	0x3de300e0	0.11084151
181	0x3d3b834d	0.045779515
182	0x3c486bf1	0.0122327665
183	0x3d769f28	0.060210377
184	0x3d7e2e80	0.062056065
185	0x3d2c31a4	0.04203953
186	0x3d44ff5e	0.0480951
187	0xbdc0bdf5	-0.094112314
188	0xbd378630	-0.044805706
189	0x3dbee763	0.09321477
190	0x3cf949da	0.030430723
191	0x3ccf6ab0	0.025319427
192	0xbd97bfe4	-0.07409647
193	0xbd76da7b	-0.060266953
194	0xbd2d0f39	-0.042250846
195	0x3d2a7275	0.04161306
196	0xbd418146	-0.047242425
197	0x3d9c42ce	0.076299295
198	0xbdad8892	-0.08473314
199	0xbd0d071d	-0.034430612
200	0x3d8b927c	0.06815049
201	0xbd47b636	-0.048757754
202	0xbbb34b64	-0.0054716337
203	0xbd11d2a4	-0.035601273
204	0x3d0330db	0.032029014
205	0xbd5f0793	-0.054450583
206	0xbda2deb4	-0.079526335
207	0xbd31a19a	-0.043367006
208	0x3d19251e	0.037388913
209	0xbd00e2b7	-0.031466212
210	0xbda6c166	-0.081423566
211	0xbcf53c2c	-0.029935919
212	0xbd3b4978	-0.045724362
213	0x3da91ac1	0.08257056
214	0xbcf31ea4	-0.029677697
215	0x3cfe11e5	0.031014392
216	0x3dc177e4	0.094466954
217	0xbd9fe6b3	-0.07807674
218	0x3d1b28d5	0.037880737
219	0x3c0da9fe	0.008646486
220	0x3da75d33	0.08172073
221	0xbb28f3d6	-0.0025780103
222	0x3cdbd6b1	0.026835771
223	0xbdc78fd8	-0.09744233
224	0x3dc58af9	0.096456476
225	0xbd8f87fa	-0.07008357
226	0x3d66e874	0.05637403
227	0xbdb6496f	-0.08900725
228	0x3c94c6f8	0.018161282
229	0xbb1a5069	-0.0023546463
230	0x3d94ad59	0.07259626
231	0xbdc978f1	-0.09837521
232	0x3dab3fdb	0.08361789
233	0x3dc53e9a	0.09631081
234	0x3c7828c7	0.015146441
235	0x3db30326	0.08740835
236	0x3da3197a	0.07963844
237	0x3b03468e	0.0020031068
238	0x3d52e622	0.051489003
239	0x3b3b154d	0.0028546632
240	0x3cb3be29	0.021941261
241	0xbda6c861	-0.08143688
242	0xbd188816	-0.037239157
243	0xbd7f3967	-0.062310603
244	0xbd89d672	-0.06730355
245	0xbd94ec2b	-0.07271608
246	0xbd5820c1	-0.05276561
247	0xbb700122	-0.003662177
248	0xbcb1dcc5	-0.021711716
249	0x3d22f26c	0.039781973
250	0x3d1ac1ed	0.0377826
251	0xbd12567a	-0.035727
252	0x3d85753a	0.065165
253	0xbd9befb0	-0.07614076
254	0xbd85e2a1	-0.06537367
255	0x3dbc5eb2	0.09197749

encoder.lob_enc.res_blocks.0.conv1.bias f4 [32]
0	0xbe1f2d87	-0.15544711
1	0xbe2842c6	-0.16431722
2	0xbe148fe5	-0.14508016
3	0xbe782769	-0.24233784
4	0xbe7f04c1	-0.24904157
5	0xbe3aa6cf	-0.18227695
6	0xbe6f135b	-0.23347227
7	0xbdc074b7	-0.093972616
8	0xbe47f140	-0.19525623
9	0xbe3b8cd7	-0.18315445
10	0xbe129e29	-0.14318146
11	0xbe04f236	-0.12983021
12	0xbd65bb8c	-0.05608706
13	0xbe1b8bf5	-0.15190108
14	0xbde789b2	-0.1130556
15	0xbe03f864	-0.12887722
16	0xbd97e405	-0.07416538
17	0xbdfd9dd7	-0.12383621
18	0xbdd69358	-0.10477322
19	0xbe12f2a6	-0.14350376
20	0xbdf53b06	-0.119741485
21	0xbe169342	-0.14704612
22	0xbe514ccf	-0.20439456
23	0xbe407123	-0.18793158
24	0xbda138ce	-0.07872163
25	0xbe147f04	-0.14501578
26	0xbd3c661a	-0.04599581
27	0xbda9de85	-0.08294395
28	0xbd8cbff8	-0.06872553
29	0xbe1255bc	-0.14290518
30	0xbdcc4387	-0.09973817
31	0xbe0cc6f4	-0.1374777

encoder.lob_enc.res_blocks.0.bn1.weight f4 [32]
0	0x3f7e38d4	0.9930546
1	0x3f7f8b9d	0.9982241
2	0x3f804be5	1.0023161
3	0x3f7fb97f	0.9989242
4	0x3f7bef37	0.9841189
5	0x3f80de9d	1.0067936
6	0x3f7e0173	0.9922096
7	0x3f7f7634	0.9978974
8	0x3f7e7704	0.99400353
9	0x3f7f3e6f	0.9970464
10	0x3f7e8dbd	0.99435025
11	0x3f805ecb	1.0028929
12	0x3f804372	1.0020583
13	0x3f7f6778	0.99767256
14	0x3f7ef024	0.99585176
15	0x3f80f2cb	1.0074095
16	0x3f7e6c3a	0.9938389
17	0x3f813858	1.009532
18	0x3f7dfa0b	0.9920966
19	0x3f7b949c	0.98273635
20	0x3f80c20a	1.0059216
21	0x3f7ce35a	0.9878441
22	0x3f81efac	1.0151267
23	0x3f809760	1.0046196
24	0x3f80ffd9	1.0078079
25	0x3f81cd4c	1.0140777
26	0x3f8089ce	1.0042055
27	0x3f817fb6	1.0117099
28	0x3f7e4b64	0.99333787
29	0x3f80d65f	1.0065421
30	0x3f81c8ce	1.0139406
31	0x3f80ef0a	1.0072949

encoder.lob_enc.res_blocks.0.bn1.bias f4 [32]
0	0x3bcc1dc4	0.0062291343
1	0x3b4a5e69	0.0030879027
2	0xba567c60	-0.00081819855
3	0x3ab90060	0.0014114492
4	0x3b2c67cc	0.0026306985
5	0x3c2f584d	0.010702205
6	0x3c0e76a3	0.008695277
7	0x3c1e8787	0.009675867
8	0xbb21acb9	-0.00246696
9	0x3b2230c2	0.00247483
10	0xbc0fe899	-0.008783483
11	0x3c2f6fed	0.0107078375
12	0x3c043e20	0.008071452
13	0x3b9f0a9a	0.0048535587
14	0x3bb3be11	0.005485304
15	0xba692151	-0.0008893209
16	0x3afca93a	0.0019276508
17	0x3be2410c	0.006904727
18	0xbb503d38	-0.003177477
19	0xbc730f6f	-0.014835223
20	0x3c21b371	0.009869442
21	0x3a9384c7	0.0011254781
22	0x3c6673dc	0.014065709
23	0x3c35bfe1	0.011093111
24	0x3c07baec	0.008284312
25	0x3bd39be0	0.0064577907
26	0x3bb40030	0.0054931864
27	0x3c8d78cb	0.017269513
28	0xbbad27b4	-0.005284274
29	0x3c1e9b31	0.009680555
30	0x3c3ca181	0.011513115
31	0x3b498f8c	0.0030755727

encoder.lob_enc.res_blocks.0.bn1.running_mean f4 [32]
0	0xbef0ea3a	-0.470537
1	0x3e7bd488	0.24592793
2	0xbef7c431	-0.4839187
3	0xbf129dc6	-0.57271993
4	0xbeb6bf8b	-0.3569301
5	0xbefd753f	-0.49503514
6	0xbe4f382e	-0.20236275
7	0x3c04486b	0.008073906
8	0xbe6265aa	-0.22109094
9	0xbde1c68b	-0.11024197
10	0x3e8f8a12	0.28035027
11	0x3eb4430c	0.35207403
12	0xbe89628f	-0.26833007
13	0xbe501c1e	-0.20323226
14	0xbed5fea9	-0.41795853
15	0x3e81f57e	0.25382608
16	0xbd5da72e	-0.054114513
17	0xbe039c2a	-0.1285254
18	0xbd679a5b	-0.05654369
19	0xbe98c083	-0.29834375
20	0xbe404c7c	-0.18779176
21	0x3c847641	0.01616967
22	0xbebe62f2	-0.37184864
23	0xbeea4154	-0.45752966
24	0xbdcf0323	-0.1010802
25	0xbf2fcbe3	-0.6867048
26	0xbdf1129a	-0.11771126
27	0xbea2dab2	-0.31807476
28	0xbdd06a67	-0.10176545
29	0xbe4482d5	-0.19190533
30	0xbe8396c7	-0.2570097
31	0x3ddaa635	0.10676233

encoder.lob_enc.res_blocks.0.bn1.running_var f4 [32]
0	0x3d815a3d	0.0631604
1	0x3f0a996a	0.5414034
2	0x3d924fff	0.07144164
3	0x3d94b70b	0.07261475
4	0x3d569d8a	0.052396335
5	0x3d5f30d0	0.05448991
6	0x3e940d54	0.2891642
7	0x3dc935c5	0.09824709
8	0x3e3896c2	0.1802626
9	0x3e1aa326	0.15101299
10	0x3ebbde6a	0.36693126
11	0x3dc6365c	0.09678337
12	0x3e335426	0.17512569
13	0x3d283b75	0.041072328
14	0x3d953370	0.072852015
15	0x3d863300	0.06552696
16	0x3eaad362	0.33364397
17	0x3e84a6fd	0.25908652
18	0x3dceef63	0.10104253
19	0x3decc1e3	0.115604185
20	0x3db2bd66	0.08727531
21	0x3e8e3913	0.2777792
22	0x3db51327	0.08841544
23	0x3f01d983	0.5072252
24	0x3e170525	0.14748056
25	0x3dee2ff7	0.11630242
26	0x3e4e630c	0.20154971
27	0x3dd66a56	0.10469501
28	0x3d0bcbd6	0.03412994
29	0x3ea317d4	0.31854117
30	0x3daae18b	0.083438
31	0x3d8a6868	0.06758195

encoder.lob_enc.res_blocks.0.conv2.weight f4 [32, 32, 3, 1]
0	0x3c9af661	0.01891631
1	0x3cf8c8da	0.030369211
2	0xbd85e128	-0.06537086
3	0x3dab178d	0.08354101
4	0x3cf20f91	0.029548438
5	0xbd016b20	-0.031596303
6	0xbda11e76	-0.07867138
7	0xbd7d90f6	-0.061905824
8	0xbc89665a	-0.016772438
9	0x3c6b7a71	0.014372454
10	0x3d166a99	0.036722753
11	0x3dcf1372	0.10111131
12	0x3d94343c	0.072365254
13	0xbbf09391	-0.00734181
14	0xbc88c321	-0.016694607
15	0x3daa7ba6	0.08324365
16	0xba33eede	-0.0006863902
17	0x3c656b2a	0.014002601
18	0xbb1db73e	-0.002406552
19	0x3db69e0b	0.08916863
20	0x3d75ef03	0.060042392
21	0x3d10ce2a	0.035352863
22	0x3cd249f5	0.025670031
23	0xbcb25f87	-0.021774067
24	0x3ce33306	0.02773429
25	0xbda16834	-0.07881203
26	0xbd979b7f	-0.074027054
27	0x3cfa7ccb	0.030577084
28	0x3cb76d3b	0.022390952
29	0xbd83949a	-0.06424828
30	0x3d0f0f90	0.03492695
31	0x3d1a39a4	0.037652627
32	0x3d432df6	0.047651254
33	0xbd29ec02	-0.04148484
34	0xbd603549	-0.054738317
35	0x3a53b7fe	0.0008076428
36	0xbc5c940a	-0.01346303
37	0xbc59f700	-0.013303518
38	0xbda6b10c	-0.08139238
39	0x3d9e8008	0.07739264
40	0x3dba9cd5	0.091119446
41	0xbd411604	-0.047140136
42	0x3d9a3ff9	0.07531733
43	0x3cb3932e	0.021920767
44	0x3ce4ccd1	0.027929695
45	0xbbe421e2	-0.006962047
46	0x3dc16e0c	0.09444818
47	0xbcbfc035	-0.023407081
48	0x3c84abc3	0.016195184
49	0xbc0ebce2	-0.008712025
50	0x3b8269b8	0.003979888
51	0xbd37694a	-0.044778146
52	0xbd878149	-0.06616456
53	0x3d8a3b22	0.0674956
54	0xbdc1937f	-0.09451961
55	0xbd88fcee	-0.066888675
56	0x3db70310	0.08936131
57	0xbd44a1b2	-0.048005767
58	0xbc20a3c8	-0.0098046735
59	0xbdc8c9a5	-0.09804086
60	0xbce4cfd9	-0.02793114
61	0xbd3285b0	-0.043584526
62	0x3d204d71	0.039136354
63	0x3d41035b	0.04712234
64	0x3db356f5	0.0875682
65	0xbd184135	-0.03717156
66	0x3dc8938b	0.097937666
67	0x3d214c83	0.039379608
68	0xbdb36606	-0.08759694
69	0xbdb12a35	-0.086506285
70	0xbc44718f	-0.011989965
71	0x3dba689c	0.09101984
72	0x3b038d8d	0.0020073385
73	0xbd7c6950	-0.06162387
74	0x3d75ada4	0.05998005
75	0xbdd94336	-0.106085226
76	0x3d95ae08	0.073085845
77	0xbc248c10	-0.010043159
78	0x3c040583	0.008057955
79	0xbd0db62e	-0.03459757
80	0x3c841546	0.016123425
81	0xbae4f1ea	-0.0017467116
82	0x3d9b87d3	0.07594266
83	0x3db08491	0.08619035
84	0x3d28fd8d	0.04125743
85	0xbc6bf95f	-0.014402716
86	0xbb224372	-0.0024759439
87	0xbd81da30	-0.06340444
88	0x3d7fe40b	0.062473338
89	0xbcbadb9f	-0.022809802
90	0xbdc9c66f	-0.09852301
91	0xbd009517	-0.031392183
92	0xbd95c6ce	-0.073133096
93	0xbda5a9f5	-0.08089057
94	0x3c972259	0.018448995
95	0x3c1b5b81	0.009482265
96	0xbd51e651	-0.051245037
97	0xbd8d4010	-0.068969846
98	0x3d200157	0.039063778
99	0x3cbb68d2	0.02287713
100	0x3d9119f9	0.07085032
101	0x3d6453ae	0.055743866
102	0xbd4d94d2	-0.050190754
103	0x3d857f4a	0.06518419
104	0xbd9f3f8d	-0.07775793
105	0xbda6d08e	-0.081452474
106	0x3d4c22e4	0.04983796
107	0x3dc95b6a	0.09831889
108	0x3d563769	0.052298937
109	0x3b1333ee	0.0022461372
110	0xbd327e16	-0.043577276
111	0x3ddb01de	0.106937155
112	0xbd76b50f	-0.060231265
113	0x3dc67d84	0.09691909
114	0xbd8b7d98	-0.068110645
115	0xbdcd0b62	-0.10011937
116	0xbbb9ae62	-0.00566654
117	0x3d003935	0.031304557
118	0xbdaa748e	-0.08323012
119	0xbcf0072a	-0.029300291
120	0xbb2358b8	-0.0024924707
121	0xbbf6b939	-0.0075294045
122	0xbd4460b9	-0.047943804
123	0x3dc03203	0.09384539
124	0xbd9486b0	-0.07252252
125	0x3d89ef52	0.067351
126	0x3d030c00	0.031993866
127	0xbd2712f8	-0.040789574
128	0x3d3e73b0	0.046497047
129	0xbda46ebd	-0.08028934
130	0xbd85130e	-0.06497775
131	0x3d7911bc	0.06080793
132	0xbd409727	-0.04701915
133	0x3d64cd50	0.055859864
134	0xbdb71226	-0.089390084
135	0x3c9185bc	0.017763965
136	0xbdb9894c	-0.090593904
137	0x3d53b58a	0.0516868
138	0x3dd4e3b1	0.10394991
139	0x3d8d4980	0.06898785
140	0x3d181fb8	0.037139624
141	0x3d845b95	0.064627804
142	0x3db890ac	0.09011969
143	0x3d66b40d	0.056324054
144	0x3d381bfc	0.044948563
145	0x3d097b5f	0.03356492
146	0x3cd19a0d	0.025586152
147	0x3d762602	0.06009484
148	0x3d97f770	0.07420242
149	0xbd16f445	-0.036854047
150	0x3c59d2e7	0.013294912
151	0x3d3f9ee8	0.046782404
152	0xbdae18bd	-0.08500812
153	0xbd932f0d	-0.071867086
154	0xbcbcb479	-0.023035275
155	0x3c9d31e3	0.019188827
156	0x3d88c157	0.06677502
157	0x3d63c3a0	0.055606484
158	0x3d60aadc	0.054850444
159	0xbcae128f	-0.021249084
160	0xbcca471d	-0.024692113
161	0xbdc7a35a	-0.09747954
162	0x3c110cb1	0.0088531235
163	0xbcdf6873	-0.027271485
164	0xbd9caf5a	-0.07650633
165	0x3d2cf8fb	0.042229634
166	0x3d64f698	0.055899233
167	0x3cd0e4ec	0.025499783
168	0xbd9a1f2d	-0.075254776
169	0xbcf54afc	-0.029942982
170	0xbdc334d4	-0.095315605
171	0xbbc90cd7	-0.006135564
172	0x3d90b0d7	0.070649795
173	0x3dc439fa	0.09581371
174	0xbdb790dd	-0.08963177
175	0xbcc1962f	-0.023631183
176	0xbd648e9f	-0.055800077
177	0x3d9ed797	0.07755964
178	0x3dd74c1e	0.10512565
179	0xbda9d4c6	-0.082925364
180	0xbd1718d1	-0.0368889
181	0x3c758e49	0.014987537
182	0xbdafbeea	-0.08581336
183	0xbdd8214e	-0.10553227
184	0xbd9177fe	-0.07102965
185	0x3d8fd1c4	0.070224315
186	0x3c7616bb	0.015020068
187	0xbd4b1a3f	-0.049585577
188	0xbca093ee	-0.019601788
189	0x3dbb7e43	0.09154942
190	0xbdc539ff	-0.096302025
191	0x3d210470	0.039310873
192	0xbc5b855e	-0.013398496
193	0xbddc71ba	-0.10763879
194	0x3d9c893a	0.076433614
195	0xbd71254c	-0.05887346
196	0x3d8ff7e1	0.07029701
197	0xbb802b27	-0.003911394
198	0x3c900244	0.017579205
199	0xbca5f16f	-0.020256726
200	0xbdb8e6a4	-0.09028366
201	0x3d348c08	0.044078857
202	0xbd2a7e2a	-0.041624226
203	0x3cf5e851	0.030018004
204	0x3db0ca66	0.086323544
205	0xbd213c26	-0.039364003
206	0x3abfd0e6	0.00146344
207	0x3cf12757	0.029437704
208	0xbd26d116	-0.040726744
209	0x3d181b73	0.037135553
210	0xbd5f274d	-0.05448084
211	0x3d8deb82	0.06929685
212	0xbced9642	-0.029002313
213	0xbc7e895c	-0.015535679
214	0xbd2e021d	-0.042482484
215	0xba8caff0	-0.0010733586
216	0x3d73f64b	0.059561055
217	0x3bfa3a62	0.0076363543
218	0xbd420b94	-0.047374323
219	0x3dc7eeab	0.09762319
220	0x3dbde880	0.092728615
221	0xbd1c56d8	-0.03816876
222	0xbd89d3cc	-0.0672985
223	0xbda91db1	-0.08257616
224	0x3be273cd	0.006910777
225	0x3dcd2d0e	0.10018359
226	0x3d1676df	0.036734458
227	0x3d37e2c9	0.044894014
228	0xbdd9cbbd	-0.10634563
229	0x3cf6904c	0.030098103
230	0x3d23f150	0.040025055
231	0xbd077fb3	-0.033080768
232	0xbd918fdf	-0.07107519
233	0xbcc4bec5	-0.024016747
234	0xbdbc8a57	-0.09206074
235	0x3db234e1	0.08701492
236	0xbd89d49f	-0.067300074
237	0x3dcf0b49	0.10109574
238	0xbdbd9f9a	-0.09258957
239	0x3d9cbbe7	0.07653027
240	0xbd5576b6	-0.052115165
241	0xbdb738a0	-0.08946347
242	0x3c909f92	0.017654214
243	0x3dd3868d	0.10328398
244	0xbd22c9c2	-0.039743192
245	0x3cc3e3f5	0.02391241
246	0xbd99236d	-0.0747746
247	0x3d685818	0.056724638
248	0x3da4f2b4	0.080541044
249	0xbd2f40c4	-0.042786375
250	0x3dacbd5f	0.08434557
251	0x3d25de5d	0.040495265
252	0x3b9ac77c	0.0047234874
253	0xbd5927dc	-0.05301653
254	0x3d6f1737	0.05837175
255	0xbbee979c	-0.007281257

encoder.lob_enc.res_blocks.0.conv2.bias f4 [32]
0	0xbdef5196	-0.11685483
1	0xbe1d042a	-0.1533362
2	0xbe2401f7	-0.16016375
3	0xbe015160	-0.12628698
4	0xbe159352	-0.1460698
5	0xbe374473	-0.17897205
6	0xbe2a70ee	-0.16644642
7	0xbe3edf64	-0.18639904
8	0xbe1a2514	-0.15053207
9	0xbe63512d	-0.22198935
10	0xbe3d8d9c	-0.18511051
11	0xbe157e5b	-0.14598982
12	0xbe4494bb	-0.19197361
13	0xbdf36d3c	-0.11886069
14	0xbdded2f6	-0.10880081
15	0xbddb9e06	-0.107235
16	0xbe518d2b	-0.20464008
17	0xbe0d9a1a	-0.13828316
18	0xbe4e6994	-0.20157462
19	0xbdc3390a	-0.09532364
20	0xbd911809	-0.070846625
21	0xbd13acb2	-0.036053367
22	0xbe3a3938	-0.1818589
23	0xbd9c3148	-0.07626587
24	0xbe07ae10	-0.13249993
25	0xbe1d8cd4	-0.15385753
26	0xbdb2fcba	-0.0873961
27	0xbe60d202	-0.21955112
28	0xbe6b397a	-0.22971144
29	0xbd8a2f7d	-0.06747339
30	0xbde9fb07	-0.11424833
31	0xbdab5944	-0.083666354

encoder.lob_enc.res_blocks.0.bn2.weight f4 [32]
0	0x3f7dc474	0.9912789
1	0x3f80a0e9	1.0049106
2	0x3f810a10	1.0081196
3	0x3f7dcdc4	0.991421
4	0x3f80e2ef	1.0069255
5	0x3f7fd7a0	0.9993839
6	0x3f8102b0	1.0078945
7	0x3f80ca29	1.0061694
8	0x3f8083f5	1.004027
9	0x3f80cd4d	1.0062653
10	0x3f8032db	1.001552
11	0x3f7fa034	0.99853826
12	0x3f80dc51	1.0067235
13	0x3f80ec59	1.0072128
14	0x3f7eff46	0.99608266
15	0x3f810c82	1.0081942
16	0x3f802d84	1.001389
17	0x3f7eee9f	0.99582857
18	0x3f80d093	1.0063652
19	0x3f80480b	1.0021986
20	0x3f803369	1.0015689
21	0x3f80ba4e	1.0056856
22	0x3f7faa93	0.9986965
23	0x3f8144bd	1.0099102
24	0x3f80c902	1.0061343
25	0x3f802ff8	1.0014639
26	0x3f8145d3	1.0099434
27	0x3f81265e	1.0089834
28	0x3f80c062	1.005871
29	0x3f7e553e	0.9934882
30	0x3f811b25	1.0086409
31	0x3f811771	1.0085279

encoder.lob_enc.res_blocks.0.bn2.bias f4 [32]
0	0x3bac1550	0.005251564
1	0x38ae53a4	8.312546e-05
2	0x3c10dc15	0.008841534
3	0xbb931d05	-0.0044895434
4	0x3bf7a3c7	0.0075573656
5	0x3b64140a	0.0034801983
6	0x3c0c6c6b	0.008570771
7	0x3c15bc0e	0.009139074
8	0x3c04d858	0.008108221
9	0x3beca15c	0.007221384
10	0xbbb9be3a	-0.0056684287
11	0x3a96c781	0.0011503549
12	0x3b9a9777	0.004717763
13	0x3b8cbdfc	0.004295109
14	0xbc0bce82	-0.008533122
15	0x3c0b34e7	0.0084965
16	0x3b16babe	0.002299949
17	0xbb137414	-0.0022499608
18	0x3c0eab44	0.008707825
19	0x37f9f0c6	2.9795232e-05
20	0xb9c416ab	-0.00037400922
21	0x3bee5a6c	0.0072739627
22	0xbb4f2ee1	-0.0031613635
23	0x3beb720e	0.0071852272
24	0x3bf31135	0.0074178227
25	0x3b67177f	0.0035261807
26	0x3bd8f02f	0.006620429
27	0x3c12f5ce	0.008969737
28	0x3bd6c42b	0.0065541468
29	0xbc041554	-0.008061726
30	0x3c26e3f0	0.0101861805
31	0x3c1c4a0d	0.009539139

encoder.lob_enc.res_blocks.0.bn2.running_mean f4 [32]
0	0xbd85c768	-0.06532174
1	0xbddbfcc2	-0.10741569
2	0xbdc032fd	-0.09384725
3	0xbd359bc1	-0.04433799
4	0xbe684023	-0.22680716
5	0x3d4be4bd	0.04977869
6	0xbef81536	-0.48453683
7	0x3d2554c7	0.040364053
8	0xbc5a869e	-0.013337759
9	0xbce0eb4c	-0.027455948
10	0xbeb7e98a	-0.35920364
11	0xbe67951d	-0.22615476
12	0xbd81e70a	-0.06342895
13	0xbe9b1042	-0.3028584
14	0x3e3d3a1f	0.18479203
15	0xbe8b3974	-0.2719227
16	0xbe8bd52e	-0.2731108
17	0x3d86e2ac	0.06586203
18	0xbebb7640	-0.36613655
19	0xbe7aa34c	-0.24476355
20	0xbec8619d	-0.39136973
21	0x3dc97b19	0.09837932
22	0xbd0ea35f	-0.03482377
23	0xbe59c5d5	-0.21266873
24	0xbf06d280	-0.5266495
25	0xbe88a357	-0.26687118
26	0x3cd57b94	0.026059903
27	0xbd85c999	-0.06532592
28	0xbe8ff35b	-0.28115353
29	0x3cc7302f	0.024314968
30	0xbdf7a203	-0.12091448
31	0xbd942c57	-0.0723502

encoder.lob_enc.res_blocks.0.bn2.running_var f4 [32]
0	0x3d5424cb	0.0517929
1	0x3d39e0d1	0.045380417
2	0x3e290cb3	0.1650875
3	0x3de037c8	0.109481394
4	0x3d8bc6b9	0.06825013
5	0x3da2a840	0.079422474
6	0x3e4223e1	0.18958999
7	0x3e618c3d	0.22026153
8	0x3e1ccb68	0.15311968
9	0x3da971d1	0.08273662
10	0x3de858e0	0.113450766
11	0x3d5f8b79	0.05457637
12	0x3d9f09aa	0.07765515
13	0x3d940009	0.07226569
14	0x3d80c5c6	0.06287722
15	0x3e6d0080	0.23144722
16	0x3d6c0dfb	0.05763052
17	0x3df3fe36	0.11913721
18	0x3e0a561a	0.13509408
19	0x3e24ed63	0.16106181
20	0x3e90d875	0.28290144
21	0x3e46271f	0.19350861
22	0x3e8ebbcb	0.2787765
23	0x3e1863a6	0.14881763
24	0x3da6829c	0.081303805
25	0x3db717c0	0.08940077
26	0x3d88927d	0.066685654
27	0x3e629b70	0.22129607
28	0x3dfc8d25	0.12331609
29	0x3ed401c5	0.414076
30	0x3d712db3	0.058881473
31	0x3e09bbc8	0.13450539

encoder.lob_enc.res_blocks.1.conv1.weight f4 [32, 32, 3, 1]
0	0xbdba1d09	-0.09087569
1	0x3c08023d	0.008301315
2	0x3d3f150a	0.046650924
3	0xbd24a77a	-0.04019878
4	0xbdaf7aaf	-0.08568322
5	0x3d6fc96e	0.058541708
6	0x3c9a2f2f	0.018821327
7	0x3d354f73	0.04426522
8	0x3db30911	0.08741964
9	0xbdd38566	-0.10328178
10	0x3d7a1074	0.061050847
11	0xbd4c87cf	-0.049934205
12	0x3d24e2da	0.040255405
13	0x3d7b3ae7	0.06133547
14	0x3d9eaf5d	0.07748292
15	0x3ce66621	0.02812487
16	0x3bd6c9ed	0.006554833
17	0xbbab4f9b	-0.0052279956
18	0xbd3299fc	-0.043603882
19	0x3d39465b	0.04523311
20	0x3d97ca1e	0.07411598
21	0xbb0e3d6b	-0.0021704088
22	0xbdbc19b5	-0.09184591
23	0xbd08262d	-0.033239532
24	0xbd22fd53	-0.03979237
25	0x3d2f2bb1	0.042766277
26	0xbdb0b2a7	-0.08627825
27	0xbd364a14	-0.04450424
28	0xbd8e7c9d	-0.06957362
29	0xbdbaecd8	-0.091272056
30	0xbd10519d	-0.035234082
31	0x3da38683	0.079846404
32	0x3d695d51	0.05697376
33	0x3dafe299	0.08588142
34	0x3c0e7476	0.008694759
35	0x3d87efc8	0.066375315
36	0x3d291657	0.04128107
37	0x3d8a99a4	0.06767586
38	0xbc7f2a78	-0.01557409
39	0x3dc07911	0.093980916
40	0xbc8a3083	-0.016868835
41	0xbce24729	-0.027621822
42	0x3d2cc293	0.042177748
43	0x3d12f97d	0.03588246
44	0xbd829e06	-0.06377797
45	0xbd23dd31	-0.040005866
46	0xbdc8570d	-0.097822286
47	0x3daf8426	0.08570127
48	0x3cea07d0	0.028568178
49	0x3da9d98d	0.08293448
50	0xbdaf3a16	-0.08556001
51	0x3db4df70	0.0883168
52	0x3dbd9a9f	0.09258007
53	0x3da30d6c	0.079615444
54	0xbd89abc4	-0.06722215
55	0x3dce108d	0.100617506
56	0xbdb16bcb	-0.08663138
57	0xbda2959a	-0.079386905
58	0xbd26b169	-0.040696535
59	0x3dbd1b49	0.0923372
60	0xbcc13747	-0.023585929
61	0x3d123ec9	0.035704408
62	0xbc5aa5cf	-0.013345196
63	0x3d153add	0.03643309
64	0x3ca9b23f	0.020714877
65	0x3d7f1aa5	0.06228127
66	0x3d371e65	0.04470672
67	0x3d8af624	0.06785229
68	0x3da6934e	0.08133565
69	0x3ca36be8	0.019948915
70	0x3d5659ee	0.052331857
71	0x3dab64f5	0.083688654
72	0x3d529b1f	0.051417466
73	0xbcd943a6	-0.026521515
74	0x3d98f963	0.07469442
75	0x3c659cc7	0.014014429
76	0x3d7a6abf	0.061136957
77	0xbd0376e5	-0.03209581
78	0xbdcc00d0	-0.099610925
79	0xbd8e3c88	-0.06945139
80	0xbc50e7d1	-0.012750582
81	0xbd931c40	-0.07183123
82	0xbd501a9e	-0.050806634
83	0x3d2ec209	0.042665515
84	0x3cfaa6c5	0.0305971
85	0xbd14dcd6	-0.036343418
86	0xbc34d43b	-0.011036928
87	0xbddc0d86	-0.10744767
88	0xbc6eaed2	-0.014568048
89	0xbbad1222	-0.0052817026
90	0xbd8326b8	-0.064038694
91	0x3da41214	0.08011261
92	0xbd545995	-0.051843245
93	0x3c9a08ff	0.018803118
94	0xbd5af50a	-0.053456344
95	0x3d2b0d53	0.041760754
96	0xbdb567f0	-0.08857715
97	0xbbd776c5	-0.0065754377
98	0x3d02ed8f	0.031964835
99	0x3d9c16ad	0.076215126
100	0x3a61fd3a	0.00086208025
101	0x3c25edc1	0.010127486
102	0x3ca1b9fe	0.019742008
103	0xbd28b246	-0.04118564
104	0x3cdf2e2d	0.027243698
105	0xbdb99b8a	-0.0906287
106	0xbd22c4e5	-0.039738555
107	0xba367901	-0.000696078
108	0xbd07c7c8	-0.03314951
109	0x3d37bc51	0.044857327
110	0xbd876dd0	-0.06612742
111	0x3d0d2c25	0.034465928
112	0xbd7df336	-0.061999522
113	0xbdad404b	-0.084595285
114	0x38955e0d	7.122392e-05
115	0xbb1e0fa8	-0.0024118219
116	0xbd382b0e	-0.044962935
117	0x3dd9a5d4	0.10627332
118	0xbcf93312	-0.03041986
119	0xbc590113	-0.013244885
120	0x3bc7b6dc	0.0060947966
121	0xbd26b7cc	-0.040702626
122	0x3cec5d18	0.028852984
123	0x3dc1b13e	0.094576344
124	0xbb1d5754	-0.002400835
125	0xbd30d0ed	-0.043167997
126	0x3d7c46b5	0.06159087
127	0x3c447304	0.0119903125
128	0x3d546f80	0.051864147
129	0xbc0226ce	-0.007943822
130	0xbd8aad88	-0.0677138
131	0xbd97fe38	-0.07421535
132	0xbd0a3332	-0.03374023
133	0xbdaf2830	-0.08552587
134	0xbdaf3f1d	-0.0855696
135	0x3d5f6942	0.05454374
136	0xbc4a6f54	-0.012355644
137	0xbbb32fe2	-0.0054683546
138	0xbdb27191	-0.08713067
139	0x3d5a2909	0.05326179
140	0x3d945acf	0.07243883
141	0x3d877c13	0.06615462
142	0xbd79cec2	-0.060988195
143	0x3c154e00	0.009112835
144	0xbd4b29a2	-0.04960025
145	0x3d4b09a7	0.049569752
146	0x3d66a9e7	0.056314375
147	0xbd7b00e8	-0.06128016
148	0xbdac3eef	-0.08410441
149	0xbd9a7649	-0.07542092
150	0x3d284eaa	0.041090645
151	0x3ccb94e1	0.024851264
152	0x3d889a12	0.066700116
153	0xbc744549	-0.014909097
154	0x3da97e73	0.082760714
155	0x3dbcca39	0.092182584
156	0xbda7d476	-0.081948206
157	0xbcd2771a	-0.025691558
158	0x3c57f828	0.013181724
159	0x3d8eb678	0.06968397
160	0xbdc997a4	-0.09843376
161	0x3d345d0e	0.044034056
162	0x3b6dfeea	0.003631527
163	0x3d9c4e3b	0.07632109
164	0xbdca1414	-0.09867111
165	0x3d84e314	0.06488624
166	0x3d66b045	0.056320447
167	0xbba40ffc	-0.0050067883
168	0xbd0f74de	-0.035023563
169	0x3d4df0e8	0.050278574
170	0xbcf13485	-0.029443989
171	0xbcbd1ca6	-0.02308495
172	0xbd84f045	-0.0649114
173	0x3dc6cabf	0.097066395
174	0x3d89c6fe	0.06727408
175	0x3caf4e31	0.02139959
176	0x3b9874d4	0.004652599
177	0xbd92ccaa	-0.07167943
178	0x3d9d5b98	0.07683486
179	0x3d2117b4	0.039329246
180	0x3d05e03f	0.03268456
181	0x3d2f6da1	0.04282916
182	0xbda77fa2	-0.08178641
183	0xbcd4bbf9	-0.025968539
184	0x3d9d9199	0.07693786
185	0xbcf5cf54	-0.030006088
186	0x3db0fe83	0.08642294
187	0xbd8212d0	-0.063512444
188	0x3d903525	0.070413865
189	0x3dcfceb3	0.101468466
190	0xbdbc1fcd	-0.09185753
191	0x3d88d012	0.06680311
192	0x3c72dfe1	0.014823885
193	0x3d32f0d6	0.04368671
194	0xbd25f4f3	-0.040516805
195	0x3da74aa0	0.081685305
196	0x3ce782a3	0.028260535
197	0xbd88b97c	-0.06676003
198	0x3dcdc639	0.100475736
199	0x3ba91726	0.00516023
200	0xbc326d7d	-0.010890362
201	0x3ce20963	0.027592367
202	0x3c879e9c	0.016555123
203	0xbdbaa62b	-0.09113725
204	0x3db48113	0.088136815
205	0xbc98b1ca	-0.018639464
206	0x3cbb9bde	0.022901472
207	0xbcd2632e	-0.025682058
208	0xbdcacd12	-0.09902395
209	0xbdbefee7	-0.093259625
210	0xbd1c2625	-0.038122315
211	0xbd0cc817	-0.034370508
212	0x3da20bfb	0.07912441
213	0x3c84672e	0.016162481
214	0x3dde2bac	0.108481735
215	0x3db312a2	0.08743788
216	0x3c32419b	0.010879899
217	0xbd115b13	-0.035487246
218	0x3b5ffa40	0.003417626
219	0xbd26436d	-0.040591646
220	0xbdce7718	-0.10081309
221	0x3ccad953	0.024761831
222	0x3d0eb436	0.03483983
223	0xbd1c40fa	-0.038147904
224	0x3da1e414	0.079048306
225	0xbc5e1f0b	-0.013557206
226	0xbcd8ce8b	-0.026465675
227	0xbd2d6bc5	-0.042339105
228	0x3dc30408	0.09522253
229	0x3d6794ce	0.056538396
230	0xbd8b36bb	-0.067975484
231	0xbda14279	-0.07874007
232	0xbdab1cd5	-0.08355109
233	0x3db3a43e	0.08771561
234	0x3dae1bee	0.08501421
235	0x3d5f81da	0.054567195
236	0x3d4d5832	0.050132938
237	0xbd903aca	-0.07042463
238	0x3d8f6ae3	0.07002809
239	0xbc3b037c	-0.011414405
240	0xbbdcc048	-0.006736789
241	0x3bcea2c0	0.0063060224
242	0xbd01563f	-0.03157639
243	0x3dc23e15	0.094844975
244	0x3c61f260	0.013790697
245	0x3d923d3c	0.07140586
246	0xbd8bdb38	-0.06828922
247	0xbdbf395c	-0.09337112
248	0xbd099f88	-0.033599406
249	0x3ce02e51	0.027365835
250	0xbd918b99	-0.07106704
251	0xbd56ab67	-0.052409556
252	0x3ce3eede	0.027823862
253	0x3db6dc41	0.08928729
254	0x3da69356	0.08133571
255	0x3db65c1f	0.089042895

encoder.lob_enc.res_blocks.1.conv1.bias f4 [32]
0	0xbdf532ec	-0.11972603
1	0xbdcd782f	-0.10032689
2	0xbd789c1d	-0.060695756
3	0xbdf57b2b	-0.11986383
4	0xbd7d06cc	-0.06177406
5	0xbdc67342	-0.096899524
6	0xbe51f840	-0.20504856
7	0xbe1b30c0	-0.15155315
8	0xbe49641a	-0.19667092
9	0xbda57f0a	-0.080808714
10	0xbe06a362	-0.13148263
11	0xbe6a812f	-0.22900842
12	0xbd4e69bb	-0.0503938
13	0xbdc11718	-0.09428233
14	0xbe18c0f3	-0.14917354
15	0xbe70246a	-0.23451391
16	0xbe4594fe	-0.19295117
17	0xbe867e2b	-0.26268134
18	0xbe6bc8eb	-0.23025863
19	0xbd09968c	-0.03359084
20	0xbe29cd44	-0.16582209
21	0xbd51e94e	-0.051247887
22	0xbdc0b65b	-0.094097815
23	0xbd91415b	-0.07092544
24	0xbdd0cf0b	-0.1019574
25	0xbe620038	-0.22070396
26	0xbd81f6f8	-0.06345934
27	0xbe7a46d2	-0.24441078
28	0xbde9e7a4	-0.11421135
29	0xbdef6641	-0.11689425
30	0xbdb23823	-0.087021135
31	0xbe6ed02e	-0.23321602

encoder.lob_enc.res_blocks.1.bn1.weight f4 [32]
0	0x3f7eddd9	0.9955726
1	0x3f80b177	1.0054158
2	0x3f8019fd	1.0007931
3	0x3f80f1d5	1.0073801
4	0x3f803a22	1.0017741
5	0x3f7c779f	0.9862003
6	0x3f7f3b58	0.99699926
7	0x3f7e12c2	0.9924737
8	0x3f7de35e	0.9917506
9	0x3f7c05ee	0.9844655
10	0x3f81d7b1	1.0143949
11	0x3f8182cb	1.011804
12	0x3f7f6212	0.9975902
13	0x3f82a8ad	1.0207726
14	0x3f8022c8	1.0010614
15	0x3f7ebcaa	0.9950663
16	0x3f808356	1.004008
17	0x3f80129f	1.0005683
18	0x3f812b23	1.0091289
19	0x3f80bb6f	1.00572
20	0x3f7f0672	0.9961921
21	0x3f7fc719	0.99913174
22	0x3f7ff96a	0.9998995
23	0x3f7eda32	0.9955169
24	0x3f809b8c	1.0047469
25	0x3f800192	1.0000479
26	0x3f7eac50	0.9948168
27	0x3f8013f1	1.0006086
28	0x3f7cbb10	0.98722935
29	0x3f7d7382	0.99004376
30	0x3f7e6e3f	0.9938697
31	0x3f81707b	1.0112451

encoder.lob_enc.res_blocks.1.bn1.bias f4 [32]
0	0xbac4a2dd	-0.001500215
1	0xbb93f716	-0.004515539
2	0xbc60a9fc	-0.013712402
3	0xba9dfd38	-0.0012053614
4	0x3bd21b0b	0.006411915
5	0xbc9cbd55	-0.01913325
6	0xbc00cdf6	-0.007861605
7	0xbb159567	-0.0022824646
8	0x3b2b8a52	0.0026174975
9	0xbc3e737b	-0.011624212
10	0x3c19a46f	0.009377583
11	0x3bb6d8dd	0.0055800513
12	0x3c0c0d3a	0.008548075
13	0x3c907b5d	0.01763695
14	0xbac1603e	-0.0014753414
15	0xbc371dd7	-0.011176548
16	0x3b396e42	0.0028294479
17	0xbbce4e88	-0.0062959827
18	0x3b09d3b6	0.002103073
19	0x3cc1b785	0.02364708
20	0x3bcd347d	0.0062623606
21	0x3c24477d	0.01002681
22	0x3ba4877f	0.005021035
23	0xbb80c2bf	-0.0039294655
24	0x3ba1717f	0.00492686
25	0xbb920f13	-0.0044573634
26	0x3c2437d8	0.01002308
27	0xbb11014e	-0.0022126022
28	0xbc7918da	-0.015203679
29	0xbb3737a0	-0.002795674
30	0xbc2e885a	-0.010652626
31	0x3a97d33f	0.0011583342

encoder.lob_enc.res_blocks.1.bn1.running_mean f4 [32]
0	0x3db745b3	0.08948841
1	0xbd2ab70a	-0.041678466
2	0x3da604dc	0.081063956
3	0xbf444546	-0.766682
4	0xbf049ecf	-0.5180482
5	0xbe9b69f3	-0.3035427
6	0xbefbe577	-0.49198505
7	0x3f08f5b7	0.5349993
8	0xbe304558	-0.17213953
9	0xbefe62c6	-0.49684733
10	0xbf0da8a9	-0.5533548
11	0xbf732251	-0.9497424
12	0xbf548bc7	-0.83025783
13	0xbf488b57	-0.78337616
14	0x3f312e85	0.6921161
15	0xbf0675d7	-0.5252356
16	0xbf61bb9c	-0.88176894
17	0xbf0f9250	-0.5608263
18	0xbf921774	-1.1413407
19	0xbf2c887c	-0.6739576
20	0xbebc1cfd	-0.36740866
21	0xbeb9d88c	-0.36298025
22	0xbe92b2e0	-0.28652096
23	0x3e98ad47	0.298197
24	0xbf277d46	-0.6542553
25	0xbea7db8c	-0.32784688
26	0x3e0196cc	0.1265518
27	0xbee5ae95	-0.44859758
28	0xbe913070	-0.28357267
29	0xbeb808ca	-0.35944206
30	0xbde8567a	-0.11344619
31	0xbed29d6f	-0.41135737

encoder.lob_enc.res_blocks.1.bn1.running_var f4 [32]
0	0x3e49b2e1	0.19697143
1	0x3e2f09b3	0.17093544
2	0x3e68277f	0.22671317
3	0x3e3031e5	0.17206533
4	0x3f337f70	0.7011633
5	0x3e887f4e	0.26659626
6	0x3dad6f68	0.08468515
7	0x3e8a5bdb	0.27023205
8	0x3ece9c6e	0.4035372
9	0x3ea1b265	0.31581417
10	0x3e2067a1	0.15664531
11	0x3e0ed845	0.13949688
12	0x3e2de69e	0.16982505
13	0x3e12d03a	0.14337245
14	0x3ec3963a	0.3820055
15	0x3da31775	0.079634584
16	0x3e87534f	0.26430747
17	0x3e0c75f1	0.13716866
18	0x3e5743f5	0.21022017
19	0x3e87c97e	0.26520914
20	0x3e449db8	0.1920079
21	0x3f103f98	0.56347036
22	0x3e4996b5	0.19686396
23	0x3f229bfc	0.63519263
24	0x3e92e591	0.2869077
25	0x3ec5998a	0.38593704
26	0x3eec151e	0.4610986
27	0x3e2227cf	0.15835498
28	0x3eac152f	0.33609912
29	0x3e88c349	0.2671149
30	0x3e96eb51	0.29476407
31	0x3dfa82a1	0.12231947

encoder.lob_enc.res_blocks.1.conv2.weight f4 [32, 32, 3, 1]
0	0x3cff3a4f	0.031155733
1	0x3c024161	0.007950158
2	0xbda481d7	-0.080325775
3	0x3c2bc651	0.010484294
4	0xbc79fc46	-0.015257901
5	0x3da17a79	0.07884688
6	0xbddec0b6	-0.108766004
7	0xb90ec0bf	-0.00013613979
8	0x3db61516	0.088907406
9	0xbd94a202	-0.07257463
10	0x3dcca5ed	0.09992585
11	0xbcc8544e	-0.024454262
12	0x3db23b71	0.08702744
13	0xbc81cc82	-0.015844587
14	0x3d9ca812	0.07649244
15	0xbdc462eb	-0.095891796
16	0x3d09ba7e	0.03362512
17	0xbd68b85d	-0.056816448
18	0x3d448792	0.047980852
19	0xbdb02e94	-0.08602634
20	0xbcedd2f6	-0.029031258
21	0x3b364609	0.002781274
22	0xbd9ae116	-0.07562463
23	0x3d6c8c8b	0.05775122
24	0xbd4be0ed	-0.049775053
25	0xbca00aa0	-0.019536316
26	0xbc677684	-0.014127377
27	0x3d447b15	0.047968943
28	0xbd2cb80c	-0.04216771
29	0x3d008743	0.031378996
30	0xbd2e02cd	-0.04248314
31	0x3c81978c	0.015819333
32	0xbdb28666	-0.08717041
33	0xbcdae3b0	-0.026719898
34	0xbda71933	-0.08159103
35	0xbd9da0ed	-0.0769671
36	0x3dabb1e0	0.08383536
37	0xbdd4ae91	-0.103848584
38	0x3d2b2746	0.0417855
39	0xbd0ae2f4	-0.033907846
40	0x3dd6b0e9	0.10482962
41	0xbcecd2e4	-0.028909154
42	0xbd25bf0c	-0.0404654
43	0x3d265777	0.040610757
44	0xbd910608	-0.070812285
45	0xbd7fea99	-0.06247959
46	0xbda75a80	-0.081715584
47	0x3da697a5	0.08134393
48	0x3da8e634	0.08247033
49	0xbd7f9d71	-0.062406007
50	0x3d811e61	0.063046224
51	0xbdc9c87d	-0.09852693
52	0x3d68be54	0.056822136
53	0xbdd8d799	-0.10587997
54	0x3df631d2	0.12021221
55	0xbcdb16b6	-0.026744228
56	0xbd0c86da	-0.034308292
57	0x3d03a7ec	0.032142565
58	0xbd9c7581	-0.076395996
59	0x3da8f651	0.08250106
60	0xbd0d08fb	-0.034432393
61	0x3d11a08f	0.03555351
62	0x3d3e08e6	0.046395205
63	0x3d185026	0.03718581
64	0xbd17ab2a	-0.03702847
65	0x3cbb77d2	0.022884283
66	0xbdcb3403	-0.0992203
67	0xbd7d5418	-0.061847776
68	0xbdc986d1	-0.09840167
69	0xbbff7069	-0.0077953828
70	0xbd62af61	-0.055343036
71	0xbd931713	-0.071821354
72	0xbd1b2bb0	-0.03788346
73	0xbd9607ff	-0.07325744
74	0x3d18c66a	0.037298597
75	0xbcd24132	-0.025665853
76	0x3dbe0e79	0.09280104
77	0x3d776c19	0.060405824
78	0xbce11543	-0.027475959
79	0xbc650aca	-0.013979623
80	0xbdc85260	-0.09781337
81	0x3d249a43	0.040186178
82	0xbbaa0df7	-0.005189653
83	0x3d9c0f88	0.0762015
84	0xbdc6482d	-0.09681735
85	0x3b9d6299	0.0048030135
86	0xbd63ad30	-0.055585086
87	0xbd7b6beb	-0.061382215
88	0xbbee6c26	-0.007276076
89	0x3d387ec1	0.045042757
90	0x3d38a84a	0.045082368
91	0xbd33cefc	-0.043898568
92	0xbd953c15	-0.0728685
93	0x3c5e584c	0.013570856
94	0xbdc97db8	-0.09838432
95	0xbca7ed30	-0.020498842
96	0x3dc6f9cd	0.097156145
97	0xbdb647eb	-0.08900436
98	0xbd401e08	-0.04690364
99	0x3c50933b	0.012730415
100	0xbd02d187	-0.031938102
101	0x3bb0a677	0.005390938
102	0x3d865589	0.06559283
103	0x3c34a2fb	0.011025186
104	0x3d8d4b1c	0.068990916
105	0xbd8f2774	-0.06989947
106	0xbd9b05d8	-0.07569474
107	0xbdb2fbf9	-0.08739466
108	0x3ab933b0	0.0014129784
109	0xbda26256	-0.07928912
110	0x3d88c3b3	0.06677952
111	0x3d2cefba	0.04222081
112	0x3cbf4dee	0.02335259
113	0xbc75aae9	-0.014994361
114	0xbd996621	-0.07490183
115	0x3ca7d076	0.020485144
116	0xbda336e7	-0.07969456
117	0xbdbcdfb9	-0.09222359
118	0xbd3237d7	-0.043510284
119	0xbd21bbb9	-0.039485667
120	0xbda8bdef	-0.08239352
121	0x3ba3aa2a	0.0049946504
122	0xbdd00d8a	-0.10158832
123	0x3dacd723	0.084394716
124	0xbd3acb65	-0.04560413
125	0xbc97b47b	-0.018518677
126	0xbc240807	-0.0100116795
127	0x3da96d26	0.082727715
128	0x3cd226d2	0.025653277
129	0x3d969d96	0.07354276
130	0xbbe78449	-0.00706533
131	0xbb4be6db	-0.0031112942
132	0xbc06bca2	-0.0082236845
133	0x3d8d22a0	0.0689137
134	0x3d5357b0	0.051597297
135	0x3d955195	0.07290951
136	0x3d88bf9a	0.0667717
137	0xbdaed218	-0.08536166
138	0xbd34b21f	-0.044115182
139	0x3d5fb8a3	0.054619443
140	0x3d1e8e35	0.038709838
141	0xbda1ff77	-0.07910054
142	0x3dd09bf4	0.10185996
143	0x3c80b8e0	0.015713155
144	0x3d0d31de	0.034471385
145	0x3c8366a5	0.016040156
146	0xbd72ab40	-0.059245348
147	0x3d5441c2	0.051820524
148	0x3cd489c7	0.025944604
149	0x3dbcd563	0.09220388
150	0x3dbe045f	0.092781775
151	0xbd4f2d19	-0.050580118
152	0xbc600b74	-0.013674606
153	0xbdc6ba30	-0.09703481
154	0x3c9fdc0d	0.019514108
155	0xbda8933c	-0.08231208
156	0x3d5444a9	0.051823292
157	0xbd75494d	-0.05988436
158	0x3dca7a39	0.09886593
159	0x3d85639e	0.06513141
160	0xbdc3da70	-0.09563148
161	0xbc3ca38f	-0.011513605
162	0x3cf35aaa	0.029706318
163	0xbc373e59	-0.011184298
164	0xbd768093	-0.06018121
165	0xbcdffa24	-0.027340956
166	0xbd80db31	-0.062918074
167	0xbc81eb5f	-0.015859304
168	0x3dc74e63	0.09731748
169	0xbd3155cf	-0.043294724
170	0x3d380e98	0.044935793
171	0x3c098ea7	0.008395827
172	0x3d0b9734	0.034079745
173	0x3d5cf671	0.053945962
174	0x3b8dfb06	0.004332903
175	0x3c2f45f2	0.010697829
176	0xbd07309e	-0.03300535
177	0x3da894cd	0.082315065
178	0x3d22566f	0.03963321
179	0x3d127289	0.03575376
180	0xbc69806f	-0.014251812
181	0xbd9aba21	-0.075550325
182	0xbdc32155	-0.09527842
183	0x3d066a2d	0.0328161
184	0x3c2971c6	0.010342067
185	0x3d83bdcd	0.06432686
186	0x3dac42a2	0.08411147
187	0x3abcca5d	0.0014403571
188	0x3d89e8fb	0.067338906
189	0xbd25e9ff	-0.04050636
190	0xbdb0bc51	-0.086296685
191	0x3c4cc4e6	0.012498116
192	0xbd3074e1	-0.043080214
193	0x3da7991e	0.08183502
194	0x3db4bf2e	0.08825527
195	0xbd650c8e	-0.055920176
196	0x3a8f164f	0.0010916683
197	0x3caeabd9	0.021322178
198	0xbdd0ba55	-0.1019179
199	0x3cd3a04e	0.025833275
200	0x3c804287	0.015656723
201	0x3c6b9677	0.014379135
202	0xbd205367	-0.03914204
203	0x3d9d9525	0.07694463
204	0xbd9af213	-0.07565703
205	0x3d2ae2a6	0.041720055
206	0x3c1591dd	0.009129015
207	0xbdc33616	-0.095318004
208	0x3c1c2969	0.009531357
209	0xbd354712	-0.04425723
210	0xbd4c3f44	-0.049865022
211	0xbcf6d164	-0.030129142
212	0x3d89c3f9	0.06726832
213	0x3c13c298	0.009018563
214	0xbd42c483	-0.04755069
215	0xbb26dacb	-0.002546
216	0xbc79b9d2	-0.015242057
217	0x3c683940	0.014173806
218	0xbb72b352	-0.0037033153
219	0xbd49229b	-0.049105268
220	0x3d6c2684	0.05765392
221	0xbcd03d88	-0.025419965
222	0x3d302835	0.043007094
223	0x3d4cb0c7	0.049973276
224	0x3da9bbb0	0.08287752
225	0x3cd6d62e	0.026225176
226	0x3d56f51a	0.05247984
227	0x3c81748c	0.015802644
228	0xbc18aeec	-0.009319048
229	0x3db802c6	0.08984904
230	0xbd8ed37c	-0.06973931
231	0xbd759aa9	-0.05996195
232	0xbd8b515a	-0.06802626
233	0x3cc024d5	0.023455063
234	0x3d701a6d	0.05861895
235	0xbdf18a12	-0.11793913
236	0xbd74df93	-0.05978353
237	0xbd890c91	-0.0669185
238	0x3bac99da	0.005267364
239	0x3a0b9ec5	0.00053260877
240	0xbc5d48b8	-0.013506107
241	0xbc4545d8	-0.012040578
242	0xbda2c96a	-0.07948573
243	0x3d91d660	0.07120967
244	0xbd7a630f	-0.061129626
245	0xbc3516d3	-0.011052805
246	0xbc148124	-0.009063993
247	0xbb1d7cb8	-0.0024030637
248	0x3dc73323	0.097265504
249	0xbd71cee8	-0.05903521
250	0xbc9c8d5c	-0.019110374
251	0x3d7fe2af	0.06247204
252	0x3d6f2792	0.058387347
253	0xbd60a76f	-0.054847177
254	0x3d3e36b3	0.046438884
255	0x3da1efab	0.07907041

encoder.lob_enc.res_blocks.1.conv2.bias f4 [32]
0	0xbe00f450	-0.12593198
1	0xbde937b1	-0.113875754
2	0xbe0e8eb0	-0.13921618
3	0xbdc396c1	-0.095502384
4	0xbe552def	-0.20818304
5	0xbe16282c	-0.14663762
6	0xbe29faf7	-0.16599642
7	0xbdbd4980	-0.09242535
8	0xbe5ac522	-0.21364263
9	0xbdee286e	-0.11628805
10	0xbe5aac65	-0.21354826
11	0xbdafb62e	-0.0857967
12	0xbe09237e	-0.13392445
13	0xbe0ad883	-0.13559155
14	0xbde46b6e	-0.11153303
15	0xbdf00eee	-0.117215976
16	0xbdd3f518	-0.10349482
17	0xbdb5e41b	-0.08881398
18	0xbe4b2907	-0.1983987
19	0xbe4532f9	-0.19257726
20	0xbdca8c46	-0.09890036
21	0xbe7b2f68	-0.24529803
22	0xbde7e632	-0.11323203
23	0xbdb4ecab	-0.08834203
24	0xbd8b424d	-0.06799755
25	0xbd9688a9	-0.073502846
26	0xbe44edbb	-0.19231312
27	0xbe5d5716	-0.21615252
28	0xbe3de56c	-0.18544549
29	0xbe7c0a8e	-0.24613401
30	0xbe0ddc05	-0.13853462
31	0xbdcf006c	-0.10107502
