outputs/performance_test/checkpoint_epoch_26.pt (torch, 945914 bytes, 81 tensors)

encoder.lob_enc.conv_in.0.weight f4 [32, 2, 3, 1]
000000 41 d0 d6 bd fa b0 a0 3e 0d b0 78 be 55 40 7b bd
       -0.1048894 0.31385022 -0.24285908 -0.06134065
000010 5e e7 52 39 30 20 56 be 75 82 68 3c 4d 2c c2 bd
       0.00020113352 -0.20910716 0.01419126 -0.09481106
000020 37 46 4e be 9b 47 a6 be ba 27 cc bb b5 cc bf 3e
       -0.20143972 -0.32476506 -0.0062303217 0.37460867
000030 19 1c 22 3e fe 13 9f be eb 1f 55 be bc 9b 89 3e
       0.15831031 -0.3106994 -0.20812957 0.26876628
000040 96 ec 1c be 1f e8 1f bd cf d8 39 be 67 a8 51 3e
       -0.15324625 -0.039039727 -0.18149112 0.20474397
000050 e9 13 8c be 74 19 c7 be 44 e7 ab be 1b 10 b2 be
       -0.2735894 -0.38886607 -0.3357488 -0.34777912
000060 19 02 5c 3d fb e9 9f 3d d8 fc 06 be 2e 9c 11 3e
       0.053712938 0.078083 -0.1318239 0.14219734
000070 ef 65 39 3d 1c 29 ba 3d 24 1a 51 3e f7 34 b7 3d
       0.045263227 0.09089872 0.20420128 0.08945649
000080 e7 02 c7 3e 6a d0 a1 3e c0 ee 5f be 01 a1 9b 3e
       0.38869402 0.3160432 -0.2186842 0.30396274
000090 54 4b 45 bd 5f ca cc bc fe 8e 0c 3d 51 8c b9 be
       -0.04816754 -0.024998842 0.034316055 -0.36239865
0000a0 ac f0 86 3e b4 4c 85 3e c1 7d c6 3e a6 1a 8e 3d
       0.26355493 0.26035082 0.38767818 0.069386765
0000b0 16 8f ef bd ed c8 8b bd b5 b1 11 be b3 91 c1 be
       -0.11697213 -0.06825433 -0.14227946 -0.37806472
0000c0 35 e3 14 3e 70 69 79 3d 50 9a f4 bd 4e aa 70 be
       0.14539798 0.06089157 -0.11943495 -0.23502466
0000d0 e1 60 ba bd c0 2d f0 3d 12 00 9e 3e 97 9d 4c 3e
       -0.091005094 0.11727476 0.3085943 0.19981991
0000e0 ee 3d 98 3e 5e 57 a6 3e f6 51 40 be ba 2a 73 bc
       0.2973475 0.3248853 -0.18781266 -0.01484173
0000f0 4f 45 ac be 00 56 68 be f0 ac 2d 3e 72 ff 1f 3e
       -0.33646628 -0.22689056 0.16960502 0.15624788
000100 86 5c 3e 3e 86 f0 b6 3e ea 3a 27 3e 4d a6 4e be
       0.18589982 0.3573038 0.16331068 -0.20180626
000110 54 49 b8 bd 81 d7 e8 3c c8 84 51 3e 3a 1f 5b be
       -0.08998361 0.028423073 0.20460808 -0.2139863
000120 da 9a 23 be 0d 05 16 3e b3 17 1d 3e 45 51 cc 3e
       -0.1597704 0.14650364 0.15341072 0.39905754
000130 73 46 b5 3e dc cd 30 be 63 f4 1c 3e ee 0c 6f be
       0.3540531 -0.17266029 0.15327601 -0.23344776
000140 a8 40 a1 bb b6 e1 99 bc dc d4 da 3d e9 5c c1 3e
       -0.0049210377 -0.018784385 0.10685131 0.37766197
000150 71 49 aa be 0d eb b8 3e 1a bb 8a 3e 68 93 59 be
       -0.33259156 0.3611683 0.27095872 -0.21247637
000160 f5 bc 00 be 8b cf d4 bd a1 d2 7d 3e 65 64 f1 bd
       -0.12572081 -0.10391148 0.2478738 -0.11786727
000170 4e 8f 13 3e 6d d4 2a be 10 63 aa 3e 5d 97 21 bd
       0.14410135 -0.16682597 0.33278704 -0.039450992
000180 fd 23 cd 3e dc 4f 97 be 01 fb f0 bd cb 5b 88 3e
       0.4006652 -0.29553115 -0.11766625 0.26632532
000190 8e 91 11 3e 41 09 4b be de 81 b2 be bf 28 9e be
       0.14215681 -0.19827749 -0.34864706 -0.30890462
0001a0 d2 ad a8 be 86 11 82 be 47 4d 82 be 27 e4 f5 bd
       -0.32945114 -0.25403994 -0.25449583 -0.12006407
0001b0 b0 83 b4 3e 5b 8f db bd 26 f6 82 be 99 b2 4c 3e
       0.3525672 -0.10720702 -0.2557842 0.19990005
0001c0 b9 68 75 be 98 38 52 be 11 cd 56 bd 22 5b ba bc
       -0.2396573 -0.20529401 -0.05244166 -0.022748534
0001d0 a1 1f 8a be 34 60 a7 be df 7c d0 be 4e 73 32 be
       -0.26977256 -0.32690585 -0.4072027 -0.17426798
0001e0 e6 a3 46 3e 59 f1 e7 3c b1 06 a3 3e 3b 3a 5d 3d
       0.1939846 0.028313326 0.31841043 0.05401061
0001f0 b8 d3 a2 be 68 d7 93 3c bf 92 de bd 69 65 68 3e
       -0.31802154 0.01804705 -0.10867833 0.22694935
000200 c6 87 cd 3d 6d 23 cf 3e 83 26 bb be 87 8f 4f be
       0.10035662 0.40456715 -0.3655282 -0.20269595
000210 5d 4d ac be 14 8c 30 3d 68 06 82 be db a0 27 be
       -0.33652773 0.04310234 -0.25395513 -0.16369955
000220 b5 10 cc 3e ad d6 0a be 4c 5c 44 3e 58 10 89 3e
       0.39856496 -0.13558455 0.19175833 0.26770282
000230 df 4c 9a 3e f4 c9 a4 3e a9 b1 85 3e c7 d9 37 3d
       0.30136773 0.32185328 0.26112106 0.044885423
000240 31 23 b4 3e 90 83 c6 3e e9 0a 8c be 54 f7 b9 3d
       0.351831 0.3877225 -0.27352074 0.09080377
000250 28 46 90 3e 8a 46 8c be 4e 75 44 3e ff 0b 87 3e
       0.28178525 -0.27397567 0.19185373 0.2637634
000260 7d 06 e4 bb 63 fc d2 bd 33 72 11 bd 98 ba a7 3e
       -0.0069587813 -0.10302045 -0.0355093 0.32759547
000270 12 6f ab be 91 34 1e 3e d1 58 6d be 11 5b 87 3e
       -0.33483177 0.1544974 -0.23178412 0.26436666
000280 24 c6 33 be 16 ba a3 3d 10 b6 7a 3e 6b 67 5f bd
       -0.17556053 0.079944775 0.24483514 -0.054541986
000290 ea 97 23 bd f9 46 b4 3e 3e b6 c9 3e 30 e3 71 3e
       -0.0399398 0.35210398 0.39396852 0.23621821
0002a0 e0 a6 b4 3c 98 5f 1b bc fd 8d 7c be c5 4d 90 3e
       0.022052228 -0.009483241 -0.24663539 0.28184333
0002b0 a2 62 25 3e 40 9f ac 3e c4 50 8b be 2b b9 bb 3d
       0.16150907 0.33715248 -0.27210057 0.09166177
0002c0 cc a3 96 3d 16 24 09 be ec 56 4f bd 9c 91 9c 3d
       0.073554605 -0.13392672 -0.050620005 0.0764496
0002d0 73 7d f3 bd 07 93 c3 3e 68 95 be be 93 81 86 bd
       -0.11889162 0.3819811 -0.37223363 -0.06567683
0002e0 c3 13 4c be 28 ad 9a 3e b0 3d 11 be 65 d2 b8 bd
       -0.19929413 0.30210233 -0.14183688 -0.090245046
0002f0 94 ab b6 3e 8b d8 b3 be 62 51 05 be c9 35 b6 3e
       0.3567778 -0.35126147 -0.13019326 0.3558791

encoder.lob_enc.conv_in.0.bias f4 [32]
000000 c3 db 92 3e ed 1b ee bd d1 51 9d bd 1c 3a 47 be
       0.2868329 -0.1162642 -0.07681621 -0.1945576
000010 4d 73 a5 3d b1 18 f5 3d c5 32 8d 3e 3d 7f 37 3e
       0.080786325 0.119676 0.27577797 0.17919631
000020 e5 db 52 3e 69 24 85 bd cb 60 95 be e5 d1 66 3e
       0.20591696 -0.06501085 -0.2917541 0.22541006
000030 89 57 e8 bb 76 c4 88 be 31 9c 15 3d 11 cf ce 3e
       -0.007090513 -0.26712388 0.03652591 0.40392354
000040 19 fa 0c bd df 99 ae be e1 76 7c 3e 71 6c 9b 3e
       -0.0344182 -0.3410177 0.24654724 0.30356172
000050 b9 91 85 be 00 d0 b6 be 94 8c 95 be 15 e0 2b 3e
       -0.2608774 -0.35705566 -0.29208815 0.167847
000060 ef 8f 2b be a8 51 cd be b9 fc ef bc 6b 64 54 be
       -0.16754125 -0.4010136 -0.029295312 -0.20741431
000070 95 7c f7 bd 62 fc 24 be f5 44 0c be c3 16 88 be
       -0.12084309 -0.16111901 -0.1369818 -0.26579866

encoder.lob_enc.conv_in.1.weight f4 [32]
000000 e6 cc 80 3f 26 d1 80 3f 7b 04 81 3f 20 9b 80 3f
       1.006253 1.0063827 1.0079492 1.004734
000010 3c fd 7f 3f d3 ea 7f 3f f0 f7 7e 3f 13 73 81 3f
       0.9999578 0.9996769 0.9959707 1.0113243
000020 3a b5 80 3f ec 9f 80 3f 1c 3b 7a 3f 6c b4 7d 3f
       1.0055306 1.0048804 0.97746444 0.99103427
000030 07 5b 80 3f 55 d8 7c 3f c0 f0 7e 3f 4b 53 80 3f
       1.0027779 0.98767596 0.99586105 1.0025419
000040 ac 3f 7d 3f 2c 49 81 3f 01 db 80 3f 03 0d 80 3f
       0.9892528 1.0100455 1.0066835 1.0003971
000050 41 b3 7d 3f 9c d2 7d 3f 7b b6 80 3f 18 78 7e 3f
       0.99101645 0.9914949 1.0055689 0.99402
000060 76 8c 80 3f 4d d9 7e 3f d4 90 80 3f 41 32 81 3f
       1.0042865 0.99550325 1.0044198 1.0093461
000070 3c 70 80 3f 54 08 7f 3f e6 5f 82 3f de a6 80 3f
       1.0034251 0.9962208 1.0185516 1.0050924

encoder.lob_enc.conv_in.1.bias f4 [32]
000000 d1 94 65 3b 3b 5a 33 3b 52 71 f0 3b 06 0a 73 b9
       0.0035031328 0.0027367014 0.0073377276 -0.0002317802
000010 05 3c a6 bb 7e 6c f2 3b 6f fe 10 3c b2 f9 c8 3b
       -0.005073073 0.007398187 0.008849724 0.0061332816
000020 45 99 a0 3b 4d d4 03 3c 81 52 2d bc 1b 6c c9 ba
       0.0049010837 0.008046222 -0.0105787525 -0.0015367301
000030 7c 5a 30 bc a6 84 d0 ba 7a 1a 44 bb 5c e6 3a 3c
       -0.010763761 -0.0015908673 -0.0029923008 0.011407461
000040 9a 66 36 3b 1b ba d1 3b 08 b0 8b 3b 4d 70 ab 3a
       0.0027832151 0.0064003593 0.004262928 0.0013079733
000050 1e 79 fe 3b b9 49 65 ba b7 2f cd 39 14 4f 21 3c
       0.007765903 -0.0008746642 0.00039136197 0.009845514
000060 f1 a9 29 3c 68 67 bb 3a fb 3e 6e 3b cc 12 0d 3c
       0.010355459 0.0014297785 0.0036353457 0.008610439
000070 83 ec 13 3c ff 99 05 bc f1 69 6b 3c 22 92 02 3c
       0.009028557 -0.008154391 0.01436852 0.007969411

encoder.lob_enc.conv_in.1.running_mean f4 [32]
000000 e3 8f 4f cd 24 52 26 cd e1 25 4b cd 7a 06 66 ce
       -2.1764459e+08 -1.7440006e+08 -2.1301608e+08 -9.64796e+08
000010 bd 55 42 4d 0d 99 3b 4e 97 0d af 4c 22 8e 2d cd
       2.0377493e+08 7.8684243e+08 9.177823e+07 -1.8198582e+08
000020 57 40 aa cc bf f8 20 4e a2 e5 53 4d 92 3a 98 cc
       -8.926073e+07 6.751641e+08 2.2219011e+08 -7.981173e+07
000030 73 0b fd 4d 51 51 83 4d bd 6b c0 cc 0b 2e 8c 4d
       5.3067325e+08 2.7539306e+08 -1.00883944e+08 2.9397846e+08
000040 e4 df 06 4d f1 f1 8c ce e9 9a 35 cd c0 c4 5a ce
       1.4142624e+08 -1.182333e+09 -1.9042677e+08 -9.175818e+08
000050 e3 ac 48 4d 2d 80 13 4c 1a ea 98 cd ca 78 72 4e
       2.1042334e+08 3.866642e+07 -3.2068486e+08 1.0170006e+09
000060 b4 f3 c7 4d 68 b1 de 4d 51 c2 28 cd ef 87 45 4e
       4.1932966e+08 4.6702106e+08 -1.7695669e+08 8.28505e+08
000070 14 8e be 4d 56 c2 14 cd be 3d 3e cc 2c 78 59 ca
       3.996228e+08 -1.5598525e+08 -4.9870584e+07 -3.563019e+06

encoder.lob_enc.conv_in.1.running_var f4 [32]
000000 4d f8 80 5b 66 ac 3a 5b 42 a6 89 5b 45 1d 72 5d
       7.260361e+16 5.25439e+16 7.748975e+16 1.090386e+18
000010 bb 0c 35 5b e1 34 24 5d a9 23 ee 5a 86 a6 6c 5b
       5.096097e+16 7.395206e+17 3.3515127e+16 6.661119e+16
000020 3b a9 49 5a 34 e9 f1 5c 92 bf 95 5b 72 80 8e 5a
       1.4190635e+16 5.4473503e+17 8.430081e+16 2.0055337e+16
000030 c3 cc 96 5c 83 d0 b2 5b 4f 72 18 5b 5e a6 c1 5b
       3.3957108e+17 1.0066361e+17 4.290988e+16 1.0901519e+17
000040 0e 01 62 5b f5 63 b3 5d cd 58 8f 5b 6a a1 58 5d
       6.3614504e+16 1.6158056e+18 8.069712e+16 9.7561715e+17
000050 2f c5 71 5b c7 fa a9 5a d1 cb 04 5c 9f c9 84 5d
       6.8052275e+16 2.3922502e+16 1.4951518e+17 1.1960442e+18
000060 9e 12 5f 5c 12 e1 66 5c 09 6d 2f 5b b3 4f 32 5d
       2.5115756e+17 2.5994685e+17 4.9378006e+16 8.030428e+17
000070 a0 f0 2c 5c b7 2c 0f 5b aa 62 aa 5a 8e a8 3a 5b
       1.9471306e+17 4.0300086e+16 2.3979614e+16 5.2539674e+16

encoder.lob_enc.res_blocks.0.conv1.weight f4 [32, 32, 3, 1]
000000 c5 77 26 bd 22 20 9d bd 75 a0 bf bc cd 05 a5 bd
       -0.040641565 -0.076721445 -0.023391942 -0.08057747
000010 de e5 1b bc 4f b8 4d 3d b4 88 87 bd c5 a8 1f bd
       -0.009515254 0.0502246 -0.06617871 -0.03897931
000020 72 79 fe bc bf 82 4c bd 95 2c ac bd a3 88 67 3c
       -0.031063769 -0.049929377 -0.08406941 0.014131698
000030 f5 c7 b3 bc 71 00 c3 bb c0 4e 00 bd 9b 43 93 bd
       -0.021945933 -0.0059509804 -0.0313251 -0.07190629
000040 d5 6c 3b bd 4f a4 44 3d e7 4f 77 3d 27 e5 19 bd
       -0.045758087 0.04800826 0.060378935 -0.037572052
000050 ef c5 54 3d fb 58 a5 bd 33 55 b2 bc 74 82 c7 bd
       0.051946577 -0.08073612 -0.021769142 -0.09741679
000060 96 d0 05 bd 51 eb 6e 3c db 1d 38 3d 1a 62 e1 3c
       -0.032669626 0.014582471 0.044950347 0.027512599
000070 10 b7 17 3d 9c 95 d9 bc 89 ed be 3d 3c 0c b0 bd
       0.037039816 -0.026560597 0.0932265 -0.085960835
000080 4d 8b de bc 46 cf 04 bd f8 f6 61 3d 45 f7 a3 3c
       -0.027166033 -0.032424234 0.05516717 0.020015368
000090 8a c9 ad 3d 95 92 a1 bd ab 65 e5 3c 99 8b b6 bd
       0.08485706 -0.078892864 0.02800258 -0.08913345
0000a0 7e 4e cb 3c 64 d9 49 bd b9 df 6a bd 1c 23 7c 3b
       0.024817701 -0.049279585 -0.057342265 0.0038473075
0000b0 dd e4 46 bb a3 b3 bd 3d 86 89 97 3d 02 27 2c 3b
       -0.0030348815 0.092627786 0.073992774 0.0026268368
0000c0 07 4f 13 3d db f4 c1 b8 89 bb dd bc 21 0f b7 bd
       0.03596404 -9.248565e-05 -0.027066963 -0.089384325
0000d0 99 49 c4 bd 14 ba 57 bb a1 9e 89 bd f0 44 92 3d
       -0.0958435 -0.0032917308 -0.06719709 0.07142055
0000e0 8c f5 5f bd aa 3a 40 3c ac 67 81 bd c1 9d b6 3d
       -0.05467753 0.011732737 -0.06318602 0.08916808
0000f0 04 68 36 3d 65 ea 3d 3d 68 ac c2 3c 07 88 cd bc
       0.04453279 0.046366114 0.02376385 -0.025089277
000100 35 d3 5b bd 14 1c 67 bd af 37 d4 bd e4 37 f4 bc
       -0.05366822 -0.05642326 -0.10362183 -0.029811807
000110 e0 7d 51 bd 48 c3 a7 3d 4b 9f b4 3d 03 b1 93 bd
       -0.051145434 0.08191544 0.08819445 -0.07211497
000120 fc 66 04 bc bd 36 c0 bd d0 5b 37 3d 60 2a 8d 3d
       -0.008081194 -0.093854405 0.044765294 0.06892848
000130 7c 20 81 bd dd 53 9b bd e0 78 03 bd 85 6b 92 3d
       -0.06305024 -0.07584355 -0.032097697 0.07149414
000140 7e 50 7e 3d 2d d8 84 bd 21 50 b8 bb 80 cd a8 bd
       0.062088482 -0.06486545 -0.0056247865 -0.08242321
000150 21 b5 a9 3d 73 8c 0e 3d d2 92 3b bd 67 80 fc 3c
       0.08286501 0.03480191 -0.045794316 0.030822946
000160 eb 7e 11 bc 46 2a af bd a0 3f c6 bd 1e 6f b8 3d
       -0.008880357 -0.08552985 -0.09680104 0.09005569
000170 a3 76 7e bd 13 d3 66 3d 60 9a 0a bd 80 99 19 3d
       -0.06212486 0.05635364 -0.03383863 0.037499905
000180 dc 66 cf 3c 7d e0 24 3d d9 20 77 bd 3b 85 07 3d
       0.025317602 0.04025315 -0.06033406 0.033086043
000190 c4 f5 23 3c 2b e5 85 bc 31 10 62 bc a8 8b 6c bc
       0.010007326 -0.016344627 -0.013797806 -0.0144375935
0001a0 30 b0 15 3d 04 86 2f 3d b2 98 6f bd 5d 7e ba bc
       0.03654498 0.042852417 -0.05849523 -0.022765333
0001b0 25 fe 6f bc b6 78 07 bd a8 2a 5d 3d 95 1c d3 3d
       -0.014647995 -0.033074103 0.05399576 0.10308186
0001c0 90 56 52 3d 87 8b b6 bc fc 6c 94 3d 13 49 d9 3d
       0.051352084 -0.022283329 0.072473496 0.10609641
0001d0 1e 26 73 bc be 8a 91 3d f1 cc 85 3c df 57 2b bd
       -0.014840631 0.07106541 0.016333075 -0.041831847
0001e0 9c 21 4f 3c da 4a 21 3b f3 bf 17 3c 0d 45 9a bc
       0.01264229 0.0024611265 0.009262073 -0.018831754
0001f0 91 a6 92 bd 31 0f b4 bd 18 d2 71 bd 9a 50 71 3d
       -0.07160676 -0.0879196 -0.05903825 0.05891476
000200 9e d7 03 bd 4b 86 f3 bd 77 cd a6 3d b3 52 f9 bd
       -0.03218805 -0.11890849 0.08144658 -0.12173977
000210 02 65 a9 3c 24 6d c6 3d b2 c1 3c bd c5 14 f8 3b
       0.020678047 0.09688786 -0.04608316 0.0075708353
000220 e4 cc bd 3d e7 12 a7 3d 53 f4 a1 3d 4f fa a7 bb
       0.092675954 0.08157902 0.07907929 -0.0051262747
000230 7c 78 69 3d 9f 33 32 3d 04 94 8b 3c 75 14 af 3d
       0.05699967 0.04350626 0.017038353 0.08548824
000240 c3 a7 dc 3c c4 f2 a9 3d e3 0f 6c bd 0a 5f 3c 3c
       0.026935464 0.08298257 -0.05763234 0.011497268
000250 95 84 ea bd c8 59 66 bb e2 37 89 3c ad 33 44 3d
       -0.11451069 -0.0035148729 0.01675028 0.047900844
000260 a4 2a e9 3c bc d1 83 bd 34 9a 26 3d 79 1c fb bd
       0.028462715 -0.06436488 0.040674403 -0.1226129
000270 28 32 b9 3d ac f5 24 3d 84 d5 28 bc 4a 78 fa 3c
       0.0904277 0.040273353 -0.010304812 0.030574936
000280 db 56 46 3d 18 2f 85 bd a1 c0 43 3d 72 c1 71 3b
       0.048422676 -0.06503123 0.047791127 0.0036888984
000290 de b2 a6 3d f9 71 24 3c de 23 82 3c d1 89 da 3c
       0.08139585 0.010036939 0.015886243 0.026677044
0002a0 8c 69 ad 3d 38 bc 90 bd c6 22 92 3d cf 79 8c 3d
       0.08467397 -0.0706715 0.07135539 0.06859171
0002b0 38 8e 00 bc 3e 67 90 bd f0 3f 64 3d bc 98 fa 3c
       -0.007846408 -0.07050942 0.055725038 0.030590408
0002c0 09 07 4c bd 22 b3 c2 3c 46 de d4 bc 96 15 31 bd
       -0.049811397 0.023767058 -0.025984894 -0.043233477
0002d0 6c d0 e0 3d 06 1f 30 3d e4 da 2b 3c c9 21 71 3d
       0.10977253 0.042998336 0.010489199 0.05887011
0002e0 77 95 7e 3d db d4 28 3d aa 3b 36 3d 65 99 ca bd
       0.06215426 0.04121862 0.044490494 -0.09892539
0002f0 67 0c 45 bd 9d a6 c0 3d d4 34 f6 3c 2a c0 b5 3c
       -0.04810753 0.09406779 0.030054487 0.022186358
000300 85 66 95 bd 21 06 7b bd aa e6 22 bd 59 cb 30 3d
       -0.07294945 -0.06128514 -0.03977076 0.043162677
000310 cb 44 39 bd 44 00 9f 3d 65 41 b1 bd fc 64 15 bd
       -0.04523162 0.077637225 -0.08655051 -0.03647326
000320 2c 12 85 3d 50 ba 3f bd e5 ee 85 bb e8 b1 08 bd
       0.06497607 -0.04680854 -0.0040873163 -0.03337279
000330 0f 49 fd 3c cf d7 5f bd 93 e9 a2 bd ea 44 36 bd
       0.030918626 -0.05464917 -0.07954707 -0.044499315
000340 7f f5 13 3d 69 cd 04 bd e0 4a a4 bd 8a e7 eb bc
       0.036122795 -0.032422457 -0.08022094 -0.02879693
000350 72 0c 3e bd 9a 3f ae 3d 0d 80 f7 bc 0d fd 02 3d
       -0.046398588 0.08508225 -0.030212427 0.03197961
000360 5d a2 c7 3d 51 51 9d bd 77 1e 23 3d fc 73 e2 3b
       0.09747765 -0.076815255 0.039823975 0.006910799
000370 a7 80 a3 3d 8c 9f 6c bb d8 b6 e7 3c 7f 91 c3 bd
       0.07983523 -0.003610584 0.028285429 -0.095492356
000380 bd e1 c5 3d a8 fa 8f bd 35 26 52 3d 73 ab b9 bd
       0.09662197 -0.07030231 0.05130597 -0.090659045
000390 7c 99 8a 3c 2d dd 30 bb e5 47 95 3d e0 dd c8 bd
       0.01691889 -0.00269873 0.072891034 -0.09807944
0003a0 03 63 ab 3d d9 69 c4 3d 85 6f 6e 3c 5a 9f b4 3d
       0.08368494 0.09590501 0.0145529555 0.088194564
0003b0 2f 79 a3 3d d4 a1 6a 3a 84 c6 4e 3d e9 dc 25 3b
       0.07982098 0.0008950506 0.050482288 0.0025308675
0003c0 8f 7a 9a 3c 55 8d ac bd 9a 14 1b bd 76 20 7a bd
       0.018857269 -0.084253944 -0.037861444 -0.061066113
0003d0 ee 81 87 bd 8e 6f 92 bd 3e 0a 58 bd 74 b1 d5 bb
       -0.06616579 -0.071501836 -0.052744143 -0.006521398
0003e0 b6 f3 c1 bc fc f4 29 3d 53 38 21 3d 73 38 0b bd
       -0.02367578 0.0414934 0.039360356 -0.03398938
0003f0 16 71 81 3d d9 01 a2 bd 0d c6 89 bd 34 8e b7 3d
       0.063203976 -0.07910509 -0.06727228 0.0896267

encoder.lob_enc.res_blocks.0.conv1.bias f4 [32]
000000 3c cf 31 be 0b 83 3d be 78 7e 31 be ab 21 83 be
       -0.1736421 -0.1850702 -0.173334 -0.25611624
000010 5d 32 8a be 19 3b 55 be 76 7b 7c be f8 58 eb bd
       -0.2699155 -0.20823325 -0.24656472 -0.11491579
000020 55 7f 64 be f6 0a 4d be b6 9c 29 be 5f 8f 17 be
       -0.22314198 -0.20023713 -0.16563687 -0.14800785
000030 c0 4b b9 bd 53 44 32 be 68 83 09 be 22 6d 1d be
       -0.09047651 -0.17408876 -0.13429034 -0.15373662
000040 3a 07 b9 bd 28 86 13 be c3 b2 0d be 67 f2 2c be
       -0.090345815 -0.14406645 -0.13837723 -0.16889344
000050 a2 8f 10 be 31 ce 3b be 92 a4 6a be 1e 31 55 be
       -0.14117292 -0.18340375 -0.22914341 -0.20819518
000060 01 67 c9 bd 52 75 2a be 79 09 9b bd c7 48 bd bd
       -0.098340996 -0.16646317 -0.07570166 -0.09242397
000070 54 e1 a7 bd 15 e0 26 be 57 c8 01 be 1d 0c 26 be
       -0.08197275 -0.16296418 -0.1267408 -0.16215558

encoder.lob_enc.res_blocks.0.bn1.weight f4 [32]
000000 3d fa 7d 3f 3c 72 7f 3f 83 72 80 3f e7 cc 7f 3f
       0.9920996 0.9978368 1.0034946 0.9992203
000010 f8 c3 7b 3f b2 08 81 3f 83 ec 7d 3f a8 8c 7f 3f
       0.983459 1.0080779 0.99189013 0.99824
000020 06 75 7e 3f 78 1b 7f 3f 2f 5b 7e 3f fa 32 80 3f
       0.99397314 0.9965129 0.99357885 1.0015557
000030 cf 81 80 3f b8 81 7f 3f d9 d8 7e 3f a5 f5 80 3f
       1.0039614 0.9980731 0.99549633 1.0074965
000040 fe 38 7e 3f a6 55 81 3f 7d 98 7e 3f 74 a8 7b 3f
       0.99305713 1.0104263 0.9945143 0.98303914
000050 02 d8 80 3f ae d0 7c 3f 0a 33 82 3f f3 8f 80 3f
       1.006592 0.9875592 1.0171826 1.004393
000060 1c f9 80 3f 6a 07 82 3f c6 7c 80 3f fd fb 81 3f
       1.0076022 1.0158513 1.0038078 1.0155026
000070 16 60 7e 3f d9 bb 80 3f db 9e 81 3f a1 e7 80 3f
       0.99365366 1.0057327 1.0126604 1.0070688

encoder.lob_enc.res_blocks.0.bn1.bias f4 [32]
000000 83 47 c6 3b 55 de 9d 3b ea df 05 ba d0 e6 6a 3a
       0.0060510053 0.004817764 -0.0005106913 0.00089607853
000010 5f 04 0c 3b 5d fb 27 3c 47 9b 04 3c a2 fb 3b 3c
       0.002136491 0.010252801 0.008093662 0.011473568
000020 90 5f 2c bb ec e2 d9 b9 d5 9d 1d bc fe 8d 18 3c
       -0.0026302077 -0.00041558535 -0.00962015 0.009311197
000030 ab b7 0e 3c cd 35 8d 3b 61 5b 88 3b 18 82 03 bb
       0.008710782 0.004309392 0.004161284 -0.0020066556
000040 99 dc c4 3a d2 84 dc 3b c3 c1 ca bb 53 b4 81 bc
       0.0015019357 0.0067297006 -0.006187649 -0.015833056
000050 ca 76 f9 3b 06 a9 91 3a a3 b8 6d 3c 89 be 3c 3c
       0.0076130377 0.0011112995 0.014509353 0.0115200365
000060 88 b9 f2 3b 12 73 eb 3b 50 08 63 3b e8 eb 9d 3c
       0.007407371 0.0071853483 0.0034642406 0.019277528
000070 30 c5 ab bb fc 7a 08 3c da 19 15 3c 0d ce e1 3a
       -0.0052420124 0.008330103 0.009100402 0.0017227546

encoder.lob_enc.res_blocks.0.bn1.running_mean f4 [32]
000000 0f 03 00 bf c9 64 30 3e 18 c9 04 bf a8 5d 13 bf
       -0.5000467 0.17225946 -0.51869345 -0.57564783
000010 6d df ba be f8 ce 02 bf 33 ad 5c be b0 c4 8c bc
       -0.36498585 -0.5109706 -0.21550445 -0.017183632
000020 da fa 7a be 36 08 ff bd 33 51 7b 3e 10 d4 ae 3e
       -0.24509755 -0.12452738 0.24542694 0.34146166
000030 12 a5 96 be ac 36 6a be ed aa de be fe a8 5d 3e
       -0.29422814 -0.22872418 -0.4348978 0.21646497
000040 c4 ac d7 bd 07 ae 18 be 88 3e 5f bd 1e 80 b2 be
       -0.10530999 -0.14910136 -0.054502994 -0.3486337
000050 c7 e1 60 be 84 aa 8e bd 96 61 ce be 52 a6 00 bf
       -0.21961127 -0.06966117 -0.40308827 -0.50253785
000060 b9 bf f9 bd 0a 5b 35 bf 5a fc 0d be 97 a1 a5 be
       -0.12194771 -0.7084204 -0.13865796 -0.32349846
000070 8b 71 df bd e2 bb 49 be c9 7c 96 be 95 49 ab 3d
       -0.109103285 -0.19700578 -0.2939208 0.08363644

encoder.lob_enc.res_blocks.0.bn1.running_var f4 [32]
000000 4c a4 6f 3d ee 70 f8 3e ee 65 a2 3d 25 64 93 3d
       0.058506295 0.4852366 0.07929598 0.071968354
000010 52 d5 4e 3d 53 7a 58 3d 56 ae 8b 3e 08 1b c4 3d
       0.050496407 0.052851032 0.27281445 0.09575468
000020 3c 33 07 3e bb 75 14 3e c1 a5 a3 3e 0f 31 db 3d
       0.13203138 0.14498036 0.31962398 0.107027166
000030 54 79 22 3e d2 0f 39 3d 10 bf 9c 3d 47 b6 87 3d
       0.15866596 0.045181103 0.0765363 0.066265635
000040 24 10 97 3e f1 e1 82 3e 75 e2 b6 3d 9e 9e ef 3d
       0.29504502 0.25563005 0.08929912 0.11700176
000050 9f e3 39 3d 69 3d 67 3e 89 9e bc 3d 48 59 09 3f
       0.045383092 0.2258202 0.09209926 0.5365186
000060 37 34 12 3e 04 89 00 3e f9 16 27 3e 6e 9f cb 3d
       0.14277731 0.12552267 0.16317357 0.09942518
000070 9a 93 04 3d d9 fc 96 3e a2 8f ac 3d 2d 2e 85 3d
       0.032367326 0.29489782 0.08425833 0.06502948

encoder.lob_enc.res_blocks.0.conv2.weight f4 [32, 32, 3, 1]
000000 76 0d 9f 3c fd 0e fa 3c db 6c 85 bd 98 11 a6 3d
       0.019415598 0.030524725 -0.06514903 0.081088245
000010 c3 39 de 3c 54 a1 0b bd 5b 7d a1 bd cb 46 80 bd
       0.027127152 -0.0340894 -0.07885238 -0.06263503
000020 44 34 90 bc 17 b2 7e 3c 22 b3 1b 3d cd b3 d0 3d
       -0.017603047 0.01554539 0.03801263 0.10190544
000030 9c 96 91 3d 5c 5c e2 bb c1 8f 8f bc 30 f4 a9 3d
       0.071088046 -0.0069079828 -0.017524602 0.08298528
000040 e5 ac cf ba f0 5d 5c 3c 10 11 d6 ba 5a e0 b6 3d
       -0.0015844373 0.013450131 -0.0016331989 0.089295104
000050 e9 6c 75 3d 01 af 02 3d 82 f1 b8 3c 5a bc bf bc
       0.059918318 0.031905178 0.022576097 -0.023405243
000060 e3 90 d7 3c fe aa a4 bd 17 ef 9a bd ec 8f f5 3c
       0.026314205 -0.08040427 -0.07565134 0.029975854
000070 83 63 b1 3c 8d 5a 84 bd 7b 12 08 3d 0e e1 0f 3d
       0.021653896 -0.06462584 0.03322075 0.03512674
000080 a9 e4 37 3d 1d d3 34 bd ba 54 6d bd c6 c3 45 bb
       0.0448958 -0.044146646 -0.05794213 -0.0030176505
000090 82 c5 51 bc 06 bc 62 bc d1 db a7 bd 13 bb a4 3d
       -0.012803437 -0.013838774 -0.081962235 0.08043494
0000a0 66 41 ba 3d 03 27 3f bd 0a a6 9d 3d 9a 4b b5 3c
       0.09094505 -0.046668064 0.07697685 0.022130776
0000b0 3b 42 ea 3c 59 32 e3 bb 8b 47 c0 3d ac 76 c0 bc
       0.028596034 -0.006933492 0.09388646 -0.023494087
0000c0 07 49 66 3c 62 31 39 bc 4c a1 ad 3a 60 86 36 bd
       0.014055497 -0.011303278 0.0013246923 -0.044561744
0000d0 ac 62 89 bd 5a 97 89 3d f8 a0 bc bd 78 bc 82 bd
       -0.06708273 0.06718321 -0.0921039 -0.06383604
0000e0 35 d8 ba 3d 4c de 48 bd 4d 9b 1c bc e3 65 c9 bd
       0.091232695 -0.049040124 -0.009558511 -0.098338865
0000f0 1f f9 eb bc 4d e6 34 bd 95 d1 17 3d d3 97 36 3d
       -0.028805314 -0.044164944 0.037065107 0.044578385
000100 d7 b1 ae 3d f1 46 23 bd 4a 7f c9 3d 80 ef 1f 3d
       0.08530014 -0.039862577 0.098387316 0.039046764
000110 d9 86 b7 bd a9 02 ae bd 07 e3 41 bc 8d b5 b9 3d
       -0.08961267 -0.08496601 -0.011833913 0.09067831
000120 82 93 34 3b 8a b7 7c bd 85 c0 72 3d 50 15 d8 bd
       0.0027553742 -0.061698474 0.059265632 -0.1055094
000130 29 13 96 3d 45 0e 33 bc a8 60 13 3c e4 a3 0b bd
       0.07327873 -0.010928695 0.008995213 -0.034091845
000140 ac c1 89 3c bc 5e 92 ba f1 25 9c 3d 52 a6 b3 3d
       0.016815983 -0.0011167149 0.07624424 0.087719575
000150 ef a8 2c 3d 06 26 75 bc ff ff 90 bb ef f3 80 bd
       0.042153295 -0.014962679 -0.0044250484 -0.06296527
000160 80 a5 81 3d 48 58 b9 bc f1 db c8 bd 94 42 fc bc
       0.06330395 -0.022625104 -0.098075755 -0.030793466
000170 df 13 97 bd 0b c8 a5 bd 62 d0 97 3c 6b ad 1c 3c
       -0.07376837 -0.08094796 0.018531982 0.00956283
000180 4c 7d 50 bd e3 03 8d bd 65 b1 26 3d 49 07 be 3c
       -0.050900742 -0.06885507 0.04069652 0.023196833
000190 dd 1d 91 3d 4a 98 65 3d 7e c2 47 bd 13 60 87 3d
       0.07085774 0.056053437 -0.048769467 0.066101216
0001a0 c2 ca 9b bd 29 cd a8 bd be 90 4b 3d 3a fd c8 3d
       -0.07607032 -0.08242256 0.049698584 0.09813924
0001b0 84 8e 57 3d 39 1a 37 3b 5f 63 30 bd 95 ec dc 3d
       0.052626148 0.0027939214 -0.043063518 0.10787312
0001c0 45 24 73 bd 85 79 c7 3d 19 c0 8c bd 05 3b cd bd
       -0.05936076 0.09739975 -0.06872577 -0.10021023
0001d0 a7 7c bb bb d9 50 04 3d 17 c4 aa bd 4f fd f2 bc
       -0.005721647 0.032303665 -0.083381824 -0.029661803
0001e0 35 de 11 bb 58 7d 08 bc 73 6c 46 bd 5b d1 bf 3d
       -0.002225769 -0.0083306655 -0.04844327 0.09366103
0001f0 93 48 94 bd f6 47 8a 3d 7d 8f 04 3d 1a ba 25 bd
       -0.07240405 0.06752007 0.032363404 -0.040460683
000200 91 3f 3e 3d de be a2 bd 91 5d 83 bd 20 8f 7a 3d
       0.04644734 -0.07946561 -0.06414331 0.06117165
000210 a3 cb 3a bd c9 b0 70 3d 53 c8 b2 bd 17 2a 87 3c
       -0.04560436 0.058762345 -0.08729615 0.016499562
000220 89 de b7 bd 3e cf 52 3d df 84 d2 3d 6f 8a 8d 3d
       -0.08977992 0.051467173 0.102792494 0.0691117
000230 0e 69 19 3d 09 4b 84 3d 92 0b b9 3d 1b 89 68 3d
       0.037453704 0.06459624 0.0903541 0.05677138
000240 a6 0f 3a 3d 17 77 0a 3d 3b 9a d4 3c 26 f5 72 3d
       0.04542508 0.03380498 0.025952449 0.059315823
000250 f4 67 98 3d 82 2e 16 bd d2 88 30 3c 72 48 31 3d
       0.074417025 -0.036665447 0.010774808 0.04328198
000260 eb 22 af bd ba 7e 91 bd 85 6b bb bc 96 bd 9f 3c
       -0.08551582 -0.07104249 -0.022878418 0.019499581
000270 4e c4 87 3d b4 c4 65 3d 8d c2 66 3d b7 69 b0 bc
       0.06629239 0.056095794 0.05633788 -0.021534784
000280 d2 c0 c6 bc 5f 43 c7 bd e9 33 41 3c 28 af dd bc
       -0.024261866 -0.09729647 0.0117921615 -0.02706106
000290 cd 69 9a bd cd 17 29 3d b1 a0 62 3d ad 72 d1 3c
       -0.07539711 0.041282464 0.05532903 0.025567377
0002a0 ab f5 9a bd 5e 86 f3 bc 51 3c c3 bd ef 44 d0 bb
       -0.07566389 -0.029727157 -0.09532989 -0.006355874
0002b0 0e f4 91 3d 94 30 c6 3d 26 68 b9 bd ac 4c c5 bc
       0.07126628 0.09677234 -0.09053068 -0.024084412
0002c0 a3 88 67 bd f5 e4 9d 3d 96 5d d7 3d b4 13 aa bd
       -0.05652679 0.07709686 0.10515897 -0.08304539
0002d0 bd 72 17 bd 1b 23 83 3c 8b 9c ae bd f6 73 d9 bd
       -0.036974657 0.01600795 -0.08525952 -0.10617821
0002e0 d7 38 91 bd 0a 72 8f 3d 5a 79 5d 3c 4c c3 48 bd
       -0.070909195 0.07004173 0.013517702 -0.049014375
0002f0 c6 71 9f bc 46 42 bb 3d 9a 1f c5 bd 3a 3a 20 3d
       -0.019463431 0.091435 -0.09625168 0.03911803
000300 76 2d 58 bc 62 26 dc bd f2 f3 9c 3d e8 e6 71 bd
       -0.0131944325 -0.107495084 0.076637164 -0.0590581
000310 da 6c 90 3d f8 8e 70 bb f0 f5 92 3c f3 af 9e bc
       0.07052012 -0.003670631 0.017939538 -0.019371009
000320 a9 14 b9 bd f1 2a 36 3d 64 a0 29 bd 61 f9 f7 3c
       -0.09037144 0.044474546 -0.041412726 0.03027028
000330 0c 4e b2 3d e7 da 20 bd 31 72 c4 3a f2 50 f3 3c
       0.087062925 -0.03927126 0.0014987645 0.029701684
000340 f3 b7 25 bd 00 05 16 3d 98 e6 5e bd 7d 09 8e 3d
       -0.04045863 0.036625862 -0.05441913 0.069354035
000350 b2 89 ee bc c0 49 80 bc d7 cb 2b bd 0d b1 64 ba
       -0.029118393 -0.015660167 -0.041942444 -0.00087238924
000360 2f 1b 73 3d 8c 28 f0 3b e0 90 45 bd 96 c1 c6 3d
       0.059352096 0.0073290523 -0.048233867 0.09704892
000370 82 af bd 3d b1 e2 1d bd 11 8a 89 bd 2c 62 a8 bd
       0.09261991 -0.038546268 -0.06715787 -0.0822185
000380 ed 2e e4 3b 76 af cf 3d 54 09 1b 3d 4d 64 39 3d
       0.006963602 0.101408884 0.037850693 0.04526167
000390 f7 83 d9 bd 3a 12 f4 3c d5 89 21 3d 73 df f2 bc
       -0.106208734 0.029793847 0.039438087 -0.029647565
0003a0 84 cc 8d bd 90 d9 bc bc a5 03 bb bd 0c cb b3 3d
       -0.06923774 -0.02305296 -0.091315545 0.087789625
0003b0 8c 8e 89 bd 19 8c ce 3d 4e 38 bd bd 9c 30 9d 3d
       -0.06716642 0.10085315 -0.09239255 0.07675287
0003c0 2a 65 55 bd 23 5f b6 bd a2 a0 91 3c bb 16 d3 3d
       -0.05209843 -0.08904865 0.017776791 0.1030707
0003d0 6e bc 24 bd 8b 59 c0 3c 2c 38 96 bd 53 10 6d 3d
       -0.040218763 0.023480197 -0.07334933 0.057876896
0003e0 7c 1c a6 3d 76 10 30 bd e6 9c ac 3d 1f 20 26 3d
       0.08110902 -0.04298445 0.084283635 0.040557977
0003f0 5b 54 a4 3b e2 ef 57 bd 6d 51 6f 3d 57 44 f3 bb
       0.005014939 -0.052719004 0.058427263 -0.007423918

encoder.lob_enc.res_blocks.0.conv2.bias f4 [32]
000000 b3 20 0e be e3 0b 31 be 02 45 30 be a3 6e 1c be
       -0.13879661 -0.1728969 -0.17213824 -0.1527658
000010 19 2d 26 be 7f f4 4f be d9 c6 3d be 68 46 4b be
       -0.16228141 -0.20308112 -0.18532886 -0.19851077
000020 33 e2 3a be 63 43 7f be 37 f8 60 be f9 49 2b be
       -0.1825035 -0.2492805 -0.21969686 -0.16727437
000030 db 0d 52 be c0 e6 0d be 49 18 0b be eb 44 04 be
       -0.20513098 -0.13857555 -0.13583483 -0.12916915
000040 70 a6 6a be c6 96 2f be 68 e5 62 be cd 20 f4 bd
       -0.22915053 -0.17147359 -0.22157824 -0.11920319
000050 2b 92 b3 bd 72 79 93 bd 31 80 4a be fa 3d c2 bd
       -0.08768114 -0.07200898 -0.19775464 -0.09484477
000060 27 b3 2d be ee f4 31 be ed a4 d6 bd 82 35 79 be
       -0.16962872 -0.1737859 -0.10480676 -0.24336818
000070 48 7a 83 be 69 da b4 bd c6 a4 12 be 38 e8 ce bd
       -0.2567923 -0.08830721 -0.14320669 -0.10102886

encoder.lob_enc.res_blocks.0.bn2.weight f4 [32]
000000 9f 34 7e 3f 96 bd 80 3f 57 01 81 3f 73 e2 7d 3f
       0.99299043 1.0057857 1.0078534 0.9917366
000010 65 e3 80 3f ef 08 80 3f 48 fe 80 3f e3 c6 80 3f
       1.0069395 1.0002726 1.00776 1.0060695
000020 91 7c 80 3f f3 d2 80 3f 34 3c 80 3f 66 f4 7f 3f
       1.0038015 1.0064377 1.0018373 0.999823
000030 db b7 80 3f e1 f9 80 3f 5c 29 7f 3f e3 2d 81 3f
       1.0056108 1.0076257 0.99672484 1.0092129
000040 11 4a 80 3f 7d fd 7e 3f 47 ce 80 3f 6e 65 80 3f
       1.0022603 0.9960554 1.0062951 1.0030954
000050 d9 48 80 3f c3 ad 80 3f 64 ce 7f 3f a2 82 81 3f
       1.0022231 1.0053028 0.999243 1.0117991
000060 94 ce 80 3f 8c 34 80 3f 10 45 81 3f 7d 27 81 3f
       1.0063043 1.0016036 1.0099201 1.0090176
000070 81 d4 80 3f 82 45 7e 3f d9 34 81 3f 48 19 81 3f
       1.0064851 0.9932481 1.0094253 1.008584

encoder.lob_enc.res_blocks.0.bn2.bias f4 [32]
000000 b2 b5 ad 3b c0 b8 de 37 d3 7c 0e 3c a7 71 84 bb
       0.005301201 2.6550493e-05 0.008696753 -0.0040418687
000010 21 22 f7 3b e9 34 86 3b eb 89 0a 3c b9 06 15 3c
       0.0075419103 0.004095663 0.008455734 0.009095841
000020 12 7b 03 3c 4b ed 01 3c c7 19 b9 bb 46 24 0a 3b
       0.008024948 0.00793011 -0.005648825 0.002107875
000030 08 b3 75 3b bc 43 90 3b d8 e6 0b bc 78 99 18 3c
       0.0037490744 0.004402606 -0.008538924 0.009313934
000040 ba 36 14 3b 6a 48 37 bb 30 24 0d 3c 2c 32 21 b9
       0.0022615627 -0.0027966746 0.008614585 -0.00015372847
000050 2f 1d c6 b9 38 53 e2 3b cb bd 20 bb d6 3e dc 3b
       -0.00037787246 0.006906893 -0.0024527188 0.006721358
000060 93 08 fd 3b 6c a4 78 3b 58 87 c7 3b 63 a7 11 3c
       0.0077219694 0.00379398 0.0060891323 0.008890006
000070 7e 58 d9 3b b6 7f ed bb 77 88 34 3c 45 76 21 3c
       0.0066328635 -0.0072478903 0.011018864 0.009854858

encoder.lob_enc.res_blocks.0.bn2.running_mean f4 [32]
000000 94 18 ce bd 18 a1 fb bd c4 9a d8 bd 16 6d 8f bd
       -0.10063282 -0.122865856 -0.10576394 -0.07003228
000010 29 a5 81 be fa 87 74 3c f2 72 02 bf d2 5e bb 3c
       -0.2532132 0.014924997 -0.5095664 0.022872362
000020 c4 fd 46 bd 0e 0c 77 bd 54 11 c9 be 8a 74 78 be
       -0.048581854 -0.06031423 -0.39271033 -0.24263206
000030 e7 d6 9a bd 0e 35 a7 be 0c 8c 19 3e 86 bd 9a be
       -0.075605206 -0.32657665 0.1499483 -0.3022272
000040 bb 9d a5 be 9a 29 08 3d bd ac c0 be 2b e1 92 be
       -0.323469 0.0332428 -0.3763179 -0.28687415
000050 2b dc cd be ed 15 6e 3d da 96 51 bd ec bd 64 be
       -0.40207037 0.05812638 -0.051169254 -0.22338074
000060 76 cc 10 bf a0 37 95 be 17 7d 99 3c 96 2f b1 bd
       -0.5656198 -0.29144 0.018736405 -0.086516544
000070 54 7c a3 be 6c 78 0d bc ce 93 19 be fc aa cf bd
       -0.31930792 -0.008634668 -0.1499779 -0.101400346

encoder.lob_enc.res_blocks.0.bn2.running_var f4 [32]
000000 0d 3b 34 3d d8 d4 41 3d 6f 1b 1b 3e 7c 6d d8 3d
       0.044001628 0.047322124 0.15147184 0.105677575
000010 ab c1 85 3d f0 7a 9d 3d 25 18 34 3e 03 54 56 3e
       0.0653108 0.07689464 0.17587335 0.20930485
000020 25 c7 16 3e a1 44 b0 3d 85 72 d3 3d 8c 10 46 3d
       0.14724405 0.0860684 0.10324577 0.048355624
000030 ed c9 9b 3d fe 66 97 3d ba 0d 74 3d 8b d8 6e 3e
       0.07606874 0.07392691 0.059583403 0.23324792
000040 48 57 78 3d 3d 74 f0 3d 00 a5 ed 3d f3 c0 07 3e
       0.060630113 0.11740921 0.11603737 0.13257198
000050 c2 5b 8e 3e af ef 3f 3e 48 13 98 3e 95 ad f5 3d
       0.2780438 0.18743776 0.2970221 0.11995999
000060 dd 6a 90 3d 3b 40 c0 3d d1 b3 84 3d 08 7f 38 3e
       0.070516326 0.09387251 0.0647961 0.18017209
000070 fb e0 e7 3d aa 7b ad 3e 2a 9a 6c 3d bd f3 10 3e
       0.113222085 0.3388341 0.05776421 0.14155479

encoder.lob_enc.res_blocks.1.conv1.weight f4 [32, 32, 3, 1]
000000 5a e2 b5 bd cf b5 0a 3c fa 0e 43 3d 19 cb 38 bd
       -0.08881064 0.008466198 0.047621705 -0.045115564
000010 6d ac b3 bd 77 94 4b 3d 57 b3 a4 3c fd 4c 35 3d
       -0.08773122 0.049702134 0.020105047 0.044262875
000020 04 8f b4 3d 3a 8e d7 bd ac 24 72 3d 36 5d 57 bd
       0.088163406 -0.105251744 0.059117004 -0.052579127
000030 00 ac 21 3d 98 61 81 3d 9c 2b 9f 3d 1f d7 eb 3c
       0.039470673 0.06317443 0.0777199 0.028789101
000040 bb 3e de 3b 4e 24 b5 bb c8 46 42 bd f2 f9 27 3d
       0.0067823804 -0.0055280095 -0.047430784 0.04100985
000050 1a 65 8e 3d ee c1 3c bb 55 6a bd bd 9b 8b 12 bd
       0.06952877 -0.0028802115 -0.09248797 -0.03577767
000060 df 95 21 bd af 6a 2b 3d 18 a3 b3 bd 9e 0e 49 bd
       -0.03944957 0.04184979 -0.08771342 -0.049086206
000070 1d cd 96 bd 5b 64 c0 bd 11 7a 03 bd 59 23 96 3d
       -0.07363341 -0.09394141 -0.032098833 0.07330961
000080 31 c9 5e 3d 73 61 b1 3d 4c 48 53 3c 51 30 87 3d
       0.05439109 0.08661165 0.012895655 0.066010125
000090 37 77 2a 3d f8 b7 8c 3d 52 77 83 bc bb 63 c0 3d
       0.0416176 0.06871027 -0.016048107 0.09394022
0000a0 f0 ec aa bc a8 f6 f3 bc 0c 0c 2b 3d dd 1e 14 3d
       -0.020864934 -0.0297807 0.041759536 0.036162246
0000b0 4e 00 78 bd 91 e7 24 bd b7 71 ca bd 49 99 a5 3d
       -0.060547166 -0.0402599 -0.09884971 0.080858774
0000c0 fb 72 d6 3c de 43 a9 3d ec 5a ad bd 8d 86 ad 3d
       0.026177874 0.08264898 -0.084646076 0.08472929
0000d0 98 b4 c0 3d 28 7a 99 3d 8e 1e 83 bd bc 89 d5 3d
       0.094094455 0.074940026 -0.06402312 0.10426661
0000e0 bd a0 a6 bd ff b1 a5 bd ce bd 29 bd e1 49 ba 3d
       -0.08136127 -0.08090591 -0.041440777 0.090961225
0000f0 b0 cc ac bc 05 ff 13 3d 72 5f 3d bc 62 a8 06 3d
       -0.021093696 0.036131877 -0.0115584005 0.032875426
000100 7d 0c 7d 3c 92 20 63 3d 47 98 38 3d c1 ea 87 3d
       0.015444872 0.055450983 0.045067098 0.06636573
000110 76 6f a7 3d 08 f9 c1 3c 65 21 59 3d 1e f6 a9 3d
       0.08175556 0.023678318 0.053010363 0.08298896
000120 86 3a 5d 3d f8 9e bf bc 57 ff a2 3d d4 98 81 3c
       0.05401089 -0.023391232 0.079588585 0.015819944
000130 20 63 80 3d 86 f3 f6 bc 98 e1 c5 bd 8d b6 8e bd
       0.062689066 -0.030145418 -0.09662169 -0.069684125
000140 13 11 32 bc 51 c1 92 bd 25 da 56 bd a1 41 28 3d
       -0.010868329 -0.071657784 -0.052454133 0.041078214
000150 91 98 e4 3c 8b 89 22 bd 01 6a 79 bc d9 d5 db bd
       0.02790478 -0.039681952 -0.015223027 -0.107341476
000160 51 8d 76 bc 1a 69 5e bb 9e 33 8a bd 25 4a 95 3d
       -0.015048341 -0.0033937157 -0.067481264 0.072895326
000170 56 be 4f bd a1 cd 9a 3c 0b 9e 59 bd 8f 11 36 3d
       -0.050718628 0.01889688 -0.053129237 0.04445034
000180 d2 cc b7 bd 26 09 af bb a2 10 0a 3d d6 59 9b 3d
       -0.08974613 -0.0053416668 0.03370727 0.07585494
000190 6f 0a 44 3b 85 d0 27 3c 35 b3 a4 3c 5f e3 1f bd
       0.0029913445 0.010242586 0.020104984 -0.039035197
0001a0 57 4d df 3c 3c a8 b8 bd fb 18 24 bd ad 99 08 b9
       0.027258558 -0.09016463 -0.040062886 -0.0001302722
0001b0 7e 0e 0a bd 79 13 35 3d 68 53 84 bd 3b 5b 16 3d
       -0.033705227 0.044208024 -0.06461221 0.036708098
0001c0 fb 1b 75 bd 97 99 a8 bd 56 55 d8 3a 66 57 03 3b
       -0.059841137 -0.0823242 0.0016504924 0.0020041107
0001d0 e3 ef 33 bd 77 ab dc 3d fe c9 f9 bc 02 5b 2c bc
       -0.043929946 0.10774892 -0.030491825 -0.010519745
0001e0 df f4 93 3b 2c 3a 2e bd 4c 5d fd 3c eb a2 be 3d
       0.004515275 -0.042535946 0.030928276 0.09308418
0001f0 71 01 38 ba d5 fc 2c bd 9f e1 75 3d 1f a2 21 3c
       -0.0007019258 -0.042233307 0.060029622 0.009865313
000200 c0 ce 55 3d 1a 20 69 bc 30 af 98 bd b7 09 91 bd
       0.052199125 -0.014228845 -0.07455289 -0.07081931
000210 43 6a 00 bd 5b c2 a8 bd b2 f7 a7 bd 06 10 5d 3d
       -0.03135134 -0.08240195 -0.08201541 0.05397036
000220 f0 b4 44 bc f7 2c eb bb 0d 3a b8 bd e1 42 60 3d
       -0.0120060295 -0.007176991 -0.08995447 0.05475128
000230 93 53 96 3d 4c de 83 3d f6 d9 80 bd b1 eb 09 3c
       0.07340159 0.06438884 -0.06291573 0.00841801
000240 00 20 37 bd 55 e6 4f 3d b3 d9 6f 3d 71 53 76 bd
       -0.044708252 0.05075677 0.058557224 -0.06013817
000250 ca 88 ae bd ed 54 92 bd c7 5b 28 3d 77 22 cf 3c
       -0.08522184 -0.071451046 0.04110315 0.025284989
000260 81 a6 87 3d 08 f1 49 bc c2 dd af 3d b0 cf c1 3d
       0.06623555 -0.012325533 0.08587219 0.09463441
000270 6a 5c ab bd 09 41 f0 bc c3 09 2e 3c 48 a9 93 3d
       -0.08367236 -0.029327886 0.010622445 0.07210022
000280 1c 98 ce bd c3 27 1f 3d a6 b1 9b 3b 99 60 a5 3d
       -0.10087606 0.03885628 0.004751402 0.08075065
000290 b8 2b c6 bd f3 0e 73 3d b4 8b 51 3d 6f 2c 18 bc
       -0.096763074 0.05934043 0.051158622 -0.009287938
0002a0 b3 69 14 bd 6a ee 4b 3d 6c d0 f9 bc a9 5c 9d bc
       -0.036233615 0.049787916 -0.030494891 -0.019209223
0002b0 c3 ac 83 bd 88 20 ce 3d bc d3 8a 3d 2b b6 c6 3c
       -0.06429436 0.100647986 0.067786664 0.024256786
0002c0 ca bd ac 3b 1d 5f 94 bd 8f 11 9d 3d 37 0f 22 3d
       0.005271648 -0.07244704 0.07669365 0.03956529
0002d0 3a 4b 08 3d e6 50 30 3d 68 a0 a1 bd 86 54 b1 bc
       0.033274867 0.0430459 -0.07891923 -0.02164675
0002e0 6b 93 a7 3d 71 10 df bc f8 c2 b1 3d a5 b9 6a bd
       0.081824146 -0.02722952 0.086797655 -0.05730595
0002f0 44 4d 96 3d a2 ba d0 3d 3e f7 bb bd 5f 3a 89 3d
       0.07338956 0.101918474 -0.09178017 0.067005865
000300 a2 8c 64 3c e0 8b 35 3d 13 77 2b bd 40 bb ac 3d
       0.013949545 0.04432285 -0.041861605 0.084341526
000310 30 b5 fb 3c 86 7b 83 bd bf 24 ce 3d d6 61 b3 3b
       0.030726045 -0.064200446 0.100656025 0.0054743094
000320 1b b2 23 bc 9b 0f e6 3c 7a 6c 8d 3c a1 a4 b9 bd
       -0.009991194 0.028083613 0.01726364 -0.090646036
000330 a2 db b2 3d 22 79 94 bc aa 36 bf 3c a9 0c d9 bc
       0.08733298 -0.018124167 0.023341496 -0.026495295
000340 fc 26 cb bd 8d a8 bf bd c5 36 1f bd e7 34 0d bd
       -0.09919545 -0.093583204 -0.03887059 -0.03447428
000350 99 e9 9f 3d ec 53 86 3c 54 75 df 3d ff 54 b4 3d
       0.07808227 0.016397439 0.109110504 0.08805274
000360 ef f2 3a 3c 56 41 0f bd 88 2a 7e 3b 5b 61 21 bd
       0.011410459 -0.03497442 0.0038782675 -0.039399486
000370 61 7b c9 bd a9 56 d4 3c 73 a0 19 3d d3 ff 10 bd
       -0.09837986 0.025920229 0.037506532 -0.035400223
000380 4b 9a a0 3d d7 99 70 bc a5 00 e5 bc 61 d8 36 bd
       0.07841929 -0.014685116 -0.027954409 -0.04463995
000390 76 55 c2 3d 30 c9 68 3d 42 9f 89 bd 89 cc 9c bd
       0.09488957 0.056832492 -0.06719829 -0.076561995
0003a0 02 f2 a6 bd 91 85 b5 3d ec cb b0 3d 22 7e 64 3d
       -0.08151628 0.088633664 0.08632645 0.055784352
0003b0 f3 cd 50 3d 18 0b 8c bd 8d 6f 91 3d 90 3c 20 bc
       0.05097766 -0.068380535 0.07101355 -0.009780064
0003c0 d2 96 9c bb 01 b7 f1 3b 80 97 f2 bc e5 a9 c4 3d
       -0.0047787214 0.007376552 -0.029613256 0.09602717
0003d0 ff 6f 6b 3c 34 07 94 3d f0 76 8f bd 91 c7 c1 bd
       0.014369964 0.072279364 -0.070051074 -0.094618924
0003e0 2a fc 0c bd 07 b9 ea 3c c5 a8 8c bd 8b da 4e bd
       -0.03442017 0.028652681 -0.06868128 -0.050501388
0003f0 29 84 ec 3c 8e 4f b8 3d 44 94 aa 3d f8 48 b3 3d
       0.028871613 0.08999549 0.08329061 0.08754152

encoder.lob_enc.res_blocks.1.conv1.bias f4 [32]
000000 a2 83 1c be 41 ee f6 bd 3f 8f a6 bd 34 8b 0e be
       -0.15284589 -0.12057162 -0.08132791 -0.1392029
000010 ae f2 a4 bd 44 0e 02 be 79 69 68 be 33 3a 36 be
       -0.080541 -0.12700754 -0.22696485 -0.17795639
000020 a6 8f 5d be 93 83 c9 bd 0c 40 23 be d5 dc 7e be
       -0.21636829 -0.09839549 -0.159424 -0.24888928
000030 51 d3 84 bd 26 c9 e8 bd 1a 34 30 be b3 e7 89 be
       -0.06485618 -0.11366491 -0.17207375 -0.26934585
000040 d1 04 5a be 5b dd 92 be d6 a3 7b be 96 d0 68 bd
       -0.212909 -0.28684506 -0.24574217 -0.056839548
000050 cd 08 3c be 95 9a 96 bd 04 05 02 be 39 b3 b8 bd
       -0.18362732 -0.07353703 -0.12697226 -0.09018559
000060 c1 70 f9 bd c6 64 75 be f8 69 bd bd 1b f6 8c be
       -0.12179709 -0.23964223 -0.092487276 -0.27531514
000070 e4 ad 0c be ac 8a 1a be a3 d4 e9 bd 2c 87 85 be
       -0.13738209 -0.15091962 -0.1141751 -0.2607969

encoder.lob_enc.res_blocks.1.bn1.weight f4 [32]
000000 2c 32 7f 3f db 60 81 3f a3 33 80 3f 50 3d 81 3f
       0.9968593 1.0107683 1.0015758 1.0096836
000010 80 05 80 3f 98 19 7c 3f cf 23 80 3f 13 46 7d 3f
       1.0001678 0.9847655 1.0010928 0.9893505
000020 50 c4 7d 3f 08 ed 7b 3f 83 09 82 3f d8 74 81 3f
       0.99127674 0.98408556 1.0159153 1.0113783
000030 75 98 7e 3f 3e f6 82 3f 1a 0d 80 3f 14 ae 7e 3f
       0.9945138 1.0231397 1.0003998 0.9948437
000040 43 67 80 3f 6b 2c 80 3f 34 4c 81 3f d7 d7 80 3f
       1.0031513 1.0013555 1.010138 1.0065869
000050 8d ff 7e 3f ac 72 7f 3f d0 05 80 3f e1 c5 7e 3f
       0.9960869 0.9978435 1.0001774 0.9952069
000060 07 7f 80 3f 05 be 7f 3f 24 5f 7e 3f 5f 13 80 3f
       1.0038766 0.9989932 0.99363923 1.0005912
000070 ef 7e 7c 3f 43 58 7d 3f f1 51 7e 3f 6b 08 82 3f
       0.98631185 0.989628 0.9934378 1.0158819

encoder.lob_enc.res_blocks.1.bn1.bias f4 [32]
000000 dc 2d 7a 3a 17 f9 9d bb 30 25 7a bc a6 8b c4 ba
       0.0009543577 -0.0048209536 -0.015267655 -0.0014995232
000010 83 2c 99 3b 68 d9 a5 bc 63 b5 21 bc b0 01 83 bb
       0.0046744957 -0.020245269 -0.009869906 -0.003998004
000020 19 2e 22 3b 8e 20 47 bc 8a 0b 16 3c ef 65 89 3b
       0.0024746715 -0.012153758 0.009158025 0.0041930596
000030 8a 52 b6 3b 5e 97 9e 3c 3f c1 02 bb 84 dc 3d bc
       0.0055640386 0.019359287 -0.001995161 -0.01158822
000040 a8 54 06 3b cc ac d6 bb 9e 8b f1 3a bd 04 c3 3c
       0.0020497236 -0.0065513607 0.001842845 0.02380597
000050 1b ec 68 3b 07 6d 08 3c 94 0a a6 3b aa 84 a5 bb
       0.003554112 0.008326775 0.005067179 -0.005051215
000060 b5 ea 88 3b f5 0f c2 bb b0 7b 09 3c 6c a4 80 bb
       0.00417837 -0.0059223124 0.008391306 -0.0039258506
000070 79 9a 80 bc 31 3e 86 bb 88 fa 36 bc 6c da ae 3b
       -0.015698658 -0.0040967693 -0.01116813 0.0053360965

encoder.lob_enc.res_blocks.1.bn1.running_mean f4 [32]
000000 71 be 84 3b 09 5c 20 bd 6d d6 98 3d 07 15 4f bf
       0.0040510227 -0.03915027 0.074627735 -0.8089146
000010 9f 7e 12 bf 59 e2 bc be cd 51 fc be d7 74 ec 3e
       -0.5722446 -0.3689144 -0.4928116 0.46182892
000020 c6 fc 4a be fb 1e 03 bf 51 2b 0c bf 0b e5 7c bf
       -0.19822988 -0.5121915 -0.54753596 -0.9878699
000030 8f c8 5e bf fd 42 4e bf 32 72 2a 3f 03 7a 1b bf
       -0.8702478 -0.80570966 0.665805 -0.6073305
000040 cc ea 65 bf 92 f1 1a bf aa f9 93 bf e8 22 30 bf
       -0.89811397 -0.6052486 -1.1560566 -0.6880326
000050 20 bc ca be cd 1c c9 be d0 0a ad be 47 cd 92 3e
       -0.39596653 -0.39279786 -0.33797312 0.2867224
000060 fc c8 2c bf fe b4 c0 be e9 77 27 3d 40 75 ef be
       -0.6749418 -0.37638086 0.04088584 -0.46769142
000070 9e 2b a0 be 8a 0f c3 be c7 06 39 be 16 08 dd be
       -0.31283277 -0.38097793 -0.18068992 -0.43170232

encoder.lob_enc.res_blocks.1.bn1.running_var f4 [32]
000000 af c2 3e 3e 49 16 20 3e 43 a5 4f 3e 70 36 2d 3e
       0.18628953 0.15633501 0.20277886 0.16915298
000010 1e 2c 3c 3f 16 0f 90 3e a5 3e ad 3d 78 62 67 3e
       0.7350482 0.2813651 0.08459214 0.22596157
000020 39 38 ca 3e b1 60 9d 3e e4 61 1b 3e 5a 05 1e 3e
       0.3949602 0.30737832 0.15174061 0.15431729
000030 92 08 32 3e 9a 8b 0f 3e 4c bd b5 3e 46 1e aa 3d
       0.17386082 0.14018098 0.35495985 0.083065554
000040 ec 81 78 3e 46 af 0e 3e 97 15 63 3e 0b b9 8b 3e
       0.24268311 0.13934049 0.22176205 0.27289614
000050 fb 15 48 3e ff b8 f6 3e c3 f7 40 3e c7 42 15 3f
       0.19539635 0.48188016 0.18844514 0.5830502
000060 4d 22 8d 3e 49 68 ce 3e 93 79 b2 3e e9 97 00 3e
       0.27565232 0.40313938 0.3485838 0.12557949
000070 63 19 a5 3e 70 71 88 3e 46 6c 94 3e 51 38 fe 3d
       0.3224593 0.26649046 0.28988856 0.12413085
