outputs/performance_test/checkpoint_epoch_10.pt (torch, 945914 bytes, 81 tensors)

encoder.lob_enc.conv_in.0.weight f4 [32, 2, 3, 1]
00000000: 1504 f0bd 80ea 9a3e b944 80be a38d a1bd
00000010: ce3a 75bc 0f09 5ebe d4f4 2f3c 685b c6bd
00000020: a60c 4fbe 950f a8be 1a07 0fbc 2f9a be3e
00000030: 9b94 1b3e a0b8 a2be 65ef 59be fd27 863e
00000040: 0c1c 24be 5944 35bd 8d7b 4cbe 8e09 4e3e
00000050: 642a 8fbe 5e98 c7be 7cff 9dbe fba8 aebe
00000060: 40fe 4b3d f0e5 943d 2a8d ffbd 544d 1f3e
00000070: 0527 3f3d 3ac3 d03d ac6f 593e fb93 b73d
00000080: 1fcf cc3e f7dd a03e 758f 60be 6802 963e
00000090: db6d 3fbd 6eee cfbc 957d 0b3d 7893 b8be
000000a0: f67e 873e e7d4 863e 878b c53e 6022 853d
000000b0: 392a f7bd 6ecf 8ebd 1c31 13be 375c c2be
000000c0: cd4e 0e3e f178 683d 913b 04be 407c 76be
000000d0: 4970 bfbd 3ed4 df3d c4b5 a03e 63eb 3c3e
000000e0: 438e 983e df47 a73e 60f2 46be 485a 9fbc
000000f0: e2b0 abbe 1825 67be f632 2c3e 5bab 213e
00000100: 9d14 413e aaa4 b73e 0cf0 233e 1d2a 53be
00000110: d395 b9bd de24 c53c 32b9 4e3e 0b16 5dbe
00000120: 76a7 24be a7f3 1e3e a739 193e 098d c83e
00000130: d084 b33e da80 3bbe 6325 1b3e 0e51 76be
00000140: 8567 33bc 8a06 c0bc fd44 d13d 3e9b bc3e
00000150: 25d6 a9be 3df5 b93e 2875 8b3e 6c12 57be
00000160: 6ed6 fabd 3ec7 d0bd 1de5 7f3e 552e dbbd
00000170: dcd6 183e 8cfa 26be a61a ab3e 9028 56bd
00000180: 2824 ca3e 2a4c 98be 3802 f5bd 37d8 883e
00000190: 7941 103e 03c3 4fbe 4433 b0be 71c1 a0be
000001a0: 82c6 a8be d604 78be e3e4 7ebe 0edd f3bd
000001b0: 089b b13e b8d4 e9bd 0c11 85be f667 463e
000001c0: 2754 7cbe e027 58be cdfa 7cbd f3a1 23bd
000001d0: c886 85be bc4b a3be e0bc d0be 733c 30be
000001e0: a57a 473e 426b d93c 0075 a33e 3c86 7b3d
000001f0: 12e1 a1be 44b7 da3c bfdf debd 691e 683e
00000200: 0f93 d43d 1491 cd3e 9a83 bcbe 6970 4ebe
00000210: b0cc b4be 6eb3 ee3c 45c1 88be f08d 35be
00000220: 472f c43e 2d7f 13be 36fd 453e 8e20 893e
00000230: d20d 9a3e b0cf a63e 946d 853e 8499 353d
00000240: f377 b53e 20ff c83e e449 8bbe b8e5 c23d
00000250: a4f7 943e 3373 88be 77f5 383e cbd3 883e
00000260: 7af5 e8b7 8be6 d7bd 80cb f1bc 703d ac3e
00000270: 781a abbe 3251 1c3e 2b87 6cbe c779 873e
00000280: a124 36be b703 a53d 2ee2 7d3e 2c1d 58bd
00000290: 6164 4fbd 511b b83e 282a c83e 6a9b 6e3e
000002a0: 8150 713c 6849 55bc 4b44 7dbe 2414 903e
000002b0: 0d34 323e 6326 ab3e 9312 8dbe a4ac b83d
000002c0: 1c58 8f3d b92a 08be a59b 5cbd 1bde 953d
000002d0: 01c9 f0bd a3a3 c23e b1dd bebe 80e6 84bd
000002e0: b49b 4cbe 82ac 9b3e b16e 13be 9696 babd
000002f0: 9f37 b53e 299c b5be 62b7 07be bdf6 b43e
-0.117195286 0.30257034 -0.2505243 -0.07888343 -0.014967633 -0.21683143 0.010739524 -0.09685403
-0.20219669 -0.32824388 -0.0087297205 0.37227008 0.15193407 -0.31781483 -0.21282728 0.26202384
-0.16026324 -0.044254635 -0.19969006 0.20120832 -0.2796203 -0.38983434 -0.30858982 -0.34113297
0.04980302 0.072704196 -0.12478097 0.15556842 0.04666807 0.101934865 0.21234006 0.08963772
0.4000177 0.31419346 -0.21929725 0.2929871 -0.046735626 -0.025382247 0.03405531 -0.3605001
0.2646405 0.26334307 0.38583013 0.06500697 -0.120686 -0.06973158 -0.14374202 -0.3796098
0.13897248 0.056755964 -0.12913348 -0.24070835 -0.093475886 0.10929154 0.31388676 0.18449168
0.29796037 0.3267202 -0.19428396 -0.01945223 -0.33533388 -0.22572744 0.16816315 0.15788023
0.1885552 0.35867816 0.1600954 -0.20621534 -0.0906178 0.024065431 0.20187834 -0.2159044
-0.16079506 0.15522633 0.14963399 0.391701 0.35062265 -0.18310872 0.1515098 -0.24054357
-0.010949974 -0.023440618 0.102182366 0.3683719 -0.33171192 0.36319914 0.2723782 -0.21003121
-0.122479305 -0.101942524 0.24989744 -0.107021965 0.14925712 -0.16306514 0.3341877 -0.052284777
0.3948071 -0.2974561 -0.11963314 0.2672746 0.14087476 -0.20289235 -0.34414113 -0.31397584
-0.3296395 -0.24220595 -0.24892001 -0.11907397 0.34688592 -0.11417526 -0.25989568 0.19375595
-0.24641477 -0.21108961 -0.06176262 -0.03994937 -0.26079392 -0.31893718 -0.407691 -0.1721056
0.19480379 0.026540402 0.319252 0.061407313 -0.31617028 0.026698716 -0.1088252 0.2266785
0.10379612 0.40149748 -0.36819154 -0.20160069 -0.35312414 0.029138293 -0.26709953 -0.17729926
0.3831732 -0.14403982 0.19334874 0.2678265 0.3008867 0.32580328 0.26060164 0.044335857
0.35443076 0.39257145 -0.27204812 0.095164716 0.29095185 -0.2665039 0.18062387 0.26724085
-2.7770864e-05 -0.105420195 -0.029515982 0.33640623 -0.33418632 0.15265349 -0.23098437 0.26460096
-0.1778741 0.08057349 0.24793312 -0.052762195 -0.05063284 0.3595834 0.39094663 0.23301473
0.014728666 -0.01301799 -0.24733083 0.28140366 0.17402668 0.33427724 -0.27553234 0.090173036
0.069992274 -0.13297547 -0.05385937 0.07317754 -0.117570885 0.3801547 -0.37278512 -0.06489277
-0.19981271 0.3040505 -0.14397694 -0.09110753 0.35393998 -0.35470703 -0.13253549 0.35344496

encoder.lob_enc.conv_in.0.bias f4 [32]
00000000: 80dc 923e aa1c eebd 8e52 9dbd d93a 47be
00000010: 0a74 a53d 6e19 f53d 8233 8d3e fa7f 373e
00000020: a2dc 523e 2625 85bd 8861 95be a2d2 663e
00000030: 4658 e8bb 33c5 88be ee9c 153d cecf ce3e
00000040: d6fa 0cbd 9c9a aebe 9e77 7c3e 2e6d 9b3e
00000050: 7692 85be bdd0 b6be 518d 95be d2e0 2b3e
00000060: ac90 2bbe 6552 cdbe 76fd efbc 2865 54be
00000070: 527d f7bd 1ffd 24be b245 0cbe 8017 88be
0.28683853 -0.11626561 -0.07681762 -0.19456042 0.08078773 0.11967741 0.2757836 0.17919913
0.20591977 -0.06501226 -0.29175973 0.22541288 -0.007090601 -0.2671295 0.036526613 0.40392917
-0.034418903 -0.34102333 0.24655005 0.30356735 -0.26088303 -0.3570613 -0.29209378 0.16784981
-0.16754407 -0.40101925 -0.029295664 -0.20741713 -0.1208445 -0.16112183 -0.13698462 -0.2658043

encoder.lob_enc.conv_in.1.weight f4 [32]
00000000: accd 803f e5cd 803f 701b 813f 7c96 803f
00000010: fe5f 803f 2601 803f 21f4 7f3f f545 813f
00000020: 03e1 803f 25cd 803f 652f 7c3f a61f 7d3f
00000030: ead6 803f 4a42 7f3f ea1e 7e3f 77ce 803f
00000040: 16a4 7d3f ec53 813f 1c17 813f 2f3a 803f
00000050: 6f7e 7d3f e816 7e3f 64b9 803f 8d92 7e3f
00000060: e2cc 803f 0413 7f3f f003 813f 7355 813f
00000070: d97d 803f b82a 803f 1537 813f 98bc 803f
1.0062766 1.0062834 1.0086498 1.0045924 1.0029294 1.000035 0.99981886 1.0099474
1.0068668 1.0062605 0.9850982 0.98876417 1.0065587 0.99710524 0.9926592 1.0063008
0.990785 1.0103736 1.0085177 1.0017756 0.9902105 0.992537 1.0056577 0.9944237
1.0062525 0.9963839 1.0079327 1.0104202 1.0038406 1.0013037 1.0094935 1.0057554

encoder.lob_enc.conv_in.1.bias f4 [32]
00000000: 1ba8 c13b 25e0 ba3b 3571 163c fa5e a83a
00000010: 03e1 87bb 154c 3b3c 364f 193c 1ff3 183c
00000020: a24e ed3b f72c 173c b102 4abc 458d c53a
00000030: 7725 3cbc 9b51 673b 7141 9eba f088 1f3c
00000040: 2cb8 803b 138a 093c 9a54 073c 1b39 803b
00000050: a8ef 243c bbef 873b 3fb0 ba3b 56a3 393c
00000060: d557 0f3c 0a08 1d3a f65b 0d3c ea8d 203c
00000070: ba23 223c ebcc 67bb c725 313c fe48 083c
0.0059099323 0.0057029896 0.009182264 0.0012845688 -0.0041466965 0.011431714 0.009357264 0.009335308
0.00724204 0.009227029 -0.012329743 0.0015072009 -0.011483542 0.0035296443 -0.0012073946 0.009737238
0.003928205 0.008394736 0.008259917 0.0039130575 0.010066904 0.004148451 0.0056972797 0.011330446
0.008748968 0.00059902726 0.008627882 0.00979946 0.009896213 -0.0035369943 0.0108122295 0.008318184

encoder.lob_enc.conv_in.1.running_mean f4 [32]
00000000: 78c0 81cd f6c5 31cd c701 65cd ffd1 64ce
00000010: 5d82 534d a4d8 3c4e b1cc bb4c 3901 38cd
00000020: e08a dccc abc4 1d4e 0980 574d c9c5 afcc
00000030: 8b2a f64d 9be8 6e4d 8fb1 b1cc 7b88 904d
00000040: decc fa4c 7269 8bce ed27 4fcd 912b 5cce
00000050: 4048 544d f639 0c4c c711 b6cd 383b 734e
00000060: 2c46 d24d f662 e24d 76ef 29cd 48af 444e
00000070: d053 be4d 535f 1fcd 0534 36cc 04c7 4acb
-2.721093e+08 -1.864088e+08 -2.4013118e+08 -9.597419e+08 2.217835e+08 7.920786e+08 9.8461064e+07 -1.9294299e+08
-1.1562778e+08 6.6172794e+08 2.2596827e+08 -9.2155464e+07 5.162479e+08 2.5051384e+08 -9.3162616e+07 3.0310794e+08
1.3149157e+08 -1.1694717e+09 -2.1721877e+08 -9.234607e+08 2.2259405e+08 3.675951e+07 -3.818273e+08 1.0201861e+09
4.4097677e+08 4.7476704e+08 -1.7819018e+08 8.249554e+08 3.9914547e+08 -1.6711403e+08 -4.7763476e+07 -1.328922e+07

encoder.lob_enc.conv_in.1.running_var f4 [32]
00000000: d62a b55b 5fda 4a5b 71d9 a05b 2389 6c5d
00000010: 7b4c 515b 175b 245d 99d6 f55a aa1d 7a5b
00000020: 600e 8f5a 166a e65c 46c7 965b 3173 9d5a
00000030: 5d5a 8d5c 12ae 955b c19c 105b 2970 ca5b
00000040: 33ae 545b bb54 ad5d 3c83 a35b 1960 585d
00000050: c7d1 825b 57e9 a65a aa53 2f5c dff3 835d
00000060: f04d 6f5c 60c9 6b5c 1897 2f5b 7690 2e5d
00000070: d7fa 295c 66b9 1b5b ba88 a75a bf57 395b
1.0198814e+17 5.7098047e+16 9.055015e+16 1.06526205e+18 5.891236e+16 7.401928e+17 3.459866e+16 7.040136e+16
2.0133364e+16 5.188471e+17 8.48807e+16 2.2159113e+16 3.1829862e+17 8.426233e+16 4.070475e+16 1.1396253e+17
5.986423e+16 1.5612267e+18 9.204943e+16 9.744681e+17 7.36448e+16 2.3490703e+16 1.9740044e+17 1.1885236e+18
2.6943285e+17 2.6547213e+17 4.942425e+16 7.861677e+17 1.9138029e+17 4.383247e+16 2.3578327e+16 5.216935e+16

encoder.lob_enc.res_blocks.0.conv1.weight f4 [32, 32, 3, 1]
00000000: 20bf 0dbd f612 99bd 8873 cfbc 9d5b a1bd
00000010: 5a6e f4bb 29e2 6f3d a52c 6abd 4114 e8bc
00000020: d16d f6bc 25af 40bd 476b a8bd 08b6 613c
00000030: 9448 a6bc bd82 b5bb 9ecd 02bd 47d2 95bd
00000040: 47c3 3abd 41e9 3e3d 49a8 773d 614b 17bd
00000050: 2568 603d fbd6 94bd 0a2f 8abc 8656 d0bd
00000060: 7f15 edbc 4235 933c e8fc 503d 3bfd da3c
00000070: a25e 1a3d 7958 e4bc 526c bf3d 5886 b0bd
00000080: 0087 debc 0f4d bbbc 2f94 693d 3ceb 493c
00000090: 5b84 b23d f931 a1bd 498d e03c 899e b9bd
000000a0: 7077 cc3c 97e2 4dbd b998 6dbd 6fb4 073c
000000b0: 9da4 ba3b bcf6 bb3d 0138 953d b4f1 373a
000000c0: 2e07 1b3d 98b9 d13b d05e e3bc 4699 b1bd
000000d0: 4d3d c0bd bfc2 14bb a937 69bd a26a a33d
000000e0: f474 69bd d8e6 6e3c 709c 7abd ff88 b73d
000000f0: 4def 243d eecc 403d ddad b43c ee98 babc
00000100: 1830 34bd ce8f 5ebd 9325 cfbd 8e2a e6bc
00000110: 08c9 58bd d04b a83d e435 b43d 8b0e 96bd
00000120: 3a22 aebb e277 c0bd 4bb5 363d afc2 8a3d
00000130: a7bd 83bd 4895 9dbd 79f8 f6bc 85a0 963d
00000140: 2e30 793d 804e 83bd 18dd b2bb 4d5a abbd
00000150: c08e ac3d 134f 0f3d 84b4 3ebd 0e56 033d
00000160: f07f b0bb 0b0d 9dbd 53a6 d6bd cea9 9f3d
00000170: 8945 84bd 1c01 693d 39cf 10bd 32f4 4c3d
00000180: bba6 ee3c 926b 3e3d 69ba 71bd b209 2a3d
00000190: 40a6 2a3c c4b1 47bc e003 42bc 7b52 1fbc
000001a0: f2f0 323d 303e 3f3d 43c7 59bd a1c7 8dbc
000001b0: b405 5bbc a4e8 f3bc 842e 5a3d aa1a d13d
000001c0: e5ed 6b3d 1dc5 9bbc 0690 933d 8190 d23d
000001d0: 0390 223c 12c8 9d3d 6d2b 9d3c 1ded 19bd
000001e0: 95f9 9e3c f2d9 093c e0a0 6e3c 3845 97bc
000001f0: 4f18 89bd a505 b2bd 74df 6dbd e93f 823d
00000200: a4b1 b1bc aa89 c5bd f3b6 a23d b92b e8bd
00000210: 5fdd d03c 21cd c73d 8fe5 35bd 63a1 c23b
00000220: d7b8 d03d 8045 b83d b3e5 9e3d 7b4e 58bc
00000230: 2827 663d 3d5c 443d 8b37 743c 5483 bf3d
00000240: 6688 f73c 1377 a13d 05f6 89bd e7a8 833c
00000250: 1cda dfbd 0b63 033b 554d 903c 73fa 4e3d
00000260: 453a 173d 4ec0 75bd 6bc6 3a3d e290 efbd
00000270: 2d37 b53d 4a40 533d 6c04 0cbc aa7f 063d
00000280: ecbf 7e3d ba31 8fbd 5138 5d3d 5c2e 5c3c
00000290: ca0e af3d 2d66 483c f7b4 923c 84c6 f43c
000002a0: 3740 b63d 94c8 97bd 952c 843d 0b4a 8b3d
000002b0: 6734 a3bb 9dcc 84bd 6b1f 823d fe70 313d
000002c0: 8e27 22bd e16c d63c fcc5 bcbc c47b 25bd
000002d0: 2074 e33d b7d6 433d 0488 513c b985 773d
000002e0: 322f 723d 28e2 2d3d b435 573d 1d86 adbd
000002f0: 2068 17bd b10c ba3d a914 d63c dc44 073d
00000300: 7b12 99bd 8f61 70bd d8c5 3abd 2ab1 203d
00000310: aca6 46bd a767 993d 7696 a7bd 8322 e9bc
00000320: 3ebb 953d 4c43 51bd 0682 e3bb ba75 1cbd
00000330: 0243 fe3c bb06 68bd f646 a7bd 689e 33bd
00000340: 94e2 143d c480 03bd ff16 a7bd 7171 f2bc
00000350: 76e9 44bd 7f7f a73d 69d6 cebc abb8 043d
00000360: f522 b83d 7952 a1bd 0f19 133d 2f9b 0c3c
00000370: e1f2 a63d ae5f 39bb dbdd c13c 520c d1bd
00000380: 5022 c03d 837c 89bd 1d79 833d d02f a4bd
00000390: 1d4b 8a3c 7d50 7dbb fd18 913d 9ab9 cdbd
000003a0: 2278 a63d 341a c13d aeae a33c 2e58 b23d
000003b0: db07 a23d f51f 6c3a 746a 543d 4a97 9a3a
000003c0: 29d1 bb3c d84e 9ebd 7b7b 13bd 751c 83bd
000003d0: a69c 8cbd fc37 97bd ee92 50bd f000 ba3b
000003e0: 88d1 8cbc 638e 193d 481a 143d 885a 19bd
000003f0: e497 873d 4b98 9abd e999 83bd 1784 bf3d
-0.0346061 -0.0747432 -0.025323644 -0.07878802 -0.007459444 0.058565293 -0.057171483 -0.02832997
-0.030081661 -0.04704203 -0.082235865 0.01377631 -0.02029828 -0.005539267 -0.031934373 -0.07315498
-0.045596387 0.046609167 0.060463224 -0.03693712 0.05478682 -0.07267567 -0.016868133 -0.10172753
-0.028940914 0.017969731 0.05102244 0.026732078 0.037687905 -0.027874218 0.09346832 -0.08619374
-0.027163982 -0.022863893 0.057026085 0.012324151 0.08716651 -0.0787086 0.02741112 -0.09063441
0.024959296 -0.05026492 -0.058006976 0.008282765 0.005695893 0.0917792 0.072860725 0.00070169126
0.037848644 0.0064002983 -0.027755171 -0.08671813 -0.09386692 -0.0022699086 -0.056937847 0.07979323
-0.0569963 0.014581405 -0.061184347 0.08961677 0.040267278 0.047070436 0.02205556 -0.022778
-0.04399118 -0.05433636 -0.101145886 -0.028096464 -0.052926093 0.08217585 0.08799341 -0.073269926
-0.0053141387 -0.09397866 0.04460649 0.06775414 -0.06432658 -0.07694489 -0.030147778 0.073548354
0.060836963 -0.06411457 -0.0054584853 -0.08366833 0.08425665 0.03498752 -0.046558872 0.03206449
-0.005386345 -0.076685034 -0.104809426 0.077960595 -0.06458575 0.056885824 -0.035353873 0.05003757
0.029132238 0.046489306 -0.059015665 0.041513152 0.010415614 -0.012188379 -0.011841744 -0.009724255
0.043686815 0.046690166 -0.053168546 -0.017307105 -0.013368059 -0.029774018 0.053267017 0.10210164
0.05759992 -0.01901489 0.07205205 0.10281468 0.00992203 0.07704176 0.019185746 -0.037579644
0.01940612 0.008413779 0.014564723 -0.018465623 -0.066940896 -0.08692483 -0.05807443 0.06359846
-0.021691151 -0.09645398 0.07945051 -0.113364644 0.025496183 0.09755922 -0.044408377 0.005939649
0.101915054 0.08997631 0.077586554 -0.013202305 0.056189686 0.047939528 0.014905821 0.09351221
0.030216407 0.0788404 -0.067363776 0.01607175 -0.10930273 0.0020048048 0.017615 0.050531816
0.036920805 -0.05999785 0.045599382 -0.11697556 0.088484146 0.051574983 -0.008545976 0.032836594
0.06219475 -0.069919065 0.054008786 0.013438787 0.08547743 0.012231392 0.017908556 0.029879816
0.08898967 -0.07411304 0.06453816 0.06801232 -0.004980612 -0.064843394 0.06353649 0.04332065
-0.039588504 0.026174964 -0.023043625 -0.040401235 0.111061335 0.04781219 0.012788776 0.060430262
0.05912704 0.042452008 0.05254145 -0.08472846 -0.036964536 0.09084452 0.026132898 0.033024654
-0.07474228 -0.05868679 -0.045598835 0.039231457 -0.048498794 0.07490473 -0.08182995 -0.02845884
0.07311104 -0.05108957 -0.0069429902 -0.03819821 0.031037811 -0.056647044 -0.081678316 -0.04385224
0.036348894 -0.032105222 -0.08158683 -0.029595109 -0.04807421 0.08178615 -0.025248723 0.032402676
0.089910425 -0.078770585 0.03591257 0.0085819205 0.08151794 -0.002828579 0.02366536 -0.10207428
0.093815446 -0.06713202 0.06419585 -0.08016932 0.01688152 -0.003865271 0.07084844 -0.10045166
0.08128382 0.09428826 0.019980755 0.08708225 0.079116546 0.00090074475 0.051859334 0.0011794355
0.022926884 -0.07729882 -0.036006432 -0.06401912 -0.06865816 -0.07383725 -0.050921373 0.0056763813
-0.017189756 0.037489306 0.036157876 -0.037439853 0.06620768 -0.07548579 -0.064258404 0.09351366

encoder.lob_enc.res_blocks.0.conv1.bias f4 [32]
00000000: 28c2 bfbd 60d7 cbbd a9c5 a8bd 8f26 37be
00000010: 78d9 3cbe 3509 f6bd 620a 2dbe 0bb5 ebbc
00000020: ab22 fabd dc0e f1bd da99 92bd 1e59 7dbd
00000030: 83ce 33bc 87df b4bd 9561 4fbd 1487 87bd
00000040: 6d4c 9a3a dcb3 81bd 26d7 1fbd d915 a6bd
00000050: 9ea9 47bd fff0 a8bd 8dca 12be 868d 0cbe
00000060: 8ff8 a0bc 029b a8bd 79e4 ab3c ee39 c8bc
00000070: 5ea9 a2bb be70 adbd 28b8 06bd a48a 8ebd
-0.09363204 -0.09953189 -0.08240826 -0.17885803 -0.18442333 -0.12013475 -0.16898492 -0.028772851
-0.12213644 -0.11770412 -0.07158251 -0.061852567 -0.010974529 -0.08831697 -0.05063017 -0.06617561
0.0011772044 -0.063331336 -0.03902354 -0.08109636 -0.048745744 -0.08249091 -0.1433508 -0.13725862
-0.019649772 -0.082326904 0.020982968 -0.024441686 -0.004964038 -0.084687695 -0.03289047 -0.06960037

encoder.lob_enc.res_blocks.0.bn1.weight f4 [32]
00000000: 0fe4 7e3f 6815 803f 1874 803f 41f9 7e3f
00000010: dd38 7c3f b57c 803f e61d 7e3f 530e 7f3f
00000020: a4cb 7e3f 0f98 7f3f daa6 7e3f 114a 803f
00000030: 1707 803f ea0c 7f3f bc41 7f3f 93d2 803f
00000040: 69ea 7e3f c641 813f a7aa 7d3f 5105 7c3f
00000050: 4c64 803f cbf0 7c3f ada3 813f 91e3 803f
00000060: 8730 813f 2bd6 803f 56ba 803f f9d3 803f
00000070: 432f 7e3f 870f 813f 29b4 813f 0a23 813f
0.9956674 1.0006533 1.0035429 0.9959908 0.98524266 1.0038058 0.9926437 0.9963123
0.9952948 0.998414 0.99473345 1.0022603 1.0002164 0.9962908 0.9970968 1.0064262
0.9957643 1.0098197 0.9908852 0.9844561 1.0030608 0.9880492 1.0128075 1.0069448
1.0092934 1.0065359 1.0056865 1.0064689 0.99290866 1.0082864 1.0133106 1.0088818

encoder.lob_enc.res_blocks.0.bn1.bias f4 [32]
00000000: da16 fd3b 9118 d03a 0dc1 0d3b 230b 003c
00000010: 6ec8 843b 3ea0 2d3c 6825 1e3c 06ff ff3b
00000020: 0078 cabb 0112 093c 8405 00bc 77a6 3d3c
00000030: 7257 c23b 99b1 ee3b 3d12 033c ffea 423b
00000040: 1d58 233b c807 d03b 66f8 893b eeb3 4fbc
00000050: 9a3f 453c b8ec 453b 5a26 423c fd15 323c
00000060: 6c96 2f3c 1be7 d639 ef13 193c a124 523c
00000070: 2180 21bb ee9d 4b3c 52ee 413c 7844 033c
0.0077236714 0.0015876462 0.002162996 0.007815155 0.0040522134 0.010597287 0.009652473 0.0078123836
-0.006178856 0.008366109 -0.007813815 0.011575333 0.0059308344 0.007284355 0.007999954 0.002974212
0.0024924346 0.006348584 0.0042105196 -0.012677176 0.01203909 0.003020091 0.011849964 0.0108695
0.010717016 0.00040989448 0.009343131 0.012826116 -0.0024643021 0.01242779 0.011836605 0.00801193

encoder.lob_enc.res_blocks.0.bn1.running_mean f4 [32]
00000000: 4efe c2be 9e21 c43e 4946 d9be 2b0e 05bf
00000010: 92a1 97be 64e6 e0be d6a6 febd e072 663d
00000020: 82bd b7bc 9ae4 8bbd dfb8 bc3e b2fb cd3e
00000030: 2767 37be ece8 0dbe dc71 bcbe 3388 993e
00000040: 285a ba3d 7a96 12bd 302f 4dbd 60a1 25be
00000050: 13b6 d2bd f3ca 0b3e d075 91be e3a1 a2be
00000060: 9df6 94bc eaf9 17bf bcf6 18bd cd17 80be
00000070: 3aa3 c4bd 5fa2 17be d4f7 07be a877 e13d
-0.38084644 0.38306898 -0.42436436 -0.51974744 -0.29615456 -0.43925774 -0.12434165 0.056261897
-0.022429232 -0.06830712 0.36859795 0.4023109 -0.17910443 -0.13858384 -0.36805618 0.29986724
0.09099227 -0.035788037 -0.05009383 -0.16174841 -0.10288634 0.13651638 -0.28410196 -0.31764135
-0.018184 -0.59365714 -0.03734468 -0.2501816 -0.096014455 -0.14808033 -0.13278133 0.11009151

encoder.lob_enc.res_blocks.0.bn1.running_var f4 [32]
00000000: a626 663d 5744 153f 4bd8 993d 23f5 973d
00000010: e477 643d 10f9 7a3d cb34 a03e 9fcd e83d
00000020: d796 ed3e 72b8 2f3e cbe4 e63e 2c4e c13d
00000030: 2d0f 193e 780c 183d ff59 8f3d 25c2 7a3d
00000040: b335 f23e 0071 5a3e 0fbe 043e 9843 db3d
00000050: 81f6 043e f4a1 b93e 11ab b03d b23a b33e
00000060: cec0 193e 802d bb3d 9c5c 6d3e 7c9c ca3d
00000070: 107f e63c b288 ad3e a4ec 913d d16e c33d
0.0561892 0.58307403 0.07511958 0.07419803 0.0557784 0.06127268 0.31290278 0.11367344
0.46404144 0.17160204 0.4509643 0.09438738 0.14947195 0.037121266 0.06999587 0.061220307
0.47306594 0.21332169 0.12963127 0.10706252 0.12984659 0.36256373 0.08626378 0.35005718
0.15014955 0.09139538 0.23179859 0.09893128 0.02813676 0.33893353 0.07125214 0.09542621

encoder.lob_enc.res_blocks.0.conv2.weight f4 [32, 32, 3, 1]
00000000: e894 8f3c 435b e63c 953c 88bd 8506 b03d
00000010: cb40 023d 9077 f4bc 49c4 a1bd b8d5 78bd
00000020: 7a80 80bc 1bce 4f3c 7d91 083d 956c ca3d
00000030: 5efd 913d b85b 1dbc 8466 9dbc ebeb a73d
00000040: 5a39 6dba 7b9e 733c c9f7 65bb beb7 b63d
00000050: 5630 793d 354d 233d 4666 003d 42cd 94bc
00000060: 5868 ea3c c69f 9dbd 3a78 93bd 4dfd 023d
00000070: bb1b c23c 6de6 82bd c19e 143d a38b 223d
00000080: 549c 523d 30d8 31bd 4044 56bd db85 b93a
00000090: 6a0b 53bc 43bf 18bc 1e01 a2bd 5da5 923d
000000a0: 1f0a c03d d657 42bd 0d25 9a3d 7e97 ab3c
000000b0: a6ba e13c b1b7 f0bb 1dde bf3d f9d4 c1bc
000000c0: d938 963c f165 adbb f8a6 053c 9763 39bd
000000d0: fee6 84bd 7567 8d3d 173b cabd 9af4 95bd
000000e0: a0a3 b63d 53cd 4dbd 8253 46bc 6765 c6bd
000000f0: 9bdc e5bc 6881 36bd 9ab1 1f3d cce4 493d
00000100: b8a9 b73d ad9b 0ebd 2648 c23d b0fd 2c3d
00000110: 4d29 a5bd 5b42 b5bd b8ad 45bc 71ba be3d
00000120: b6e9 303a a218 79bd b2fa 7d3d 5f22 d9bd
00000130: e072 953d f377 d1bb 9598 e23b 8df8 0ebd
00000140: 189c 883c 80f3 ceba 6adc 9c3d 088d af3d
00000150: ed10 223d 2778 84bc 3dda d0ba d78a 80bd
00000160: a3fc 7f3d fc94 b5bc 50e0 cabd cc7f 02bd
00000170: 4f6f 8fbd 1a2e a5bd 654a 933c a8cc 1b3c
00000180: c855 58bd d80a 8fbd fcd5 163d 3d85 bf3c
00000190: 84d5 903d 49f4 623d 236f 68bd dfb7 7c3d
000001a0: d2c6 aabd f973 a8bd a4b7 413d 43f8 cb3d
000001b0: 8a2a 4e3d 5341 2aba c41d 3abd 995c d43d
000001c0: ea4b 81bd 9373 c23d 5542 89bd 6b7e ccbd
000001d0: d3dc b3bb 8ee3 013d 67a2 a8bd 4206 ecbc
000001e0: 9ae4 34bb 789c cbbb 758c 42bd 6cf2 c13d
000001f0: 1ea6 94bd 5043 893d c70e 003d b7e7 26bd
00000200: b88d 3d3d a9d7 a6bd 6c74 89bd 79c7 713d
00000210: 00cd 4abd cefb 533d f369 bebd 1b56 a13c
00000220: 38a0 bdbd 212c 4e3d aeee d13d 2c76 853d
00000230: 53b5 063d 959b 853d ceb4 b63d 4e9a 633d
00000240: 1310 3a3d 8040 0b3d 2708 cc3c 392e 803d
00000250: 24cc 983d 82a3 14bd d2ad 883c ee1d 5e3d
00000260: afb6 aabd 6941 97bd 47c3 babc d21d 9a3c
00000270: 0167 893d 785a 5e3d 5e61 5b3d 43ba a7bc
00000280: 8835 cebc 345c c7bd fafa 8eba e735 e3bc
00000290: 6d4a a4bd 308a 343d 1f27 6a3d 97a5 d03c
000002a0: 9c55 98bd 8247 f7bc 7350 c2bd e9ba fabb
000002b0: bc10 843d 51d1 b93d ee6e b3bd f7e3 bbbc
000002c0: c03f 5ebd 382a a03d f061 d33d 497e adbd
000002d0: 5f33 14bd cbe9 163c e48e b4bd 26f0 d3bd
000002e0: 747b 8fbd d3b9 903d d753 8b3c bca3 56bd
000002f0: 89a2 9ebc fe09 be3d 6f06 c4bd dfa7 233d
00000300: 881f 7abc b6a6 e0bd 1a10 9b3d 6603 6fbd
00000310: 8895 903d 812a 62bb 5640 6b3c 29c1 c1bc
00000320: c5b8 bbbd 95f4 283d cb89 32bd 4651 ea3c
00000330: b335 ad3d 5deb 25bd 27bc 823a 323d de3c
00000340: 5663 30bd 5c49 113d 81a1 5cbd ce32 903d
00000350: ab5e e7bc 5ad7 72bc 3a4d 31bd e961 8eba
00000360: e372 753d 7e39 033c e727 3dbd bfb1 c93d
00000370: ca05 c03d 2e94 18bd 2088 89bd 3888 a8bd
00000380: 8f85 e73b 4434 c83d fe16 0a3d c080 323d
00000390: fcd8 d9bd 7e60 fd3c fe49 2d3d 1148 1fbd
000003a0: f7b5 97bd 2bee d1bc a7ea c3bd 7ec7 ac3d
000003b0: c519 8fbd 7c96 d03d 7145 bdbd 4382 9b3d
000003c0: 3a84 53bd 3390 b7bd 044e 903c bb43 d63d
000003d0: a593 1dbd e13d cc3c 5f55 98bd bfe9 653d
000003e0: fc8c a43d 4961 2bbd 70eb ac3d 3d7e 243d
000003f0: 223f 5b3b f2cc 5cbd 86f7 6d3d 573c debb
0.017527059 0.028119689 -0.0665218 0.085949935 0.031800073 -0.029842168 -0.078987665 -0.060750693
-0.015686262 0.012683417 0.033341873 0.09883992 0.07128404 -0.009604387 -0.019213922 0.08199295
-0.00090493786 0.014869328 -0.0035090318 0.08921765 0.060837112 0.039868552 0.031347536 -0.01816428
0.028614208 -0.0769649 -0.07200666 0.031979848 0.023694864 -0.063916065 0.036284212 0.03968395
0.051418617 -0.043419063 -0.052311182 0.0014154272 -0.012881139 -0.009322944 -0.07910369 0.07160447
0.093769304 -0.047447048 0.07526598 0.02094626 0.027554821 -0.0073461165 0.093685366 -0.023661124
0.018337654 -0.0052916934 0.008157484 -0.045260992 -0.06489371 0.069044985 -0.09874552 -0.07322045
0.08917928 -0.05024464 -0.012104871 -0.0968731 -0.028059294 -0.044557005 0.038987733 0.049290463
0.08967918 -0.034816433 0.094864175 0.042234123 -0.08064518 -0.08850547 -0.012065344 0.093129046
0.0006748693 -0.060814507 0.06200666 -0.10602259 0.07297301 -0.006392473 0.006915162 -0.034905005
0.016675994 -0.0015789121 0.07659228 0.085718215 0.039566923 -0.016170574 -0.0015934181 -0.062764816
0.062496793 -0.022165768 -0.099060655 -0.031860158 -0.07003652 -0.08065434 0.01797981 0.009509243
-0.052816182 -0.0698449 0.036825165 0.023378963 0.07071975 0.05540875 -0.056746613 0.06169879
-0.08338703 -0.08225245 0.047294274 0.099594615 0.050333537 -0.00064947194 -0.045438543 0.10369224
-0.063133076 0.094947 -0.06702105 -0.0998505 -0.005488971 0.031711154 -0.08234101 -0.028811578
-0.0027602077 -0.006213721 -0.04749723 0.094700664 -0.07258247 0.06702292 0.031264093 -0.040748324
0.04627773 -0.08146603 -0.06711659 0.059028123 -0.04951191 0.05175381 -0.09297552 0.019694379
-0.09259075 0.050335053 0.10250603 0.0651668 0.032887768 0.065238155 0.089212045 0.05556708
0.045425486 0.03399706 0.024906231 0.06258816 0.07460812 -0.036288746 0.016684446 0.054227762
-0.083356254 -0.07385523 -0.022798194 0.018813048 0.067090996 0.054285496 0.053559653 -0.020474559
-0.02517201 -0.09734383 -0.0010908537 -0.027735664 -0.08022008 0.0440771 0.057166215 0.025469584
-0.07438204 -0.030185465 -0.09488001 -0.007651676 0.06448504 0.09073127 -0.087613925 -0.02293585
-0.054260015 0.078205526 0.103214145 -0.084713526 -0.036181804 0.009211014 -0.08816317 -0.10348539
-0.07005969 0.07066693 0.017007751 -0.052402243 -0.019364612 0.092792496 -0.095715396 0.039955016
-0.015266307 -0.109692976 0.075714305 -0.05835285 0.07059771 -0.0034510198 0.014358601 -0.023651676
-0.09166101 0.041248877 -0.04358844 0.028603207 0.08457508 -0.040507663 0.0009974287 0.02712879
-0.043063484 0.03547035 -0.05386496 0.0704094 -0.028243383 -0.014821852 -0.04328654 -0.001086292
0.059924018 0.008009313 -0.046180632 0.098483555 0.09376104 -0.03725069 -0.06715417 -0.08229107
0.007065482 0.09775594 0.033713333 0.043579817 -0.106370896 0.0309298 0.042306893 -0.038887087
-0.07407754 -0.025626263 -0.09566241 0.084364876 -0.06987337 0.101849526 -0.092417605 0.07593205
-0.051639773 -0.08963051 0.017615326 0.10462137 -0.038470883 0.02493185 -0.07438158 0.05613112
0.08034703 -0.041840825 0.08443344 0.040159453 0.0033454378 -0.05390639 0.058097385 -0.0067820954

encoder.lob_enc.res_blocks.0.conv2.bias f4 [32]
00000000: 7698 52bd d8f6 b8bd ca90 c7bd 1fea 72bd
00000010: 858e a4bd b039 c1bd a6b0 dabd c779 fbbd
00000020: cd37 c4bd 1127 1fbe 20dc efbd c69c bfbd
00000030: 9349 ffbd 5c47 69bd e353 22bd cf1a 49bd
00000040: eec7 04be c9a1 91bd 1e75 0ebe 67c3 91bc
00000050: 64ab 23bc abac af3c 0d46 e6bd 5c84 edbb
00000060: 52e8 82bd 425c c8bd 5bd6 9abc 02f8 1cbe
00000070: 7c90 28be d585 a13b cfc0 46bd 50f4 bdbc
-0.05141493 -0.09031457 -0.09744413 -0.059305307 -0.08034996 -0.09434831 -0.10678224 -0.122790866
-0.09580956 -0.15542246 -0.117119074 -0.09356074 -0.12465205 -0.05695282 -0.03963078 -0.049097832
-0.12966892 -0.07110936 -0.13911864 -0.01779337 -0.009989593 0.02144464 -0.1124383 -0.0072484445
-0.06391968 -0.09783222 -0.01890104 -0.15328982 -0.16461366 0.004929284 -0.04852372 -0.023187786

encoder.lob_enc.res_blocks.0.bn2.weight f4 [32]
00000000: 8779 7d3f 4f3b 803f de2c 813f 48e5 7d3f
00000010: bef8 803f 370e 803f e038 813f fdef 803f
00000020: 1fb4 803f 0bbb 803f 7aef 7f3f d57d 7f3f
00000030: d91f 813f f48e 803f de85 7e3f 6bd2 803f
00000040: 1b0c 803f 150b 803f 74e7 803f 553a 803f
00000050: 35f8 7f3f 73f0 803f 9e06 803f af56 813f
00000060: d3d6 803f 7b38 803f 723e 813f 3318 813f
00000070: 73d1 803f 6ab3 7e3f 8bf0 803f e522 813f
0.9901356 1.00181 1.0091817 0.9917798 1.007591 1.0004338 1.0095482 1.0073239
1.0054969 1.0057081 0.9997479 0.9980138 1.0087844 1.0043626 0.99423015 1.0064214
1.0003694 1.0003382 1.0070634 1.0017802 0.9998811 1.0073379 1.000202 1.0104579
1.0065559 1.0017236 1.0097182 1.008551 1.0063919 0.99492514 1.0073408 1.0088774

encoder.lob_enc.res_blocks.0.bn2.bias f4 [32]
00000000: 7fb1 b93b 4ce7 11ba 7b4c 213c 991f 8ebb
00000010: 7abb 083c 73bc 9a3b b237 193c 6ee0 233c
00000020: ea0d 113c cd9d da3b 8c59 9abb 72c4 7c3a
00000030: 64c0 d53b eae0 893b a9bc 0abc 39e4 d63b
00000040: 75e3 533b 6fd0 0739 02ea 193c ce0b 9b3a
00000050: 9320 b5ba 52ee 0e3c 7f90 97bb 1311 0d3c
00000060: d8e4 fa3b f48e 793b b76a 093c 5b8a 143c
00000070: 27b1 f73b a36b 1bbc 315f 193c 02e9 1a3c
0.005666911 -0.0005565777 0.0098448945 -0.004337263 0.008345479 0.004722172 0.009351658 0.010002239
0.008853415 0.0066716434 -0.004710382 0.000964231 0.006523179 0.00420772 -0.008467832 0.006557968
0.003233162 0.00012952251 0.009394171 0.001182908 -0.0013818912 0.008723812 -0.0046253796 0.008610028
0.007656675 0.0038079591 0.008387259 0.00906619 0.00755896 -0.009486112 0.009361074 0.009454967

encoder.lob_enc.res_blocks.0.bn2.running_mean f4 [32]
00000000: 9a67 943c dff8 6cbd 24b5 3ebd f464 c43c
00000010: f212 e7bd b820 4c3e 4a1c c8be ab67 d53d
00000020: 3447 663d 9efc d73c 9bf8 90be 25f1 17be
00000030: 112c 81bc d244 63be fb50 7b3e 7f92 45be
00000040: dfa2 0cbe 27d0 fe3d 4507 9cbe 3817 c5bd
00000050: 1dbe a8be e496 1f3e 0971 ab3c 4d9a fdbd
00000060: 51a6 d5be 1aa5 20be cfd1 fa3c c2e6 47bc
00000070: b602 49be 3fa1 bb3d 7cd3 38bd 1429 b03c
0.018115807 -0.05785453 -0.046559468 0.02397392 -0.112829104 0.19934356 -0.39084083 0.10420164
0.05622025 0.026365574 -0.2831467 -0.14838083 -0.015768083 -0.22194222 0.2454261 -0.19294165
-0.13734005 0.12442046 -0.30474296 -0.09623569 -0.32957545 0.15584904 0.020927923 -0.12382946
-0.41728452 -0.15687981 0.030617623 -0.012201013 -0.1962994 0.091616146 -0.045123562 0.021503963

encoder.lob_enc.res_blocks.0.bn2.running_var f4 [32]
00000000: 7501 833d b116 553d 43dd 363e 47b7 e93d
00000010: 84d1 b03d 2247 0b3e 81f9 3c3e b3d0 753e
00000020: ac72 113e 108e c03d 190c 143e 9bf6 313d
00000030: 3932 9c3d bc3f 5d3d dfbe a33d 030c 473e
00000040: 9609 873d 06bd 0c3e 418c 253e 342a 7e3e
00000050: e190 6d3e 604e 533e 0ac0 8a3e 6a9e 4b3e
00000060: b399 d93d 2eaa 9e3d de5f af3d 9519 9c3e
00000070: 243d 213e 2581 e83e 5dfc 8a3d 9184 163e
0.06396762 0.052023593 0.17857842 0.114119105 0.08633712 0.13601354 0.18454553 0.24005394
0.142039 0.09402096 0.1445774 0.043448072 0.07626767 0.05401586 0.0799539 0.19438176
0.06593625 0.13743982 0.16166784 0.24820787 0.23199798 0.20635366 0.2709964 0.19884649
0.10625019 0.07747303 0.08563207 0.30488268 0.1574598 0.4541103 0.06786416 0.14699008

encoder.lob_enc.res_blocks.1.conv1.weight f4 [32, 32, 3, 1]
00000000: 84ef c0bd 359a 893c 83d9 333d 81f7 01bd
00000010: b988 9bbd d3a9 9b3d 107d b23c fa74 4a3d
00000020: c7b5 bb3d 1706 c0bd a62b 8b3d 3746 30bd
00000030: baa4 263d 3ab1 843d 5464 9b3d 9ca0 013d
00000040: 4b02 1e3c 366a 65ba 0cc6 09bd 2336 543d
00000050: 45a4 b43d ee65 0c3b f3fd afbd 6349 cdbc
00000060: 200b 14bd ed86 403d a0b2 a9bd fd95 0ebd
00000070: 3de9 66bd 1ac8 a9bd 9bea 2ebd 30bc 943d
00000080: 582c 353d f0ed a73d d8ee cc38 5dd3 703d
00000090: c8c2 233d e3f3 833d 22e0 3fbc 7886 b23d
000000a0: 25e6 f5bb 696b eebc 30a4 223d 002a 183d
000000b0: 5c18 8bbd c1dd 17bd 1cfa c3bd 0ab5 be3d
000000c0: ce26 f63c 0bb6 a93d 7fb2 b1bd 8805 c63d
000000d0: 5487 c03d f963 bb3d 9d09 8fbd d8e9 c53d
000000e0: 24ee b4bd a07f 9cbd adb7 1abd 5c12 ca3d
000000f0: 1f59 e3bc e96b 163d a561 80bc bec5 403d
00000100: e6d9 2c3d 7952 a03d 55cf 523d c20a a03d
00000110: 96ae b23d 6e0f 013d f108 623d 82f6 af3d
00000120: 6c00 433d 5fc5 01bd 16d8 953d 407e 983c
00000130: b39f 843d 6bc0 fbbc 7327 c9bd 0c73 86bd
00000140: 790c 21bc f4ef 8dbd 54ba 3dbd de98 473d
00000150: 797c 103d c353 f6bc cfed 83bb b9d0 d1bd
00000160: c7e5 03bc 7a47 32bb d450 6fbd b449 b93d
00000170: 2b8c 53bd d233 733c ad4b 7cbd cfcb d73c
00000180: 8d61 b1bd 99fc 27bc 8269 033d 52c4 9b3d
00000190: 09d1 9f3b e289 243c 924a 833c bfcd 45bd
000001a0: f31d ca3c 71d6 bfbd fa00 25bd 036b 84bb
000001b0: 0c4b 0dbd fb9c 2e3d c352 90bd a7cc e83c
000001c0: 3ace 88bd 36d2 b5bd ba21 f6bb 0edd 23bc
000001d0: cd76 3bbd efe8 d13d a1e0 04bd 712c 99bc
000001e0: 59dc 143c 89e6 1dbd 196e c13c 7714 c03d
000001f0: 2004 9dbb 51f7 32bd 2182 803d adf1 ac3c
00000200: ed9e 5b3d b496 2f3c 0a82 67bd c319 9cbd
00000210: bee6 27bd f98d bdbd 00ca bebd 7b9a 663d
00000220: e428 1fbc 89da 9abb 330c acbd 29f3 483d
00000230: 8413 953d 401a 8c3d 74d4 6bbd 4b89 383c
00000240: 1dbc 66bd fd35 323d a9e2 503d d5e3 81bd
00000250: d7f2 aebd a071 aabd 3f33 223d d5d2 b33c
00000260: 25e5 873d 1ae9 b6bc 52e2 963d e885 af3d
00000270: 5691 9bbd d52e 82bc 5547 8d3c d0f7 883d
00000280: a327 c2bd c7cc 413d d138 51bb 38d9 863d
00000290: 5d13 d0bd 144b 913d 5448 883d d38b abba
000002a0: 408b 07bd 31c3 493d e3a8 e9bc a9c5 e5bc
000002b0: 126c 83bd ca0a bd3d e8f0 813d 1d82 613c
000002c0: e813 dc3a dbc2 95bd a1a5 993d 617b 153d
000002d0: abfe 023d a148 263d 608b afbd bd21 1bbd
000002e0: 2308 883d 950f 18bd 232c ab3d 2acc 91bd
000002f0: 91c5 903d 86d6 d53d 8e95 b1bd fedb 963d
00000300: e7ea 993c b8a2 313d 2ac3 13bd 02f9 9b3d
00000310: f7d8 a83c 1184 97bd 6792 c53d 03d4 653a
00000320: dd80 83bc cc55 c13c 677f 423c 7875 c3bd
00000330: d48d bd3d d760 91bc cbf8 c53c 22bf bebc
00000340: acea c8bd 23b2 babd 30a5 18bd 8858 0cbd
00000350: abb6 a83d 29ca 5b3c a1e4 d53d 7961 ab3d
00000360: 6b60 fd3b a1ff 20bd 7282 d4b9 32da 2cbd
00000370: adf5 d6bd b13c b93c d40c 013d c90f 27bd
00000380: 82b9 a73d 6d6e 08bc 838c bbbc 5045 1bbd
00000390: aa02 c53d 72e2 613d f952 91bd 512a a8bd
000003a0: 01a4 b4bd f25b b43d 6854 a63d f743 4d3d
000003b0: d5b1 473d 26cb 98bd 9c31 8c3d 4449 5ebc
000003c0: 7462 04bc 2f7a c13b b9fb 0bbd efff bd3d
000003d0: eb03 3b3c a28a 8b3d 4707 88bd 4729 bdbd
000003e0: 4d4a 08bd 1a07 de3c 6e40 95bd 34f7 67bd
000003f0: 0e26 e13c 06ca b93d 2a2c a53d f281 b63d
-0.09420684 0.016797164 0.043908607 -0.03173018 -0.07594437 0.07600751 0.02178815 0.049427964
0.09165531 -0.093761615 0.06795435 -0.043035712 0.04068444 0.06479116 0.075874954 0.03164731
0.009644101 -0.00087514834 -0.033636138 0.05180944 0.088203944 0.002142306 -0.08593359 -0.025059408
-0.036143422 0.047003675 -0.08286023 -0.03481101 -0.056374777 -0.082901195 -0.042704206 0.072624564
0.044231743 0.0819968 9.771966e-05 0.05879532 0.03998068 0.06443002 -0.011711152 0.08717054
-0.007504242 -0.029103952 0.039707363 0.03714943 -0.067917556 -0.037076715 -0.09569189 0.09311874
0.0300478 0.08286675 -0.086766236 0.09669024 0.09400812 0.09149928 -0.069842555 0.09663743
-0.08834484 -0.0764153 -0.037772823 0.09866783 -0.027752457 0.036724005 -0.01567156 0.04706358
0.04219999 0.078282304 0.05146726 0.07814552 0.08724706 0.031508856 0.05518431 0.085919395
0.047607824 -0.03168237 0.07316606 0.018614888 0.06475773 -0.0307314 -0.098219775 -0.06564912
-0.009829634 -0.06930533 -0.046320274 0.04872977 0.035274956 -0.030069238 -0.0040261517 -0.10244889
-0.008050389 -0.0027203248 -0.058426693 0.09047261 -0.051647346 0.014843898 -0.061595608 0.0263423
-0.086611845 -0.010253095 0.032083042 0.076058045 0.004877214 0.010042639 0.016026769 -0.048291918
0.024672484 -0.09367073 -0.040284134 -0.004041077 -0.0344954 0.042630177 -0.070470355 0.028417898
-0.066799596 -0.08877985 -0.0075113447 -0.010001434 -0.045767594 0.10249507 -0.032440785 -0.01869795
0.009085738 -0.038549934 0.023612069 0.09378903 -0.0047917515 -0.04369289 0.0627482 0.021111334
0.05361836 0.010717083 -0.0565205 -0.07622101 -0.040991537 -0.09255595 -0.09315872 0.056299668
-0.009714339 -0.0047257585 -0.08400764 0.04906002 0.07279113 0.06840944 -0.057575658 0.011263202
-0.056331743 0.04350852 0.05099741 -0.06342284 -0.08542412 -0.083224535 0.039599653 0.021951118
0.06635503 -0.022327948 0.07367386 0.085704625 -0.0759608 -0.015891472 0.017245928 0.066878915
-0.09480216 0.04731443 -0.0031924734 0.065844 -0.10159943 0.07094398 0.066544205 -0.0013087936
-0.033091784 0.049258415 -0.028522914 -0.028048353 -0.06417097 0.092305735 0.06344777 0.013763932
0.00167906 -0.07312556 0.07502294 0.036494616 0.03198115 0.040596608 -0.085715055 -0.037873972
0.06642177 -0.037124235 0.08358028 -0.07119019 0.07068933 0.10441308 -0.086711034 0.07366179
0.018788768 0.04336807 -0.036074795 0.07615854 0.02061127 -0.073982365 0.09647065 0.0008767249
-0.016052658 0.023600481 0.011871195 -0.0954389 0.09255567 -0.017746372 0.024166485 -0.023284499
-0.09810385 -0.09116008 -0.03726691 -0.034264117 0.08237966 0.013414898 0.10443998 0.08368201
0.007732441 -0.039306287 -0.0004053298 -0.042200275 -0.10496078 0.022611948 0.031506374 -0.04078654
0.0818968 -0.008327109 -0.02289415 -0.0379079 0.09619649 0.055147596 -0.07095904 -0.08211196
-0.08820344 0.088066 0.08121568 0.050113644 0.04875358 -0.074606225 0.068454 -0.013567273
-0.008080114 0.005904458 -0.03417561 0.09277331 0.011414508 0.068135515 -0.06642013 -0.09236389
-0.033273984 0.027102996 -0.072876796 -0.056632236 0.027483966 0.09071736 0.08065064 0.08911504

encoder.lob_enc.res_blocks.1.conv1.bias f4 [32]
00000000: e1e3 21bd b104 c8bc 9c72 023c f759 5ebd
00000010: 56b3 d5bb 0688 0ebd cd0b 0abe 8b0a a3bd
00000020: 220b 09be f9bc 09bc e2a7 8dbd 3d32 24be
00000030: 3aaa 263c 9909 eebc bc0e adbd 0852 2fbe
00000040: f294 0abe c1ad 42be 1a76 2bbe 5a41 923c
00000050: 37de d0bd b6a4 373c 7b78 07bd 8380 013b
00000060: 30d5 29bd c444 1dbe c08a 8e3b acb9 2ebe
00000070: c1d7 6dbd 5b4a 4abd 0909 a2bc b03a 25be
-0.039523963 -0.0244163 0.007961895 -0.054285016 -0.0065216227 -0.03479769 -0.13481064 -0.07960995
-0.13383153 -0.008406871 -0.06916787 -0.1603479 0.010172421 -0.02905731 -0.08450076 -0.17121136
-0.1353338 -0.19011594 -0.16744271 0.017853428 -0.10198634 0.011208704 -0.033073884 0.0019760437
-0.041463077 -0.15358263 0.0043500364 -0.17063016 -0.058067087 -0.049387317 -0.019779699 -0.16135669

encoder.lob_enc.res_blocks.1.bn1.weight f4 [32]
00000000: dc52 7e3f d111 803f 183f 7f3f af95 803f
00000010: bcca 803f d911 7e3f d253 7e3f 0edc 7d3f
00000020: ec4c 7e3f 36a8 7c3f 42ac 813f 5e52 813f
00000030: b5e5 7f3f e8e7 813f 0448 803f fbfd 7e3f
00000040: e3dc 803f 6dc3 7f3f 341c 813f 4a1e 803f
00000050: 29dd 7e3f 9620 803f 33cf 7f3f f2c9 7e3f
00000060: 6c0a 813f a73b 803f cc34 7f3f d054 803f
00000070: c933 7d3f 8307 7e3f fca1 7e3f 7bcf 803f
0.99345183 1.0005437 0.9970565 1.004568 1.006187 0.99245983 0.9934665 0.991639
0.99336123 0.9869417 1.0130694 1.0103261 0.9995988 1.0148897 1.0021977 0.99606293
1.0067409 0.9990757 1.0086732 1.0009243 0.99556214 1.0009944 0.99925536 0.99526894
1.0081306 1.0018204 0.99689937 1.0025883 0.9890714 0.9923021 0.9946592 1.0063318

encoder.lob_enc.res_blocks.1.bn1.bias f4 [32]
00000000: 297d afbb 3183 0b3b ed3a dfbb 146f cdb9
00000010: 6412 203c e435 4bbc b567 51bb cac4 b6bb
00000020: 947d 813b 72b7 2fbc ce83 243c a3cf de3b
00000030: 9b4d 2d3c ce0e 4e3c 8ae3 b43a 91c6 2ebc
00000040: 3cd7 b93b 68d9 acbb f626 363b bbd8 9f3c
00000050: 74df 143c 9ee1 403c 83f1 bd3b b230 01bb
00000060: a34f 003c 5ab1 e6ba 25db 383c 3de9 403b
00000070: 5aa2 51bc af3d 853a 8da8 05bc 7b03 853b
-0.0053554964 0.0021287913 -0.0068124444 -0.00039183407 0.00977001 -0.012402985 -0.0031952683 -0.0055776583
0.0039517377 -0.010724889 0.01004119 0.0067996546 0.010577585 0.012576772 0.0013800722 -0.010667459
0.00567141 -0.0052749403 0.0027794219 0.019512525 0.0090864785 0.011772541 0.0057966127 -0.0019712863
0.007831487 -0.0017600462 0.011282717 0.0029435896 -0.012795055 0.0010165478 -0.008157861 0.004059253

encoder.lob_enc.res_blocks.1.bn1.running_mean f4 [32]
00000000: 58b0 a73e 767e 8bbd 2d04 f43d d3cf 24bf
00000010: 398f a6be 37a8 61be b1d9 dcbe 5aba 223f
00000020: dcfc b2bd 33d8 d5be 03c8 fbbe 5418 56bf
00000030: 1007 42bf 9616 28bf 7aa5 433f 536c bbbe
00000040: 3fbf 4fbf fa71 f4be a31f 7ebf 7e78 1dbf
00000050: 79c5 95be e897 85be 7ef5 57be a6ba c33e
00000060: 98fe 1abf d846 81be df12 a53e 0c9c ddbe
00000070: 78c5 49be 4050 8fbe a9ab 4e3b f034 edbe
0.32751727 -0.0681123 0.11914859 -0.64379615 -0.32531145 -0.22036825 -0.43134835 0.635656
-0.08739635 -0.4176651 -0.49176034 -0.8363087 -0.75792027 -0.65659463 0.7642437 -0.36606082
-0.81151193 -0.47743207 -0.99267024 -0.6151198 -0.29252222 -0.26092458 -0.21089742 0.3822834
-0.6054473 -0.25249362 0.3224096 -0.43283117 -0.19704235 -0.27990913 0.0031535423 -0.4632945

encoder.lob_enc.res_blocks.1.bn1.running_var f4 [32]
00000000: dac3 b03e 038d a53e 6eed 343e fbec 183e
00000010: 03e2 113f e099 853e a46e cc3d 463d c73e
00000020: b502 e93e 5c1b c63e 92ee 1d3e cb19 093e
00000030: a72c 4b3e adbc 023e 1995 cd3e 7abb c53d
00000040: a123 8e3e b77e 3d3e 886f 293e 3c13 7d3e
00000050: 4213 203e 4ae3 3b3f ee04 6d3e 8cc1 443f
00000060: aa24 903e a29a cb3e dc90 2a3f 53fb 383e
00000070: 382b a23e d5c0 a53e 2977 823e 526c 703e
0.34524423 0.32334146 0.17668697 0.14934151 0.5698549 0.2609396 0.099820405 0.38913935
0.45509878 0.3869275 0.15423039 0.13388745 0.19841252 0.12767287 0.40152815 0.09654899
0.27761558 0.18505369 0.16546452 0.24714369 0.15632346 0.7339369 0.23146412 0.7685783
0.28152972 0.39766413 0.6662729 0.18064623 0.31673598 0.32373682 0.25481537 0.23478821

encoder.lob_enc.res_blocks.1.conv2.weight f4 [32, 32, 3, 1]
00000000: d76f 0d3d c014 303c e69d 9bbd 4165 0b3c
00000010: c525 8cbc 01da 983d e913 d8bd 3ce2 3a3b
00000020: ac88 bb3d 953a 95bd d88a c43d 64c1 d9bc
00000030: 5689 b33d c4a4 6fbc 4193 9f3d f45d c0bd
00000040: 936e 0f3d aaba 5ebd 6706 283d f7e1 b3bd
00000050: ace0 0cbd 1000 563b b9b9 9abd b261 713d
00000060: ed67 4cbd a6c0 9dbc 5276 6abc 5e41 3f3d
00000070: 173a 2fbd f826 f33c c15f 2fbd 50e9 813c
00000080: 479f acbd 6ccf e8bc 7bb9 a9bd 001e a0bd
00000090: 0b53 ab3d c73c d3bd bd78 273d fa85 22bd
000000a0: a9df cc3d 0bf8 08bd dd4e 22bd 1183 2a3d
000000b0: fc4e 8ebd e195 80bd a6d0 a7bd aec9 9f3d
000000c0: 78ad ac3d 4e5d 72bd 6abb 883d 322d cbbd
000000d0: 65bc 5b3d f014 dcbd 21da ee3d bad1 f6bc
000000e0: 633f 1dbd 56b7 ef3c b66d a0bd a40f a53d
000000f0: f0c1 dbbc a633 2c3d 8550 623d e572 1b3d
00000100: 270d 15bd c744 bd3c df51 d8bd 7ef9 8abd
00000110: 4fec cfbd 71f2 24bc 2690 69bd 70a8 97bd
00000120: 3d33 1ebd 7b35 95bd 8b2b 143d ae38 c7bc
00000130: 7d1e c03d 7866 7a3d 3124 e0bc 01d7 5cbc
00000140: 95b5 c6bd 4f64 2f3d 809f 1dbb 9bf9 a03d
00000150: 34c7 c9bd 95d5 6c3b 9698 64bd 270e 79bd
00000160: d8d7 e3bb 6486 363d 68af 3c3d f74d 2fbd
00000170: ade9 92bd f115 d13c d2c9 a8bd 5787 0cbc
00000180: c152 cc3d d26e b3bd b7f6 40bd fe5f 0c3c
00000190: 9b68 12bd 1525 743b 153b 803d 2c9b ff3b
000001a0: a8e9 863d 27ef a0bd ac2d aabd d16c bcbd
000001b0: 92c9 0c3c 7577 97bd 6936 923d 403e 443d
000001c0: 292e f73c ca7c 51bc 5720 9cbd 6d3d a13c
000001d0: c512 aabd 9870 bebd b541 3dbd edbb 2ebd
000001e0: 7409 9fbd 3e50 113c 65b1 c9bd 4e7e b83d
000001f0: e112 28bd 62c2 71bc 652c 273a 67e2 b33d
00000200: e3b4 0f3d ef91 8a3d 01e7 7dbc 4841 09bc
00000210: 983f 44bc 357b 893d bfd8 4a3d e832 8c3d
00000220: 14c5 7d3d dc8c c1bd ab79 3abd 5207 573d
00000230: d2f1 193d 3249 aabd d10d af3d ac5c c03b
00000240: fb69 0c3d 428d 603c e593 7bbd 8082 403d
00000250: 2039 b23c 688a b53d bccb bf3d cf48 54bd
00000260: 593e 5ebc 10f1 b5bd a7b2 d63c b690 9dbd
00000270: d28b 4e3d ebfa 85bd cf3e c83d 2dec 8c3d
00000280: 84ac bcbd fb5b 13bc 9a82 dc3c 2283 6fbc
00000290: 66eb 88bd b955 f3bc f964 89bd 0fc5 97bc
000002a0: 6c3a bf3d 6827 45bd db82 293d 819d 2b3c
000002b0: 56f9 143d 7ac7 623d 2a34 263a b6b3 c73b
000002c0: 624f 14bd c20c ad3d dc66 263d d8b4 1b3d
000002d0: fbd7 2bbc 1bcd 95bd 560e bebd 00b9 1e3d
000002e0: f6ec 833c e72b 8e3d bdb7 a93d 12aa 14ba
000002f0: 6b94 863d 0f90 11bd c8cb adbd d350 823c
00000300: 8c03 36bd 03ad a53d 442f b33d e998 66bd
00000310: 191b 263a 9811 ab3c 5cf1 c8bd 4349 f23c
00000320: e732 9d3c 720f 623c c901 20bd 99b4 9a3d
00000330: adb5 98bd eb6b 303d cb29 343c 2644 c0bd
00000340: 6cf5 373c aa75 2ebd a4a7 56bd 37be 0bbd
00000350: 6919 863d 60b5 dd3b a79d 4cbd c964 69bb
00000360: b5c5 67bc 6d32 7b3c 56d7 2ebb 72f8 48bd
00000370: fe79 703d 1a78 c3bc a4c6 253d a608 493d
00000380: e249 a83d ad28 d63c e290 583d 5d47 6d3c
00000390: 2cdf 15bc 51a0 b53d f599 90bd 6212 6bbd
000003a0: 4523 88bd bb19 d73c 4ce0 763d 463f eebd
000003b0: 3acd 6dbd 7662 8dbd 4dad 653b 96a2 28b9
000003c0: 6e27 82bc 6297 57bc ea52 a5bd 956d 953d
000003d0: 44c9 77bd bf40 32bc 938d 1dbc cd4c 71ba
000003e0: abf6 c43d e2a2 79bd a192 a2bc 691d 7a3d
000003f0: 6a9d 783d dbed 64bd f37c 413d 7ba4 a63d
0.034530487 0.010747135 -0.07598476 0.0085080275 -0.017107854 0.07463456 -0.105506726 0.0028516194
0.091569275 -0.07286564 0.09596795 -0.026581474 0.08766429 -0.0146266855 0.07791758 -0.0939292
0.03501756 -0.054377235 0.04102173 -0.08783334 -0.03439395 0.0032653846 -0.07554955 0.05893106
-0.0499038 -0.019256901 -0.014310436 0.0466932 -0.04278001 0.029681668 -0.042815927 0.015858322
-0.08428817 -0.028419219 -0.08287331 -0.07818222 0.083654486 -0.10314327 0.04088663 -0.03967855
0.10003597 -0.033439677 -0.03962599 0.0416289 -0.06948659 -0.06278587 -0.081940934 0.07802139
0.08431524 -0.059171014 0.066763714 -0.0992073 0.053646464 -0.10746181 0.116626985 -0.030129302
-0.03839053 0.029262226 -0.07833426 0.08059624 -0.026825875 0.042041443 0.05525257 0.03795137
-0.036389496 0.023104085 -0.10562491 -0.06785868 -0.10152494 -0.010067568 -0.057022236 -0.07405174
-0.038623083 -0.07285591 0.03617434 -0.02431902 0.09380815 0.061132878 -0.027361007 -0.013478995
-0.09702603 0.04282027 -0.0024051368 0.078601085 -0.09852448 0.0036138047 -0.05580958 -0.060804512
-0.006953221 0.04456176 0.046065718 -0.042798962 -0.07173476 0.025523158 -0.08241619 -0.008577189
0.099767216 -0.08761372 -0.047110286 0.008567808 -0.03574429 0.0037253548 0.06261269 0.0078004804
0.06587535 -0.07858115 -0.083094925 -0.092004426 0.00859298 -0.073958315 0.07139284 0.04791093
0.030173378 -0.0127861 -0.07623356 0.01968261 -0.08304361 -0.09298819 -0.04620524 -0.04265969
-0.07765475 0.008869229 -0.098482884 0.09008466 -0.04103363 -0.014755817 0.000637716 0.08783417
0.035084616 0.06766116 -0.01549697 -0.008377381 -0.011978053 0.06712953 0.04952311 0.06845647
0.061955526 -0.09450695 -0.045526188 0.052497216 0.037584133 -0.08314742 0.08547557 0.0058704223
0.03428076 0.0137055535 -0.06142034 0.046999454 0.021755755 0.088642895 0.09365031 -0.05182725
-0.0135646695 -0.0888387 0.026208235 -0.07693617 0.05042631 -0.065419994 0.09777605 0.068809845
-0.09212592 -0.008994098 0.026917744 -0.014618667 -0.06685524 -0.029703962 -0.06708712 -0.018526582
0.09337315 -0.048133284 0.04138456 0.010474564 0.036370598 0.055366017 0.00063401705 0.0060944213
-0.036208518 0.08449699 0.040625438 0.038014263 -0.0104885055 -0.073145114 -0.09280078 0.03875065
0.016104203 0.069419675 0.082869984 -0.00056710944 0.06571277 -0.035537776 -0.08486134 0.01590768
-0.044436976 0.0808964 0.087492496 -0.05629817 0.00063364353 0.020882413 -0.09811661 0.02957595
0.019189311 0.013797628 -0.039064202 0.075539775 -0.07456527 0.04307167 0.010996292 -0.09387998
0.011227947 -0.042592682 -0.05240597 -0.03411695 0.06547815 0.0067660064 -0.049955036 -0.003561305
-0.014146258 0.015331847 -0.0026678643 -0.04906506 0.05871009 -0.02386098 0.04047264 0.049080513
0.08217217 0.026142443 0.052872546 0.014482346 -0.009147447 0.088684686 -0.07060615 -0.057390578
-0.06647352 0.026257386 0.0602725 -0.11633162 -0.058057047 -0.069035456 0.0035045922 -0.00016082296
-0.015887942 -0.013158651 -0.08072455 0.07296292 -0.060494676 -0.0108796945 -0.009616273 -0.00092048646
0.09617361 -0.060946353 -0.019845309 0.061063204 0.060696997 -0.0558909 0.0472383 0.08136841

encoder.lob_enc.res_blocks.1.conv2.bias f4 [32]
00000000: a6de 5bbd a699 4dbd 68ae aabd e46b 03bd
00000010: cb36 0fbe 4eda b8bd 128d d3bd 0d99 f4bc
00000020: 2c87 1dbe 1b6a 3dbd 216b 04be 1a80 b7bc
00000030: de7a a2bd e1ab 92bd 00b5 4ebd 905c 40bd
00000040: 7bef 2cbd 0c89 c2bc ac80 ffbd 9b9a 06be
00000050: f3f1 3fbd 7717 38be 83a2 59bd f1e8 f1bc
00000060: 2916 4dbc 4887 a8bb ef65 04be 6798 1fbe
00000070: 38f5 eebd fcc7 32be 7a94 91bd 046b 02bd
-0.05367913 -0.05019536 -0.083340466 -0.032085314 -0.13985746 -0.09026013 -0.103296414 -0.029858137
-0.15383595 -0.04624377 -0.12931491 -0.02239995 -0.07933591 -0.071616895 -0.050465584 -0.046963274
-0.042220574 -0.02374699 -0.12475714 -0.13144915 -0.0468616 -0.17977701 -0.0531335 -0.02953002
-0.01251749 -0.00514308 -0.1292951 -0.1558548 -0.116678655 -0.174591 -0.07108398 -0.03184034

encoder.lob_enc.res_blocks.1.bn2.weight f4 [32]
00000000: e3df 803f ef05 803f f639 813f cde8 7e3f
00000010: ddfc 803f 72e0 803f d00b 813f 5ef6 803f
00000020: 9908 813f 38b6 803f dc56 7f3f 3c53 7f3f
00000030: 6944 813f 76ac 803f df87 7d3f 59b5 803f
00000040: 15a3 803f 54d2 7f3f 3861 803f 4d0b 803f
00000050: 7c3a 803f dbfc 803f 7058 7f3f cb08 813f
00000060: d72d 823f 3b98 803f fffc 803f 231a 813f
00000070: ddd7 803f a58d 7d3f 7333 813f 2706 813f
1.0068325 1.0001811 1.0095813 0.99573976 1.0077168 1.0068495 1.008173 1.0075185
1.0080749 1.0055609 0.9974191 0.9973638 1.0099002 1.0052631 0.9903545 1.0055343
1.0049769 0.9993031 1.0029669 1.0003449 1.0017848 1.0077165 0.9974432 1.0080808
1.0170239 1.0046457 1.0077208 1.0086101 1.0065876 0.9904426 1.0093826 1.0080003

encoder.lob_enc.res_blocks.1.bn2.bias f4 [32]
00000000: a341 fe3b 3f79 6439 c284 1d3c 5c69 c5bb
00000010: dc1f 083c 661c de3b 2a49 153c 0113 0b3c
00000020: f7a2 103c a721 063c cb82 62bb 7ecd 9b39
00000030: 8ecb ea3b 3adf 8d3b 4897 2bbc 0e45 e93b
00000040: 4654 c13b 7a2c a239 eff7 0b3c ac99 9339
00000050: 57c5 4fba 3fef 133c a54d 9abb a12e 063c
00000060: fbd3 1a3c 9a0a 493b 51f5 103c b5ab 073c
00000070: 0983 0a3c 1d5d 14bc d163 173c 98de 143c
0.0077592894 0.00021788942 0.009614171 -0.0060245227 0.008308377 0.0067782877 0.009111682 0.008488418
0.008827916 0.008186734 -0.0034562822 0.00029717007 0.007165379 0.004329589 -0.01047308 0.0071188277
0.0058999388 0.00030932185 0.008542999 0.0002815252 -0.0007925829 0.009029209 -0.004708963 0.008189828
0.009449954 0.0030676485 0.0088475505 0.008280684 0.008454093 -0.009055403 0.009240107 0.009086274

encoder.lob_enc.res_blocks.1.bn2.running_mean f4 [32]
00000000: 559d d6be a2af 19ba c255 4bbe 8c22 c9bd
00000010: 6d01 45bd 8060 973d c6a9 31be 2133 2abd
00000020: f291 c93d dd97 8fbe abbc 873d 745d 19be
00000030: b16f 6fbe ed0c 53bd 3334 95be bb3d 553d
00000040: a032 d5bd c0dd 223e c137 84bd 869d 7fbe
00000050: f850 4e3e db8d 2ebd ec54 ccbe b3f2 21be
00000060: af7d f8be 869d dcbc 08ca a1be 97f2 edbb
00000070: ad6a 23be e285 a8be 2bb3 ddbe b78f 7e3e
-0.4191691 -0.0005862658 -0.19856933 -0.098210424 -0.048097063 0.07391453 -0.1734992 -0.041552667
0.0984229 -0.2804555 0.066277824 -0.14977056 -0.2338245 -0.051526 -0.29141387 0.052060824
-0.104100466 0.15904903 -0.06455947 -0.24962434 0.20148075 -0.042615753 -0.3990854 -0.15815239
-0.4853339 -0.026930582 -0.3159945 -0.007261585 -0.15958662 -0.32914644 -0.43300757 0.2485951

encoder.lob_enc.res_blocks.1.bn2.running_var f4 [32]
00000000: 89dc 463e 1af6 0b3e e8f5 803d 2c0a 963d
00000010: 5ff2 e63e e298 1d3e e8c4 0b3e 09cd 083e
00000020: 2429 f23d 8cb5 553d d342 c23d a219 4f3d
00000030: b422 c73d b57a 7f3d f0fc 773d 4ddb a53d
00000040: f8cb 373d b490 243e d85f 713d ac96 b43d
00000050: 7abb c63d 4575 b53d e032 a23e 2188 6f3e
00000060: 3076 a53d 0262 9d3d f5ae 043e fb5f 1b3e
00000070: 9a63 7f3d 58df d73d a808 163e 637a 863d
0.19420065 0.13668099 0.06296903 0.07326159 0.4510679 0.15390351 0.13649333 0.13359465
0.11824253 0.05217509 0.09485402 0.050561555 0.09723416 0.062372882 0.060543954 0.08098469
0.044872254 0.16070825 0.058929294 0.08817801 0.09703727 0.08860258 0.3167944 0.23391773
0.08079183 0.07684709 0.12957366 0.15173332 0.062350847 0.10540646 0.1465174 0.06566312
