outputs/performance_test/checkpoint_epoch_39.pt (torch, 945914 bytes, 81 tensors)

encoder.lob_enc.conv_in.0.weight f4 [32, 2, 3, 1]
00000000: 1335 d2bd 5ab4 a13e b202 77be c0c1 6ebd
00000010: 1431 373b bf94 54be 8db5 7b3c 0aaa bfbd
00000020: 9a7f 4dbe c386 a5be 2ab3 a9bb 2765 c03e
00000030: e275 243e 4bf2 9dbe 6f03 53be 2adf 8a3e
00000040: 70a5 19be 78b1 16bd a2c6 35be f819 553e
00000050: 0a1b 89be ee88 c7be 834f aebe 1321 b2be
00000060: 2725 643d 98ea a53d 6a5c 06be 2e6a 0f3e
00000070: 9704 393d 4236 b73d e225 4f3e 7940 b73d
00000080: 3d4e c53e 35b6 a23e 77f8 5fbe 8d09 9d3e
00000090: 28e2 3fbd 73ab bfbc 11f1 123d b51a b9be
000000a0: dc73 873e 6daf 853e 53cb c63e 7ea0 903d
000000b0: 9ca6 edbd ea88 8abd b3fa 10be e24d c1be
000000c0: 2628 163e a76a 7d3d aed1 f0bd 225d 6fbe
000000d0: e052 b9bd 1728 f33d b252 9d3e 7108 4c3e
000000e0: 1381 983e 3b57 a73e 4865 3fbe 76d6 6cbc
000000f0: 6bfd abbe 0091 67be 1123 2f3e 648e 203e
00000100: d9dc 3e3e af14 b73e 918d 273e c5cf 4dbe
00000110: 5716 b9bd 580f f03c 2ac8 513e 8d18 5bbe
00000120: 33bf 23be e59c 143e 849d 1d3e baf0 cc3e
00000130: 0917 b53e 444c 2fbe 9036 1c3e f2cc 6dbe
00000140: b3be 4fbb 21ba 8fbc ae66 dd3d a369 c23e
00000150: d0a8 a9be 645e b93e 3237 8b3e fecc 58be
00000160: d95e 00be a750 d3bd 6019 7d3e dc64 f4bd
00000170: 6748 123e 5d64 2abe 06f2 aa3e a564 1bbd
00000180: 6f08 ce3e 360d 97be aae1 f1bd aeba 873e
00000190: 4038 113e 7054 4abe 35eb b2be df00 9ebe
000001a0: b23c a9be c11a 82be b545 82be d250 f7bd
000001b0: ab65 b53e 0f9a d7bd d13c 82be db43 4e3e
000001c0: 32a0 73be 296d 50be 528f 51bd cf00 a2bc
000001d0: 6cc8 89be 0239 a8be 26c4 d0be 685d 32be
000001e0: 1789 453e 3b5c ee3c fbe2 a23e 0f7f 563d
000001f0: 242b a3be 04e1 8a3c 4622 ddbd 98a3 683e
00000200: 9e85 cd3d bf9d cf3e 34a5 babe c4c4 4fbe
00000210: d1ff aabe a764 3b3d fca8 80be 9fd2 24be
00000220: 6c62 cd3e b8cc 09be 9997 433e c668 883e
00000230: 802d 9a3e 0cd6 a43e da1f 863e 5f7b 3b3d
00000240: dac4 b33e aedc c63e 229c 8bbe d2d6 b83d
00000250: 7674 8f3e ac25 8dbe fec2 453e f079 853e
00000260: 0677 05bc 0546 d4bd 2b07 12bd 155b a83e
00000270: fe76 abbe 3ad2 1e3e 5f3f 6dbe 226b 873e
00000280: 1df4 32be d08a a33d b992 793e 6cc9 56bd
00000290: e3d2 1abd a524 b43e 03d9 c93e 6b3c 733e
000002a0: b4b4 c93c a791 15bc 1d94 7bbe 3add 903e
000002b0: f7c9 223e 822a ad3e e79c 8abe d4ed bc3d
000002c0: 8bd0 993d baf7 08be b504 4bbd 6994 9e3d
000002d0: 27b7 f2bd f94f c43e d01a bebe 435e 84bd
000002e0: 9794 4abe 42e3 9a3e bf49 10be 8eb3 b7bd
000002f0: 9443 b73e 0e15 b3be bc3b 04be bacd b63e
-0.10264029 0.3158291 -0.24122122 -0.058290243 0.0027952837 -0.20759867 0.015363109 -0.09358604
-0.20068207 -0.32329378 -0.0051788287 0.37577173 0.16060594 -0.30848917 -0.20606779 0.27123386
-0.15004516 -0.03679034 -0.17751554 0.20810688 -0.26778442 -0.38971657 -0.34045038 -0.3479086
0.055699494 0.08101386 -0.1312119 0.14005348 0.045170393 0.08945896 0.20229295 0.08947844
0.38536254 0.31779638 -0.21872126 0.3067135 -0.04684654 -0.023397183 0.03587443 -0.36153188
0.2645558 0.26110402 0.38827 0.070618615 -0.11604044 -0.067643955 -0.14158134 -0.37754732
0.14663753 0.06186929 -0.11758743 -0.23375371 -0.0904901 0.11872881 0.30727154 0.19925095
0.29785976 0.3268374 -0.1869098 -0.014455428 -0.3359178 -0.22613907 0.1710322 0.15679318
0.18638934 0.35757968 0.16362597 -0.20098789 -0.09037464 0.029304191 0.20486513 -0.21396084
-0.15990905 0.14512976 0.15392119 0.4002741 0.35369137 -0.17118937 0.15255189 -0.23222712
-0.003169936 -0.017544808 0.108106 0.3797122 -0.33136606 0.36204827 0.27190548 -0.21171948
-0.12536182 -0.103181176 0.24716711 -0.119333 0.14285432 -0.16639848 0.33387774 -0.03793778
0.4024081 -0.29502267 -0.1181062 0.26509613 0.14181614 -0.19758773 -0.34945074 -0.3086004
-0.3305412 -0.25411037 -0.25443807 -0.12075962 0.3542913 -0.10527431 -0.25437024 0.20143072
-0.23791578 -0.20354141 -0.05116207 -0.019775776 -0.26910722 -0.32855994 -0.4077465 -0.17418444
0.19290577 0.029096713 0.31813797 0.052367266 -0.3186885 0.016952999 -0.10797553 0.22718656
0.10035251 0.40550038 -0.36454165 -0.20289904 -0.33398297 0.045750286 -0.25128925 -0.1609597
0.40114152 -0.13457 0.19100799 0.26642436 0.3011284 0.32194555 0.26196176 0.045771953
0.35111123 0.3884024 -0.27267557 0.09025349 0.2801854 -0.27567804 0.19312665 0.26069593
-0.008146053 -0.10364918 -0.035651367 0.3288199 -0.3348922 0.15509883 -0.23168705 0.26448923
-0.17475934 0.07985461 0.24372377 -0.052438185 -0.037798773 0.35184208 0.3942338 0.23753516
0.024622299 -0.0091289645 -0.2456822 0.28293782 0.15897356 0.33821493 -0.27072832 0.092250496
0.075104795 -0.1337575 -0.049565036 0.07743151 -0.1185134 0.38342264 -0.3712983 -0.064632915
-0.19783245 0.3025151 -0.14090632 -0.08969794 0.35793746 -0.34977 -0.12913412 0.35703832

encoder.lob_enc.conv_in.0.bias f4 [32]
00000000: c3db 923e ed1b eebd d151 9dbd 1c3a 47be
00000010: 4d73 a53d b118 f53d c532 8d3e 3d7f 373e
00000020: e5db 523e 6924 85bd cb60 95be e5d1 663e
00000030: 8957 e8bb 76c4 88be 319c 153d 11cf ce3e
00000040: 19fa 0cbd df99 aebe e176 7c3e 716c 9b3e
00000050: b991 85be 00d0 b6be 948c 95be 15e0 2b3e
00000060: ef8f 2bbe a851 cdbe b9fc efbc 6b64 54be
00000070: 957c f7bd 62fc 24be f544 0cbe c316 88be
0.2868329 -0.1162642 -0.07681621 -0.1945576 0.080786325 0.119676 0.27577797 0.17919631
0.20591696 -0.06501085 -0.2917541 0.22541006 -0.007090513 -0.26712388 0.03652591 0.40392354
-0.0344182 -0.3410177 0.24654724 0.30356172 -0.2608774 -0.35705566 -0.29208815 0.167847
-0.16754125 -0.4010136 -0.029295312 -0.20741431 -0.12084309 -0.16111901 -0.1369818 -0.26579866

encoder.lob_enc.conv_in.1.weight f4 [32]
00000000: 8cca 803f 41bc 803f 3f10 813f f491 803f
00000010: 8dd3 7f3f b6d9 7f3f f1ad 7e3f 607b 813f
00000020: 41a9 803f d1b3 803f 6dd4 793f 73f3 7d3f
00000030: d357 803f 67cb 7c3f 9701 7f3f 8534 803f
00000040: 8f43 7d3f d433 813f 88de 803f dcc8 7f3f
00000050: fa8f 7d3f 63e7 7d3f a0a7 803f 564f 7e3f
00000060: 7f95 803f 84ff 7e3f 2179 803f 352f 813f
00000070: 5468 803f 42a2 7e3f 1bc9 823f 1e9e 803f
1.0061812 1.005745 1.0083083 1.0044541 0.99932176 0.99941576 0.99484164 1.0115776
1.0051652 1.0054876 0.9758976 0.991996 1.0026802 0.9874787 0.996118 1.0016028
0.9893121 1.0093942 1.0067911 0.9991586 0.99047816 0.99181193 1.0051155 0.9933981
1.0045623 0.99608636 1.0036966 1.0092531 1.0031838 0.99466336 1.0217623 1.0048254

encoder.lob_enc.conv_in.1.bias f4 [32]
00000000: 3577 353b 25fd 9e3a b7c1 e73b cd0e 6fba
00000010: 2c16 a0bb 1fa7 de3b cad5 183c 4389 a73b
00000020: b287 913b 3887 023c 52ea 17bc 397f f1ba
00000030: 0cee 13bc f0ab c2b9 7bc6 70bb 9fa5 433c
00000040: 71ff 603b 9b3e af3b ee29 6c3b 8d23 e4b9
00000050: 57e2 e73b 4aae 55ba df62 daba c539 123c
00000060: 94e1 333c 8b0e 253b 95af 2c3b e35a 0b3c
00000070: 74f2 0d3c 7228 19bc f3f6 803c da12 0a3c
0.002768946 0.0012129886 0.007072653 -0.0009119332 -0.0048854556 0.0067948247 0.009328315 0.0051127984
0.004441225 0.007966809 -0.009272175 -0.0018424756 -0.009028923 -0.00037130667 -0.0036739397 0.011941343
0.0034331942 0.0053480393 0.0036035734 -0.00043514036 0.0070765424 -0.0008151276 -0.0016661546 0.008924906
0.010979075 0.002518567 0.0026349772 0.008505556 0.008663762 -0.009348022 0.015742755 0.008427346

encoder.lob_enc.conv_in.1.running_mean f4 [32]
00000000: 2267 45cd c7e4 20cd 304c 3fcd 8273 63ce
00000010: 32f3 424d 6e81 3a4e 8edd b84c fc8e 29cd
00000020: 0a3c 9fcc 3a81 204e 21c3 554d ee6d 94cc
00000030: db40 fc4d d022 854d f5df b8cc 916d 8b4d
00000040: 3174 074d 646d 8cce 9085 2dcd 3e22 59ce
00000050: a32d 454d 5e59 184c ba18 93cd d520 714e
00000060: 26b1 c54d d093 dc4d c12b 27cd 6c58 454e
00000070: cdd6 be4d 6905 10cd c1e1 2ecc 545a 8749
-2.069919e+08 -1.6870923e+08 -2.0059008e+08 -9.539995e+08 2.0441987e+08 7.822611e+08 9.692274e+07 -1.77795e+08
-8.348475e+07 6.732059e+08 2.2414594e+08 -7.781976e+07 5.290136e+08 2.792064e+08 -9.6927656e+07 2.924017e+08
1.4203368e+08 -1.1779896e+09 -1.8195072e+08 -9.10725e+08 2.067564e+08 3.99374e+07 -3.084839e+08 1.0113652e+09
4.1459014e+08 4.6258432e+08 -1.7529141e+08 8.277266e+08 4.0021853e+08 -1.510171e+08 -4.5844228e+07 1.1088105e+06

encoder.lob_enc.conv_in.1.running_var f4 [32]
00000000: f37e 6e5b edb4 315b b28c 7d5b ed3e 6c5d
00000010: e286 355b b408 225d 77e1 f35a bbe8 645b
00000020: 724b 385a 2a27 f05c 6db1 965b a757 8b5a
00000030: 9276 955c e485 b65b 7327 145b 2c50 bf5b
00000040: 2962 615b 36c1 b15d 0311 885b 89f6 545d
00000050: 01c2 6a5b 0966 a95a de2d f95b c511 835d
00000060: 9a47 5a5c d837 625c 539a 2c5b 3881 315d
00000070: cde0 2c5c 8b6f 085b 035f a65a bc2b 385b
6.7130627e+16 5.002e+16 7.1367865e+16 1.0639565e+18 5.1095276e+16 7.2973625e+17 3.432316e+16 6.4432185e+16
1.2968587e+16 5.4077645e+17 8.483266e+16 1.9610698e+16 3.3656113e+17 1.0275132e+17 4.170167e+16 1.0769974e+17
6.34398e+16 1.6010723e+18 7.65986e+16 9.591002e+17 6.6078454e+16 2.384073e+16 1.402754e+17 1.1805683e+18
2.4576109e+17 2.5469898e+17 4.8583377e+16 7.994104e+17 1.9464347e+17 3.840324e+16 2.3414656e+16 5.1839482e+16

encoder.lob_enc.res_blocks.0.conv1.weight f4 [32, 32, 3, 1]
00000000: 0a37 2abd 85bf 9dbd e7b4 babc e389 a4bd
00000010: c987 21bc 83b8 4a3d ab43 8abd b3f6 28bd
00000020: 33ca f7bc 1e58 4dbd eec3 acbd 08a1 6c3c
00000030: 6987 b9bc 42ea dbbb 9ba2 02bd 4942 94bd
00000040: 9d37 3ebd 3c35 423d 8977 743d 7632 1ebd
00000050: e382 513d 8ed1 a7bd 17c5 b4bc cf4a c5bd
00000060: 63ef 09bd c050 5e3c c84b 323d a6ab dc3c
00000070: a147 143d df8d debc 1277 be3d 6ee1 afbd
00000080: 94f2 e4bc f5e6 08bd ed89 623d a801 b43c
00000090: fe11 ac3d c9a7 a2bd 7a09 e23c 96f3 b6bd
000000a0: 6b0d c63c c90f 4dbd 045c 69bd 8eb5 013b
000000b0: 104c 9cbb dd7e bc3d 7c57 963d 36f8 043b
000000c0: fa45 133d d751 cdba 4c01 e4bc 066c b7bd
000000d0: f4f9 c4bd cc32 55bb 4c28 8cbd b1af 8f3d
000000e0: ccd6 58bd 7f71 3c3c f7fc 81bd 6802 b73d
000000f0: f642 353d a76c 3a3d 2ec6 bb3c 2b00 d6bc
00000100: 1151 60bd e151 69bd d009 d4bd 8702 f8bc
00000110: 3418 4fbd e356 a63d 4b4d b33d f8bd 94bd
00000120: 16b1 14bc 5af9 c1bd 44e8 343d 07d9 8b3d
00000130: 857c 82bd 5981 9cbd 089d 03bd b843 913d
00000140: 77e2 803d 3b11 86bd 36b3 cdbb d7d8 a9bd
00000150: 999b a83d 86f6 0b3d 89d0 3dbd 8220 023d
00000160: 57f6 23bc 1e7f b2bd 3fef c3bd 730d b93d
00000170: 3c86 7ebd 746b 623d 86c3 06bd da37 0f3d
00000180: 4c33 cb3c 4320 203d ca58 74bd 7e0c 023d
00000190: a39a 303c 9fe1 78bc 04bc 5bbc 4377 78bc
000001a0: 76b6 0d3d 5628 2e3d ebb5 72bd 440d c2bc
000001b0: c176 79bc 2f11 0dbd 4f6c 5a3d f870 d23d
000001c0: 5b56 483d b3ac bfbc 56b3 933d 1643 d83d
000001d0: d947 92bc 7d7e 903d 0342 863c 267a 2ebd
000001e0: 6067 443c 1717 043b c4d4 0f3c ab87 9fbc
000001f0: fa62 97bd 1218 b6bd a5bf 75bd 0ed5 6c3d
00000200: 190a 08bd c8b5 f9bd f5e0 a93d bda4 fdbd
00000210: c62a 993c ba22 c43d 5a3d 42bd 52b9 013c
00000220: 1b7e b83d bbf7 a33d c3bd a43d 03af 96bb
00000230: 344c 6d3d e232 2c3d e994 893c 4a6c aa3d
00000240: 87f6 de3c a4b4 ab3d d635 67bd 78cd 333c
00000250: d913 ecbd f5c3 90bb 433d 913c 9934 433d
00000260: 2e66 d63c 1ae0 84bd a19c 233d bc14 fdbd
00000270: 94c6 b93d bf3d 183d fefc 34bc c08f f03c
00000280: f864 343d 4b76 83bd 53fa 3f3d 40e7 c83a
00000290: 9115 a63d 0b19 0f3c 9011 693c 09f3 ce3c
000002a0: ddfa aa3d ea74 8fbd 4e5d 913d dbf6 8b3d
000002b0: 1f17 1cbc 9f55 93bd d304 603d a2bc e83c
000002c0: bf53 53bd d84a b93c 8062 e2bc 2b88 36bd
000002d0: 6f9d df3d 70b9 283d d5ac 1e3c 6a51 733d
000002e0: 14fc 803d e7e0 293d 3840 313d 5559 d0bd
000002f0: 4d6c 4bbd 33ba c23d ddef f33c 833e b23c
00000300: 2bdf 93bd e8c5 7ebd ec80 1bbd 7f1d 343d
00000310: 8db1 35bd fa3b a13d 7682 b4bd c387 1bbd
00000320: a09e 803d 8985 3abd 1aae 59bb 4015 03bd
00000330: 69ae fd3c c68d 5cbd e897 a1bd f54b 37bd
00000340: c81d 133d 6e3f 05bd 203b a2bd 2148 ebbc
00000350: f8e4 3bbd c1bd b03d 8833 fabc 2ee8 043d
00000360: 7511 cb3d 3479 9bbd db5a 283d 002c ce3b
00000370: fe8c a23d 369f 80bb 5bf5 f23c 1a55 c1bd
00000380: 6652 c73d a06a 93bd a99c 403d 0958 bbbd
00000390: d702 8c3c 90f8 14bb 2f0b 963d b916 c8bd
000003a0: 8e5c ac3d 77e6 c53d dcbf 623c dddf b33d
000003b0: 7acd a43d 07c7 443a a4b7 4d3d 7f32 2d3b
000003c0: 4a97 883c d0c4 adbd dc03 19bd c136 77bd
000003d0: 6260 86bd 902e 91bd cbc9 5bbd af76 08bc
000003e0: 41c7 cdbc bf68 2e3d a8d6 243d 3b30 07bd
000003f0: 2e3a 7e3d cf47 a4bd 648d 8bbd e826 b63d
-0.041556396 -0.07702545 -0.02279134 -0.08034112 -0.009859034 0.04949237 -0.06751188 -0.041250896
-0.030247783 -0.050132863 -0.08435808 0.01444269 -0.022647576 -0.0067112753 -0.031893354 -0.072392054
-0.046439756 0.04741405 0.05968431 -0.038622342 0.051150214 -0.08194266 -0.022066636 -0.09633409
-0.033675563 0.013569057 0.043529302 0.026937317 0.036201123 -0.027167259 0.093000546 -0.08587919
-0.027947702 -0.033423383 0.055307318 0.021973446 0.08401869 -0.07942159 0.02759241 -0.08933179
0.02417632 -0.050063882 -0.05697252 0.0019792053 -0.0047698095 0.09203885 0.07340905 0.0020289547
0.035955407 -0.0015664649 -0.02783265 -0.08956151 -0.09617987 -0.0032531498 -0.068436235 0.07015932
-0.05293922 0.011501669 -0.06347077 0.08936006 0.044253312 0.045513775 0.022921648 -0.026123127
-0.05476481 -0.05696285 -0.10353434 -0.030274643 -0.05056019 0.08122041 0.08754977 -0.07262796
-0.009075424 -0.09471388 0.04416682 0.06828504 -0.063714065 -0.076418586 -0.03213218 0.070929945
0.06293195 -0.06546255 -0.006277467 -0.08293312 0.08232803 0.03417065 -0.046341453 0.031769283
-0.010007462 -0.08715652 -0.09567117 0.09035768 -0.062139735 0.055278257 -0.03290131 0.034965374
0.024804734 0.039093267 -0.05965499 0.031750195 0.010779056 -0.015190511 -0.013411526 -0.015165153
0.034597836 0.042518936 -0.05925552 -0.023687966 -0.015226067 -0.034440216 0.053325947 0.10275453
0.04891048 -0.02339778 0.0721194 0.105596706 -0.017856525 0.07055376 0.016388899 -0.04259696
0.011987537 0.0020155364 0.008778755 -0.019473871 -0.07391925 -0.0889131 -0.05999722 0.057820372
-0.033212755 -0.12192875 0.0829486 -0.12384937 0.018697154 0.09576936 -0.04742179 0.007917719
0.09008428 0.08006235 0.08044007 -0.0045984997 0.057934 0.042040713 0.016794639 0.08321436
0.027217163 0.08384064 -0.056447826 0.010974281 -0.11527223 -0.004417891 0.017729407 0.047657583
0.02617177 -0.064880565 0.039944295 -0.123574704 0.09071079 0.03716826 -0.011046646 0.02936542
0.044041604 -0.06419047 0.046869587 0.0015327707 0.08109582 0.008733998 0.014225379 0.025262373
0.083486296 -0.070047215 0.070978746 0.06834193 -0.009526997 -0.07194065 0.0546921 0.02841026
-0.05159354 0.022618696 -0.02763486 -0.044563454 0.109187 0.041192472 0.009684761 0.059403814
0.0629808 0.04147425 0.043274134 -0.10173289 -0.04966383 0.09508171 0.029777462 0.021758324
-0.072203 -0.062200457 -0.037964746 0.043973442 -0.04435878 0.07872768 -0.08813946 -0.03797127
0.06280255 -0.045537505 -0.0033215345 -0.032002687 0.030966954 -0.053846143 -0.07890302 -0.044750173
0.035917073 -0.032531194 -0.079214334 -0.028720917 -0.04587266 0.08629943 -0.03054215 0.032447986
0.09915439 -0.07591477 0.04110227 0.0062918663 0.079370484 -0.0039252294 0.02965801 -0.0944006
0.09732513 -0.071980715 0.047024403 -0.09147651 0.017091198 -0.0022731163 0.07326352 -0.09769959
0.08416091 0.09663098 0.013839688 0.08782933 0.08047004 0.0007506464 0.05022396 0.0026427803
0.016673703 -0.08484805 -0.037357196 -0.06035495 -0.06561352 -0.07088959 -0.05365924 -0.008329078
-0.025119426 0.042580362 0.040243775 -0.03300498 0.062067203 -0.08021509 -0.068140775 0.088941395

encoder.lob_enc.res_blocks.0.conv1.bias f4 [32]
00000000: 4808 3fbe db2c 4abe 0541 3dbe 1531 89be
00000010: 4142 90be 8c36 63be 00ad 84be 2a42 03be
00000020: eec4 75be 4bfc 59be bcf7 38be b5bd 22be
00000030: 28fb d1bd 508c 3fbe fb6b 16be 7d05 2bbe
00000040: d3d6 d3bd 0df1 1ebe 758f 1bbe 7bf3 38be
00000050: 04bb 21be c29f 4abe 452a 76be f802 5fbe
00000060: 5caa e2bd 4d72 36be ab9e b9bd d16e d5bd
00000070: c212 c0bd 24d4 32be 9c15 0dbe 0b45 34be
-0.18655503 -0.19743674 -0.18481834 -0.2679526 -0.28175548 -0.22188777 -0.2591324 -0.12818208
-0.24000904 -0.21287648 -0.18063253 -0.1589268 -0.102529824 -0.18705869 -0.14689629 -0.16701312
-0.10343709 -0.15521641 -0.15191443 -0.1806163 -0.15793997 -0.19787505 -0.24039562 -0.21778476
-0.1106765 -0.1781704 -0.09063467 -0.10421527 -0.09378578 -0.17463738 -0.13777775 -0.17604463

encoder.lob_enc.res_blocks.0.bn1.weight f4 [32]
00000000: 92d2 7d3f 3f40 7f3f 0f9b 803f 93d9 7f3f
00000010: fe94 7b3f 9827 813f cdf0 7d3f d684 7f3f
00000020: 6175 7e3f caff 7e3f b73b 7e3f 6b1d 803f
00000030: 9db3 803f 18b2 7f3f 01b2 7e3f 76e4 803f
00000040: 7347 7e3f 6454 813f c02b 7f3f 6ac0 7b3f
00000050: cee9 803f a7bc 7c3f 294f 823f ee8d 803f
00000060: f6f2 803f 554a 823f 7c90 803f b43f 823f
00000070: 5842 7e3f 69a7 803f 5e70 813f 37cb 803f
0.9914943 0.99707407 1.004732 0.99941367 0.9827422 1.0090208 0.9919556 0.99812067
0.99397856 0.99609053 0.9930987 1.0008978 1.0054814 0.99881124 0.9949036 1.0069721
0.9932777 1.0103879 0.9967613 0.98340476 1.0071352 0.9872536 1.0180408 1.0043314
1.0074146 1.0178934 1.0044093 1.0175691 0.9931998 1.005109 1.0112417 1.0062016

encoder.lob_enc.res_blocks.0.bn1.bias f4 [32]
00000000: 1788 d53b d0a5 a73b 7046 8a3a 6b71 a339
00000010: 94fe 9a3a e828 343c 7c37 043c 5724 383c
00000020: d8b1 15bb 9634 d9ba 0823 1abc b8dc f03b
00000030: b05e 253c 989e a53b a080 703b 64f6 61bb
00000040: 7cd4 e83a d74d ca3b 5d27 03bc ee2e 87bc
00000050: 3611 033c edf5 8e3a 504a 773c 114b 443c
00000060: 183f d43b 30a2 113c 7935 a13a 8a53 a63c
00000070: 8b2e bbbb 1c72 ef3b 6e3c fc3b 3e50 2f39
0.0065164673 0.005116202 0.0010549556 0.00031174286 0.0011825138 0.010996081 0.008069869 0.011239133
-0.00228416 -0.0016571458 -0.009407766 0.0073505305 0.010093376 0.0050543062 0.003669776 -0.0034479136
0.0017763521 0.00617383 -0.00800499 -0.01650187 0.007999709 0.0010907032 0.015093401 0.011980788
0.006477248 0.008888766 0.0012299261 0.020303506 -0.0057123355 0.007307304 0.0076976335 0.00016719193

encoder.lob_enc.res_blocks.0.bn1.running_mean f4 [32]
00000000: 2665 07bf 0b83 073e abaf 07bf eb32 15bf
00000010: 50ef b4be 13dc 05bf f032 6abe de33 02bd
00000020: f437 86be b95a 0fbe 38d2 6a3e af96 a93e
00000030: fb2e 9fbe 3238 80be 5f70 e5be b553 4d3e
00000040: eda1 15be d16a 2cbe b78b 8bbd c230 c7be
00000050: 91ba 78be bf52 f6bd d88a d9be 5d22 06bf
00000060: d4cd 04be 1dfb 38bf e11e 0fbe 2f4e abbe
00000070: 7338 f8bd 9911 4cbe bd07 a2be f081 743d
-0.52888715 0.13233583 -0.53002423 -0.5828082 -0.3533883 -0.5228893 -0.22870994 -0.031787746
-0.26214564 -0.13999452 0.22931755 0.33122775 -0.3109053 -0.25042874 -0.44812295 0.20051463
-0.14612551 -0.16837622 -0.06813758 -0.38904387 -0.2428992 -0.12027501 -0.42488742 -0.52396184
-0.12969142 -0.7225817 -0.13976623 -0.33458087 -0.12120142 -0.19928588 -0.3164653 0.05969423

encoder.lob_enc.res_blocks.0.bn1.running_var f4 [32]
00000000: eb89 5c3d 4c12 e23e e820 a43d 32e0 933d
00000010: ee8c 7b3d 059a 523d 8b22 863e ca6b c13d
00000020: f09b d63d c05f 0d3e 0976 913e f19f f33d
00000030: 3fe7 203e fdb5 413d 650a b23d a389 7f3d
00000040: 02f9 863e c563 823e e1f7 b63d 4616 e23d
00000050: 53c7 163d b832 5a3e 230a d83d cee6 0f3f
00000060: 852c 0b3e c00c 163e 0507 083e 54e8 db3d
00000070: 47c7 f13c 8e2a 8e3e acc1 be3d a30a 8c3d
0.053842466 0.44154584 0.08014089 0.07220496 0.061413698 0.051416416 0.2619823 0.09444387
0.104789615 0.13806057 0.28410366 0.11895741 0.15713213 0.0472927 0.08693389 0.06238712
0.26361853 0.25466743 0.08933998 0.110394046 0.036811184 0.2130841 0.105488084 0.56211555
0.13591202 0.14653301 0.13283928 0.107376724 0.029513968 0.27766842 0.09314284 0.06837966

encoder.lob_enc.res_blocks.0.conv2.weight f4 [32, 32, 3, 1]
00000000: b8bc a13c 56fc fa3c 00e6 84bd d141 a33d
00000010: 1488 d23c 6744 13bd 1135 a2bd 3220 81bd
00000020: 0939 97bc 0932 893c 6da0 1c3d e5a4 d13d
00000030: 2b29 8e3d f1a0 e7bb 7f84 97bc 3e02 aa3d
00000040: a49f 1abb a5a5 5a3c dc29 80ba 4739 b73d
00000050: 3686 753d 735b f83c 94bc ac3c 6d43 c7bc
00000060: 75eb cd3c 9fb1 a6bd 2ae5 9cbd 332f f33c
00000070: 51cc ae3c 278a 84bd 283d 043d ea5d 073d
00000080: 0571 313d cf02 3dbd e1a4 75bd 0f57 b3bb
00000090: 468f 4fbc af79 65bc a722 a9bd 566a a83d
000000a0: d1f1 b73d a67c 40bd c0c6 a03d ca50 b53c
000000b0: 7183 eb3c 019c cfbb bc5a bf3d aa91 bfbc
000000c0: 76c9 543c 16e6 56bc 7b6c c5b9 5c4c 35bd
000000d0: d3a6 8abd 101a 893d 520c b9bd 9c7c 80bd
000000e0: 073d be3d ef39 4ebd d722 20bc e64d c9bd
000000f0: 4f0e f2bc 5b91 37bd 92f5 103d 561d 2f3d
00000100: c893 ac3d 1a31 29bd 523c c63d f8ee 1f3d
00000110: 2a9b babd 4813 abbd 6908 3dbc 9637 b93d
00000120: 8260 603b de4a 7cbd d7e1 703d 6176 d8bd
00000130: ff38 963d deaa 3cbc a666 243c b06c 09bd
00000140: 68db 903c 36a9 80ba 86ce 9b3d 1e9c b43d
00000150: 5910 2e3d 5679 78bc 3a49 c4bb a1fd 7fbd
00000160: 7b7e 833d cbb9 b6bc e777 c6bd 882f f6bc
00000170: c442 98bd 7b38 a5bd f246 983c 36b6 203c
00000180: a068 4fbd 1559 8cbd 4738 283d 0b76 c03c
00000190: 39a8 913d 7230 673d c2ba 40bd c447 8a3d
000001a0: 1753 98bd c193 a9bd 95a9 4b3d febe c83d
000001b0: 98db 583d 4119 403b 3008 2ebd 72fb dd3d
000001c0: 3745 6fbd 3a96 c83d 314f 8ebd 882b cebd
000001d0: d697 cebb b440 083d a7df a9bd 5df0 f0bc
000001e0: 32b9 f6ba e569 0ebc be0a 47bd f105 bf3d
000001f0: b6ba 94bd f0d6 893d 932e 063d f307 24bd
00000200: 8668 3e3d f9ce a1bd ffa6 82bd e11d 7c3d
00000210: e672 37bd 2706 773d 098a b0bd 4eb0 813c
00000220: 9da3 b5bd d18a 533d 86ca d23d abc0 8e3d
00000230: 8785 1c3d d49b 833d de95 b83d 8a34 683d
00000240: 5614 3c3d 9500 0d3d bd32 d83c 1251 703d
00000250: f423 983d 3858 16bd a19b 103c 377a 243d
00000260: f759 b2bd dba3 8fbd 0689 b8bc d260 a23c
00000270: ba97 873d 2774 663d 59ce 693d 4f54 b0bc
00000280: f616 c4bc c5be c6bd aa38 5e3c 8da4 dabc
00000290: 265f 99bd 19bd 253d 61cf 5f3d bc41 cf3c
000002a0: 2563 9cbd cb7f f5bc b906 c4bd 5431 b1bb
000002b0: 5bc3 943d 3dd1 c73d e365 bbbd f9d4 cabc
000002c0: fda5 6abd 5801 9e3d 0aad d93d 6102 aabd
000002d0: f8db 16bd aa6c 883c 7967 acbd a41a dbbd
000002e0: adca 91bd 2f6e 8e3d 33c4 473c 7e9d 48bd
000002f0: ea86 a0bc d74e ba3d 4cd1 c5bd de55 1e3d
00000300: 32c9 54bc 8d93 dbbd 0db7 9d3d 7afc 71bd
00000310: edfb 903d 18d3 5fbb e547 943c 18e0 99bc
00000320: 13f6 b8bd e692 383d 2e8b 27bd c744 fc3c
00000330: e929 b33d 7ee0 1fbd d560 eb3a d65a f73c
00000340: fa7d 24bd 4a20 163d 930a 5fbd 2f3d 8e3d
00000350: e822 f1bc 56b9 7dbc 5d84 2bbd e7c2 4eba
00000360: 9657 733d 0e38 ec3b c225 47bd 2644 c53d
00000370: b2ed bc3d 1095 1fbd f642 89bd d15d a7bd
00000380: ef40 f13b da62 d13d 4d8d 1d3d 0ef8 3a3d
00000390: 218e d9bd c5da ef3c 24ae 1e3d d848 d5bc
000003a0: 85ab 8abd cef2 b4bc dd0d babd 5c30 b53d
000003b0: 424a 89bd 34d4 cd3d fbf1 bcbd 6b49 9d3d
000003c0: 748b 55bd a78d b5bd e22f 933c 2ac4 d23d
000003d0: 6494 26bd 7768 bb3c df9c 94bd c342 723d
000003e0: e890 a73d cf22 30bd 44c9 ac3d bfbd 263d
000003f0: baa9 ad3b 150d 57bd e0ed 703d d731 f2bb
0.019743308 0.030637901 -0.064891815 0.07971538 0.025699653 -0.035953905 -0.07920278 -0.06304969
-0.018459814 0.016747491 0.03823893 0.10236529 0.06941446 -0.0070687463 -0.018495796 0.08301209
-0.0023593688 0.013345157 -0.00097781 0.08946472 0.059942447 0.030317044 0.021086015 -0.024324143
0.025136689 -0.08139347 -0.07660897 0.029685592 0.02133766 -0.06471663 0.032284886 0.033048548
0.043320674 -0.046145257 -0.059971694 -0.0054730247 -0.012668436 -0.014006062 -0.082585625 0.08223407
0.0898167 -0.046993874 0.078504086 0.02213325 0.0287492 -0.006335736 0.09343478 -0.023384888
0.012987485 -0.01311638 -0.00037655592 -0.044262275 -0.067701004 0.06694424 -0.09035553 -0.06273767
0.09288984 -0.05034822 -0.0097739315 -0.09829311 -0.029547838 -0.044816356 0.035390444 0.042752586
0.084266245 -0.041306593 0.09679474 0.039046258 -0.091116264 -0.08353287 -0.01153765 0.09043805
0.003423721 -0.061594836 0.058809128 -0.10569454 0.0733509 -0.011515347 0.010034239 -0.033550918
0.017682746 -0.0009816054 0.076077506 0.088188395 0.04249606 -0.0151656475 -0.0059901746 -0.06249774
0.064206086 -0.02230539 -0.09690838 -0.030051962 -0.074346095 -0.080674134 0.018588517 0.0098090675
-0.050636888 -0.068529285 0.041069295 0.023493787 0.07112164 0.056442685 -0.047053106 0.067519695
-0.07437723 -0.08280135 0.049722273 0.09802054 0.052943796 0.0029311928 -0.042488277 0.10838975
-0.058415618 0.097942784 -0.06948698 -0.10066897 -0.0063047213 0.03326483 -0.082946114 -0.02941149
-0.0018823503 -0.008692239 -0.04859423 0.09327305 -0.07262175 0.06730449 0.03275926 -0.040046643
0.0464864 -0.07900805 -0.06379508 0.061551932 -0.04478731 0.0603086 -0.08620078 0.015831139
-0.088690974 0.051646058 0.102925345 0.06970342 0.03821328 0.06426206 0.0901296 0.05669073
0.04591783 0.034424383 0.026391381 0.058671065 0.074287325 -0.036705226 0.008826167 0.040155616
-0.08708566 -0.07013675 -0.022526275 0.019821558 0.066207364 0.056263115 0.057081554 -0.021524576
-0.02393673 -0.09704355 0.013563314 -0.026689792 -0.07488851 0.04046354 0.05464113 0.0252999
-0.07636098 -0.029968163 -0.09571595 -0.0054074917 0.072638236 0.09756706 -0.09150293 -0.024759756
-0.057287205 0.077151 0.10628708 -0.08301235 -0.036830872 0.016653378 -0.08418173 -0.10698441
-0.071187355 0.069546096 0.012192774 -0.04897832 -0.019595582 0.09097069 -0.09659061 0.038656108
-0.012987422 -0.107215025 0.0770093 -0.05907867 0.07079301 -0.0034152921 0.018100688 -0.018783614
-0.0903131 0.04506197 -0.040904216 0.030794514 0.08748228 -0.03903245 0.0017957935 0.030194681
-0.040159203 0.036651887 -0.054453444 0.069452636 -0.02943559 -0.015486082 -0.04187428 -0.0007887319
0.0594097 0.0072088307 -0.048619993 0.09632139 0.09225024 -0.038960516 -0.06702225 -0.08172191
0.007362477 0.102239326 0.038464833 0.04564672 -0.10622812 0.029279122 0.038740292 -0.026035711
-0.06770996 -0.022088435 -0.090846755 0.088471144 -0.06703617 0.1005024 -0.092258416 0.07680019
-0.052134946 -0.08864909 0.017967168 0.102913216 -0.04066886 0.022876961 -0.07256483 0.0591457
0.081819355 -0.043001946 0.08436826 0.0407083 0.005299774 -0.05250271 0.058820605 -0.0073911953

encoder.lob_enc.res_blocks.0.conv2.bias f4 [32]
00000000: e1db 1cbe 319d 3ebe 0360 3dbe 249d 29be
00000010: 1fdd 32be 6b38 5ebe aac3 4abe 29c5 56be
00000020: b8be 47be 28d3 85be 7a78 6fbe 414e 36be
00000030: c97d 60be f131 19be 0b2c 1abe 39de 10be
00000040: 5be3 76be 6cd5 3dbe da99 71be 3c32 08be
00000050: 9a69 cebd 8213 acbd 4df0 56be 14be e0bd
00000060: a9b7 3bbe 5cfe 3cbe 7b2e f5bd 3e6e 83be
00000070: b119 8abe 9af2 d2bd 4ae8 1fbe 0fd8 e7bd
-0.15318252 -0.18614651 -0.18493657 -0.1656385 -0.17467164 -0.21701209 -0.19801202 -0.20973648
-0.19506347 -0.26137662 -0.23385802 -0.17803289 -0.21922983 -0.14960457 -0.15055864 -0.14147271
-0.24110167 -0.18538445 -0.23593846 -0.13300413 -0.10078736 -0.08402158 -0.20990105 -0.109737545
-0.1833178 -0.18456405 -0.11971756 -0.25670046 -0.26972726 -0.10300179 -0.15615955 -0.11320507

encoder.lob_enc.res_blocks.0.bn2.weight f4 [32]
00000000: 9b65 7e3f 89eb 803f 38f9 803f b4ff 7d3f
00000010: 11eb 803f 3f0c 803f 7d04 813f 6bc1 803f
00000020: 8f75 803f 5bdd 803f 7f66 803f 3d17 803f
00000030: 03a1 803f 791a 813f 2656 7f3f b657 813f
00000040: 756d 803f bd37 7f3f 03db 803f 2784 803f
00000050: e06d 803f a3ac 803f 38df 7f3f bcb7 813f
00000060: ccd8 803f e540 803f 293a 813f 0d28 813f
00000070: 4fde 803f 9000 7e3f a457 813f d220 813f
0.9937379 1.007188 1.0076056 0.99218297 1.0071737 1.0003737 1.0079495 1.0059026
1.0035876 1.0067552 1.0031279 1.0007092 1.0049137 1.0086204 0.9974083 1.0104892
1.0033404 0.99694425 1.0066837 1.004033 1.0033531 1.0052685 0.9994998 1.0134196
1.0066161 1.0019804 1.0095874 1.0090348 1.0067843 0.9921961 1.0104871 1.0088141

encoder.lob_enc.res_blocks.0.bn2.bias f4 [32]
00000000: 3ca8 b63b a864 3239 8734 0c3c 337a 72bb
00000010: 6a2e fb3b 9977 7c3b a5c7 093c 245b 123c
00000020: 9982 033c a468 0d3c 0e49 9cbb b8de 383b
00000030: 3543 393b 89fd 9f3b 478f 0cbc e39f 2b3c
00000040: 1f37 193b a1d9 5bbb 4c83 103c 4e1a 4aba
00000050: 1e46 cf39 fbd7 df3b 12a3 e6ba c00c da3b
00000060: 2d70 fe3b 64c0 893b c891 b13b 6b24 113c
00000070: 6132 d63b b8f9 debb d96d 483c 9fdd 263c
0.0055742543 0.000170129 0.008557445 -0.0036999106 0.007665445 0.0038523434 0.008409415 0.008932862
0.008026742 0.008630905 -0.004769451 0.0028208923 0.0028268818 0.0048825187 -0.008579082 0.010475132
0.0023378802 -0.0033546465 0.008820366 -0.0007709608 0.00039534358 0.006831167 -0.0017596206 0.006654352
0.0077648372 0.004203843 0.00541899 0.00885878 0.0065367674 -0.006804671 0.012233221 0.0101846745

encoder.lob_enc.res_blocks.0.bn2.running_mean f4 [32]
00000000: 00bb 00be f4df 0bbe 5a8c f4bd afe4 abbd
00000010: 4fa0 8bbe 3a70 17bc 47a0 07bf cc74 0d3c
00000020: d0e3 87bd 8738 a2bd 0ebc cfbe d626 80be
00000030: c2f6 b8bd dca5 abbe 4dbc 033e 9c55 a4be
00000040: 78e7 b0be ea58 8e3c dbf4 c0be 014b 9fbe
00000050: 9197 d2be c981 3c3d e584 65bd f866 6bbe
00000060: b8b5 14bf 2e80 9dbe 3b1e 883b e92f c6bd
00000070: dd13 b0be 12e5 20bd 9456 29be 7185 eebd
-0.12571335 -0.1365965 -0.119408324 -0.08393227 -0.27270743 -0.0092430655 -0.5297894 0.008633804
-0.06635249 -0.07920938 -0.40573162 -0.2502963 -0.0903144 -0.33524978 0.128648 -0.32096565
-0.34551597 0.017376382 -0.3768681 -0.3111191 -0.4113126 0.04602221 -0.05603494 -0.22988498
-0.5808978 -0.30761856 0.0041539944 -0.09677107 -0.34390154 -0.03928096 -0.16536933 -0.11646546

encoder.lob_enc.res_blocks.0.bn2.running_var f4 [32]
00000000: eaa6 1f3d ba9c 3d3d c6e1 073e 26b3 ce3d
00000010: 3a01 853d 6e25 9d3d aae3 323e cc47 583e
00000020: f1e0 163e 34b8 b13d bfcc bf3d ad86 393d
00000030: 3a9a 8b3d ecdc 993d ac16 6c3d 8aae 763e
00000040: f648 803d 4f85 dd3d 5ce3 c93d 1ef5 f23d
00000050: 38a8 833e 2a93 413e 62f0 a93e 80f6 c13d
00000060: f45a 813d 7f51 c33d 93d5 6d3d 0f18 1d3e
00000070: 3116 de3d 2a17 8d3e af20 5c3d ce72 123e
0.03897754 0.046292044 0.1326972 0.100927636 0.064943746 0.07673155 0.1746966 0.21121138
0.14734246 0.08677712 0.09365224 0.045294452 0.06816526 0.07512841 0.05763881 0.24090019
0.06263916 0.10816442 0.098578185 0.11863159 0.25714278 0.18903795 0.3319121 0.09470844
0.06316176 0.095370285 0.05806501 0.15341209 0.108440764 0.27556735 0.053742107 0.14301607

encoder.lob_enc.res_blocks.1.conv1.weight f4 [32, 32, 3, 1]
00000000: 6a67 b1bd 6bfc 283c 5b42 443d 4b2f 43bd
00000010: 426e b4bd bbe7 3b3d ef90 aa3c 5cda 333d
00000020: 0a01 b53d e79a d9bd f2ef 6c3d 6c5d 5ebd
00000030: 6c63 1f3d 8d1b 853d 30f8 9e3d 7a0b ef3c
00000040: 92b6 e63b e40b 9fbb 4263 46bd 38ea 1a3d
00000050: ea2b 873d 4dac 5cbb 0e7f bdbd 9906 19bd
00000060: 9d81 20bd 09f5 293d e2cf b4bd 6775 52bd
00000070: c91e 9abd 7f53 c3bd 0fc2 f7bc 9ca0 8c3d
00000080: 151d 543d d855 b33d 29d3 823c c774 873d
00000090: 5063 2c3d bf57 8e3d 0d07 84bc 8ea8 bd3d
000000a0: b210 c4bc 6d3c 04bd 7a0e 2e3d 4799 133d
000000b0: 1d58 71bd 8899 23bd 0718 ccbd a913 a03d
000000c0: 8c13 c93c 0639 a83d 1bfb adbd 777c aa3d
000000d0: 2ddf c23d fad8 933d 428a 7cbd c520 d93d
000000e0: 1d49 a1bd 25e6 a8bd 1802 2ebd ab94 b83d
000000f0: 3133 a6bc 2b39 153d 5a19 2fbc afd6 ec3c
00000100: 2474 4f3c caeb 573d 249f 3a3d 4377 863d
00000110: 722b a83d 3046 d83c 46fc 583d 15a8 a83d
00000120: 644a 643d af30 b2bc 2a2c aa3d 0049 943c
00000130: b0c2 823d 253d ebbc 3da2 c3bd 6a13 91bd
00000140: 1637 27bc bf94 92bd 71f6 58bd c77a 253d
00000150: 72ce d73c d5ea 28bd 550c 91bc 8dda dabd
00000160: 4d31 76bc e507 13bb 0af0 89bd 2aca 8e3d
00000170: 42c6 43bd e1e6 a53c 3e20 59bd b81d 3d3d
00000180: 7ec1 b7bd 2caa bbbb 2e57 103d a0ec 953d
00000190: e474 053b 8521 083c d8f0 a93c 5fc3 17bd
000001a0: 40bd e33c 107c b8bd 6cc5 25bd 978f 8a39
000001b0: 3709 0dbd 4bef 333d 6ee0 80bd 0b30 183d
000001c0: 4eac 73bd 8db4 a7bd 90f7 8c3b 64a1 b63b
000001d0: 9eac 30bd eab1 df3d 7b91 f3bc e207 09bc
000001e0: 5501 8a3b 7ff2 2cbd 44c2 083d 2f40 ba3d
000001f0: fe86 52ba a52a 30bd 766c 703d 8f40 0d3c
00000200: 3d68 573d f7cc 8abc 55d7 9cbd 7a5e 8abd
00000210: 1281 fabc ed36 a5bd edec a2bd be10 583d
00000220: b32f 51bc fd5f 11bc 39a2 bcbd 4d00 5e3d
00000230: 1d03 973d 99aa 7e3d 6035 84bd f938 e83b
00000240: 0203 2dbd 7ffb 503d 273c 733d 3401 78bd
00000250: 212a b1bd 921d 8fbd 4bf2 2d3d bec3 d73c
00000260: a91f 883d b79b 43bc df2b b13d 8b43 c43d
00000270: 6c78 b0bd 7f11 09bd eb45 f93b 546d 973d
00000280: e694 d2bd 3da8 133d 295d a43b 0361 a93d
00000290: c63a c5bd f747 643d 2f20 473d 095e 3cbc
000002a0: a405 1abd 395a 473d 5c22 01bd b065 7dbc
000002b0: 0ac5 82bd 4153 d23d 8eec 8c3d ccb0 dd3c
000002c0: a974 c73b 6d18 98bd bcf3 9a3d c4e4 1d3d
000002d0: f4ef 043d 055f 2d3d 2ce9 9ebd 948b 9dbc
000002e0: 4753 ac3d 3f46 dabc f297 b13d daaf 5cbd
000002f0: 6033 973d d2d2 d23d 280b bcbd ac44 873d
00000300: ab57 6f3c 7ca1 3d3d e9bf 29bd a968 b13d
00000310: b807 093d d361 7abd a7da cb3d bec0 943b
00000320: 4548 2ebc bb80 df3c 1025 883c 540c bbbd
00000330: dd96 b33d cb87 8dbc 2ac2 c53c b0ae dabc
00000340: 4f26 cabd f8b7 bebd 3861 25bd 310a 13bd
00000350: 6a74 9b3d ac4f 7c3c 59c4 dd3d 12c9 b23d
00000360: e825 2f3c 7c06 12bd 4d65 463b 255e 1bbd
00000370: a5b2 c5bd 5e0a df3c 69bb 263d 885f 06bd
00000380: b155 a23d 852c 69bc c2c4 e4bc fdcc 39bd
00000390: fc0b c13d f2e4 663d 6ecd 89bd 933c 97bd
000003a0: 0340 a1bd c700 b93d 4326 b43d 1f56 6a3d
000003b0: 50a0 523d a1c6 87bd 29f1 933d 40ea 03bc
000003c0: fb21 38bb db9a 0f3c 1620 e5bc 4cd0 c53d
000003d0: 952d 713c 3d84 943d 0fd5 93bd b8b7 c5bd
000003e0: 8527 14bd dcd4 f73c 275f 88bd 9ee4 46bd
000003f0: b9bc f63c f6a6 ba3d d609 ae3d 507f ae3d
-0.08662303 0.010314087 0.047914844 -0.047652524 -0.088100925 0.045875292 0.020821063 0.043909416
0.08838089 -0.106252484 0.057846017 -0.054288313 0.038913175 0.064993955 0.07762182 0.029180277
0.007040807 -0.0048537124 -0.048434503 0.037821025 0.06600173 -0.0033672035 -0.092527494 -0.037359808
-0.03918611 0.04149345 -0.08828713 -0.051381495 -0.07525403 -0.0953741 -0.030243902 0.06866571
0.051785547 0.08756608 0.01596983 0.066140704 0.0420869 0.0695033 -0.016116643 0.09260665
-0.023933742 -0.03228419 0.042494275 0.03603485 -0.058921922 -0.03994134 -0.0996552 0.0781625
0.024545453 0.08214001 -0.0849516 0.08324521 0.09515224 0.07219119 -0.06165529 0.106019534
-0.078752734 -0.082470216 -0.042482466 0.09012731 -0.020288082 0.036431473 -0.010687197 0.028910963
0.012661967 0.0527151 0.045561925 0.06565716 0.082114115 0.026400656 0.05297496 0.08235184
0.055735007 -0.02175173 0.08309205 0.018101215 0.0638479 -0.02871568 -0.09552429 -0.07083781
-0.010206005 -0.07157277 -0.0529694 0.040400293 0.026343558 -0.04123958 -0.017706076 -0.106862165
-0.015026403 -0.0022435125 -0.06735237 0.069721535 -0.047796495 0.020251693 -0.053009264 0.04617092
-0.089724526 -0.005727073 0.03523939 0.07320523 0.0020363862 0.008308773 0.020744726 -0.037051555
0.027800202 -0.09008038 -0.04047148 0.00026428394 -0.034432616 0.04392938 -0.062928066 0.037155192
-0.059490494 -0.08188734 0.0043019727 0.0055734385 -0.04313337 0.10922606 -0.029732456 -0.008363696
0.0042115846 -0.04222345 0.03338839 0.09094273 -0.00080309797 -0.04300942 0.058697186 0.008621349
0.052589644 -0.016943438 -0.07658259 -0.06756301 -0.030579124 -0.08067117 -0.07955346 0.05275034
-0.01276772 -0.008872983 -0.09210629 0.054199506 0.07373641 0.062174413 -0.06455493 0.00708687
-0.042239197 0.051021095 0.059383538 -0.060548022 -0.086506136 -0.06988062 0.042467397 0.026338454
0.06646664 -0.011938981 0.08650946 0.09583195 -0.08616719 -0.03346395 0.007607212 0.073938996
-0.102823064 0.036049116 0.0050159884 0.08270457 -0.09630351 0.055732694 0.048614677 -0.011497029
-0.037603036 0.048670027 -0.03152691 -0.015466139 -0.063852385 0.10269786 0.06881057 0.027061842
0.006086905 -0.07426534 0.0756602 0.038548246 0.0324554 0.042326946 -0.07759318 -0.019231595
0.084143214 -0.026644824 0.086715594 -0.053878643 0.07382846 0.10294117 -0.091818154 0.06604895
0.014608304 0.04629658 -0.041442785 0.086625405 0.033454627 -0.06112845 0.09953814 0.004539578
-0.010637348 0.027283063 0.016619235 -0.09133211 0.08769009 -0.017276665 0.024140436 -0.026694626
-0.09870588 -0.09312433 -0.04037592 -0.03589839 0.075905636 0.015399855 0.10828466 0.08729757
0.01069019 -0.035650715 0.0030272782 -0.03793158 -0.09653214 0.027226623 0.040706072 -0.03280595
0.079265006 -0.014231806 -0.027925853 -0.045361508 0.09426114 0.056370683 -0.06728636 -0.073846005
-0.078735374 0.090333514 0.0879636 0.057211038 0.051422417 -0.06629682 0.07223732 -0.008051455
-0.0028096426 0.008764948 -0.027969401 0.0965887 0.01472034 0.07251785 -0.07218372 -0.09654182
-0.0361705 0.030252866 -0.06658774 -0.04855787 0.030119287 0.091138765 0.0849797 0.08520377

encoder.lob_enc.res_blocks.1.conv1.bias f4 [32]
00000000: dfe7 2abe aae8 0bbe 9a5e c3bd 3609 1bbe
00000010: de78 c0bd b2f8 0cbe db04 76be 8fe0 44be
00000020: 6416 6abe d5fa e3bd efe9 30be 73b2 85be
00000030: 862b a0bd 3799 ffbd 87e8 3dbe 496b 90be
00000040: 8b2a 67be 4288 99be 80c0 83be 8596 8cbd
00000050: c7ec 48be b39f b2bd 6ca1 0fbe 73a2 d6bd
00000060: a561 09be 9d21 81be 6eb2 dcbd bdb0 94be
00000070: c33d 1abe 7d18 27be 83e3 02be 11b3 8cbe
-0.16690014 -0.13662973 -0.09539528 -0.15140232 -0.093980536 -0.13766745 -0.2402529 -0.19226287
-0.22860104 -0.11131827 -0.17276739 -0.26112708 -0.078208014 -0.12480395 -0.18545733 -0.28206852
-0.22574823 -0.2998677 -0.25732803 -0.06864647 -0.19621573 -0.087218665 -0.14026421 -0.104802035
-0.13416155 -0.25220957 -0.1077622 -0.2904109 -0.15062623 -0.16317935 -0.12782101 -0.27480367

encoder.lob_enc.res_blocks.1.bn1.weight f4 [32]
00000000: a45d 7f3f 35d4 813f 5133 803f 5872 813f
00000010: 8bec 7f3f 8dd5 7b3f 6e77 803f 9cb6 7c3f
00000020: a4b4 7d3f a7f8 7b3f 9e32 823f 0d70 813f
00000030: 741a 7e3f 5138 833f 82cb 7f3f 7ac3 7e3f
00000040: 8d64 803f df55 803f fd53 813f d903 813f
00000050: bc50 7f3f 836a 7f3f 060c 803f 638f 7e3f
00000060: 076d 803f b686 7f3f 6742 7e3f 44fb 7f3f
00000070: 6241 7c3f 5c3d 7d3f 9f03 7e3f 1959 823f
0.9975226 1.0142885 1.001566 1.011302 0.9997031 0.9837273 1.0036447 0.9871614
0.9910376 0.9842629 1.0171697 1.011232 0.99259114 1.0251561 0.99919903 0.99517024
1.0030686 1.0026206 1.0103756 1.0079299 0.99732566 0.997719 1.0003669 0.9943754
1.0033273 0.9981493 0.9932007 0.99992776 0.98537266 0.9892175 0.99224275 1.018344

encoder.lob_enc.res_blocks.1.bn1.bias f4 [32]
00000000: 0297 163b b363 a2bb 0d7b 8abc 4a5e 9dba
00000010: 931c 803b 9f08 aabc 02d2 21bc 572f c1bb
00000020: a917 083b a009 44bc aeb1 1b3c 0f28 723b
00000030: feb6 893b 54e7 af3c ff04 64bb c8c0 2abc
00000040: dc26 f73a 238b b8bb 7938 453b 45ba c63c
00000050: 2111 3e3b 005d fc3b 4d68 ae3b b952 d1bb
00000060: c753 873b 9677 ecbb fcb5 033c 1f66 a0bb
00000070: c418 81bc c2aa a3bb 423e 43bc b0e2 f33b
0.0022978191 -0.0049557327 -0.016904378 -0.001200625 0.0039096563 -0.020756064 -0.00987673 -0.005895536
0.0020766056 -0.011965185 0.009502811 0.0036950146 0.0042027226 0.02147261 -0.0034793017 -0.010421939
0.0018856185 -0.0056318208 0.0030093475 0.024258742 0.002900191 0.007701516 0.005322492 -0.006388035
0.00412986 -0.007216404 0.008038994 -0.0048949863 -0.01575888 -0.004994721 -0.011916699 0.0074427947

encoder.lob_enc.res_blocks.1.bn1.running_mean f4 [32]
00000000: 2669 cfbc b578 40bd d42a 9a3d 19b4 55bf
00000010: 3a9a 18bf 364d cbbe 4791 02bf 38ec dd3e
00000020: 23d8 54be 331e 08bf 0ef3 0bbf a60b 81bf
00000030: 1e69 69bf 651f 51bf 3ecf 263f 06bd 25bf
00000040: be7c 69bf 72cd 1fbf 63e3 95bf 982a 30bf
00000050: 629a cabe 3bb2 ccbe 13da b8be de84 853e
00000060: aa21 33bf 255d d9be e9ab 153c e858 f0be
00000070: f070 a6be 4f11 c5be 739d 66be dc27 eabe
-0.025318693 -0.046990115 0.075277 -0.8347793 -0.5961033 -0.39707345 -0.51002926 0.43344283
-0.20785575 -0.5317108 -0.5466775 -1.008168 -0.9117602 -0.8168853 0.65159976 -0.6474155
-0.91205966 -0.6242286 -1.1710018 -0.6881499 -0.3957091 -0.3997973 -0.36103877 0.26077932
-0.6997324 -0.42453876 0.009135225 -0.4694283 -0.3250804 -0.38489768 -0.22521 -0.45733535

encoder.lob_enc.res_blocks.1.bn1.running_var f4 [32]
00000000: 699f 3d3e c787 123e e1fc 243e cc75 2c3e
00000010: ee74 383f ab49 8d3e f399 b33d dd4c 703e
00000020: cd61 ce3e 1172 a23e 3ecc 193e e66b 2e3e
00000030: 23b2 3c3e d0ce 143e 1511 a93e 0a18 b53d
00000040: 9599 653e 7d83 0c3e 046d 6d3e abdb 893e
00000050: 7c15 393e f3ba e73e 42c7 323e 3878 013f
00000060: 43dd 8f3e 9515 dc3e 4a34 a13e d19b d53d
00000070: 6cc6 aa3e eddd 7e3e f49d 8c3e f2eb 003e
0.18517841 0.14309607 0.1611209 0.16841811 0.7205342 0.27595267 0.08769598 0.23466821
0.4030899 0.3172765 0.15019318 0.17033347 0.18427329 0.14532018 0.33020845 0.08842476
0.22421868 0.13722034 0.23186117 0.26925406 0.18074602 0.45259818 0.17458823 0.50574064
0.28098497 0.42985216 0.31485206 0.1043011 0.3335451 0.24889345 0.2746426 0.12590006

encoder.lob_enc.res_blocks.1.conv2.weight f4 [32, 32, 3, 1]
00000000: aa17 e93c 1fea b33b 777a abbd d8c5 593c
00000010: 09de 3cbc 77aa ab3d 517e debd 91e0 6938
00000020: 80c2 b63d b593 92bd cc9d d13d 82df b6bc
00000030: cf94 b23d 9f7c 81bc a038 9c3d d3ba c7bd
00000040: 8153 043d c8b3 6ebd 02a0 603d 7ada a8bd
00000050: a425 bcbc 325c 663b da88 98bd 5406 723d
00000060: 5a29 48bd 98e7 9abc 798f 57bc 9ad7 3e3d
00000070: f975 34bd 9bff f83c 81c4 38bd 7076 683c
00000080: c6b6 babd f150 d9bc 55ad a6bd cdf4 9cbd
00000090: 21d9 ae3d de4a d4bd 79fa 2e3d 85cb 01bd
000000a0: ed14 da3d 2990 dabc 9497 22bd 4c75 293d
000000b0: 73cf 8fbd 9466 73bd 138f a0bd 0466 aa3d
000000c0: 5e11 a23d deca 87bd 44ad 703d 9bd1 c0bd
000000d0: dcfb 7a3d 2b38 d2bd 2a0f f93d 131c d3bc
000000e0: c25e 07bd 4f34 033d b0fc 9dbd a11e a63d
000000f0: ef0a 22bd 47eb f63c e40a 253d 284f 1c3d
00000100: af80 13bd 6919 c53c bf25 c1bd 797e 67bd
00000110: bc25 c3bd 7a8c 10bb c1b2 4cbd dc6a 89bd
00000120: ce47 14bd 4479 94bd b802 1f3d cc3f cfbc
00000130: b622 bf3d 61e1 793d a6e7 d2bc 25c5 47bc
00000140: 61f4 c5bd e47b 253d fef7 a4bb 032c 9c3d
00000150: c465 c7bd 1a31 8a3b f9fe 67bd 6d87 7bbd
00000160: 3448 eabb 6147 3a3d 3fb0 3c3d 3952 30bd
00000170: 894b 93bd b9ba 8e3b e646 e3bd 0df7 05bd
00000180: 8663 c43d 89d7 b5bd b1e6 3abd 5ed1 753c
00000190: 7f66 f4bc d6c5 b63b ecc3 853d 28d3 393c
000001a0: b49a 8e3d 8dec 82bd 6879 90bd 89a6 aebd
000001b0: 3086 b7ba 711e a7bd 939d 843d 249d 1c3d
000001c0: 40d5 9e3c 3f51 8bbc c119 9fbd 4494 aa3c
000001d0: cde2 9dbd 4224 b5bd 0be5 27bd b274 17bd
000001e0: 0f0a b0bd 8948 ec3a 9f40 d6bd 97f7 a63d
000001f0: fb01 43bd 319a aebc dd3b 55bc 7d14 973d
00000200: c65f be3c db82 9f3d 0a77 adba 855c 08b9
00000210: 344f edbb e9cd 8e3d 9d85 563d e3e7 a03d
00000220: ef60 963d c138 9abd eb38 34bd b424 623d
00000230: 9523 1f3d 05a0 93bd 14df db3d 2fed bb3c
00000240: 71d6 1b3d 9d15 793c 9c31 66bd 8317 633d
00000250: c0c5 ec3c de2b c23d 160b bd3d 0635 45bd
00000260: 4f75 64bc 97c3 ccbd 90d9 813c 02a4 adbd
00000270: 9b04 573d ebc7 66bd 9a64 cb3d 7de2 803d
00000280: 8eac c8bd dd0f 66bc bedd fd3c c10c 12bc
00000290: 9e06 68bd efb0 d7bc d5c5 77bd 41ca 65bc
000002a0: 5f47 cb3d 66d0 24bd 12ac 403d 687b c93b
000002b0: d4b0 fd3c 8d97 503d bae3 ff3b 684d 623c
000002c0: 1cb3 f2bc 5f64 a53d e4a9 1e3d 0bf0 0a3d
000002d0: 202d 5abc 5e18 99bd ec32 bcbd 38b7 ef3c
000002e0: c8aa d23b c247 733d 3ce8 a93d 305e 9a39
000002f0: 3e89 883d 55c0 38bd 51d6 b5bd 603f 1a3c
00000300: bdfe 27bd 2427 aa3d d664 b83d ac4d 62bd
00000310: 7be6 3c3b 29ef b93c 4e9f d1bd 1379 d13c
00000320: dd2c 803c e0c8 5c3c 89c1 24bd b2c9 9c3d
00000330: a422 9cbd 78a8 273d 56c5 013c 5f5b c4bd
00000340: 4f3e 0b3c e9b1 38bd 478d 31bd 81b2 c1bc
00000350: 4863 9b3d c9d5 3f3c e8ec 35bd 47a5 15ba
00000360: a6c1 73bc 232e 6f3c 2d9a 60bb 7640 4dbd
00000370: 223f 643d 4854 e4bc 1a49 4c3d d91a 563d
00000380: a015 b33d 0990 cd3c 2c61 4e3d 2a60 793c
00000390: 8133 18bc 6af7 b93d e35e 8dbd 80f3 83bd
000003a0: cf47 93bd ddea 943c 3f8c 733d 5041 efbd
000003b0: 3b7b 6fbd eeed 89bd 6f57 c93b 2c05 a73a
000003c0: 456c 53bc e929 4ebc 3a9c a3bd 206f 8d3d
000003d0: 8e6c 7cbd 4713 3dbc f4fc 33bc 75c2 d3bb
000003e0: e422 c43d db78 70bd 44b8 a6bc c0e4 7f3d
000003f0: 7807 653d 6d20 63bd 5e08 3c3d bdcb a03d
0.028453667 0.005490556 -0.08372968 0.0132917985 -0.011527547 0.08382123 -0.10863937 5.5760673e-05
0.08923817 -0.07157079 0.102351755 -0.022323374 0.08719789 -0.015806494 0.07627988 -0.09752431
0.032306198 -0.05827692 0.054840095 -0.08244796 -0.022967167 0.0035150168 -0.07447977 0.059088066
-0.04886756 -0.01890926 -0.013156765 0.046592332 -0.04405782 0.03039532 -0.045109276 0.014188394
-0.091168925 -0.026527854 -0.08138529 -0.076638795 0.08537508 -0.10365842 0.042719338 -0.031688232
0.106485225 -0.026680069 -0.039695337 0.04137163 -0.0702199 -0.059423998 -0.07839789 0.08320239
0.07913469 -0.06630491 0.05875899 -0.09414979 0.061275348 -0.102646194 0.121610954 -0.025770223
-0.033049352 0.032032307 -0.07714212 0.08111311 -0.03956121 0.030141486 0.04029359 0.038161427
-0.036011394 0.024059968 -0.094310276 -0.056517098 -0.09528682 -0.0022056387 -0.04997516 -0.06709835
-0.03620129 -0.07249692 0.038820952 -0.025298975 0.093327925 0.061005954 -0.025745224 -0.012192999
-0.09665752 0.040401354 -0.005034446 0.07625582 -0.09736207 0.004217279 -0.056639645 -0.06140845
-0.0071497206 0.04547823 0.04606652 -0.043047164 -0.071921416 0.004355755 -0.11097507 -0.03270631
0.09589295 -0.08879001 -0.04563016 0.01500353 -0.02983403 0.005577783 0.0653151 0.0113418475
0.06963101 -0.06392775 -0.070544064 -0.08527858 -0.0014001783 -0.08160103 0.064753674 0.0382358
0.019388795 -0.017006515 -0.07768584 0.020822652 -0.077092744 -0.08844806 -0.040989917 -0.036976524
-0.085956685 0.0018026988 -0.10461544 0.08152693 -0.04760931 -0.021313759 -0.013014761 0.07376955
0.023239028 0.077886306 -0.0013234329 -0.00013004437 -0.0072421078 0.06972868 0.052373517 0.07856729
0.07342707 -0.07530356 -0.043999594 0.055210784 0.038852293 -0.07208256 0.10735908 0.022940246
0.038046304 0.015202907 -0.056199655 0.055442344 0.028902888 0.09481023 0.0923063 -0.04814627
-0.013943984 -0.09998243 0.015850812 -0.08478548 0.052494626 -0.056343 0.099312976 0.06293199
-0.09798537 -0.014041868 0.030989524 -0.008914174 -0.056646936 -0.026329486 -0.0604914 -0.014025272
0.09925722 -0.040237807 0.0470391 0.0061487444 0.030968107 0.05092578 0.0078091295 0.0138124
-0.029626422 0.08075785 0.03873624 0.03392033 -0.013316423 -0.07475351 -0.091894 0.02926217
0.00642905 0.059394605 0.08296248 0.00029443344 0.06666802 -0.045105297 -0.08878768 0.009414524
-0.04101442 0.08308247 0.09003608 -0.055249855 0.00288239 0.022697048 -0.10235463 0.025570428
0.015646392 0.013475627 -0.040223632 0.07655658 -0.07623795 0.04093215 0.007920584 -0.0958774
0.008498742 -0.045091543 -0.043347623 -0.023644688 0.07587296 0.011708685 -0.044415385 -0.0005708527
-0.014877712 0.014598402 -0.0034271583 -0.050110303 0.05572427 -0.02787222 0.049874403 0.052271698
0.08744359 0.025093095 0.05038564 0.015220681 -0.009289623 0.090803936 -0.06902864 -0.06442928
-0.07191431 0.018178398 0.05945992 -0.11682379 -0.05846713 -0.067348346 0.006144456 0.001274263
-0.012904231 -0.012583234 -0.07988782 0.06905961 -0.061626963 -0.011540241 -0.010985602 -0.00646239
0.09576967 -0.058709007 -0.020351537 0.062474012 0.055915326 -0.055450846 0.045906417 0.0785136

encoder.lob_enc.res_blocks.1.conv2.bias f4 [32]
00000000: 3511 26be 34c0 14be aaf5 30be d357 08be
00000010: ae6c 81be e836 42be 7755 59be 59b8 fdbd
00000020: 74d3 75be 33ee 15be 5884 85be 8b72 efbd
00000030: cf7d 28be 3e23 29be ec9c 10be 5814 21be
00000040: 0021 11be d8a9 e8bd 513f 6fbe 1b53 69be
00000050: 28f6 04be 6aa3 8fbe c65e 26be b22e f4bd
00000060: 1e62 dcbd 4ce9 e8bd 06bd 65be 6ce8 83be
00000070: 3daa 61be 24d0 8fbe b013 3cbe 71cf 0abe
-0.16217501 -0.14526445 -0.17281213 -0.13314752 -0.2527823 -0.18966258 -0.21224009 -0.12388677
-0.24006444 -0.14641647 -0.26077533 -0.11691769 -0.16454242 -0.1651735 -0.14122361 -0.15730417
-0.14172745 -0.1136052 -0.23363997 -0.22785608 -0.12984526 -0.28054363 -0.1624709 -0.11922969
-0.10760902 -0.11372623 -0.22435388 -0.2576326 -0.22037597 -0.28088486 -0.18366885 -0.13555695

encoder.lob_enc.res_blocks.1.bn2.weight f4 [32]
00000000: ba97 803f 4864 803f 045e 813f c000 803f
00000010: 7936 813f 54f0 803f ccf6 803f e206 813f
00000020: a804 813f 7e11 813f a91b 803f ca34 803f
00000030: 59a0 813f 7a2b 813f 0631 7e3f 3bda 813f
00000040: 6116 813f 792f 803f ceaa 803f 054e 803f
00000050: 188c 803f cbe8 803f 59f6 7f3f fa21 813f
00000060: e5d5 823f b448 813f 2a19 813f 204d 813f
00000070: c04d 813f 6806 7e3f 83f7 813f 1761 813f
1.0046303 1.0030603 1.0106816 1.0000229 1.0094749 1.0073342 1.0075316 1.0080225
1.0079546 1.0083463 1.0008441 1.001611 1.0127059 1.0091393 0.99293554 1.0144724
1.0084955 1.0014488 1.0052125 1.002381 1.0042753 1.0071043 0.9998527 1.0088494
1.0221525 1.0100312 1.0085804 1.0101662 1.0101852 0.99228525 1.015366 1.0107754

encoder.lob_enc.res_blocks.1.bn2.bias f4 [32]
00000000: ae96 ca3b f2a2 3439 ea28 1c3c 4859 b2bb
00000010: 56a6 053c 4fbe d13b 5490 083c 617b 073c
00000020: 9705 0a3c 9b9a ff3b 5b5f 85bb f4ca 563a
00000030: c72b b73b 6ee5 893b 4d7d 3bbc ea95 173c
00000040: 998b bd3b 5adb be38 2621 f43b c2da 1c3a
00000050: 8561 c1ba 5453 003c c504 b9bb 3693 f23b
00000060: e7ef 1e3c 18f2 533b 0961 e13b 5bfb 013c
00000070: 788a 013c 38b2 07bc 94c4 273c 94c9 103c
0.006182513 0.0001722684 0.009531239 -0.005442772 0.008157333 0.0064008604 0.008335192 0.008269162
0.008424184 0.007800413 -0.004070205 0.00081936945 0.0055899355 0.0042082584 -0.011443448 0.009252051
0.0057844636 9.1007634e-05 0.0074502407 0.0005983525 -0.0014753795 0.007832367 -0.0056463205 0.007402803
0.009700752 0.0032340344 0.0068780226 0.007933463 0.007906549 -0.008282237 0.010239739 0.0088371225

encoder.lob_enc.res_blocks.1.bn2.running_mean f4 [32]
00000000: 384c 07bf 0b4d a9bd 0851 92be 7bb0 3bbe
00000010: f29e 1abe 5a55 06bd 1e0d 98be 1845 12be
00000020: 1502 3cbc ab6e c4be 983c fdbd 54fa 76be
00000030: 54c3 a1be 96a3 ddbd da0c c9be 06a9 b8bd
00000040: c134 62be 5c2b 983d 40fd 37be b582 c0be
00000050: e573 c83d d9ae 16be 4c40 ddbe e66b 65be
00000060: aba6 1ebf e6d8 bdbd 1d2f c7be eaa3 d3bd
00000070: 6239 8dbe 9972 f6be b330 f3be 8f13 2d3e
-0.52850676 -0.08266648 -0.28577447 -0.1832904 -0.15099695 -0.03279624 -0.29697508 -0.1428417
-0.011475106 -0.38365683 -0.12365073 -0.2411893 -0.31594336 -0.10822217 -0.39267617 -0.09016614
-0.22090437 0.07430145 -0.17967701 -0.37599722 0.0978773 -0.14715137 -0.43213117 -0.22404441
-0.61973065 -0.09269886 -0.38903132 -0.103339985 -0.27582842 -0.48134306 -0.47498092 0.16901992

encoder.lob_enc.res_blocks.1.bn2.running_var f4 [32]
00000000: 04ec 463e 5ed5 063e 617a 7e3d 90e1 9f3d
00000010: c81e 613e 2178 d53d 21c6 c73d 7a8f d93d
00000020: a815 cc3d 43ec a53d d25a 7c3d d5f4 433d
00000030: d2cd e13d 232e 883d 3671 8d3d c74c a43d
00000040: 9bc9 8b3d 7871 b63d 9ae1 603d d47c b83d
00000050: 5b36 e93d b81b bb3d 1066 3f3e 648f 2f3e
00000060: faed 143e 3636 b93d cab0 b83d c219 de3d
00000070: 2081 8e3d e404 bf3d afb8 d93d 4ebe 343d
0.1942597 0.1316733 0.06212843 0.078066945 0.21984398 0.104233034 0.09754587 0.10623069
0.09965068 0.08101704 0.06161005 0.047840912 0.11025585 0.06649425 0.06906359 0.080224566
0.068255626 0.08908361 0.05490265 0.09008184 0.113873206 0.09136146 0.18691278 0.17144543
0.14543906 0.09043543 0.09018095 0.10844757 0.069582224 0.09327105 0.10630929 0.0441268
