outputs/performance_test/checkpoint_epoch_3.pt (torch, 945821 bytes, 81 tensors)

encoder.lob_enc.conv_in.0.weight f4 [32, 2, 3, 1]
-0.118756875 0.3008016 -0.2509058 -0.08211784 -0.017561484 -0.21786994 0.008339916 -0.09769969
-0.20269932 -0.33025438 -0.009786594 0.3709663 0.15169272 -0.31871682 -0.21355943 0.26136312
-0.15902779 -0.04460208 -0.20160103 0.1985043 -0.27650356 -0.3861244 -0.30395648 -0.34317195
0.048740387 0.07177908 -0.12267244 0.15934189 0.04647706 0.10511028 0.21952777 0.09077587
0.39892086 0.3129262 -0.2195022 0.2932356 -0.04623592 -0.024985623 0.03267172 -0.3595091
0.26586005 0.26419917 0.38584602 0.064103164 -0.12136689 -0.06981001 -0.14381376 -0.3793921
0.1370339 0.055945985 -0.13051161 -0.24191421 -0.09455804 0.10799063 0.31661198 0.17540504
0.29973638 0.33150905 -0.19404665 -0.01731572 -0.33289 -0.22422518 0.16946572 0.16097918
0.19106229 0.36011773 0.15935452 -0.20675966 -0.090998635 0.02363874 0.20141353 -0.21642682
-0.16279462 0.1604606 0.1479542 0.38915697 0.34766257 -0.1847962 0.15027177 -0.24157767
-0.009191244 -0.024037575 0.10195432 0.36777967 -0.33037987 0.36467552 0.27403837 -0.20851664
-0.120910175 -0.10014625 0.25076532 -0.10081062 0.15397456 -0.15900995 0.3356909 -0.053632148
0.39388394 -0.2977028 -0.119574025 0.26806557 0.14047408 -0.2034346 -0.3379205 -0.31493405
-0.33589977 -0.23451063 -0.24477746 -0.11881536 0.34504247 -0.116639785 -0.26113886 0.19150738
-0.24862814 -0.21304408 -0.063389845 -0.040696885 -0.25051144 -0.31514236 -0.40839428 -0.1735474
0.19767039 0.025617048 0.3158601 0.06379389 -0.31599006 0.029633155 -0.110942364 0.2241754
0.10460487 0.39820272 -0.37126288 -0.20249332 -0.35669947 0.025910862 -0.27206397 -0.17975026
0.3789496 -0.1483549 0.19338302 0.2688488 0.30094907 0.32717222 0.2608914 0.04429748
0.35423154 0.39424157 -0.2726608 0.09549995 0.2906462 -0.26626185 0.17208204 0.26634416
0.0035717478 -0.10635349 -0.03077672 0.3443951 -0.33370242 0.15206797 -0.23112988 0.26504013
-0.17795824 0.08039706 0.2528051 -0.04637645 -0.05356638 0.36467797 0.3891823 0.22968529
0.012185606 -0.013590789 -0.24554749 0.28299245 0.17914231 0.33533457 -0.27595374 0.090280496
0.069582455 -0.1324114 -0.05389555 0.07253613 -0.11761014 0.37978515 -0.37242028 -0.06478633
-0.19973549 0.3049912 -0.14509061 -0.09143082 0.35293138 -0.35513398 -0.13336211 0.35316718
00000000: ce36 f3bd ab02 9a3e ba76 80be 662d a8bd
00000010: 1add 8fbc 4c19 5fbe 25a4 083c c616 c8bd
00000020: 6990 4fbe 1a17 a9be f357 20bc 4bef bd3e
00000030: 5655 1b3e da2e a3be 53af 5abe 63d1 853e
00000040: 2ed8 22be acb0 36bd 8070 4ebe b644 4b3e
00000050: e091 8dbe 19b2 c5be 2fa0 9bbe 3cb4 afbe
00000060: 00a4 473d e900 933d b03b fbbd 852a 233e
00000070: bb5e 3e3d 0f44 d73d e3cb 603e b3e8 b93d
00000080: 5b3f cc3e dd37 a03e 2fc5 60be fa22 963e
00000090: e061 3dbd a6ae ccbc c8d2 053d 9411 b8be
000000a0: cf1e 883e 1d45 873e 9c8d c53e 8548 833d
000000b0: 348f f8bd 8df8 8ebd ea43 13be ae3f c2be
000000c0: 9d52 0c3e 9e27 653d d6a4 05be 5cb8 77be
000000d0: a5a7 c1bd 312a dd3d f71a a23e 619d 333e
000000e0: 0c77 993e 8ebb a93e 2ab4 46be b2d9 8dbc
000000f0: 8f70 aabe 499b 65be 6c88 2d3e bad7 243e
00000100: d5a5 433e 5a61 b83e d52d 233e ceb8 53be
00000110: 7e5d babd 08a6 c13c 593f 4e3e fe9e 5dbe
00000120: a2b3 26be c94f 243e 4e81 173e 953f c73e
00000130: d400 b23e 373b 3dbe d8e0 193e 2360 77be
00000140: df96 16bc 73ea c4bc 6dcd d03d 9e4d bc3e
00000150: 8d27 a9be c0b6 ba3e c24e 8c3e 6385 55be
00000160: c19f f7bd 7a19 cdbd 5064 803e cc75 cebd
00000170: 82ab 1d3e 81d3 22be addf ab3e 62ad 5bbd
00000180: 28ab c93e 806c 98be 3ae3 f4bd e43f 893e
00000190: 70d8 0f3e 2951 50be ea03 adbe 093f a1be
000001a0: 0efb abbe 8e23 70be f1a6 7abe 7855 f3bd
000001b0: 68a9 b03e d7e0 eebd feb3 85be 831a 443e
000001c0: 6098 7ebe 3a28 5abe 89d2 81bd c7b1 26bd
000001d0: 0943 80be 575a a1be 0e19 d1be 69b6 31be
000001e0: 1b6a 4a3e d8da d13c 6ab8 a13e 5fa6 823d
000001f0: 73c9 a1be 3bc1 f23c c035 e3bd 3c8e 653e
00000200: 143b d63d 3ae1 cb3e 2b16 bebe 695a 4fbe
00000210: 50a1 b6be 0443 d43c f84b 8bbe 7410 38be
00000220: af05 c23e 59ea 17be 3306 463e 8da6 893e
00000230: ff15 9a3e 1e83 a73e 8f93 853e 4671 353d
00000240: d65d b53e 08da c93e 329a 8bbe 7a95 c33d
00000250: 94cf 943e 7953 88be 4636 303e 435e 883e
00000260: fc13 6a3b dccf d9bd 761f fcbc 8e54 b03e
00000270: 0bdb aabe b5b7 1b3e 50ad 6cbe 57b3 873e
00000280: af3a 36be 37a7 a43d ac6f 813e 3cf5 3dbd
00000290: 6c68 5bbd 12b7 ba3e e742 c73e 9f32 6b3e
000002a0: 23a6 473c e7ab 5ebc cd70 7bbe 63e4 903e
000002b0: 1571 373e f9b0 ab3e cf49 8dbe fbe4 b83d
000002c0: 3f81 8e3d db96 07be 95c1 5cbd d38d 943d
000002d0: 96dd f0bd 3373 c23e dfad bebe b2ae 84bd
000002e0: 7687 4cbe ce27 9c3e a292 14be 1540 bbbd
000002f0: 6cb3 b43e 1fd4 b5be 1490 08be 54d2 b43e

encoder.lob_enc.conv_in.0.bias f4 [32]
0.28684375 -0.11626691 -0.07681892 -0.19456303 0.08078904 0.11967871 0.2757888 0.17920174
0.20592238 -0.065013565 -0.29176494 0.22541548 -0.0070906826 -0.26713473 0.036527265 0.4039344
-0.034419555 -0.34102854 0.24655266 0.30357257 -0.26088825 -0.3570665 -0.292099 0.16785242
-0.16754667 -0.40102446 -0.02929599 -0.20741974 -0.1208458 -0.16112444 -0.13698722 -0.2658095
00000000: 2fdd 923e 591d eebd 3d53 9dbd 883b 47be
00000010: b974 a53d 1d1a f53d 3134 8d3e a980 373e
00000020: 51dd 523e d525 85bd 3762 95be 51d3 663e
00000030: f558 e8bb e2c5 88be 9d9d 153d 7dd0 ce3e
00000040: 85fb 0cbd 4b9b aebe 4d78 7c3e dd6d 9b3e
00000050: 2593 85be 6cd1 b6be 008e 95be 81e1 2b3e
00000060: 5b91 2bbe 1453 cdbe 25fe efbc d765 54be
00000070: 017e f7bd cefd 24be 6146 0cbe 2f18 88be

encoder.lob_enc.conv_in.1.weight f4 [32]
1.0063611 1.005789 1.0096618 1.0040476 1.0039153 1.0028093 1.0028278 1.0097274
1.0076902 1.0075804 0.986966 0.98804593 1.0083039 1.0004487 0.9909596 1.0064431
0.99332124 1.0100442 1.0093033 0.999907 0.9897504 0.99482226 1.0055062 0.9937495
1.0069828 0.99725515 1.009749 1.0107269 1.0035307 1.0031804 1.0067776 1.0072325
00000000: 71d0 803f b2bd 803f 993c 813f a284 803f
00000010: 4c80 803f 0e5c 803f a95c 803f bf3e 813f
00000020: fefb 803f 65f8 803f cea9 7c3f 94f0 7c3f
00000030: 1a10 813f b40e 803f 87af 7d3f 21d3 803f
00000040: 4d4a 7e3f 2149 813f da30 813f e8f9 7f3f
00000050: 4860 7d3f acac 7e3f 6db4 803f 5e66 7e3f
00000060: d0e4 803f 1d4c 7f3f 753f 813f 805f 813f
00000070: b273 803f 3768 803f 17de 803f ffec 803f

encoder.lob_enc.conv_in.1.bias f4 [32]
0.0070632114 0.0050227568 0.010241822 0.0015560029 -0.0041775513 0.011546268 0.010085975 0.010258889
0.0080843195 0.00983922 -0.013164768 0.00019804134 -0.010545074 0.0061369548 -0.0016289437 0.008523545
0.005783572 0.008763314 0.009891704 0.0029208155 0.009504984 0.008878667 0.0054261778 0.010810751
0.0081281215 0.0013897815 0.01123571 0.0100273825 0.009855764 -0.0021274555 0.009845267 0.009687218
00000000: 8372 e73b f095 a43b 51cd 273c cbf2 cb3a
00000010: d7e3 88bb 8f2c 3d3c a53f 253c e614 283c
00000020: 1874 043c ae34 213c 0ab1 57bc 51a9 4f39
00000030: 3fc5 2cbc 8218 c93b 4882 d5ba 57a6 0b3c
00000040: 1e84 bd3b 0194 0f3c d010 223c 276b 3f3b
00000050: cbba 1b3c d477 113c 14ce b13b 931f 313c
00000060: d02b 053c 5429 b63a fc15 383c e449 243c
00000070: 127a 213c c86c 0bbb 0b4e 213c 23b7 1e3c

encoder.lob_enc.conv_in.1.running_mean f4 [32]
-2.7484918e+08 -1.905883e+08 -2.3830482e+08 -9.5043654e+08 2.2426432e+08 7.9009805e+08 1.0027718e+08 -1.9223736e+08
-1.2002139e+08 6.579533e+08 2.3477246e+08 -9.281988e+07 5.0918643e+08 2.4718702e+08 -8.466488e+07 3.1252262e+08
1.3023185e+08 -1.1520293e+09 -2.2350795e+08 -9.098598e+08 2.258092e+08 3.032362e+07 -3.931037e+08 1.01403424e+09
4.3742662e+08 4.706753e+08 -1.7671952e+08 8.252856e+08 4.0053392e+08 -1.6499701e+08 -4.5467096e+07 -1.6166499e+07
00000000: ed0e 83cd 59c2 35cd e343 63cd 0b9a 62ce
00000010: 08e0 554d c25f 3c4e 7843 bf4c f354 37cd
00000020: 32ec e4cc 48de 1c4e 7fe5 5f4d 350a b1cc
00000030: 8ccc f24d 65bc 6b4d 467c a1cc bc05 954d
00000040: c565 f84c 2555 89ce 5f27 55cd 6fed 58ce
00000050: 3359 574d d259 e74b 4b72 bbcd bdc3 714e
00000060: ce94 d04d 7b6f e04d 6a88 28cd 70c3 444e
00000070: 4dfd be4d 795a 1dcd 7671 2dcc 63ae 76cb

encoder.lob_enc.conv_in.1.running_var f4 [32]
1.0449467e+17 5.915985e+16 8.999908e+16 1.0570329e+18 6.084384e+16 7.4469496e+17 3.4820548e+16 7.0414245e+16
2.1460957e+16 5.189582e+17 9.002281e+16 2.228181e+16 3.1346303e+17 8.317473e+16 3.884668e+16 1.2165144e+17
5.930988e+16 1.5323369e+18 9.543722e+16 9.571256e+17 7.577645e+16 2.2670038e+16 2.0916513e+17 1.1877803e+18
2.679715e+17 2.6420091e+17 4.902293e+16 7.9633105e+17 1.9492706e+17 4.323323e+16 2.3119075e+16 5.168329e+16
00000000: ad9e b95b 922d 525b d8de 9f5b 5db5 6a5d
00000010: 2629 585b 025b 255d 356a f75a 6229 7a5b
00000020: 417d 985a b776 e65c a2e9 9f5b 6052 9e5a
00000030: 9f34 8b5c 7dbf 935b da02 0a5b ac18 d85b
00000040: 06b6 525b a21f aa5d d387 a95b 4b86 545d
00000050: 249b 865b 8f14 a15a a5c6 395c bfde 835d
00000060: aa01 6e5c 55a8 6a5c 182a 2e5b 2ed2 305d
00000070: 4821 2d5c 6598 195b 5a45 a45a ae9d 375b

encoder.lob_enc.res_blocks.0.conv1.weight f4 [32, 32, 3, 1]
-0.032795943 -0.07491482 -0.025086941 -0.07624342 -0.005256396 0.06186381 -0.05431445 -0.024945792
-0.028760454 -0.04561032 -0.081671454 0.014486853 -0.02086443 -0.006648481 -0.032866165 -0.07499792
-0.04667593 0.044987552 0.060700662 -0.036523286 0.055915125 -0.070457965 -0.016353067 -0.10314632
-0.026614536 0.018886574 0.05208928 0.024820961 0.03651907 -0.029621385 0.0935037 -0.08634038
-0.027933909 -0.02070438 0.057299282 0.009669861 0.086997874 -0.079473905 0.026441861 -0.092087954
0.02410929 -0.05178657 -0.05665782 0.00721945 0.01152952 0.089783765 0.07124018 -0.0014573436
0.037564415 0.0077372384 -0.028970504 -0.08540779 -0.092964806 -0.001279969 -0.053745348 0.081891105
-0.056844227 0.01596193 -0.060356773 0.09042966 0.036883727 0.04587916 0.01945305 -0.02386563
-0.04052125 -0.05390114 -0.0993879 -0.027881857 -0.052321292 0.08091077 0.086822666 -0.07465021
-0.005797559 -0.095739104 0.043761246 0.06583496 -0.06606977 -0.07827566 -0.029576147 0.07334311
0.06126647 -0.06493304 -0.0064643235 -0.084974915 0.08390272 0.03401681 -0.0474432 0.03419364
-0.0042471224 -0.07281089 -0.11028744 0.06730953 -0.068010144 0.058467176 -0.033267662 0.05581921
0.033608045 0.05256983 -0.055165756 0.047615558 0.014687528 -0.007478771 -0.010525793 -0.0066134557
0.050022073 0.051483393 -0.047665816 -0.012028397 -0.014832634 -0.029606123 0.053672776 0.10224151
0.0582675 -0.01715051 0.071418524 0.102790125 0.017969875 0.08039468 0.02408257 -0.02986916
0.025906224 0.013951823 0.01978737 -0.018769378 -0.06683393 -0.08587391 -0.057139535 0.06551933
-0.017275473 -0.09151026 0.0832893 -0.10585224 0.024928883 0.09757194 -0.043513715 0.0063368455
0.10431285 0.09373148 0.07822451 -0.01475687 0.055745397 0.04830192 0.014934611 0.097130336
0.027604982 0.075350486 -0.07027316 0.021142283 -0.103909194 0.007247291 0.018192237 0.052788332
0.045818757 -0.055025727 0.05086733 -0.11163512 0.08944768 0.052313212 -0.007209763 0.030334238
0.062047616 -0.0714783 0.05844976 0.020325672 0.08944224 0.0119456705 0.018186271 0.03156641
0.08717819 -0.07510995 0.06115144 0.06829716 -0.0033228698 -0.0620251 0.06955476 0.05126587
-0.032302074 0.02547121 -0.022909317 -0.038867883 0.11000718 0.04822534 0.014159858 0.063305855
0.062238637 0.045426186 0.0563676 -0.07783478 -0.032684747 0.09204373 0.024351407 0.0355328
-0.07640156 -0.05999225 -0.047933012 0.03769559 -0.049789768 0.07187296 -0.08346088 -0.028381467
0.07309918 -0.052706614 -0.008493852 -0.04007718 0.031177502 -0.05657867 -0.08130378 -0.04335228
0.037052717 -0.031695835 -0.079208896 -0.02862128 -0.048531033 0.080442555 -0.02582528 0.03228706
0.087591246 -0.07967269 0.033174254 0.00911637 0.08237789 -0.0020527318 0.023239356 -0.10235185
0.09273514 -0.068809226 0.06331524 -0.077400826 0.016944604 -0.0033885993 0.07135668 -0.100364186
0.08121367 0.09390434 0.023979157 0.087049805 0.07814628 0.001682007 0.052857816 0.0015881547
0.023621581 -0.0758711 -0.03385675 -0.06566855 -0.07021504 -0.07536851 -0.052431658 0.0063505513
-0.017040221 0.035767898 0.034568362 -0.039050873 0.06721204 -0.07414135 -0.06337705 0.09396335
00000000: 0a55 06bd f16c 99bd 2183 cdbc 8325 9cbd
00000010: d83d acbb e864 7d3d d478 5ebd 1e5b ccbc
00000020: 0b9b ebbc e3d1 3abd 5d43 a7bd 445a 6d3c
00000030: e2eb aabc 80db d9bb ac9e 06bd 8298 99bd
00000040: 432f 3fbd de44 383d 42a1 783d 7199 15bd
00000050: 4207 653d 444c 90bd def6 85bc 613e d3bd
00000060: ba06 dabc 04b8 9a3c 925b 553d 5455 cb3c
00000070: 0595 153d 8ca8 f2bc de7e bf3d 3ad3 b0bd
00000080: a7d5 e4bc 3b9c a9bc a7b2 6a3d 566e 1e3c
00000090: f12b b23d 37c3 a2bd 9a9c d83c 9c98 bcbd
000000a0: d980 c53c 281e 54bd 0812 68bd 2391 ec3b
000000b0: 50e6 3c3c 8de0 b73d 5fe6 913d 5604 bfba
000000c0: 25dd 193d a988 fd3b 8d53 edbc 48ea aebd
000000d0: 5564 bebd a2c4 a7ba 1524 5cbd 86b6 a73d
000000e0: 7ed5 68bd 98c2 823c aa38 77bd 3033 b93d
000000f0: 6413 173d c9eb 3b3d 015c 9f3c db81 c3bc
00000100: 9cf9 25bd 71c7 5cbd e28b cbbd 7e68 e4bc
00000110: da4e 56bd 8cb4 a53d 15d0 b13d 36e2 98bd
00000120: 73f9 bdbb dd12 c4bd fe3e 333d 7bd4 863d
00000130: 964f 87bd fd4e a0bd ad49 f2bc ea34 963d
00000140: 8df2 7a3d 9dfb 84bd add2 d3bb 5407 aebd
00000150: 30d5 ab3d 3655 0b3d cd53 42bd a10e 0c3d
00000160: 722b 8bbb e01d 95bd 62de e1bd 94d9 893d
00000170: e748 8bbd 477b 6f3d ac43 08bd afa2 643d
00000180: 97a8 093d 7653 573d 7df5 61bd 8808 433d
00000190: f5a3 703c 7a10 f5bb 6074 2cbc b0b5 d8bb
000001a0: f2e3 4c3d 40e0 523d 3b3d 43bd c112 45bc
000001b0: 9304 73bc 8a88 f2bc fcd7 5b3d ff63 d13d
000001c0: e7a9 6e3d 3a7f 8cbc e043 923d a183 d23d
000001d0: 8f35 933c f7a5 a43d cf48 c53c 2bb0 f4bc
000001e0: 4a39 d43c 3096 643c 1f19 a23c 3dc2 99bc
000001f0: 3ae0 88bd a9de afbd 250b 6abd 002f 863d
00000200: 4b85 8dbc bb69 bbbd 9593 aa3d 0fc9 d8bd
00000210: a837 cc3c ccd3 c73d 703b 32bd 50a5 cf3b
00000220: faa1 d53d 4af6 bf3d 2c34 a03d cdc6 71bc
00000230: 4955 643d 3cd8 453d 4cb0 743c 45ec c63d
00000240: d823 e23c 5b51 9a3d 60eb 8fbd 9532 ad3c
00000250: 58ce d4bd af7a ed3b e307 953c 9438 583d
00000260: 73ac 3b3d a862 61bd 435a 503d f4a0 e4bd
00000270: 5830 b73d 6146 563d e03f ecbb 827f f83c
00000280: a425 7e3d 3763 92bd 0469 6f3d 0682 a63c
00000290: 7e2d b73d c6b7 433c 60fb 943c c84b 013d
000002a0: 7b8a b23d 3fd3 99bd ef79 7a3d 62df 8b3d
000002b0: 81c4 59bb 080e 7ebd ba72 8e3d 29fc 513d
000002c0: 2e4f 04bd 00a9 d03c 52ac bbbc ee33 1fbd
000002d0: 724b e13d ef87 453d c0fe 673c 80a6 813d
000002e0: f1ed 7e3d cf10 3a3d b6e1 663d d767 9fbd
000002f0: 71e0 05bd 6c81 bc3d 9a7c c73c d78a 113d
00000300: 6c78 9cbd 6fba 75bd 6855 44bd b166 1a3d
00000310: 5bf0 4bbd 2132 933d 8aed aabd 4080 e8bc
00000320: 06b5 953d e4e2 57bd cc29 0bbc f827 24bd
00000330: f667 ff3c 09bf 67bd 9982 a6bd 2992 31bd
00000340: 97c4 173d 7ed3 01bd 4638 a2bd 2d77 eabc
00000350: 7ac8 46bd 11bf a43d 8a8f d3bc 703f 043d
00000360: 0a63 b33d 6f2b a3bd bae1 073d d45c 153c
00000370: bdb5 a83d 2087 06bb 7660 be3c d99d d1bd
00000380: eceb bd3d daeb 8cbd 6cab 813d 5384 9ebd
00000390: 69cf 8a3c 4313 5ebb 7323 923d bd8b cdbd
000003a0: 5a53 a63d eb50 c03d f06f c43c 2b47 b23d
000003b0: 280b a03d ca76 dc3a 7081 583d a129 d03a
000003c0: 0c82 c13c 4f62 9bbd 60ad 0abd 3c7d 86bd
000003d0: e7cc 8fbd ce5a 9abd 94c2 56bd 4918 d03b
000003e0: ef97 8bbc 5c81 123d 8e97 0d3d cff3 1fbd
000003f0: 77a6 893d 6cd7 97bd d4cb 81bd db6f c03d

encoder.lob_enc.res_blocks.0.conv1.bias f4 [32]
-0.026811047 -0.04037803 -0.027709562 -0.11306461 -0.12160938 -0.06207331 -0.11456053 0.02729136
-0.059332673 -0.067358315 -0.0137902815 -0.0066410084 0.033125594 -0.02666702 0.010468544 0.0021275508
0.065779045 -0.0015754087 0.0129985465 -0.01988736 0.019645773 -0.031652376 -0.075846225 -0.08201762
0.037251882 -0.02193653 0.07365295 0.03296926 0.05960213 -0.038578853 0.039061833 -0.0071693854
00000000: d7a2 dbbc 6f63 25bd 2aff e2bc 6b8e e7bd
00000010: 570e f9bd 9540 7ebd b69e eabd 2192 df3c
00000020: d106 73bd 28f3 89bd a2f0 61bc d19c d9bb
00000030: b4ae 073d cb74 dabc 4284 2b3c 616e 0b3b
00000040: 2ab7 863d f27d ceba dbf7 543c d1ea a2bc
00000050: 2cf0 a03c eca5 01bd 4455 9bbd dbf8 a7bd
00000060: 6e95 183d 3db4 b3bc 5cd7 963d c60a 073d
00000070: 5d21 743d dc04 1ebd 4dff 1f3d 2aed eabb

encoder.lob_enc.res_blocks.0.bn1.weight f4 [32]
0.9974186 1.0021071 1.0070232 0.9938915 0.9862505 1.0019715 0.99305445 0.9965784
0.99648017 0.9989637 0.9946491 0.99903053 1.0001211 0.99849606 0.99477303 1.0033457
0.99566215 1.0114137 0.98988533 0.9860883 1.002432 0.99021745 1.0112169 1.0096394
1.0089731 1.0044395 1.006661 1.0049257 0.99201834 1.0093105 1.012093 1.0085105
00000000: d356 7f3f 0c45 803f 23e6 803f ac6f 7e3f
00000010: ea7a 7c3f 9a40 803f d138 7e3f c31f 7f3f
00000020: 5319 7f3f 16bc 7f3f 53a1 7e3f 77c0 7f3f
00000030: f803 803f 709d 7f3f 72a9 7e3f a26d 803f
00000040: b7e3 7e3f 0176 813f 2069 7d3f 4870 7c3f
00000050: b14f 803f e47e 7d3f 8e6f 813f dd3b 813f
00000060: 0826 813f 7991 803f 45da 803f 68a1 803f
00000070: eaf4 7d3f 1631 813f 438c 813f df16 813f

encoder.lob_enc.res_blocks.0.bn1.bias f4 [32]
0.0092272805 -0.0025037497 0.0057065557 0.011206437 0.0050257496 0.010756717 0.0071433205 0.008866372
-0.007680853 0.010799305 -0.0076062414 0.007903241 0.003118652 0.0100407535 0.0077607213 0.005379649
0.0013777975 0.011197818 0.0074632997 -0.012483673 0.013010229 0.00823965 0.01097204 0.011424983
0.010463345 0.0006679121 0.009752335 0.008515722 -0.0012692724 0.0130889695 0.012216017 0.010661307
00000000: 052e 173c f315 24bb 0ffe ba3b 349b 373c
00000010: 0baf a43b f13c 303c 8412 ea3b 4244 113c
00000020: aaaf fbbb 91ef 303c c73d f9bb 987c 013c
00000030: 4c62 4c3b f981 243c a64d fe3b c447 b03b
00000040: 3697 b43a 0e77 373c b28e f43b 5288 4cbc
00000050: db28 553c 99ff 063c 12c4 333c da2f 3b3c
00000060: 736e 2b3c d316 2f3a 42c8 1f3c 8785 0b3c
00000070: b75d a6ba 1e73 563c b025 483c c3ac 2e3c

encoder.lob_enc.res_blocks.0.bn1.running_mean f4 [32]
-0.308704 0.5152258 -0.37151447 -0.43195745 -0.24849655 -0.3448545 -0.026234042 0.107363045
0.106111206 -0.021540143 0.43338072 0.42354277 -0.074736744 -0.07849851 -0.29744884 0.26958695
0.17697911 -0.005173378 -0.040235303 -0.02345602 -0.0033904812 0.2066084 -0.18134928 -0.15003802
0.055325516 -0.51899296 0.04042553 -0.1818438 -0.07428149 -0.06815453 -0.07638653 0.12116581
00000000: 730e 9ebe d7e5 033f 2537 bebe 8729 ddbe
00000010: e175 7ebe c590 b0be c6e8 d6bc 28e1 db3d
00000020: d550 d93d f474 b0bc 14e4 dd3e 99da d83e
00000030: 940f 99bd d4c3 a0bd 374b 98be 4d07 8a3e
00000040: 033a 353e 7185 a9bb c6cd 24bd d726 c0bc
00000050: d632 5ebb 2791 533e a0b3 39be 91a3 19be
00000060: 029d 623d b9dc 04bf 3e95 253d 4335 3abe
00000070: e520 98bd 9a94 8bbd 8b70 9cbd c825 f83d

encoder.lob_enc.res_blocks.0.bn1.running_var f4 [32]
0.04944598 0.590949 0.07287359 0.07014717 0.04038724 0.060904723 0.28431645 0.15204336
0.6219723 0.17217937 0.49746144 0.09550812 0.113782115 0.03621125 0.08509855 0.10948776
0.5566957 0.24016279 0.15971407 0.09991233 0.16915095 0.44369528 0.09256794 0.2118996
0.140872 0.1065967 0.21465753 0.075873695 0.02926787 0.2768736 0.13544217 0.11800774
00000000: de87 4a3d 6f48 173f c03e 953d 52a9 8f3d
00000010: 176d 253d 3b77 793d ed91 913e 41b1 1b3e
00000020: 9439 1f3f ca4f 303e 44b3 fe3e c399 c33d
00000030: 9906 e93d 3f52 143d 2648 ae3d 1e3b e03d
00000040: 9c83 0e3f 3ced 753e 168c 233e d69e cc3d
00000050: e835 2d3e 072c e33e 4394 bd3d 35fc 583e
00000060: c040 103e 5f4f da3d 2fcf 5b3e ab63 9b3d
00000070: 2cc3 ef3c 60c2 8d3e 5ab1 0a3e 0bae f13d

encoder.lob_enc.res_blocks.0.conv2.weight f4 [32, 32, 3, 1]
0.016672075 0.024814827 -0.067153305 0.086620525 0.032251008 -0.03008196 -0.0803906 -0.06237487
-0.016541807 0.01105082 0.03136948 0.096570835 0.06941506 -0.011420508 -0.023078077 0.07936283
-0.0022466327 0.013925899 -0.0028483826 0.090273224 0.06232061 0.042116053 0.033440717 -0.017296672
0.028053861 -0.07720116 -0.0721726 0.033716366 0.025073014 -0.062565036 0.036313996 0.03960132
0.05248506 -0.043569107 -0.048951607 0.0013390222 -0.011020001 -0.0062802336 -0.077506185 0.07032326
0.096358575 -0.047616985 0.073755555 0.019507954 0.02556137 -0.0059595546 0.09479469 -0.022128109
0.019135315 -0.004432102 0.009629527 -0.04440944 -0.063067995 0.07131908 -0.09956523 -0.0757432
0.09200182 -0.05222452 -0.01401589 -0.09654821 -0.028726455 -0.046297558 0.038026363 0.049513813
0.08973931 -0.034742262 0.09419668 0.043627534 -0.07570952 -0.088208884 -0.010937518 0.09552879
0.0013899459 -0.05885506 0.064136714 -0.10739303 0.07046056 -0.005796303 0.0077712876 -0.03348802
0.018251495 -0.0019439633 0.07495944 0.08513135 0.036641154 -0.01698396 -0.0040827915 -0.060399417
0.06427078 -0.02020059 -0.09895744 -0.03017223 -0.06827085 -0.079367265 0.019056624 0.01060712
-0.054873433 -0.07174769 0.034423932 0.022645231 0.06935003 0.054068357 -0.062241584 0.057189163
-0.089027196 -0.08532669 0.04324697 0.09798213 0.048089698 -0.0034715103 -0.047293417 0.1006395
-0.06635154 0.09258878 -0.06564099 -0.09908418 -0.0044372105 0.031065902 -0.083057664 -0.029952355
-0.0038303232 -0.0068980944 -0.048698474 0.0961909 -0.07180867 0.06775974 0.029911043 -0.041882105
0.04462748 -0.0840513 -0.06998454 0.056104295 -0.050628524 0.050911523 -0.09375778 0.018453982
-0.09511265 0.048152197 0.09954329 0.060858827 0.029247396 0.06638269 0.08902544 0.05594271
0.044759877 0.033007886 0.023294926 0.06491005 0.075796425 -0.034608323 0.017841838 0.056131095
-0.08333736 -0.07572671 -0.023992788 0.017394407 0.06652388 0.05250837 0.051998027 -0.021288117
-0.026359811 -0.09819126 -0.0068082083 -0.026983052 -0.081916444 0.04573625 0.058687918 0.026634026
-0.07369278 -0.029408775 -0.093040615 -0.010837579 0.055829152 0.08574864 -0.08544678 -0.021381715
-0.051769786 0.07916343 0.10180122 -0.087267056 -0.040095184 0.003624825 -0.091367476 -0.10173995
-0.06866404 0.07177849 0.019755797 -0.053462494 -0.016653804 0.09481437 -0.094487354 0.041203685
-0.016557818 -0.11179854 0.07572962 -0.058386825 0.070275836 -0.0034082965 0.012357764 -0.025531147
-0.09332042 0.0397215 -0.04610103 0.0273802 0.08312454 -0.042161375 -0.000516847 0.024589675
-0.044332832 0.034213804 -0.05374037 0.07056015 -0.02817314 -0.014645009 -0.04339282 -0.001209441
0.059681125 0.007950061 -0.04652729 0.097940885 0.09401522 -0.03724404 -0.067533046 -0.08243417
0.0066659097 0.095229566 0.03091057 0.041215405 -0.10647814 0.03169008 0.044283282 -0.042477235
-0.075580195 -0.025503546 -0.097693175 0.08314529 -0.07194932 0.10147548 -0.09256029 0.07444388
-0.05172721 -0.08989985 0.01719868 0.10465653 -0.038164813 0.02511661 -0.07417271 0.05555418
0.0804852 -0.04124257 0.084518395 0.039806776 0.0029400806 -0.055099677 0.057601124 -0.006641084
00000000: e093 883c 7748 cb3c ac87 89bd 1a66 b13d
00000010: a219 043d 716e f6bc d4a3 a4bd cb7c 7fbd
00000020: af82 87bc 800e 353c 497d 003d eec6 c53d
00000030: 7c29 8e3d 151d 3bbc 3c0e bdbc fb88 a23d
00000040: 3e3c 13bb 7429 643c eeab 3abb 2be1 b83d
00000050: e543 7f3d e281 2c3d 22f9 083d c0b1 8dbc
00000060: 36d1 e53c a41b 9ebd 3acf 93bd 2c1a 0a3d
00000070: ec65 cd3c 1922 80bd fcbd 143d fe34 223d
00000080: 93fa 563d 8575 32bd 7b81 48bd 2182 af3a
00000090: 3c8d 34bc 6bca cdbb 90bb 9ebd a405 903d
000000a0: a557 c53d 070a 43bd 270d 973d 25cf 9f3c
000000b0: 1466 d13c 5e48 c3bb b823 c23d 0246 b5bc
000000c0: aac1 9c3c 2b3b 91bb 2ac5 1d3c ace6 35bd
000000d0: cb29 81bd bd0f 923d dbe8 cbbd 401f 9bbd
000000e0: 736b bc3d 61e9 55bd e7a2 65bc 11bb c5bd
000000f0: be53 ebbc 82a2 3dbd 88c1 1b3d ffce 4a3d
00000100: 3ec9 b73d e74d 0ebd 30ea c03d c9b2 323d
00000110: 980d 9bbd dca6 b4bd 4733 33bc 99a4 c33d
00000120: d82e b63a 0112 71bd 1c5a 833d e0f0 dbbd
00000130: a04d 903d eaee bdbb 49a6 fe3b bc2a 09bd
00000140: 2984 953c 96cc feba 5684 993d 5859 ae3d
00000150: 0915 163d f221 8bbc f0c8 85bb 6165 77bd
00000160: 66a0 833d b57b a5bc 33aa cabd c12b f7bc
00000170: 96d1 8bbd 4e8b a2bd a31c 9c3c 7cc9 2d3c
00000180: f7c2 60bd 74f0 92bd 1c00 0d3d 7e82 b93c
00000190: 6307 8e3d c876 5d3d 08f1 7ebd 2f3f 6a3d
000001a0: e453 b6bd c2bf aebd bc23 313d dbaa c83d
000001b0: b4f9 443d 4782 63bb beb6 41bd 151c ce3d
000001c0: 51e3 87bd 309f bd3d c96e 86bd a6ec cabd
000001d0: 0566 91bb eb7d fe3c 231a aabd a45e f5bc
000001e0: 2906 7bbb 6909 e2bb 0d78 47bd bcff c43d
000001f0: 6d10 93bd 9ec5 8a3d 0108 f53c 928c 2bbd
00000200: 4ecb 363d 1723 acbd 0e54 8fbd 9ecd 653d
00000210: db5f 4fbd 9a88 503d 1404 c0bd ce2c 973c
00000220: 6cca c2bd 3d3b 453d 5add cb3d 1b47 793d
00000230: 3c98 ef3c a6f3 873d f852 b63d 2f24 653d
00000240: 2256 373d 4733 073d 00d5 be3c 8fef 843d
00000250: 283b 9b3d 75c1 0dbd 0c29 923c b8e9 653d
00000260: c7ac aabd 9b16 9bbd 868c c4bc b77e 8e3c
00000270: ac3d 883d 0413 573d e2fb 543d 6b64 aebc
00000280: 88f0 d7bc 8018 c9bd 6417 dfbb 900b ddbc
00000290: cfc3 a7bd ef55 3b3d be62 703d 9a2f da3c
000002a0: 3eec 96bd acea f0bc 148c bebd 1a90 31bc
000002b0: 1cad 643d fc9c af3d b9fe aebd b528 afbc
000002c0: 8e0c 54bd 7020 a23d 287d d03d 12b9 b2bd
000002d0: d93a 24bd 798e 6d3b df1e bbbd 095d d0bd
000002e0: bb9f 8cbd 9a00 933d e9d6 a13c 7dfb 5abd
000002f0: 8f6d 88bc 092e c23d 9682 c1bd 32c5 283d
00000300: 43a4 87bc a2f6 e4bd 2218 9b3d 0627 6fbd
00000310: c7ec 8f3d ba5d 5fbb 3878 4a3c b226 d1bc
00000320: c71e bfbd 03b3 223d 6fd4 3cbd 714c e03c
00000330: 333d aa3d 68b1 2cbd 047d 07ba 4970 c93c
00000340: 5896 35bd c623 0c3d dd1e 5cbd d781 903d
00000350: 5bcb e6bc 9ff1 6fbc abbc 31bd 1b86 9eba
00000360: 3274 743d f940 023c 6693 3ebd 3b95 c83d
00000370: 0d8b c03d 358d 18bd c44e 8abd 3fd3 a8bd
00000380: b46d da3b b807 c33d 2a38 fd3c 7cd1 283d
00000390: 3611 dabd 75cd 013d 6362 353d 9cfc 2dbd
000003a0: cac9 9abd d0ec d0bc 5c13 c8bd 1448 aa3d
000003b0: 2a5a 93bd 60d2 cf3d 4090 bdbd 0876 983d
000003c0: e9df 53bd 6a1d b8bd 3fe4 8c3c 2a56 d63d
000003d0: b552 1cbd 59c1 cd3c dde7 97bd c88c 633d
000003e0: 6dd5 a43d f8ed 28bd fb17 ad3d 6e0c 233d
000003f0: 5eae 403b 33b0 61bd 28ef 6b3d 739d d9bb

encoder.lob_enc.res_blocks.0.conv2.bias f4 [32]
0.008166678 -0.032067887 -0.042321317 -0.008279069 -0.016559636 -0.02950732 -0.060981605 -0.07143645
-0.05412625 -0.09610721 -0.06549962 -0.02931181 -0.07072528 -0.0070645493 0.029699871 -0.0013069268
-0.060295958 -0.017211515 -0.07742304 0.052146308 0.053252563 0.06549287 -0.055139463 0.051220145
-0.009234195 -0.046637334 0.041422196 -0.091518685 -0.11552656 0.06696422 0.011776635 0.033608925
00000000: 88cd 053c 9e59 03bd 1e59 2dbd efa4 07bc
00000010: 13a8 87bc 56b9 f1bc d9c7 79bd 464d 92bd
00000020: 7db3 5dbd dbd3 c4bd aa24 86bd 521f f0bc
00000030: 6ad8 90bd bc7d e7bb 254d f33c 304d abba
00000040: e5f8 76bd 2aff 8cbc f98f 9ebd 5e97 553d
00000050: 5c1f 5a3d 2021 863d ebd9 61bd 37cc 513d
00000060: 054b 17bc ca06 3fbd 52aa 293d 266e bbbd
00000070: 3099 ecbd 8924 893d caf2 403c 83a9 093d

encoder.lob_enc.res_blocks.0.bn2.weight f4 [32]
0.99062866 1.0004363 1.0096701 0.991694 1.0075744 1.0020128 1.0104746 1.0083256
1.0064818 1.0056252 1.000284 0.9970995 1.0089532 1.0039258 0.9925708 1.0069817
1.0000782 1.0000542 1.0083945 1.0021775 1.0001181 1.0088016 1.0016845 1.0092598
1.0071818 1.0027745 1.0098773 1.0086563 1.0068578 0.9953844 1.006733 1.0090704
00000000: d799 7d3f 4c0e 803f df3c 813f a8df 7d3f
00000010: 33f8 803f f541 803f 3b57 813f d010 813f
00000020: 65d4 803f 54b8 803f 4e09 803f ea41 7f3f
00000030: 6125 813f a480 803f 1f19 7e3f c7e4 803f
00000040: 9002 803f c701 803f 1213 813f 5a47 803f
00000050: df03 803f 6920 813f 3337 803f 6d2f 813f
00000060: 55eb 803f ea5a 803f a943 813f a61b 813f
00000070: b7e0 803f 83d1 7e3f a0dc 803f 3829 813f

encoder.lob_enc.res_blocks.0.bn2.bias f4 [32]
0.006202043 2.331064e-05 0.010465631 -0.0041064085 0.008179856 0.0056526684 0.01001592 0.010366792
0.009503742 0.007243318 -0.0023950688 -0.00043586345 0.008478271 0.0050166394 -0.008701724 0.006539709
0.003554393 0.0010545572 0.009999548 6.202432e-05 -0.00044899722 0.009826754 -0.0052607856 0.009278645
0.008378077 0.0041785925 0.010297915 0.009204354 0.008199398 -0.009412508 0.008730425 0.009355732
00000000: 823a cb3b 388b c337 0a78 2b3c 0d8f 86bb
00000010: ce04 063c 053a b93b d019 243c 7ad9 293c
00000020: 95b5 1b3c 5b59 ed3b 96f6 1cbb 9a84 e4b9
00000030: 72e8 0a3c 9f62 a43b ad91 0ebc 0e4b d63b
00000040: d2f0 683b 1139 8a3a 25d5 233c 0e13 8238
00000050: 6367 ebb9 6500 213c ab62 acbb 7505 183c
00000060: 3444 093c 93ec 883b 96b8 283c dccd 163c
00000070: c556 063c ec36 1abc 0e0a 0f3c c948 193c

encoder.lob_enc.res_blocks.0.bn2.running_mean f4 [32]
0.084596634 -0.04889105 -0.010514699 0.069248036 0.0067645777 0.34547094 -0.32248452 0.16846026
0.10260383 0.0728441 -0.24490775 -0.017760847 -0.02819913 -0.14737102 0.2887049 -0.12883879
0.012444292 0.14062104 -0.2072299 0.09881483 -0.2846963 0.21275225 0.07187231 -0.02728149
-0.31550652 -0.059764277 0.012454146 0.044228736 -0.14052358 0.15674701 0.03864259 0.10182016
00000000: 0041 ad3d fb41 48bd d845 2cbc ead1 8d3d
00000010: 64a9 dd3b 91e1 b03e b11c a5be d980 2c3e
00000020: f521 d23d 4a2f 953d 19c9 7abe 327f 91bc
00000030: dd01 e7bc 6ee8 16be 21d1 933e 51ee 03be
00000040: 25e3 4b3c f6fe 0f3e 1334 54be 6e5f ca3d
00000050: b7c3 91be badb 593e ca31 933d 6e7d dfbc
00000060: 128a a1be 63cb 74bd 790c 4c3c 3129 353d
00000070: 6ae5 0fbe 4a82 203e b147 1e3d 1787 d03d

encoder.lob_enc.res_blocks.0.bn2.running_var f4 [32]
0.0580506 0.036420356 0.18627413 0.13325328 0.089633115 0.21851312 0.16063066 0.22087178
0.13516836 0.096971 0.2360445 0.030063828 0.077410445 0.04938454 0.10476389 0.17527322
0.12010223 0.13943517 0.16552779 0.4639758 0.24857432 0.18994555 0.27602094 0.2017253
0.13516706 0.07388491 0.105948694 0.32464972 0.15786439 0.5086225 0.060022946 0.14540386
00000000: 77c6 6d3d 832d 153d a5be 3e3e 8c73 083e
00000010: 9191 b73d e7c1 5f3e 5d7c 243e 362c 623e
00000020: 9369 0a3e bb98 c63d a6b5 713e 6b48 f63c
00000030: 5e89 9e3d 7247 4a3d 738e d63d d37a 333e
00000040: 28f8 f53d 18c8 0e3e 1e80 293e 3c8e ed3e
00000050: 448a 7e3e 1681 423e 9e52 8d3e 1491 4e3e
00000060: 3c69 0a3e f950 973d a1fb d83d 7d38 a63e
00000070: 34a7 213e 1635 023f 9fda 753d c0e4 143e

encoder.lob_enc.res_blocks.1.conv1.weight f4 [32, 32, 3, 1]
-0.09368335 0.01869974 0.04245119 -0.026733128 -0.06717678 0.07942247 0.025028612 0.054834437
0.09482879 -0.08898883 0.071749784 -0.0394349 0.043460663 0.070602976 0.0760756 0.03591358
0.014799727 0.005081405 -0.026388325 0.05404107 0.09734976 0.0047185593 -0.082246676 -0.01970306
-0.034798007 0.04982961 -0.07925654 -0.029031897 -0.042701166 -0.07680081 -0.052490406 0.06289008
0.029292703 0.07723774 -0.0060381894 0.0527421 0.042530574 0.06761852 -0.007964354 0.08113615
-0.0051913452 -0.030358855 0.040923648 0.037731327 -0.06539663 -0.03441075 -0.09211127 0.09445642
0.028406313 0.08360164 -0.085074164 0.10147188 0.09830973 0.09510517 -0.071005486 0.09740756
-0.08625487 -0.0743728 -0.033769436 0.10239051 -0.02612509 0.038314763 -0.014037927 0.053498387
0.051479947 0.08686906 0.059525307 0.086585924 0.09321762 0.037894137 0.061527964 0.085783936
0.047866054 -0.030322272 0.077677906 0.022263076 0.066398725 -0.026581649 -0.09615059 -0.061842807
-0.00724105 -0.06602726 -0.0414026 0.053062983 0.037758954 -0.02662465 -0.00030317623 -0.096686624
-0.0011670982 0.00240499 -0.057214133 0.09603542 -0.049084876 0.011842423 -0.06556825 0.019133216
-0.085338086 -0.0102975285 0.034760103 0.076134756 0.01049067 0.01265749 0.009517543 -0.058884196
0.01936368 -0.097744025 -0.043343555 -0.008082223 -0.033643413 0.043310475 -0.06875167 0.02797011
-0.06630622 -0.088313796 -0.018648168 -0.01425586 -0.049577784 0.09576279 -0.036820333 -0.026231844
0.0063550714 -0.042394925 0.015427788 0.096551366 -0.0013834394 -0.037580766 0.06539024 0.02863867
0.0583424 0.019038787 -0.051537175 -0.07526063 -0.043214627 -0.09545006 -0.09549234 0.058368657
-0.005332169 -0.0019447713 -0.081521675 0.048296634 0.07497544 0.072581604 -0.05222677 0.017095048
-0.055267375 0.043682266 0.0516378 -0.06278844 -0.08390325 -0.08339066 0.034216885 0.01478949
0.061322376 -0.023319418 0.07176992 0.08552066 -0.06888042 -0.007406061 0.021816988 0.063647486
-0.09531649 0.044831432 -0.0036889492 0.0640414 -0.1004951 0.07402224 0.07305361 0.0022348184
-0.027705923 0.051674437 -0.025384732 -0.028601285 -0.06411004 0.08939566 0.059649695 0.0059085973
-0.002556556 -0.070381716 0.07754798 0.03886942 0.03591636 0.043885496 -0.08297941 -0.03991575
0.06440163 -0.038149897 0.08673051 -0.06971421 0.076425724 0.10886608 -0.0803477 0.08226182
0.016553849 0.038910925 -0.04120515 0.06267961 0.010772429 -0.08531532 0.09496262 -0.00040369362
-0.018415133 0.023131454 0.01069305 -0.09607888 0.08943996 -0.02231106 0.019089721 -0.028711913
-0.104334064 -0.09672479 -0.034368526 -0.031309746 0.08771989 0.01395183 0.10317069 0.0828144
0.008283607 -0.039775703 -0.00085548725 -0.04713742 -0.112160906 0.016798465 0.028489893 -0.044749793
0.08205746 -0.00046516833 -0.018120896 -0.031587727 0.090403095 0.047890253 -0.07816668 -0.08745661
-0.09388883 0.08417694 0.07405983 0.04101204 0.039854236 -0.08082915 0.0624976 -0.019051874
-0.013770965 0.0013135414 -0.040202882 0.08671348 0.005039359 0.060997684 -0.060785793 -0.08767079
-0.028992776 0.02133906 -0.08018885 -0.06427061 0.021055518 0.087493576 0.07532071 0.08972597
00000000: 0edd bfbd 3230 993c 4de1 2d3d 6fff dabc
00000010: fb93 89bd 3fa8 a23d ce08 cd3c 139a 603d
00000020: 9935 c23d c73f b6bd 8df1 923d 7d86 21bd
00000030: cf03 323d 4b98 903d 86cd 9b3d 1e1a 133d
00000040: 8e7a 723c ea81 a63b 542c d8bc 2b5a 5d3d
00000050: 505f c73d 259e 9a3b f270 a8bd 5068 a1bc
00000060: 5b88 0ebd 221a 4c3d 4151 a2bd 4dd4 edbc
00000070: 6be7 2ebd be49 9dbd 2e00 57bd 84cc 803d
00000080: 40f7 ef3c d22e 9e3d 01dc c5bb 1a08 583d
00000090: 8a34 2e3d 947b 8a3d ec7c 02bc b62a a63d
000000a0: 291c aabb 22b3 f8bc 8e9f 273d 2a8c 1a3d
000000b0: abee 85bd 49f2 0cbd d5a4 bcbd 5e72 c13d
000000c0: 5bb4 e83c 5637 ab3d 5d3b aebd 7dd0 cf3d
000000d0: 9d56 c93d 80c6 c23d 536b 91bd 9d7d c73d
000000e0: 65a6 b0bd c450 98bd d251 0abd 1eb2 d13d
000000f0: 4904 d6bc f1ef 1c3d 55ff 65bc 2021 5b3d
00000100: a3dc 523d 68e8 b13d cfd0 733d f653 b13d
00000110: e1e8 be3d e236 1b3d bf04 7c3d 7daf af3d
00000120: 320f 443d 6a66 f8bc 9815 9f3d 0e61 b63c
00000130: 0efc 873d c2c1 d9bc 9aea c4bd e24e 7dbd
00000140: 5446 edbb 4d39 87bd c695 29bd 9258 593d
00000150: 22a9 1a3d f01b dabc a0f3 9eb9 a303 c6bd
00000160: 51f9 98ba 099d 1d3b 5e59 6abd 38ae c43d
00000170: 390d 49bd b906 423c a648 86bd 43bd 9c3c
00000180: bcc5 aebd f7b6 28bc 9c60 0e3d 8aec 9b3d
00000190: 0fe1 2b3c 5c61 4f3c 78ef 1b3c 8e30 71bd
000001a0: 95a0 9e3c 052e c8bd 0389 31bd 4d6b 04bc
000001b0: adcd 09bd 5366 313d adcd 8cbd 9221 e53c
000001c0: 8ecb 87bd dddd b4bd 0bc4 98bc 6991 69bc
000001d0: 1312 4bbd 481f c43d ebd0 16bd 2ae4 d6bc
000001e0: 343e d03b 4da6 2dbd d5c4 7c3c b9bc c53d
000001f0: 8654 b5ba 4aee 19bd 51eb 853d a59b ea3c
00000200: 71f8 6e3d 3bf7 9b3c a518 53bd 3f22 9abd
00000210: d201 31bd 527b c3bd 7d91 c3bd f913 6f3d
00000220: 7ab9 aebb b2e7 feba d6f4 a6bd b1d2 453d
00000230: b98c 993d aaa5 943d bdeb 55bd ea0a 8c3c
00000240: 0b60 62bd 2dec 323d 2882 533d 3a97 80bd
00000250: 78d5 abbd b9c8 aabd 0127 0c3d 9e4f 723c
00000260: 2c2d 7b3d 5d08 bfbc 1cfc 923d 7525 af3d
00000270: 2d11 8dbd 8bae f2bb 8ab9 b23c 9d59 823d
00000280: 4b35 c3bd 2aa1 373d 4cc2 71bb 2328 833d
00000290: 60d0 cdbd f998 973d 229d 953d 0876 123b
000002a0: 88f7 e2bc 93a8 533d a4f3 cfbc 3e4d eabc
000002b0: 204c 83bd 1215 b73d 3d53 743d e89c c13b
000002c0: e48b 27bb 4a24 90bd 7ad1 9e3d 8a35 1f3d
000002d0: 081d 133d 47c1 333d 1cf1 a9bd b37e 23bd
000002e0: 00e5 833d 1143 1cbd c49f b13d 53c6 8ebd
000002f0: 1785 9c3d 2ef5 de3d 568d a4bd e378 a83d
00000300: f09b 873c 1061 1f3d bbc6 28bd 2b5e 803d
00000310: d87e 303c ccb9 aebd c37b c23d d7a6 d3b9
00000320: 55db 96bc 2d7e bd3c e731 2f3c 01c5 c4bd
00000330: 4c2c b73d afc5 b6bc 0c62 9c3c 3f35 ebbc
00000340: 19ad d5bd a617 c6bd 03c6 0cbd a63e 00bd
00000350: 7ca6 b33d 3796 643c 284b d33d 999a a93d
00000360: f7b7 073c d9eb 22bd c742 60ba 2b13 41bd
00000370: 9eb4 e5bd ef9c 893c a363 e93c 8f4b 37bd
00000380: be0d a83d d6e1 f3b9 4672 94bc 2262 01bd
00000390: 4225 b93d 9228 443d da15 a0bd 731c b3bd
000003a0: c948 c0bd f664 ac3d aeac 973d 3efc 273d
000003b0: 323e 233d c189 a5bd 7cfd 7f3d ad12 9cbc
000003c0: 9d9f 61bc 232b ac3a c7ab 24bd d696 b13d
000003d0: 3521 a53b b5d8 793d 86fa 78bd be8c b3bd
000003e0: 4282 edbc 41cf ae3c 0d3a a4bd 4fa0 83bd
000003f0: 9f7c ac3c d52f b33d bf41 9a3d 40c2 b73d

encoder.lob_enc.res_blocks.1.conv1.bias f4 [32]
0.022448158 0.033449057 0.07427324 0.012855547 0.05350651 0.024932975 -0.06746825 -0.025665144
-0.076179765 0.053174715 0.0038807087 -0.100311264 0.066547304 0.031094097 -0.023545701 -0.10000887
-0.07505234 -0.11988516 -0.09619356 0.07154071 -0.029092457 0.066043206 0.027620183 0.062348634
0.011955762 -0.08596861 0.06606479 -0.11487981 0.0030223383 0.0028651496 0.039861515 -0.10011684
00000000: 33e5 b73c e101 093d 921c 983d 12a0 523c
00000010: a429 5b3d 3d40 cc3c cb2c 8abd b53f d2bc
00000020: 2304 9cbd bbcd 593d 7d53 7e3b fe6f cdbd
00000030: f449 883d 0cb9 fe3c eae2 c0bc 73d1 ccbd
00000040: 0bb5 99bd 5a86 f5bd 2101 c5bd f083 923d
00000050: 4e53 eebc a941 873d b943 e23c 4861 7f3d
00000060: 1ae2 433c 5010 b0bd fa4c 873d 1b46 ebbd
00000070: 6c12 463b 3cc5 3b3b d445 233d 0f0a cdbd

encoder.lob_enc.res_blocks.1.bn1.weight f4 [32]
0.9932401 1.00309 0.9929215 1.0014435 1.0117732 0.99591655 0.99157614 0.9941287
0.9941571 0.98876894 1.0105318 1.007938 1.0014913 1.0108509 0.9988731 0.9974952
1.0094093 1.0006176 1.009678 0.99497294 0.9939624 1.0028249 0.9992992 0.99546546
1.0108433 1.0015563 0.9962288 1.0025533 0.9898261 0.99448586 0.99260026 1.0119619
00000000: fc44 7e3f 4165 803f 1a30 7e3f 4d2f 803f
00000010: c981 813f 63f4 7e3f efd7 7d3f 387f 7e3f
00000020: 1481 7e3f f61f 7d3f 1b59 813f 1d04 813f
00000030: de30 803f 9063 813f 26b6 7f3f d85b 7f3f
00000040: 5334 813f 3d14 803f 213d 813f 8cb6 7e3f
00000050: 5274 7e3f 915c 803f 13d2 7f3f d3d6 7e3f
00000060: 5063 813f ff32 803f da08 7f3f ab53 803f
00000070: 3e65 7d3f a096 7e3f 0d1b 7e3f f887 813f

encoder.lob_enc.res_blocks.1.bn1.bias f4 [32]
-0.006102505 0.0077415835 0.0012716325 -0.0009042624 0.013428279 -0.009506002 -0.0011471909 -0.003913165
0.004866067 -0.009034887 0.0093182875 0.0065180454 0.013072097 0.009382583 0.0032697911 -0.010144429
0.008039657 0.00046932572 0.0064493404 0.010646896 0.008879403 0.0132220965 0.0054596113 -0.0007435317
0.0102349 -0.0025335078 0.009977655 0.006756497 -0.009412398 0.003529612 -0.005083341 0.0076000374
00000000: 86f7 c7bb 1cad fd3b e8ac a63a 060c 6dba
00000010: 4902 5c3c 10bf 1bbc 575d 96ba 023a 80bb
00000020: 8773 9f3b 1007 14bc bbab 183c 5495 d53b
00000030: 592c 563c 68b9 193c fe49 563b d234 26bc
00000040: c4b8 033c d50f f639 fd54 d33b 5270 2e3c
00000050: ea7a 113c 7ea1 583c 8ae6 b23b 91e9 42ba
00000060: 48b0 273c 3509 26bb 5179 233c 9b65 dd3b
00000070: 7536 1abc 1051 673b 2892 a6bb bc09 f93b

encoder.lob_enc.res_blocks.1.bn1.running_mean f4 [32]
0.53462243 0.011023168 0.02365464 -0.51251316 -0.109647535 -0.03435627 -0.29727158 0.7086237
-0.03218344 -0.34775382 -0.36732543 -0.78896207 -0.6520475 -0.5117235 0.8042583 -0.2962184
-0.8037994 -0.4272815 -0.8434777 -0.5306193 -0.2604862 -0.11940357 -0.10849828 0.44421023
-0.5731558 -0.14857057 0.37638575 -0.3991927 -0.09897431 -0.19196045 -0.08437347 -0.33673733
00000000: 04dd 083f 859a 343c 60c7 c13c 1034 03bf
00000010: e38e e0bd 29b9 0cbd fb33 98be 5d68 353f
00000020: c8d2 03bd ca0c b2be 1412 bcbe 6bf9 49bf
00000030: 96ec 26bf 5000 03bf dfe3 4d3f f0a9 97be
00000040: ccc5 4dbf a4c4 dabe 28ee 57bf abd6 07bf
00000050: 725e 85be dc89 f4bd 5934 debd 866f e33e
00000060: 57ba 12bf e222 18be a2b5 c03e fc62 ccbe
00000070: 0bb3 cabd 4891 44be ffcb acbd d668 acbe

encoder.lob_enc.res_blocks.1.bn1.running_var f4 [32]
0.59138966 0.3557269 0.32765764 0.12717178 0.38466093 0.25204456 0.09079327 0.49975908
0.48785737 0.43526056 0.16145454 0.13419607 0.22340643 0.140665 0.49771628 0.081978574
0.22486213 0.29435948 0.20754582 0.10103365 0.16436693 0.6797084 0.20117652 0.7195243
0.2924138 0.4165798 0.77443415 0.2437199 0.26817304 0.38461897 0.34955975 0.24358134
00000000: 5065 173f d621 b63e bec2 a73e 5239 023e
00000010: 47f2 c43e fc0b 813e d2f1 b93d 6ce0 ff3e
00000020: 71c8 f93e 79da de3e 5754 253e b26a 093e
00000030: a8c4 643e 7c0a 103e abd4 fe3e 62e4 a73d
00000040: 4242 663e 49b6 963e e486 543e bbea ce3d
00000050: ce4f 283e 5f01 2e3f 3801 4e3e bf32 383f
00000060: 43b7 953e f349 d53e 5141 463f b691 793e
00000070: fa4d 893e c7ec c43e 7ff9 b23e 636d 793e

encoder.lob_enc.res_blocks.1.conv2.weight f4 [32, 32, 3, 1]
0.036386672 0.011995901 -0.073991366 0.0074923458 -0.017750025 0.07314108 -0.10222509 0.0062856637
0.09522293 -0.07408133 0.09310247 -0.027974574 0.09009787 -0.01170782 0.08074586 -0.091909975
0.03683921 -0.052048802 0.035859354 -0.091734745 -0.039935313 0.0043582865 -0.075123236 0.059740517
-0.049245358 -0.018556295 -0.0137559865 0.046798807 -0.042239245 0.029460551 -0.042159382 0.016016403
-0.08308008 -0.030410485 -0.0851061 -0.079605564 0.08399435 -0.102784745 0.04084521 -0.043694366
0.096293546 -0.03689134 -0.03864076 0.042622674 -0.068285644 -0.062317092 -0.082869396 0.07483749
0.08384209 -0.05914842 0.06739938 -0.09984912 0.05280087 -0.10827155 0.1146921 -0.03186543
-0.041077986 0.02719911 -0.08018998 0.07837124 -0.022474134 0.044707656 0.058962956 0.038473636
-0.035865467 0.023340259 -0.107639834 -0.06815274 -0.10193199 -0.009870461 -0.057162344 -0.074291535
-0.039215364 -0.0730939 0.035496823 -0.02300399 0.09477469 0.06183697 -0.02667638 -0.012638702
-0.09619314 0.044429787 -0.0007776718 0.07995896 -0.09943642 0.0031426633 -0.05605953 -0.058939062
-0.005298523 0.04601487 0.047084965 -0.041562658 -0.07036822 0.03287879 -0.07317162 -0.004332326
0.09789616 -0.08942027 -0.05031007 0.005725076 -0.03879158 0.0015551824 0.05881937 0.0034503418
0.06195736 -0.082986064 -0.08753106 -0.0960235 0.017571755 -0.0657993 0.07943731 0.050434146
0.033358898 -0.011413874 -0.07801478 0.015463144 -0.0873259 -0.09535053 -0.048821025 -0.046752553
-0.07407718 0.012106539 -0.095754385 0.096561626 -0.034139577 -0.009040154 0.012970374 0.09721569
0.046525564 0.0633163 -0.02138119 -0.01161929 -0.016954023 0.063904926 0.046187613 0.068916984
0.06174964 -0.09558617 -0.04894376 0.048448913 0.034293734 -0.08502455 0.066593826 0.0006646604
0.03246787 0.011423414 -0.062191356 0.042230703 0.016517354 0.08409372 0.09615835 -0.04845414
-0.009266406 -0.081832424 0.032951713 -0.070166886 0.046455644 -0.07243047 0.09280159 0.071706064
-0.08918666 -0.006788167 0.022707278 -0.018260375 -0.072195314 -0.034805205 -0.07288748 -0.023650689
0.0882895 -0.052214783 0.037743524 0.010907194 0.03700052 0.05544322 -0.0027748067 0.0013532119
-0.040107172 0.084597185 0.040264215 0.038227506 -0.006791454 -0.06974179 -0.0882676 0.044620465
0.021273797 0.07405611 0.0811377 -0.0030791122 0.06398489 -0.03330172 -0.08492625 0.017202232
-0.04473515 0.080716655 0.087674394 -0.056992535 0.0001188967 0.020161264 -0.092232965 0.035459813
0.025387706 0.012720344 -0.039956104 0.07368587 -0.07282493 0.045167103 0.0137227485 -0.0919456
0.013421924 -0.040243898 -0.05679216 -0.03853984 0.06125623 0.0058263363 -0.050963845 -0.004077663
-0.012730726 0.016798435 -0.001362292 -0.049302205 0.058796447 -0.023710515 0.03840548 0.048144437
0.08105266 0.025011834 0.052176505 0.012439092 -0.009519414 0.08802256 -0.0718747 -0.058747895
-0.06712422 0.025977084 0.06344536 -0.113234594 -0.05480109 -0.07328999 0.0021398074 -0.0023133832
-0.017300557 -0.01395862 -0.08185017 0.072726205 -0.06097068 -0.011987635 -0.009918321 -0.00069238857
0.0957812 -0.06375028 -0.021469142 0.05953907 0.061877158 -0.05640199 0.046987023 0.0831281
00000000: 310a 153d 758a 443c c988 97bd 5a82 f53b
00000010: 8068 91bc feca 953d 635b d1bd f8f7 cd3b
00000020: 3d04 c33d f4b7 97bd 82ac be3d ef2a e5bc
00000030: 3b85 b83d 28d2 3fbc 165e a53d 4c3b bcbd
00000040: b6e4 163d 2031 55bd 42e1 123d 6ddf bbbd
00000050: 3693 23bd f5cf 8e3b 36da 99bd 79b2 743d
00000060: 80b5 49bd 5f03 98bc ca60 61bc 1bb0 3f3d
00000070: 0f03 2dbd 4157 f13c 51af 2cbd d534 833c
00000080: e425 aabd 691f f9bc 1b4c aebd 3e08 a3bd
00000090: 3b05 ac3d cf80 d2bd 4f4d 273d ddf8 32bd
000000a0: 8d35 c53d 601b 17bd c645 1ebd 1d95 2e3d
000000b0: 58d9 8bbd 3540 7fbd 6eb7 a9bd 6644 993d
000000c0: 67b5 ab3d 9d45 72bd b008 8a3d b27d ccbd
000000d0: ba45 583d 79bd ddbd b1e3 ea3d 5385 02bd
000000e0: 6441 28bd abd0 de3c a53a a4bd 1a81 a03d
000000f0: ad1b b8bc 601f 373d 2483 713d 8896 1d3d
00000100: abe7 12bd 1234 bf3c 4672 dcbd aa93 8bbd
00000110: b8c1 d0bd b7b7 21bc 1023 6abd 2926 98bd
00000120: 4aa0 20bd 41b2 95bd 1e65 113d dd72 bcbc
00000130: 3c19 c23d c348 7d3d 6c88 dabc 8f12 4fbc
00000140: e900 c5bd 02fc 353d acdc 4bba 86c1 a33d
00000150: 52a5 cbbd 24f5 4d3b ad9e 65bd 166a 71bd
00000160: 3c9f adbb 177a 3c3d 2adc 403d 9b3d 2abd
00000170: 371d 90bd e9ab 063d 01db 95bd 2ff6 8dbb
00000180: c87d c83d f921 b7bd ef11 4ebd 6b99 bb3b
00000190: ebe3 1ebd 43d7 cb3a 94ec 703d 211f 623b
000001a0: 00c7 7d3d 99f4 a9bd 7c43 b3bd f8a7 c4bd
000001b0: a4f2 8f3c c9c1 86bd 07b0 a23d 0994 4e3d
000001c0: 57a3 083d 4201 3bbc 37c6 9fbd 2059 7d3c
000001d0: ecd7 b2bd 2447 c3bd 8ef8 47bd 9b7f 3fbd
000001e0: c7b5 97bd 815a 463c e01a c4bd 1ac2 c53d
000001f0: f1d5 0bbd 271d 14bc b181 543c 0519 c73d
00000200: 9791 3e3d faab 813d 9b27 afbc d65e 3ebc
00000210: 2ae3 8abc 96e0 823d 392f 3d3d 5924 8d3d
00000220: 31ed 7c3d afc2 c3bd 4179 48bd 5e72 463d
00000230: 9677 0c3d 5a21 aebd 5862 883d 9b3c 2e3a
00000240: 07fd 043d 4529 3b3c 5dbc 7ebd 1afa 2c3d
00000250: 674f 873c 5439 ac3d abee c43d d977 46bd
00000260: 20d2 17bc c297 a7bd 60f8 063d a8b3 8fbd
00000270: 4648 3e3d 6d56 94bd c30e be3d a1da 923d
00000280: 7fa7 b6bd 466f debb 9d04 ba3c c896 95bc
00000290: 23db 93bd e78f 0ebd 0846 95bd 17bf c1bc
000002a0: 20d1 b43d 2bdf 55bd f498 1a3d 16b4 323c
000002b0: db8d 173d 6e18 633d 88d9 35bb 425e b13a
000002c0: 6b47 24bd 4a41 ad3d 17ec 243d 7294 1c3d
000002d0: d88a debb c9d4 8ebd a5c5 b4bd f3c3 363d
000002e0: 6346 ae3c bbaa 973d 862b a63d eeca 49bb
000002f0: 830a 833d 6267 08bd d0ed adbd b2eb 8c3c
00000300: 343c 37bd c64e a53d a28e b33d 0171 69bd
00000310: 2e58 f938 3c29 a53c a3e4 bcbd 4f3e 113d
00000320: e1f9 cf3c fd68 503c 03a9 23bd 9ee8 963d
00000330: 3d25 95bd 2401 393d 61d5 603c fa4d bcbd
00000340: a1e7 5b3c c9d6 24bd e59e 68bd f4db 1dbd
00000350: d0e7 7a3d daea be3b 77bf 50bd eb9d 85bb
00000360: 8994 50bc df9c 893c ef8e b2ba 1cf1 49bd
00000370: 8bd4 703d 8e3c c2bc 114f 1d3d 1a33 453d
00000380: f0fe a53d 9ee5 cc3c 08b7 553d 55cd 4b3c
00000390: 51f7 1bbc 2c45 b43d 0b33 93bd a2a1 70bd
000003a0: 6c78 89bd e5cd d43c a4ef 813d 8ae7 e7bd
000003b0: 1c77 60bd 1019 96bd 033c 0c3b 219c 17bb
000003c0: e6b9 8dbc b2b2 64bc 10a1 a7bd 7af1 943d
000003d0: 64bc 79bd c967 44bc 7480 22bc 6981 35ba
000003e0: ef28 c43d 828f 82bd 0ee0 afbc 3ddf 733d
000003f0: e772 7d3d c605 67bd 7775 403d 113f aa3d

encoder.lob_enc.res_blocks.1.conv2.bias f4 [32]
0.010969148 0.016517513 -0.020801071 0.036704846 -0.08727377 -0.03709201 -0.05717793 0.029022584
-0.093237065 0.017284932 -0.066598095 0.04790954 -0.028894996 -0.011498032 0.010134041 0.011576101
0.021491688 0.03563859 -0.054823104 -0.06835515 0.014595659 -0.1258786 0.00048890535 0.022096377
0.050319124 0.052478638 -0.07706805 -0.10015149 -0.05267816 -0.11038593 -0.01667981 0.031657413
00000000: f1b7 333c bc4f 873c 0267 aabc d257 163d
00000010: 97bc b2bd cbed 17bd 6833 6abd c5c0 ed3c
00000020: 13f3 bebd 2199 8d3c 9564 88bd cb3c 443d
00000030: 33b5 ecbc 3e62 3cbc 4009 263c b0a9 3d3c
00000040: 560f b03c c5f9 113d 318e 60bd c9fd 8bbd
00000050: a222 6f3c 52e6 00be e229 003a 7603 b53c
00000060: 6d1b 4e3d d7f3 563d dbd5 9dbd 391c cdbd
00000070: 0ec5 57bd 0512 e2bd 19a4 88bc 34ab 013d

encoder.lob_enc.res_blocks.1.bn2.weight f4 [32]
1.0083814 1.0011138 1.0094243 0.99476105 1.0078167 1.0062001 1.0088867 1.0076783
1.0085002 1.0072404 0.9969919 0.99726117 1.0083613 1.0055968 0.9902817 1.0045635
1.0054227 1.0007262 1.004849 0.9995092 1.0018522 1.008945 0.9989142 1.0080847
1.0135108 1.0034059 1.0085219 1.0088837 1.0066134 0.98984456 1.0087991 1.0078923
00000000: a412 813f 7f24 803f d134 813f a9a8 7e3f
00000010: 2300 813f 2acb 803f 3323 813f 9afb 803f
00000020: 8916 813f 41ed 803f dc3a 7f3f 824c 7f3f
00000030: fc11 813f 65b7 803f 1a83 7d3f 8995 803f
00000040: b1b1 803f cc17 803f e49e 803f d6df 7f3f
00000050: b13c 803f 1c25 813f d7b8 7f3f eb08 813f
00000060: b9ba 813f 9b6f 803f 3f17 813f 1a23 813f
00000070: b5d8 803f 7466 7d3f 5420 813f 9d02 813f

encoder.lob_enc.res_blocks.1.bn2.bias f4 [32]
0.008456254 0.0009390346 0.010016819 -0.006208179 0.008289518 0.0069307536 0.009677459 0.008968852
0.009402158 0.008738877 -0.0032889815 -0.00034084395 0.008251482 0.005400822 -0.009434875 0.006666576
0.006315389 0.0010076216 0.009417815 -0.00046755568 0.00048124706 0.009851631 -0.0030283057 0.008726063
0.009170286 0.0033928924 0.0101559535 0.008744324 0.008685168 -0.009340871 0.009115331 0.009203672
00000000: 1a8c 0a3c 8c29 763a 961d 243c fb6d cbbb
00000010: c2d0 073c 601b e33b 348e 1e3c 18f2 123c
00000020: 820b 1a3c 822d 0f3c f48b 57bb 4db3 b2b9
00000030: 3931 073c 61f9 b03b bc94 1abc 4b73 da3b
00000040: 53f1 ce3b 2c12 843a 2e4d 1a3c 4322 f5b9
00000050: e34f fc39 bc68 213c 8a76 46bb c3f7 0e3c
00000060: f83e 163c 4a5b 5e3b 2865 263c 5a44 0f3c
00000070: 3c4c 0e3c 740a 19bc 7858 153c 00cb 163c

encoder.lob_enc.res_blocks.1.bn2.running_mean f4 [32]
-0.34167913 0.054678325 -0.12298411 0.056781016 0.04535643 0.14414857 -0.12392583 0.04538034
0.15910365 -0.20969026 0.14751275 -0.058269 -0.20825821 -0.017458145 -0.21770005 0.17722741
-0.017935786 0.24480805 0.025183212 -0.12831171 0.24961516 0.028296681 -0.3341721 -0.103874005
-0.42160702 0.018525485 -0.27498567 0.057008274 -0.07914528 -0.23139505 -0.3864997 0.33506945
00000000: 91f0 aebe 61f6 5f3d 18df fbbd 3693 683d
00000010: aac7 393d af9b 133e d3cc fdbd bce0 393d
00000020: 11ec 223e 0bb9 56be 950d 173e 7aab 6ebd
00000030: a441 55be 6204 8fbc c3ec 5ebe 1a7b 353e
00000040: 12ee 92bc f6ae 7a3e 064d ce3c 2564 03be
00000050: 1e9b 7f3e 71ce e73c 9b18 abbe e5bb d4bd
00000060: e0dc d7be c2c2 973c ecca 8cbe 8281 693d
00000070: ec16 a2bd d3f2 6cbe 4ae3 c5be 398e ab3e

encoder.lob_enc.res_blocks.1.bn2.running_var f4 [32]
0.2088122 0.21488741 0.06371935 0.1683393 0.49545124 0.10063006 0.14644755 0.13067311
0.1126258 0.071940586 0.15043142 0.04255737 0.08224416 0.0899839 0.06589408 0.09265601
0.045578126 0.11668145 0.073957615 0.08745608 0.122603856 0.118529335 0.3284494 0.26536888
0.09272232 0.09875229 0.18824242 0.15410936 0.07911931 0.11729533 0.1618442 0.090256564
00000000: ded2 553e 720b 5c3e 4a7f 823d 2361 2c3e
00000010: c9ab fd3e 2217 ce3d 59f6 153e 2ccf 053e
00000020: 5ba8 e63d 9655 933d b20a 1a3e a350 2e3d
00000030: a06f a83d 7b49 b83d 7af3 863d 6fc2 bd3d
00000040: 21b0 3a3d aff6 ee3d 1777 973d 2c1c b33d
00000050: bb17 fb3d 82bf f23d 852a a83e 6ede 873e
00000060: 33e5 bd3d a43e ca3d 9fc2 403e d8ce 1d3e
00000070: 4e09 a23d 8938 f03d 7cba 253e 6fd8 b83d
