outputs/performance_test/checkpoint_epoch_30.pt (torch, 945914 bytes, 81 tensors)

encoder.lob_enc.conv_in.0.weight f4 [32, 2, 3, 1]
-0.103549376 0.31512517 -0.24175873 -0.0587826 0.002792757 -0.20827906 0.014857091 -0.0941607
-0.200843 -0.3235966 -0.00563916 0.37546936 0.15955047 -0.30957803 -0.20705795 0.27011558
-0.15151791 -0.037465494 -0.1790287 0.20745824 -0.27015144 -0.39011037 -0.33882412 -0.34724984
0.054724842 0.0809029 -0.13042848 0.14158934 0.04552869 0.09118735 0.20555314 0.0900804
0.38629445 0.3189236 -0.21760309 0.30440685 -0.04827549 -0.024808506 0.03425311 -0.36316583
0.2630452 0.25941956 0.38808876 0.070316695 -0.11616772 -0.06787577 -0.14182699 -0.37767783
0.14533718 0.060912628 -0.119116895 -0.23520401 -0.09135508 0.11716497 0.3088996 0.19921665
0.29643402 0.32641777 -0.18742475 -0.015992245 -0.33649015 -0.22662325 0.17003775 0.15582469
0.18593064 0.35753006 0.1629468 -0.20163055 -0.09067045 0.028386394 0.2042231 -0.2147828
-0.1597548 0.14689189 0.15519945 0.3997041 0.353892 -0.170635 0.15229101 -0.23303646
-0.0043307585 -0.018117802 0.10748937 0.37868473 -0.33161938 0.3618287 0.27177152 -0.21192032
-0.12536795 -0.10333268 0.24792041 -0.11803742 0.14419566 -0.1660411 0.33350834 -0.038724493
0.40184623 -0.2949682 -0.11794522 0.26584095 0.14209333 -0.1977036 -0.3477621 -0.30889353
-0.33022723 -0.25436378 -0.25635767 -0.12109859 0.35363787 -0.10582002 -0.25512797 0.20099688
-0.23823431 -0.20418158 -0.052759696 -0.020241652 -0.27075788 -0.3280502 -0.40721607 -0.17482632
0.1942842 0.029475043 0.31845623 0.05318381 -0.31785494 0.018049011 -0.10858362 0.22715393
0.100615524 0.40581122 -0.3644156 -0.20219901 -0.3350813 0.04414177 -0.25457233 -0.16205943
0.39948624 -0.13636827 0.19150881 0.2641345 0.3014933 0.3231706 0.2614721 0.044205945
0.35144326 0.38768023 -0.27322227 0.09038119 0.2803141 -0.27513927 0.19063286 0.26216725
-0.00502188 -0.10523329 -0.037347533 0.32814017 -0.3353133 0.15457885 -0.23209357 0.26409099
-0.17517793 0.079327144 0.24306014 -0.053037938 -0.038295116 0.35054323 0.39410943 0.23942074
0.024680248 -0.009972412 -0.2462371 0.28333107 0.16029824 0.3372995 -0.27195632 0.09155379
0.07413146 -0.13362719 -0.05040085 0.07684211 -0.11872747 0.38273683 -0.37178728 -0.065273404
-0.19850528 0.30227357 -0.14120701 -0.09005033 0.35751316 -0.3504118 -0.129674 0.3564584
00000000: b211 d4bd 1658 a13e 9a8f 77be 06c6 70bd
00000010: b006 373b 1b47 55be 286b 733c 53d7 c0bd
00000020: caa9 4dbe 74ae a5be b4c8 b8bb 853d c03e
00000030: 3361 233e 0381 9ebe 0007 54be 974c 8a3e
00000040: 8327 1bbe 6b75 19bd 4d53 37be ef6f 543e
00000050: 4a51 8abe 8cbc c7be 5b7a adbe bbca b1be
00000060: 2827 603d 6bb0 a53d 0b8f 05be ccfc 103e
00000070: 4b7c 3a3d 6fc0 ba3d 867c 523e 137c b83d
00000080: 63c8 c53e f449 a33e 58d3 5ebe 37db 9b3e
00000090: 85bc 45bd 353b cbbc fd4c 0c3d dff0 b9be
000000a0: dcad 863e a4d2 843e 92b3 c63e 3302 903d
000000b0: 57e9 edbd 7402 8bbd 183b 11be fd5e c1be
000000c0: 45d3 143e 857f 793d 8ff3 f3bd 52d9 70be
000000d0: 5f18 bbbd 30f4 ef3d 1728 9e3e 73ff 4b3e
000000e0: 33c6 973e 3b20 a73e 46ec 3fbe 2b02 83bc
000000f0: 7048 acbe ed0f 68be 601e 2e3e 8290 1f3e
00000100: 9a64 3e3e 2e0e b73e 87db 263e 3d78 4ebe
00000110: 6eb1 b9bd 958a e83c dc1f 513e 06f0 5bbe
00000120: c396 23be d46a 163e 9bec 1e3e 04a6 cc3e
00000130: 5531 b53e f1ba 2ebe 2df2 1b3e 1ca1 6ebe
00000140: 09e9 8dbb c96b 94bc 6323 dc3d f7e2 c13e
00000150: 04ca a9be 9d41 b93e a325 8b3e a401 59be
00000160: 7560 00be 16a0 d3bd d9de 7d3e 9abd f1bd
00000170: 07a8 133e ae06 2abe 9bc1 aa3e 939d 1ebd
00000180: cabe cd3e 1206 97be 438d f1bd 4e1c 883e
00000190: ea80 113e d072 4abe e00d b2be 4b27 9ebe
000001a0: 8b13 a9be f83b 82be 5041 83be 8a02 f8bd
000001b0: 0610 b53e 2bb8 d8bd 22a0 82be 20d2 4d3e
000001c0: b2f3 73be fa14 51be 8d1a 58bd d2d1 a5bc
000001d0: c7a0 8abe 32f6 a7be a07e d0be ac05 33be
000001e0: 70f2 463e a575 f13c b20c a33e 44d7 593d
000001f0: e2bd a2be 85db 933c 1761 debd 0a9b 683e
00000200: 830f ce3d 7dc6 cf3e ae94 babe 420d 4fbe
00000210: c78f abbe 00ce 343d 4e57 82be e8f2 25be
00000220: 7689 cc3e 20a4 0bbe e31a 443e a33c 873e
00000230: 545d 9a3e 9e76 a53e acdf 853e 4b11 353d
00000240: 5ff0 b33e 067e c63e cae3 8bbe c619 b93d
00000250: 5485 8f3e 0edf 8cbe 4335 433e c93a 863e
00000260: 958e a4bb 8d84 d7bd baf9 18bd fd01 a83e
00000270: 2fae abbe eb49 1e3e f0a9 6dbe ef36 873e
00000280: d861 33be 4576 a23d c2e4 783e 4f3e 59bd
00000290: 57db 1cbd 677a b33e b6c8 c93e b62a 753e
000002a0: 3b2e ca3c 5463 23bc 9425 7cbe c510 913e
000002b0: 3925 243e 85b2 ac3e dc3d 8bbe 8e80 bb3d
000002c0: 3cd2 973d 91d5 08be 1f71 4ebd 655f 9d3d
000002d0: 6327 f3bd 15f6 c33e e75a bebe 10ae 85bd
000002e0: f844 4bbe 9ac3 9a3e 9298 10be 4f6c b8bd
000002f0: f70b b73e 2d69 b3be 43c9 04be b781 b63e

encoder.lob_enc.conv_in.0.bias f4 [32]
0.2868329 -0.1162642 -0.07681621 -0.1945576 0.080786325 0.119676 0.27577797 0.17919631
0.20591696 -0.06501085 -0.2917541 0.22541006 -0.007090513 -0.26712388 0.03652591 0.40392354
-0.0344182 -0.3410177 0.24654724 0.30356172 -0.2608774 -0.35705566 -0.29208815 0.167847
-0.16754125 -0.4010136 -0.029295312 -0.20741431 -0.12084309 -0.16111901 -0.1369818 -0.26579866
00000000: c3db 923e ed1b eebd d151 9dbd 1c3a 47be
00000010: 4d73 a53d b118 f53d c532 8d3e 3d7f 373e
00000020: e5db 523e 6924 85bd cb60 95be e5d1 663e
00000030: 8957 e8bb 76c4 88be 319c 153d 11cf ce3e
00000040: 19fa 0cbd df99 aebe e176 7c3e 716c 9b3e
00000050: b991 85be 00d0 b6be 948c 95be 15e0 2b3e
00000060: ef8f 2bbe a851 cdbe b9fc efbc 6b64 54be
00000070: 957c f7bd 62fc 24be f544 0cbe c316 88be

encoder.lob_enc.conv_in.1.weight f4 [32]
1.0064353 1.0059202 1.008624 1.0045362 0.9996253 0.9996692 0.9948753 1.0116314
1.0053612 1.00515 0.977251 0.991015 1.0028722 0.9878422 0.9958695 1.0019264
0.989078 1.0097084 1.0069556 0.99948496 0.9905354 0.9918981 1.0055414 0.9935751
1.0046258 0.9958435 1.0039892 1.009397 1.0030731 0.9951584 1.0208809 1.0051045
00000000: dfd2 803f fec1 803f 971a 813f a494 803f
00000010: 72e7 7f3f 52ea 7f3f 26b0 7e3f 237d 813f
00000020: adaf 803f c1a8 803f 1f2d 7a3f 29b3 7d3f
00000030: 1e5e 803f 3ae3 7c3f 4ef1 7e3f 203f 803f
00000040: 3734 7d3f 203e 813f ece3 803f 3fde 7f3f
00000050: ba93 7d3f 09ed 7d3f 95b5 803f f05a 7e3f
00000060: 9497 803f 9aef 7e3f b882 803f ec33 813f
00000070: b364 803f b3c2 7e3f 3aac 823f 44a7 803f

encoder.lob_enc.conv_in.1.bias f4 [32]
0.0029659495 0.0017419746 0.007252654 -0.0006691416 -0.004868568 0.0066306386 0.0088094855 0.0053533264
0.0047700685 0.007873015 -0.009434906 -0.0019485604 -0.009817017 -0.0009493505 -0.0038012392 0.0119569935
0.002935116 0.005867266 0.0038350602 4.3349708e-05 0.007618684 -0.0007276334 -9.704338e-05 0.00918282
0.011018346 0.001881756 0.0029403993 0.008578132 0.00880475 -0.009122814 0.015358227 0.00832412
00000000: 6060 423b f852 e43a aca7 ed3b 5569 2fba
00000010: 8288 9fbb d445 d93b a955 103c f56a af3b
00000020: 3c4e 9c3b d1fd 003c dd94 1abc d666 ffba
00000030: 8ed7 20bc d5dd 78ba 361e 79bb 44e7 433c
00000040: 135b 403b 3242 c03b a255 7b3b 65d2 3538
00000050: 27a6 f93b a7be 3eba c583 cbb8 8a73 163c
00000060: 4b86 343c 41a5 f63a b7b3 403b 4b8b 0c3c
00000070: cc41 103c db77 15bc 13a1 7b3c e461 083c

encoder.lob_enc.conv_in.1.running_mean f4 [32]
-2.0988784e+08 -1.7052893e+08 -2.0602723e+08 -9.5648346e+08 2.0678134e+08 7.8580326e+08 9.010535e+07 -1.7913053e+08
-8.954891e+07 6.714149e+08 2.2198149e+08 -8.030682e+07 5.3108214e+08 2.759905e+08 -9.793566e+07 2.9432794e+08
1.4297469e+08 -1.1787407e+09 -1.8472566e+08 -9.135149e+08 2.1025155e+08 4.057925e+07 -3.1631357e+08 1.0099613e+09
4.1465216e+08 4.614698e+08 -1.7692198e+08 8.266541e+08 3.9991203e+08 -1.5384357e+08 -4.8416664e+07 -295894.0
00000000: 262a 48cd 0aa1 22cd 9e7b 44cd 1e0b 64ce
00000010: ba33 454d a059 3b4e c1dc ab4c 0ad5 2acd
00000020: 0ecd aacc ea13 204e b3b2 534d 502c 99cc
00000030: 5d3d fd4d 3f9a 834d 26cc bacc b458 8c4d
00000040: ee59 084d 5084 8cce 0a2b 30cd 86cc 59ce
00000050: f282 484d 2ccc 1a4c 7fd4 96cd 25cb 704e
00000060: b8b8 c54d c30b dc4d d8b9 28cd f616 454e
00000070: 63b1 be4d 77b7 12cd e6b1 38cc c07a 90c8

encoder.lob_enc.conv_in.1.running_var f4 [32]
6.831604e+16 5.065227e+16 7.362128e+16 1.0672067e+18 5.2079137e+16 7.3464186e+17 3.2766948e+16 6.4775395e+16
1.4137851e+16 5.3708618e+17 8.3481305e+16 1.9987895e+16 3.3835574e+17 1.0043029e+17 4.1663446e+16 1.0880314e+17
6.3428726e+16 1.6001256e+18 7.748184e+16 9.630286e+17 6.762425e+16 2.3835905e+16 1.4557096e+17 1.1751833e+18
2.4527594e+17 2.53137e+17 4.9169043e+16 7.9563946e+17 1.9392257e+17 3.925704e+16 2.3574713e+16 5.1702168e+16
00000000: 14b5 725b f9f3 335b 15c7 825b adf7 6c5d
00000010: b305 395b 8e1f 235d bbd2 e85a e120 665b
00000020: 34e9 485a a183 ee5c e74a 945b c505 8e5a
00000030: 9842 965c 6966 b25b af04 145b f145 c15b
00000040: 1758 615b 4ea6 b15d a9a2 895b d7d5 555d
00000050: e63f 705b 425d a95a 014b 015c b878 825d
00000060: 4bd9 595c b1d4 605c fcae 2e5b deaa 305d
00000070: e33c 2c5c 1278 0b5b 2782 a75a d9ae 375b

encoder.lob_enc.res_blocks.0.conv1.weight f4 [32, 32, 3, 1]
-0.041615162 -0.07697854 -0.023438983 -0.080179505 -0.010129007 0.048731767 -0.067556195 -0.04078379
-0.031043122 -0.05028603 -0.08433401 0.014055828 -0.022532478 -0.0066619767 -0.03184662 -0.07235183
-0.046394005 0.047316663 0.05914825 -0.038426727 0.05073581 -0.08194144 -0.022184545 -0.09725081
-0.033483963 0.013746306 0.04386466 0.027061734 0.0363124 -0.027206935 0.09277595 -0.08611645
-0.02825869 -0.03317437 0.05517699 0.021131804 0.08413601 -0.07947931 0.027505014 -0.08946313
0.024173394 -0.050114397 -0.05691094 0.0025846919 -0.0050262143 0.091996826 0.073422424 0.0020813565
0.0360077 -0.0013782022 -0.027616395 -0.08969672 -0.09618241 -0.003529481 -0.0687131 0.070220046
-0.05426482 0.011351969 -0.06352262 0.08903193 0.044307213 0.045713965 0.022822892 -0.025886336
-0.054709006 -0.05734311 -0.10375203 -0.030002924 -0.05120704 0.08130283 0.087568015 -0.07268499
-0.008896512 -0.09460136 0.04435054 0.06832439 -0.063618094 -0.07644192 -0.03273106 0.07103248
0.06221624 -0.06544037 -0.0062706135 -0.08296348 0.08232034 0.03414341 -0.0463586 0.0316312
-0.009591046 -0.08728197 -0.095610574 0.09070129 -0.06254647 0.055007257 -0.0341706 0.034270953
0.025110252 0.03982854 -0.058560673 0.032908775 0.010685487 -0.0155901145 -0.012945191 -0.0147547005
0.035523023 0.042913456 -0.05870624 -0.022905523 -0.014831275 -0.033624705 0.054193337 0.10312526
0.050594218 -0.022765312 0.07218529 0.106021754 -0.014929895 0.07081671 0.0152426055 -0.04131554
0.012961888 0.0020656032 0.009649032 -0.01908921 -0.07265012 -0.08832929 -0.058820035 0.059594233
-0.032428827 -0.12067119 0.08070309 -0.12314376 0.020038944 0.096656464 -0.046410166 0.008211006
0.0917271 0.081290536 0.07981454 -0.0038740057 0.058347628 0.043080553 0.016590115 0.08506383
0.02762581 0.082934305 -0.05666303 0.011511584 -0.114657775 -0.003717415 0.01786535 0.046744682
0.027392995 -0.064372905 0.040513355 -0.12281707 0.09063664 0.039298847 -0.010912921 0.029807903
0.046722 -0.06486534 0.047344185 0.0030289104 0.081580326 0.00952376 0.015288665 0.026252018
0.08379121 -0.070813134 0.072187796 0.0681434 -0.008325646 -0.07075328 0.05504829 0.029463463
-0.049905192 0.023573022 -0.026673555 -0.04346463 0.10981829 0.042499598 0.010769915 0.05927667
0.06316224 0.041842412 0.04239474 -0.100965746 -0.048589513 0.09437113 0.030654768 0.02200139
-0.07225437 -0.061962523 -0.03859616 0.04367933 -0.04484002 0.07853046 -0.08794077 -0.037485287
0.06349165 -0.0458655 -0.0036040344 -0.032554187 0.03102222 -0.054031935 -0.07917411 -0.04465025
0.036035948 -0.032503217 -0.079897754 -0.029572934 -0.045908343 0.08609967 -0.030237932 0.032097396
0.09892359 -0.07580247 0.040644296 0.006586974 0.079636164 -0.003858352 0.029086916 -0.09498577
0.09716921 -0.07228952 0.04910082 -0.09126265 0.017154358 -0.0024254285 0.07300588 -0.0979739
0.08396641 0.09645948 0.014219472 0.08730905 0.08063518 0.00087433413 0.05021563 0.002576565
0.017419035 -0.084798746 -0.037551254 -0.060542677 -0.06578182 -0.07117827 -0.053500537 -0.007770941
-0.024772147 0.042294446 0.039945167 -0.03344914 0.06245179 -0.0796612 -0.06782084 0.089228384
00000000: a974 2abd eda6 9dbd 1c03 c0bc 2735 a4bd
00000010: 22f4 25bc f69a 473d e75a 8abd e70c 27bd
00000020: 254e febc b9f8 4dbd 4fb7 acbd 6a4a 663c
00000030: 0896 b8bc b64c dabb 9a71 02bd 322d 94bd
00000040: a407 3ebd 1ecf 413d 6f45 723d 5865 1dbd
00000050: 5ad0 4f3d ead0 a7bd 5dbc b5bc 6f2b c7bd
00000060: 7b26 09bd 3038 613c 6eab 333d 92b0 dd3c
00000070: 50bc 143d 14e1 debc 5101 be3d d25d b0bd
00000080: c57e e7bc d9e1 07bd 4401 623d 9b1c ad3c
00000090: 804f ac3d 0cc6 a2bd 3252 e13c 7238 b7bd
000000a0: 4807 c63c c144 4dbd 721b 69bd ef63 293b
000000b0: f1b2 a4bb d568 bc3d 7f5e 963d 5e67 083b
000000c0: cf7c 133d cba4 b4ba c73b e2bc eab2 b7bd
000000d0: 49fb c4bd dd4e 67bb 74b9 8cbd 87cf 8f3d
000000e0: ca44 5ebd 9cfd 393c 2618 82bd 5f56 b63d
000000f0: 7b7b 353d 913e 3b3d 13f7 ba3c 950f d4bc
00000100: 8d16 60bd 9ce0 6abd f27b d4bd b1c8 f5bc
00000110: 79be 51bd 1982 a63d dc56 b33d dedb 94bd
00000120: adc2 11bc 5cbe c1bd e9a8 353d a8ed 8b3d
00000130: 344a 82bd 958d 9cbd 0111 06bd 7a79 913d
00000140: 75d6 7e3d 9a05 86bd b879 cdbb c2e8 a9bd
00000150: 9197 a83d f6d9 0b3d 84e2 3dbd b88f 013d
00000160: c323 1dbc e4c0 b2bd 7acf c3bd 99c1 b93d
00000170: 5d18 80bd 4a4f 613d 79f6 0bbd b35f 0c3d
00000180: 04b4 cd3c 4023 233d 51dd 6fbd 5acb 063d
00000190: 2e12 2f3c ae6d 7fbc 1118 54bc b3bd 71bc
000001a0: 9780 113d 05c6 2f3d f475 70bd 5da4 bbbc
000001b0: e0fe 72bc 0fba 09bd d5f9 5d3d 5633 d33d
000001c0: e23b 4f3d 527e babc e2d5 933d ef21 d93d
000001d0: 859c 74bc 5a08 913d 1fbc 793c 7c3a 29bd
000001e0: 195e 543c 125f 073b f916 1e3c fa60 9cbc
000001f0: 96c9 94bd fde5 b4bd 47ed 70bd 1519 743d
00000200: 17d4 04bd 7522 f7bd a947 a53d cc32 fcbd
00000210: b628 a43c d3f3 c53d 9618 3ebd 7587 063c
00000220: 6bdb bb3d a77b a63d ce75 a33d 08e3 7dbb
00000230: ecfd 6e3d 3c75 303d fee7 873c f235 ae3d
00000240: 864f e23c 76d9 a93d 7e17 68bd 159b 3c3c
00000250: b2d1 eabd e09f 73bb 5b5a 923c 5a77 3f3d
00000260: 4667 e03c f1d5 83bd 55f1 253d 8487 fbbd
00000270: b49f b93d d4f7 203d 1ccc 32bc b42f f43c
00000280: 915f 3f3d 1fd8 84bd faeb 413d af80 463b
00000290: 9613 a73d 8b09 1c3c 4f7d 7a3c 790e d73c
000002a0: ba9a ab3d 7a06 91bd 32d7 933d c48e 8b3d
000002b0: 4a68 08bc 18e7 90bd 517a 613d 5c5d f13c
000002c0: 6369 4cbd 361c c13c 8082 dabc f807 32bd
000002d0: 69e8 e03d 0f14 2e3d 4c74 303c 18cc 723d
000002e0: 345b 813d f362 2b3d 1ba6 2d3d 21c7 cebd
000002f0: cc05 47bd a745 c13d b51f fb3c 423c b43c
00000300: 19fa 93bd 6acc 7dbd 0217 1ebd 19e9 323d
00000310: 2baa 37bd 94d4 a03d 4a1a b4bd 2c8a 19bd
00000320: e907 823d 76dd 3bbd aa31 6cbb 8a57 05bd
00000330: 5022 fe3c 9750 5dbd 0926 a2bd 2ee3 36bd
00000340: 6e9a 133d 1822 05bd 6fa1 a3bd f042 f2bc
00000350: 630a 3cbd 0655 b03d 8ab5 f7bc 8f78 033d
00000360: 7398 ca3d 533e 9bbd a27a 263d 8bd7 d73b
00000370: 4918 a33d 68dc 7cbb af47 ee3c e687 c2bd
00000380: a700 c73d 870c 94bd f11d 493d eae7 babd
00000390: 4c87 8c3c f0f3 1ebb 1b84 953d 8aa6 c8bd
000003a0: 95f6 ab3d 8c8c c53d caf8 683c 16cf b23d
000003b0: 0f24 a53d 9233 653a e8ae 4d3d 96db 283b
000003c0: 5db2 8e3c f7aa adbd 58cf 19bd 99fb 77bd
000003d0: 9eb8 86bd eac5 91bd 6123 5bbd 61a3 febb
000003e0: f5ee cabc f13c 2d3d 8b9d 233d f701 09bd
000003f0: 73cd 7f3d 6925 a3bd a7e5 8abd 5fbd b63d

encoder.lob_enc.res_blocks.0.conv1.bias f4 [32]
-0.1827779 -0.19384412 -0.1776078 -0.27319726 -0.27743402 -0.21389155 -0.2615645 -0.12329889
-0.23576537 -0.21304588 -0.17701508 -0.156927 -0.078383155 -0.17872302 -0.14166878 -0.15787554
-0.10625871 -0.15145177 -0.13679 -0.17345147 -0.15814811 -0.17952807 -0.23293512 -0.21281254
-0.1105843 -0.17419322 -0.083435275 -0.11567782 -0.097768284 -0.16997163 -0.1281422 -0.1659076
00000000: 212a 3bbe 137f 46be d2de 35be 83e0 8bbe
00000010: d50b 8ebe 6306 5bbe c8eb 85be 2184 fcbd
00000020: 7a6c 71be b328 5abe 7143 35be 79b1 20be
00000030: 5987 a0bd 2b03 37be 9f11 11be 20aa 21be
00000040: 2b9e d9bd 2c16 1bbe ae12 0cbe 439d 31be
00000050: 94f1 21be 35d6 37be 8b86 6ebe 88eb 59be
00000060: 057a e2bd b55f 32be 1de0 aabd 7ee8 ecbd
00000070: bd3a c8bd 0b0d 2ebe b537 03be afe3 29be

encoder.lob_enc.res_blocks.0.bn1.weight f4 [32]
0.99176234 0.9975308 1.0040144 0.9988857 0.98268116 1.0086405 0.99195313 0.9980263
0.99379134 0.9962713 0.9933639 1.0013593 1.0042485 0.99900734 0.9948885 1.0070491
0.99325204 1.0098141 0.99638754 0.9830905 1.0066705 0.9869136 1.0174278 1.0041379
1.0074192 1.01799 1.0044377 1.0167747 0.9936512 1.0049561 1.0113972 1.006378
00000000: 23e4 7d3f 2e5e 7f3f 8b83 803f f9b6 7f3f
00000010: fe90 7b3f 221b 813f a4f0 7d3f a77e 7f3f
00000020: 1c69 7e3f a30b 7f3f 194d 7e3f 8b2c 803f
00000030: 378b 803f f2be 7f3f 03b1 7e3f fce6 803f
00000040: c445 7e3f 9741 813f 4113 7f3f d2ab 7b3f
00000050: 94da 803f 5fa6 7c3f 133b 823f 9787 803f
00000060: 1df3 803f 7f4d 823f 6a91 803f ac25 823f
00000070: ed5f 7e3f 67a2 803f 7775 813f ffd0 803f

encoder.lob_enc.res_blocks.0.bn1.bias f4 [32]
0.0064480077 0.004975746 0.00033269828 -0.00087371975 0.0016205588 0.011335949 0.008015948 0.011061561
-0.002186411 -0.0014855409 -0.009250568 0.008007386 0.010613552 0.005306368 0.004199632 -0.003255918
0.0021418622 0.0059929085 -0.0067879586 -0.015980165 0.008632795 0.0008032751 0.015367844 0.011605418
0.006724556 0.009015014 0.0016454121 0.019539075 -0.0063713742 0.007048678 0.007740542 0.00052780827
00000000: cf49 d33b 950b a33b 026e ae39 570a 65ba
00000010: ee68 d43a 6bba 393c 5355 033c 8d3b 353c
00000020: e449 0fbb 7bb6 c2ba b28f 17bc 6931 033c
00000030: 77e4 2d3c 0be1 ad3b 119d 893b 3d61 55bb
00000040: 7c5e 0c3b 2960 c43b 866d debb d6e8 82bc
00000050: 9170 0d3c e192 523a 69c9 7b3c a724 3e3c
00000060: aa59 dc3b b6b3 133c deaa d73a 6910 a03c
00000070: f6c6 d0bb 99f8 e63b 5fa4 fd3b 9d5c 0a3a

encoder.lob_enc.res_blocks.0.bn1.running_mean f4 [32]
-0.52950776 0.1565228 -0.5252833 -0.5924589 -0.36552623 -0.5150868 -0.23120737 -0.021905359
-0.25423536 -0.13621296 0.2290612 0.33080247 -0.30072287 -0.23847136 -0.4493532 0.21559748
-0.13152455 -0.17555287 -0.051357552 -0.36861464 -0.24264407 -0.07137984 -0.41347775 -0.5139697
-0.13177861 -0.7149682 -0.12913875 -0.34773415 -0.12059815 -0.20008658 -0.3075152 0.080271855
00000000: d28d 07bf 8347 203e f778 06bf 63ab 17bf
00000010: 4126 bbbe bbdc 03bf a0c1 6cbe de72 b3bc
00000020: 232b 82be 697b 0bbe 058f 6a3e f15e a93e
00000030: 59f8 99be d631 74be 9f11 e6be 96c5 5c3e
00000040: 5fae 06be 22c4 33be 4c5c 52bd 0fbb bcbe
00000050: b077 78be 982f 92bd 5bb3 d3be 8593 03bf
00000060: f9f0 06be 2808 37bf f33c 04be 360a b2be
00000070: 2afc f6bd 7fe3 4cbe a272 9dbe 9265 a43d

encoder.lob_enc.res_blocks.0.bn1.running_var f4 [32]
0.054630775 0.47685665 0.08156114 0.072152354 0.054150674 0.05047039 0.27114722 0.09596946
0.114979915 0.13670541 0.2886314 0.11228846 0.18837312 0.044766255 0.08685246 0.06558097
0.30082533 0.2666403 0.088144876 0.120080344 0.037769422 0.25433603 0.10503676 0.55601233
0.1412715 0.13102473 0.14244382 0.10385096 0.031100975 0.287075 0.09122363 0.06673611
00000000: 85c4 5f3d 8e26 f43e 8709 a73d 9dc4 933d
00000010: 19cd 5d3d 0aba 4e3d cfd3 8a3e a38b c43d
00000020: 977a eb3d 81fc 0b3e 7fc7 933e 7ef7 e53d
00000030: e2e4 403e d25c 373d b4df b13d 514f 863d
00000040: c705 9a3e 1485 883e 4d85 b43d afec f53d
00000050: 1cb4 1a3d 5538 823e 831d d73d d356 0e3f
00000060: 7aa9 103e 592b 063e cbdc 113e d0af d43d
00000070: 79c7 fe3c 7ffb 923e 74d3 ba3d f1ac 883d

encoder.lob_enc.res_blocks.0.conv2.weight f4 [32, 32, 3, 1]
0.019164845 0.029820299 -0.0649464 0.080297984 0.025990477 -0.035594687 -0.07989847 -0.06315019
-0.018639289 0.015882183 0.03758282 0.10223288 0.06988719 -0.007538252 -0.018360935 0.08249605
-0.0025513743 0.012878113 -0.0011554579 0.08960186 0.060238197 0.031489626 0.021374535 -0.0249242
0.025402872 -0.08121106 -0.07686703 0.029963763 0.021859176 -0.064284466 0.032388244 0.033496756
0.0436597 -0.04519671 -0.05930353 -0.0049285376 -0.012857609 -0.013819803 -0.08248038 0.08089529
0.09024422 -0.047187105 0.077228405 0.02180959 0.028480547 -0.006338369 0.093731895 -0.023266505
0.01336706 -0.012742179 -0.0003016406 -0.044128317 -0.066983454 0.06720586 -0.0916614 -0.063749574
0.09313342 -0.049721092 -0.010164198 -0.09836214 -0.029743118 -0.04533442 0.036330547 0.04344309
0.08454517 -0.040633645 0.09750862 0.039225377 -0.09075441 -0.08399364 -0.01141108 0.09064029
0.0036683097 -0.0614679 0.058999006 -0.10613046 0.072728366 -0.011365862 0.010047658 -0.033384014
0.017378738 -0.001012113 0.07574757 0.08807754 0.04237169 -0.014227455 -0.0061326483 -0.06246733
0.06393864 -0.022036154 -0.09648054 -0.030136421 -0.074460246 -0.0806214 0.018886367 0.010105607
-0.05051829 -0.0684765 0.041105825 0.023475247 0.07119311 0.056468714 -0.046908945 0.06742311
-0.07435682 -0.082039334 0.050358567 0.098207414 0.05301759 0.002814302 -0.04264125 0.10842653
-0.058252808 0.09788896 -0.069361046 -0.10072671 -0.0063925874 0.033118013 -0.082632095 -0.028887453
-0.0018883148 -0.008303433 -0.048364572 0.09320228 -0.0728795 0.067004964 0.032723274 -0.040110268
0.046567842 -0.07914792 -0.0640757 0.0612444 -0.045621406 0.058670674 -0.087641045 0.016308226
-0.088798136 0.05186314 0.10360505 0.06996794 0.03854944 0.06402206 0.09002031 0.05645455
0.045921236 0.034461156 0.026479779 0.058804363 0.07402825 -0.037075717 0.009572665 0.04134082
-0.08709103 -0.070367016 -0.022496415 0.019876715 0.06654274 0.056331996 0.05673705 -0.021270508
-0.024029344 -0.097039275 0.013698796 -0.026598409 -0.07481197 0.040732596 0.054758955 0.025133986
-0.07630726 -0.030188655 -0.09583182 -0.0051646805 0.073310755 0.097678006 -0.09127798 -0.024612075
-0.056967475 0.07728989 0.10681193 -0.08247515 -0.036777634 0.016676223 -0.08453012 -0.106909804
-0.07151355 0.0694523 0.01305633 -0.048712116 -0.019715229 0.090788536 -0.09676031 0.038608093
-0.012815071 -0.106837444 0.077085726 -0.058573328 0.071059965 -0.0030939772 0.018043386 -0.018971775
-0.09041316 0.04532352 -0.040966798 0.030751659 0.08739736 -0.038750187 0.0020597135 0.030546516
-0.03976631 0.03741774 -0.054344524 0.06931371 -0.029393017 -0.014767061 -0.041392986 -0.00026919416
0.059538137 0.0076627536 -0.047951512 0.09655989 0.0922944 -0.038954336 -0.06658744 -0.08152051
0.0075789057 0.10224206 0.0386178 0.045858722 -0.106552914 0.029204123 0.038756207 -0.027484681
-0.06874689 -0.022221081 -0.090808615 0.088145964 -0.067122474 0.10089388 -0.092114806 0.07705447
-0.05160283 -0.08835948 0.018321337 0.103097014 -0.040662624 0.02297528 -0.072437726 0.058342937
0.08137606 -0.042821225 0.08464538 0.04079966 0.005946495 -0.05211559 0.058936026 -0.0071939677
00000000: 98ff 9c3c b349 f43c 9e02 85bd 4573 a43d
00000010: fbe9 d43c bccb 11bd cfa1 a3bd e354 81bd
00000020: 6cb1 98bc 5a1b 823c 71f0 193d 795f d13d
00000030: 0421 8f3d 7103 f7bb ac69 96bc b0f3 a83d
00000040: f534 27bb b9fe 523c bc72 97ba 2e81 b73d
00000050: 54bc 763d 44fb 003d a619 af3c d62d ccbc
00000060: af19 d03c fc51 a6bd 766c 9dbd 9176 f53c
00000070: 0412 b33c 93a7 83bd 89a9 043d e533 093d
00000080: 83d4 323d 2f20 39bd 42e8 72bd 927f a1bb
00000090: b9a8 52bc 746c 62bc 79eb a8bd 6eac a53d
000000a0: f6d1 b83d 4447 41bd ed29 9e3d 06aa b23c
000000b0: 0950 e93c 18b2 cfbb 82f6 bf3d 6699 bebc
000000c0: 8301 5b3c 93c4 50bc 8425 9eb9 e5bf 34bd
000000d0: 9f2e 89bd 3aa3 893d f9b8 bbbd 238f 82bd
000000e0: bcbc be3d 58a8 4bbd bd87 26bc 1772 c9bd
000000f0: d7a7 f3bc 96b0 39bd 57cf 143d 62f1 313d
00000100: 0526 ad3d 776f 26bd 99b2 c73d caaa 203d
00000110: 73dd b9bd dc04 acbd 8af5 3abc 9ea1 b93d
00000120: 0668 703b c4c5 7bbd f1a8 713d ed5a d9bd
00000130: 9cf2 943d e137 3abc ef9e 243c adbd 08bd
00000140: db5d 8e3c e0a8 84ba 8b21 9b3d ff61 b43d
00000150: f08d 2d3d 451a 69bc 62f4 c8bb bedd 7fbd
00000160: 43f2 823d 2a85 b4bc 9797 c5bd a8e0 f6bc
00000170: 9d7e 98bd d51c a5bd 95b7 9a3c fd91 253c
00000180: 44ec 4ebd 683d 8cbd 955e 283d 294f c03c
00000190: b1cd 913d bd4b 673d 9823 40bd 2115 8a3d
000001a0: 6348 98bd 3d04 a8bd c944 4e3d f820 c93d
000001b0: f928 593d 2770 383b 97a8 2ebd bb0e de3d
000001c0: 7f9a 6ebd 027a c83d 2a0d 8ebd ce49 cebd
000001d0: e978 d1bb c1a6 073d 043b a9bd 61a5 ecbc
000001e0: 5581 f7ba 1f0b 08bc ee19 46bd d6e0 be3d
000001f0: d941 95bd e639 893d d708 063d aa4a 24bd
00000200: ecbd 3e3d 4e18 a2bd 1f3a 83bd 68db 7a3d
00000210: 83dd 3abd a950 703d 267d b3bd d498 853c
00000220: ccdb b5bd 726e 543d e22e d43d 5a4b 8f3d
00000230: 05e6 1d3d ff1d 833d 915c b83d e33c 673d
00000240: e817 3c3d 2427 0d3d 1fec d83c d8dc 703d
00000250: 209c 973d b5dc 17bd abd6 1c3c fe54 293d
00000260: c85c b2bd 951c 90bd 674a b8bc 7ed4 a23c
00000270: 8f47 883d 61bc 663d 1c65 683d 7d3f aebc
00000280: 30d9 c4bc 87bc c6bd ea70 603c e8e4 d9bc
00000290: 0537 99bd 39d7 263d ed4a 603d cae5 cd3c
000002a0: fb46 9cbd 334e f7bc 7943 c4bd 7b3c a9bb
000002b0: f323 963d 680b c83d f3ef babd 439f c9bc
000002c0: ba56 69bd 294a 9e3d 37c0 da3d bbe8 a8bd
000002d0: 25a4 16bd 939c 883c 211e adbd 87f3 dabd
000002e0: b275 92bd 023d 8e3d 38ea 553c 5b86 47bd
000002f0: d581 a1bc 57ef b93d 452a c6bd 8523 1e3d
00000300: 4ef6 51bc 97cd dabd 1fdf 9d3d 96ea 6fbd
00000310: e387 913d 53c4 4abb b9cf 933c b26a 9bbc
00000320: 892a b9bd 28a5 393d cdcc 27bd e7ea fb3c
00000330: 63fd b23d 84b8 1ebd 42fc 063b b03c fa3c
00000340: 00e2 22bd 5843 193d 5d98 5ebd 59f4 8d3d
00000350: a0c9 f0bc 8bf1 71bc b18b 29bd a122 8db9
00000360: 43de 733d d617 fb3b ce68 44bd 31c1 c53d
00000370: d904 bd3d 958e 1fbd ff5e 88bd 3af4 a6bd
00000380: 7858 f83b 4964 d13d b32d 1e3d 5bd6 3b3d
00000390: 6a38 dabd 7c3d ef3c d4be 1e3d 8e27 e1bc
000003a0: 2bcb 8cbd fc08 b6bc def9 b9bd df85 b43d
000003b0: 8277 89bd 73a1 ce3d b0a6 bcbd bcce 9d3d
000003c0: 7d5d 53bd d1f5 b4bd a116 963c 8724 d33d
000003d0: da8d 26bd a836 bc3c 3b5a 94bd 01f9 6e3d
000003e0: 7ea8 a63d 4f65 2fbd 8f5a ad3d 8b1d 273d
000003f0: d1da c23b 2877 55bd e766 713d 60bb ebbb

encoder.lob_enc.res_blocks.0.conv2.bias f4 [32]
-0.14558853 -0.18028829 -0.19237325 -0.15588814 -0.17450228 -0.21417788 -0.19495636 -0.21567306
-0.17678976 -0.2511652 -0.21665779 -0.17170574 -0.2224015 -0.14292699 -0.14391142 -0.13228919
-0.23475283 -0.17090866 -0.23149683 -0.13042256 -0.10011426 -0.06666872 -0.20989133 -0.10609806
-0.16262123 -0.17662472 -0.12177078 -0.25426674 -0.2624975 -0.10084856 -0.14256628 -0.10831336
00000000: 2915 15be 7e9d 38be 7efd 44be 24a1 1fbe
00000010: bab0 32be 7251 5bbe a4a2 47be 66d9 5cbe
00000020: 6008 35be ba98 80be 8adb 5dbe a1d3 2fbe
00000030: 38bd 63be 745b 12be 845d 13be d176 07be
00000040: 0c63 70be ae02 2fbe 810d 6dbe 7e8d 05be
00000050: b508 cdbd 9c89 88bd c1ed 56be f149 d9bd
00000060: 2e86 26be 1cdd 34be f562 f9bd 402f 82be
00000070: 1366 86be b189 cebd e5fc 11be 65d3 ddbd

encoder.lob_enc.res_blocks.0.bn2.weight f4 [32]
0.99314076 1.0067658 1.0079519 0.99220127 1.0072542 1.0000932 1.0079001 1.0060292
1.0038489 1.0067785 1.0032642 1.0003625 1.0057487 1.0082576 0.9969262 1.0101382
1.0027041 0.9959648 1.0067154 1.0036753 1.0031322 1.0053828 0.99853534 1.0126009
1.0065536 1.0019271 1.0097636 1.0090925 1.0064303 0.9921843 1.0101566 1.0086563
00000000: 793e 7e3f b4dd 803f 9104 813f e700 7e3f
00000010: b5ed 803f 0e03 803f df02 813f 91c5 803f
00000020: 1f7e 803f 1ede 803f f66a 803f e10b 803f
00000030: 60bc 803f 960e 813f 8e36 7f3f 354c 813f
00000040: 9c58 803f 8df7 7e3f 0ddc 803f 6f78 803f
00000050: a366 803f 62b0 803f 03a0 7f3f e89c 813f
00000060: c0d6 803f 263f 803f ef3f 813f f129 813f
00000070: b5d2 803f caff 7d3f d04c 813f a61b 813f

encoder.lob_enc.res_blocks.0.bn2.bias f4 [32]
0.0056689777 0.00023527809 0.008651385 -0.0038926667 0.007750523 0.003914765 0.008572772 0.008996853
0.008169037 0.008250436 -0.0047921278 0.0023069715 0.0031525576 0.0046710577 -0.008746225 0.010322142
0.0022638347 -0.003117169 0.008851837 -0.0006017592 0.00036257916 0.006917638 -0.001780577 0.006614994
0.0077938777 0.004115414 0.0056291954 0.008976692 0.006444966 -0.0071189622 0.011940187 0.010097978
00000000: d5c2 b93b fbb4 7639 8abe 0d3c 1c1c 7fbb
00000010: 19f8 fd3b 6e47 803b d074 0c3c 8967 133c
00000020: 6dd7 053c d62c 073c 4807 9dbb 8f30 173b
00000030: 249b 4e3b ac0f 993b 544c 0fbc 341e 293c
00000040: d85c 143b 6b49 4cbb 4c07 113c 60bf 1dba
00000050: 8d18 be39 5aad e23b 4062 e9ba 97c2 d83b
00000060: c963 ff3b 98da 863b 1d75 b83b fa12 133c
00000070: 4b30 d33b 2f46 e9bb c6a0 433c fd71 253c

encoder.lob_enc.res_blocks.0.bn2.running_mean f4 [32]
-0.1156258 -0.1287793 -0.121955015 -0.07003068 -0.268942 0.002285528 -0.52357185 0.0084310165
-0.04415855 -0.06486808 -0.39415887 -0.25076616 -0.09195792 -0.33088058 0.13857363 -0.30549085
-0.33004987 0.032958075 -0.37523687 -0.30018607 -0.41532716 0.06365829 -0.054231472 -0.23102173
-0.5604355 -0.30048725 -0.001755539 -0.098490596 -0.32999304 -0.03149448 -0.15503965 -0.111289315
00000000: 38cd ecbd b9de 03be 8dc3 f9bd 3f6c 8fbd
00000010: c4b2 89be ccc8 153b ce08 06bf 3f22 0a3c
00000020: 99df 34bd 8ed9 84bd 31cf c9be 6c64 80be
00000030: 6f54 bcbd 2e69 a9be 3fe6 0d3e 4c69 9cbe
00000040: 4cfc a8be 0cff 063d 0c1f c0be fdb1 99be
00000050: c3a5 d4be 475f 823d d221 5ebd f690 6cbe
00000060: b378 0fbf 77d9 99be 1d1a e6ba 70b5 c9bd
00000070: d9f4 a8be 5b00 01bd b7c2 1ebe a7eb e3bd

encoder.lob_enc.res_blocks.0.bn2.running_var f4 [32]
0.03918724 0.047713168 0.1347158 0.10085263 0.0648156 0.07585639 0.16669682 0.20354676
0.14437051 0.08586951 0.10302954 0.047590453 0.06827312 0.07202001 0.0581992 0.24520366
0.062020298 0.109074615 0.10434477 0.12238815 0.2737772 0.1879417 0.3299479 0.109586805
0.065722585 0.09323554 0.058238152 0.16184847 0.11404297 0.3105645 0.055153962 0.14963613
00000000: cd82 203d e26e 433d f0f2 093e d38b ce3d
00000010: 0bbe 843d 985a 9b3d 92b2 2a3e 906e 503e
00000020: ddd5 133e 5bdc af3d 2701 d33d 35ee 423d
00000030: c7d2 8b3d 3a7f 933d 4962 6e3d ab16 7b3e
00000040: ff08 7e3d 8362 df3d b6b2 d53d a3a6 fa3d
00000050: 862c 8c3e ca73 403e eeee a83e 0c6f e03d
00000060: 9099 863d 46f2 be3d 218b 6e3d 9bbb 253e
00000070: 5c8f e93d 4f02 9f3e 1fe9 613d 373a 193e

encoder.lob_enc.res_blocks.1.conv1.weight f4 [32, 32, 3, 1]
-0.086160176 0.010235261 0.048404343 -0.04565484 -0.08700511 0.04877547 0.020542558 0.04345772
0.08808302 -0.106040016 0.058159005 -0.054336578 0.040021088 0.06478733 0.07853805 0.029348396
0.007542807 -0.003969205 -0.04838084 0.03903578 0.06611744 -0.0031385766 -0.09249176 -0.03722715
-0.039508928 0.0410842 -0.08845242 -0.050279412 -0.0741066 -0.09456674 -0.031223683 0.07066497
0.05206422 0.08827914 0.014169343 0.06658883 0.04276995 0.06980849 -0.01599813 0.09249602
-0.022994837 -0.031691335 0.0437207 0.036406316 -0.05910034 -0.039796364 -0.09942543 0.078822725
0.025917405 0.08287493 -0.084770486 0.085584134 0.094757505 0.07363484 -0.062275764 0.10484596
-0.08030225 -0.0813793 -0.041973628 0.0902866 -0.020216515 0.0370932 -0.011420809 0.028519193
0.014033951 0.051425748 0.045297146 0.06620112 0.08217881 0.0235213 0.053510442 0.08011604
0.056031145 -0.022100285 0.08262101 0.01758201 0.06437609 -0.028483747 -0.095967956 -0.07048687
-0.010092994 -0.071409054 -0.052170794 0.041188028 0.027832301 -0.040146798 -0.016030464 -0.10668651
-0.014308409 -0.002382151 -0.066371195 0.07230808 -0.046868443 0.01975343 -0.05299541 0.046345554
-0.08962426 -0.0053245444 0.034744382 0.07296526 0.00018786956 0.008353502 0.021204868 -0.037554
0.027778503 -0.09003646 -0.040436935 0.00025157846 -0.03425488 0.04396342 -0.0638496 0.03659935
-0.060252823 -0.08295947 0.0021978552 0.004191037 -0.04359325 0.10883743 -0.029564913 -0.009206043
0.004897321 -0.042016268 0.03280788 0.09200296 -0.0013186383 -0.04323487 0.058322176 0.008141527
0.051878814 -0.015898848 -0.07510292 -0.07015403 -0.032017455 -0.08257161 -0.08149943 0.05220787
-0.014364701 -0.009447517 -0.091173895 0.053045757 0.07239363 0.06193668 -0.064319834 0.007497427
-0.04390007 0.05063776 0.05819688 -0.06105507 -0.086468324 -0.07125077 0.042075116 0.026258372
0.06574456 -0.012682531 0.085436165 0.09447792 -0.08584089 -0.03213344 0.008353377 0.0735236
-0.1013581 0.03715779 0.0054847654 0.081476174 -0.09694223 0.05667526 0.049564045 -0.009855959
-0.03776755 0.048133448 -0.031626157 -0.017379858 -0.06389911 0.10140012 0.06899881 0.026429787
0.006133351 -0.073953874 0.07596619 0.03891563 0.032226656 0.042078953 -0.07865135 -0.020941043
0.08303702 -0.027394371 0.08741422 -0.055610023 0.07346233 0.10112167 -0.09257768 0.06551801
0.013964055 0.044541698 -0.042617653 0.084982455 0.03201273 -0.062877655 0.100051336 0.0050049354
-0.010471821 0.02765236 0.016856534 -0.091015376 0.0874087 -0.018287726 0.023071611 -0.027292324
-0.09953319 -0.09420828 -0.040646195 -0.03615318 0.07572084 0.015854053 0.10858378 0.08751524
0.0110751605 -0.035335205 0.003415091 -0.038881354 -0.09806372 0.026250284 0.038580365 -0.03431352
0.07936185 -0.014457626 -0.028047826 -0.044888433 0.09376385 0.05575321 -0.06749091 -0.07451737
-0.079068966 0.08957414 0.08650218 0.056050148 0.050102122 -0.06694744 0.0716976 -0.008342618
-0.0039128084 0.007857792 -0.029350728 0.09516848 0.0134339705 0.071702324 -0.07123865 -0.09598443
-0.03577037 0.029379793 -0.06777603 -0.04922383 0.02963527 0.09051832 0.083956294 0.08606657
00000000: bf74 b0bd ccb1 273c a243 463d 9200 3bbd
00000010: bc2f b2bd cac8 473d de48 a83c b900 323d
00000020: df64 b43d 822b d9bd 2338 6e3d 0890 5ebd
00000030: 27ed 233d 38af 843d 8fd8 a03d 0c6c f03c
00000040: a729 f73b 1b10 82bb fd2a 46bd fbe3 1f3d
00000050: 9568 873d 94b0 4dbb 526c bdbd 7f7b 18bd
00000060: 1dd4 21bd e847 283d 8b26 b5bd c9f1 4dbd
00000070: 33c5 97bd 35ac c1bd cfc8 ffbc ccb8 903d
00000080: 4b41 553d b2cb b43d 8826 683c b95f 883d
00000090: 8b2f 2f3d c1f7 8e3d 830e 83bc 8e6e bd3d
000000a0: ab5f bcbc c6ce 01bd 7a14 333d ca1e 153d
000000b0: 3313 72bd 8301 23bd 8f9f cbbd cf6d a13d
000000c0: bd50 d43c 55ba a93d 269c adbd bc46 af3d
000000d0: 3910 c23d ddcd 963d df14 7fbd 7bb9 d63d
000000e0: 8275 a4bd 31aa a6bd 8aec 2bbd 2ee8 b83d
000000f0: 1b9d a5bc 0aef 173d 581e 3bbc 15a1 e93c
00000100: a8ee 653c cea3 523d 8089 393d 7494 873d
00000110: 5d4d a83d beaf c03c c42d 5b3d e113 a43d
00000120: ea80 653d a80b b5bc 3435 a93d 2608 903c
00000130: 9dd7 833d bf56 e9bc d98a c4bd 6c5b 90bd
00000140: 165d 25bc e93e 92bd 0bb1 55bd c7b4 283d
00000150: 9100 e43c f870 24bd 5252 83bc 757e dabd
00000160: d16d 6abc dd1d 1cbb 9fed 87bd 4216 943d
00000170: 20f9 3fbd f2d1 a13c b711 59bd d6d4 3d3d
00000180: ed8c b7bd 8479 aebb 2050 0e3d cf6e 953d
00000190: dafe 4439 20dd 083c d5b5 ad3c 39d2 19bd
000001a0: be8f e33c 0965 b8bd 33a1 25bd 4ae6 8339
000001b0: d84e 0cbd fd12 343d 94c3 82bd 33e9 153d
000001c0: aacb 76bd a8e6 a9bd e409 103b f754 893b
000001d0: d68e 32bd 29e6 de3d 1e32 f2bc f1d4 16bc
000001e0: b579 a03b 4019 2cbd 8e61 063d 0c6c bc3d
000001f0: 29d6 acba 0c17 31bd 3ce3 6e3d 0a64 053c
00000200: e17e 543d 4d3e 82bc 8fcf 99bd ebac 8fbd
00000210: bc24 03bd 4e1b a9bd 2ce9 a6bd ebd7 553d
00000220: ec59 6bbc c2c9 1abc 61b9 babd 8246 593d
00000230: 1d43 943d 51b1 7d3d 1eba 83bd faac f53b
00000240: 8fd0 33bd 8a69 4f3d da5f 6e3d e214 7abd
00000250: 4e16 b1bd eceb 91bd f556 2c3d cc1b d73c
00000260: 15a5 863d 64ca 4fbc 28f9 ae3d a47d c13d
00000270: 59cd afbd 5b9e 03bd 9adc 083c 8b93 963d
00000280: d694 cfbd c432 183d 8cb9 b33b fbdc a63d
00000290: a689 c6bd 5124 683d ab03 4b3d e37a 21bc
000002a0: 26b2 1abd 9427 453d 6e8a 01bd 3460 8ebc
000002b0: 89dd 82bd deaa cf3d 404f 8d3d 4883 d83c
000002c0: 47fa c83b 2175 97bd 2994 9b3d ff65 1f3d
000002d0: 1900 043d fb5a 2c3d f613 a1bd 8d8c abbc
000002e0: 500f aa3d 296a e0bc 3a06 b33d 56c7 63bd
000002f0: 6b73 963d e118 cf3d 5e99 bdbd 4e2e 863d
00000300: 7ec9 643c 5b71 363d d98f 2ebd 480b ae3d
00000310: c81f 033d 00c6 80bd b7e7 cc3d 7100 a43b
00000320: 0092 2bbc 3487 e23c b716 8a3c 4566 babd
00000330: 5503 b33d 24d0 95bc ad00 bd3c 2794 dfbc
00000340: 0fd8 cbbd 45f0 c0bd a07c 26bd 5b15 14bd
00000350: 8713 9b3d 5ce0 813c 2c61 de3d 313b b33d
00000360: 9774 353c a6bb 10bd b8cf 5f3b 0e42 1fbd
00000370: a2d5 c8bd d60a d73c 7206 1e3d 558c 0cbd
00000380: 7788 a23d aedf 6cbc 8ec4 e5bc efdc 37bd
00000390: 4307 c03d 7a5d 643d ad38 8abd 909c 98bd
000003a0: e9ee a1bd a672 b73d 0e28 b13d d794 653d
000003b0: e237 4d3d bd1b 89bd 31d6 923d 7aaf 08bc
000003c0: 0437 80bb f8bd 003c f070 f0bc b1e7 c23d
000003d0: 281a 5c3c abd8 923d 92e5 91bd 7c93 c4bd
000003e0: f483 12bd e4ad f03c 29ce 8abd ed9e 49bd
000003f0: aac5 f23c ab61 b93d 47f1 ab3d ab43 b03d

encoder.lob_enc.res_blocks.1.conv1.bias f4 [32]
-0.15664865 -0.13325585 -0.093388796 -0.14985357 -0.08813318 -0.12468033 -0.2357366 -0.18693723
-0.22641344 -0.1107425 -0.16105402 -0.25764972 -0.081668004 -0.12560259 -0.18322062 -0.26506343
-0.22212093 -0.29471937 -0.25650167 -0.059747137 -0.19345884 -0.082411796 -0.1219122 -0.10150558
-0.13282453 -0.25153264 -0.099085405 -0.27923977 -0.14250098 -0.14507425 -0.11989002 -0.26925236
00000000: 8168 20be 3974 08be a042 bfbd 3773 19be
00000010: 2b7f b4bd 6758 ffbd ef64 71be 796c 3fbe
00000020: edd8 67be f7cc e2bd 58eb 24be aaea 83be
00000030: 8e41 a7bd f79d 00be 309e 3bbe 65b6 87be
00000040: ab73 63be 75e5 96be 3054 83be 6ab9 74bd
00000050: 131a 46be 84c7 a8bd 1aad f9bd 28e2 cfbd
00000060: 2703 08be e3c8 80be 4aed cabd 84f8 8ebe
00000070: c7eb 11be 588e 14be e688 f5bd 72db 89be

encoder.lob_enc.res_blocks.1.bn1.weight f4 [32]
0.99749553 1.012059 1.0015181 1.0092809 1.0002079 0.9838819 1.0005461 0.9883353
0.9914229 0.9841034 1.0163866 1.0116358 0.9936785 1.02492 0.9995464 0.99475706
1.0032986 1.0023128 1.0099713 1.0076615 0.9972345 0.9980483 1.0003617 0.99456245
1.0036994 0.99859875 0.9934709 0.99987584 0.9858495 0.98959494 0.99262273 1.0165958
00000000: de5b 7f3f 268b 813f bf31 803f 1e30 813f
00000010: d006 803f afdf 7b3f e511 803f 8b03 7d3f
00000020: e4cd 7d3f 33ee 7b3f f518 823f 487d 813f
00000030: b761 7e3f 9430 833f 46e2 7f3f 66a8 7e3f
00000040: 176c 803f c94b 803f bd46 813f 0dfb 803f
00000050: c34a 7f3f 1880 7f3f da0b 803f a59b 7e3f
00000060: 3979 803f 2ba4 7f3f 1c54 7e3f ddf7 7f3f
00000070: a260 7c3f 1856 7d3f 861c 7e3f d01f 823f

encoder.lob_enc.res_blocks.1.bn1.bias f4 [32]
0.0020744652 -0.005703523 -0.01661248 -0.00229515 0.0044111563 -0.020726074 -0.010133594 -0.005586035
0.0024512033 -0.012227868 0.009074862 0.004027312 0.005321052 0.021773947 -0.003484829 -0.010361696
0.0022057386 -0.005219971 0.0024984838 0.024363404 0.0049539404 0.008121315 0.0054558087 -0.0060524945
0.0044614556 -0.00692465 0.008450406 -0.004302489 -0.01573372 -0.0043597594 -0.0114982445 0.00511978
00000000: c0f3 073b 9ee4 babb e516 88bc 3a6a 16bb
00000010: 768b 903b bac9 a9bc 6007 26bc 0f0b b7bb
00000020: 5ea4 203b 6557 48bc bbae 143c 8bf7 833b
00000030: 385c ae3b 475f b23c bb61 64bb 1ac4 29bc
00000040: 278e 103b 4a0c abbb 9abd 233b c395 c73c
00000050: aa54 a23b 440f 053c a4c6 b23b 0154 c6bb
00000060: 6731 923b 2de8 e2bb 9273 0a3c e5fb 8cbb
00000070: 01e4 80bc 50dc 8ebb 2263 3cbc d4c3 a73b

encoder.lob_enc.res_blocks.1.bn1.running_mean f4 [32]
0.0061262962 -0.06288374 0.05152197 -0.8307831 -0.577443 -0.36951262 -0.51783705 0.4581728
-0.19581397 -0.53063375 -0.53690857 -0.9974908 -0.9020161 -0.8156088 0.6516672 -0.63126516
-0.9091377 -0.6381464 -1.1617717 -0.68639725 -0.3994282 -0.3905078 -0.34090018 0.27402267
-0.71116644 -0.4077931 0.022542207 -0.44441786 -0.31494224 -0.37510112 -0.20069744 -0.44389167
00000000: 19bf c83b 31c9 80bd b408 533d 34ae 54bf
00000010: 4ed3 13bf c230 bdbe f890 04bf a095 ea3e
00000020: 7583 48be 9dd7 07bf d772 09bf 8f5b 7fbf
00000030: 87ea 66bf bdcb 50bf a9d3 263f 989a 21bf
00000040: 40bd 68bf 905d 23bf efb4 94bf bbb7 2fbf
00000050: da81 ccbe a3f0 c7be 788a aebe b34c 8c3e
00000060: 010f 36bf 42ca d0be 6faa b83c bd8a e3be
00000070: 1c40 a1be 410d c0be a183 4dbe c545 e3be

encoder.lob_enc.res_blocks.1.bn1.running_var f4 [32]
0.20436777 0.14778036 0.18665987 0.15869547 0.72342724 0.26487228 0.085135676 0.22573987
0.38795555 0.30111086 0.15004635 0.16013877 0.18476018 0.13388875 0.33370477 0.088340215
0.23460731 0.14061204 0.22115953 0.26179996 0.1887826 0.46013534 0.17428638 0.5152741
0.28320718 0.40554264 0.3426684 0.11459408 0.32904485 0.24581924 0.28186148 0.12607686
00000000: c945 513e bc53 173e c423 3f3e 1181 223e
00000010: 8732 393f 579d 873e 9d5b ae3d 5a28 673e
00000020: 1ca2 c63e 342b 9a3e c0a5 193e 6bfb 233e
00000030: c631 3d3e 221a 093e 5adb aa3e b7eb b43d
00000040: e63c 703e 9afc 0f3e a577 623e a50a 863e
00000050: 3a50 413e dc96 eb3e 2178 323e 01e9 033f
00000060: 8800 913e 49a3 cf3e 3c72 af3e 4db0 ea3d
00000070: 9178 a83e 0ab8 7b3e 2650 903e 4b1a 013e

encoder.lob_enc.res_blocks.1.conv2.weight f4 [32, 32, 3, 1]
0.029064123 0.005896626 -0.0830053 0.012704112 -0.01279274 0.082584746 -0.10895706 -0.0003425695
0.088814095 -0.072144374 0.10170911 -0.022956636 0.08711048 -0.015807124 0.0763367 -0.09728704
0.03232786 -0.058177017 0.05274406 -0.08412397 -0.024557993 0.0035553281 -0.07462777 0.058743425
-0.048998203 -0.019024264 -0.013320936 0.047153294 -0.043352503 0.030882893 -0.04450638 0.014324922
-0.090527155 -0.02684233 -0.081748776 -0.07696037 0.08509652 -0.103925586 0.042444013 -0.032119237
0.10620981 -0.027207833 -0.039863855 0.041182477 -0.070395805 -0.059761904 -0.07847912 0.083437555
0.07951895 -0.065895066 0.059328422 -0.09497446 0.060795832 -0.10313018 0.12155601 -0.025660263
-0.033229206 0.032330744 -0.076749 0.081792936 -0.038613543 0.03057068 0.040743675 0.037849568
-0.036335487 0.023701055 -0.09507876 -0.057439793 -0.09596759 -0.0030962348 -0.051091835 -0.06786728
-0.03652171 -0.07264299 0.0384107 -0.025356645 0.093178146 0.060854215 -0.02601243 -0.012532994
-0.09679098 0.040509082 -0.0049796943 0.076336786 -0.09732174 0.00416144 -0.05671284 -0.061303794
-0.007113209 0.045501668 0.045814283 -0.04323916 -0.07212453 0.0055089034 -0.10918605 -0.031095702
0.09535242 -0.08933979 -0.04670922 0.014776066 -0.030355234 0.0055782935 0.065631285 0.011392591
0.069696054 -0.06480513 -0.07102525 -0.08538048 -0.00097140804 -0.08110666 0.06518008 0.03922998
0.020185756 -0.016334483 -0.07671702 0.018712783 -0.07821462 -0.090146355 -0.041874867 -0.038317244
-0.08534814 0.0024040695 -0.1039485 0.08191639 -0.047447007 -0.020790927 -0.012620469 0.075769864
0.02311242 0.077704154 -0.0017678365 -2.8453791e-05 -0.007181622 0.069406785 0.052291892 0.07775722
0.07275667 -0.07608509 -0.044047996 0.055014312 0.038821198 -0.07249142 0.106425114 0.022554375
0.037555754 0.015608753 -0.056050822 0.054873813 0.028502818 0.09434693 0.09287943 -0.047698874
-0.013494395 -0.09947176 0.016702596 -0.08435887 0.052518487 -0.057028923 0.09951404 0.063310355
-0.09753459 -0.01346503 0.031127103 -0.00899849 -0.056578156 -0.026999937 -0.06183391 -0.014977103
0.09900847 -0.040524367 0.046685487 0.0065016453 0.031790018 0.051618125 0.0067883986 0.012553622
-0.030780232 0.081101455 0.03906492 0.03423518 -0.012855292 -0.074473076 -0.09197242 0.029651552
0.006872485 0.06015106 0.08327257 0.0005447514 0.066975445 -0.043703284 -0.087689914 0.010022013
-0.04125538 0.08299874 0.08983668 -0.055457976 0.002427487 0.022359343 -0.102282405 0.025492243
0.015644137 0.01343988 -0.04025731 0.076501556 -0.07595891 0.04125393 0.008321741 -0.09570324
0.0087897675 -0.044895437 -0.045140427 -0.025394423 0.0725568 0.010986486 -0.04519015 -0.0011845713
-0.014851562 0.014628766 -0.0033485135 -0.04971709 0.056207743 -0.027095664 0.047919948 0.05155147
0.08592401 0.024921358 0.050361603 0.014923622 -0.00937848 0.090552256 -0.069376804 -0.064212754
-0.07156178 0.018347628 0.059223663 -0.11713459 -0.05882971 -0.067503035 0.0057873605 0.0005789787
-0.012949538 -0.012343565 -0.07955498 0.06924233 -0.061660122 -0.011591275 -0.010780088 -0.0057236953
0.09612059 -0.058972087 -0.020026404 0.062347822 0.056184113 -0.055227116 0.045833763 0.07863935
00000000: e217 ee3c 7c38 c13b affe a9bd e824 503c
00000010: a498 51bc 3122 a93d e124 dfbd e69a b3b9
00000020: 2ae4 b53d 6ec0 93bd de4c d03d 8e0f bcbc
00000030: fb66 b23d f17d 81bc 6a56 9c3d 6d3e c7bd
00000040: 386a 043d 064b 6ebd 280a 583d 3049 acbd
00000050: d82d c9bc 8200 693b 72d6 98bd f29c 703d
00000060: 57b2 48bd c6d8 9bbc 0e40 5abc d023 413d
00000070: 6592 31bd 1ffe fc3c 524c 36bd 14b3 6a3c
00000080: 4d66 b9bd 72e4 dbbc e76b a7bd 669d 9dbd
00000090: 1647 ae3d f0d6 d4bd c6d9 2d3d 768f 03bd
000000a0: 8784 d93d f6e2 debc 4848 23bd f5ae 283d
000000b0: ad2b 90bd e6c8 74bd a9b9 a0bd 4fe1 aa3d
000000c0: d5da a23d fef3 86bd 5c02 733d f881 c2bd
000000d0: 0d05 793d ea35 d3bd 5bf2 f83d 7935 d2bc
000000e0: 591b 08bd 3e6d 043d 942e 9dbd 0e83 a73d
000000f0: 3c29 1ebd 5d6f fa3c d7e2 263d 2608 1b3d
00000100: 85d4 14bd b728 c23c a7b8 c2bd fd45 6bbd
00000110: a88a c4bd 33ea 4abb ac45 51bd 00fe 8abd
00000120: ca97 15bd d9c5 94bd 8a54 1d3d bdb8 cfbc
00000130: 2fd4 be3d 4542 793d 0518 d5bc 3057 4dbc
00000140: 593a c6bd daec 253d b42c a3bb 7656 9c3d
00000150: 9f50 c7bd b05c 883b b94b 68bd b019 7bbd
00000160: ec15 e9bb f55f 3a3d c2a7 3b3d 8c1b 31bd
00000170: 07b6 93bd 0884 b43b f09c dfbd 6abc febc
00000180: 2148 c33d c8f7 b6bd 2b52 3fbd 5017 723c
00000190: 8aab f8bc 1eca b63b b269 863d fda7 3a3c
000001a0: cebc 8e3d 8db8 84bd b075 91bd f6db aebd
000001b0: 17a6 7eba 401b a6bd 227d 853d 9eaf 203d
000001c0: 995c a53c e5cf 85bc d01d 9dbd 8d4b 993c
000001d0: fd2e a0bd a79e b8bd fb84 2bbd 8bf2 1cbd
000001e0: 01cb aebd 988d 1d3b f3e2 d4bd c8c3 a73d
000001f0: cb57 42bd bc51 aabc 15c6 4ebc 3b2d 9b3d
00000200: 4256 bd3c 5b23 9f3d c0b6 e7ba 0db0 eeb7
00000210: d053 ebbb 2525 8e3d 0630 563d 2d3f 9f3d
00000220: 7301 953d 80d2 9bbd ac6b 34bd b056 613d
00000230: fa02 1f3d 6276 94bd 69f5 d93d f4c3 b83c
00000240: 10d4 193d dbbb 7f3c 8c95 65bd 5dc3 603d
00000250: be7e e93c f738 c13d 9237 be3d e55f 43bd
00000260: 9817 5dbc dab7 cbbd e2d3 883c 58c4 acbd
00000270: a01d 573d 2997 69bd 04ce cb3d dca8 813d
00000280: 37c0 c7bd 6e9c 5cbc 44fe fe3c 676e 13bc
00000290: 7fbe 67bd f92e ddbc 8e45 7dbd 8662 75bc
000002a0: f4c4 ca3d e1fc 25bd 4839 3f3d c10b d53b
000002b0: 4036 023d 876d 533d 3771 de3b b5ad 4d3c
000002c0: d326 fcbc 8518 a63d 8a02 203d 303a 0c3d
000002d0: 019f 52bc 5785 98bd 095c bcbd d0e7 f23c
000002e0: 9532 e13b f560 763d cf8a aa3d a6cd 0e3a
000002f0: 6c2a 893d 3702 33bd c596 b3bd 5f33 243c
00000300: 67fb 28bd 3efb a93d 4bfc b73d e727 63bd
00000310: 7916 1f3b f12a b73c 7079 d1bd 1cd5 d03c
00000320: 2228 803c f132 5c3c d9e4 24bd d9ac 9c3d
00000330: 5890 9bbd e2f9 283d e957 083c 0f00 c4bd
00000340: f502 103c 47e4 37bd 2be5 38bd f707 d0bc
00000350: a998 943d aa00 343c 4f19 39bd 9e43 9bba
00000360: f753 73bc 7ead 6f3c bc72 5bbb 26a4 4bbd
00000370: 173a 663d baf7 ddbc b547 443d a227 533d
00000380: edf8 af3d e027 cc3c f847 4e3d 3582 743c
00000390: 32a8 19bc 7673 b93d 6d15 8ebd fa81 83bd
000003a0: fc8e 92bd c44d 963c 8394 723d 43e4 efbd
000003b0: 6cf7 70bd 083f 8abd e6a3 bd3b 9ac6 173a
000003c0: 4d2a 54bc aa3c 4abc b9ed a2bd ecce 8d3d
000003d0: 538f 7cbd 55e9 3dbc f79e 30bc d68d bbbb
000003e0: dfda c43d b78c 71bd 6a0e a4bc 6e60 7f3d
000003f0: 5021 663d d435 62bd 2fbc 3b3d ab0d a13d

encoder.lob_enc.res_blocks.1.conv2.bias f4 [32]
-0.15738773 -0.1488007 -0.16277938 -0.124540254 -0.24342585 -0.17785059 -0.19543518 -0.11983953
-0.24157609 -0.14434448 -0.25161707 -0.116582 -0.16030186 -0.16485263 -0.14014849 -0.14521942
-0.12816288 -0.12142062 -0.23201786 -0.22130667 -0.12488964 -0.27539483 -0.14359747 -0.1165761
-0.092067726 -0.100681186 -0.22230586 -0.24561824 -0.21492703 -0.27678412 -0.17020862 -0.13279252
00000000: 402a 21be 365f 18be a3af 26be f60e ffbd
00000010: a044 79be 771e 36be 2920 48be 6d6e f5bd
00000020: b95f 77be 0acf 13be f4d3 80be 8bc2 eebd
00000030: 2c26 24be 21cf 28be 1683 0fbe 66b4 14be
00000040: 213d 03be 60ab f8bd 1796 6dbe 379e 62be
00000050: 24c6 ffbd 8d00 8dbe 370b 13be 73bf eebd
00000060: 018e bcbd f031 cebd 26a4 63be 5983 7bbe
00000070: d515 5cbe a6b6 8dbe 2b4b 2ebe c3fa 07be

encoder.lob_enc.res_blocks.1.bn2.weight f4 [32]
1.0047679 1.0026485 1.0104616 0.9989448 1.0091444 1.0072244 1.0073366 1.0077889
1.0077664 1.0079219 1.0005798 1.0010988 1.0125773 1.0083923 0.99242395 1.0137905
1.0078844 1.0010071 1.0047959 1.0020837 1.0039407 1.0071218 0.9995028 1.0088153
1.0217347 1.0093989 1.0083107 1.0098943 1.009558 0.9921429 1.0147918 1.0100529
00000000: 3c9c 803f c956 803f ce56 813f d9ba 7f3f
00000010: a52b 813f bbec 803f 68f0 803f 3aff 803f
00000020: 7dfe 803f 9603 813f 0013 803f 0124 803f
00000030: 229c 813f 0013 813f 7f0f 7e3f e3c3 813f
00000040: 5b02 813f 0021 803f 279d 803f 4744 803f
00000050: 2181 803f 5ee9 803f 6adf 7f3f dc20 813f
00000060: 34c8 823f fc33 813f 5310 813f 3744 813f
00000070: 3239 813f 14fd 7d3f b3e4 813f 6a49 813f

encoder.lob_enc.res_blocks.1.bn2.bias f4 [32]
0.006317947 0.00015365296 0.009425323 -0.0057163876 0.008199556 0.006351632 0.008335236 0.008154246
0.008503272 0.007841138 -0.004109035 0.0005725001 0.0057347985 0.0041381177 -0.011430798 0.00912141
0.005588393 -8.392291e-06 0.0075226063 0.0005930427 -0.0014328277 0.007935654 -0.005551659 0.0073747486
0.009624848 0.0030861362 0.0069537903 0.007964518 0.007844541 -0.008475799 0.010170139 0.008742627
00000000: c806 cf3b e71d 2139 ac6c 1a3c 8950 bbbb
00000010: 6e57 063c 5a21 d03b 8490 083c 6399 053c
00000020: 4f51 0b3c 1e78 003c 15a5 86bb d513 163a
00000030: faea bb3b 0c99 873b 3e48 3bbc f771 153c
00000040: d71e b73b 9ecc 0cb7 3280 f63b 6c76 1b3a
00000050: b8cd bbba 8c04 023c b1ea b5bb e0a7 f13b
00000060: 8ab1 1d3c c640 4a3b 9fdc e33b 9c7d 023c
00000070: 6486 003c 14de 0abc a8a0 263c 3c3d 0f3c

encoder.lob_enc.res_blocks.1.bn2.running_mean f4 [32]
-0.53037363 -0.08501586 -0.27850592 -0.18493873 -0.15031563 -0.021708595 -0.2852209 -0.14342187
-0.010458955 -0.38377982 -0.118675895 -0.24521203 -0.3094639 -0.10824521 -0.39310318 -0.07596403
-0.20969373 0.061566174 -0.17582946 -0.36659467 0.10622222 -0.13626872 -0.4125055 -0.22237957
-0.60509783 -0.084217764 -0.39053115 -0.08960712 -0.27613202 -0.47662544 -0.46763843 0.15920435
00000000: 91c6 07bf cc1c aebd 5498 8ebe 9460 3dbe
00000010: 57ec 19be 39d6 b1bc 7908 92be 2fdd 12be
00000020: 095c 2bbc ca7e c4be 590c f3bd dd18 7bbe
00000030: 0d72 9ebe aaaf ddbd d244 c9be 0893 9bbd
00000040: f4b9 56be d02c 7c3d a30c 34be 4cb2 bbbe
00000050: 098b d93d 078a 0bbe ec33 d3be 78b7 63be
00000060: b1e7 1abf 5d7a acbd b3f3 c7be f083 b7bd
00000070: 2d61 8dbe 4008 f4be 4e6e efbe 7706 233e

encoder.lob_enc.res_blocks.1.bn2.running_var f4 [32]
0.1935667 0.13864037 0.059683193 0.08469658 0.24179502 0.11674705 0.1062029 0.11441669
0.10534478 0.07499448 0.059416275 0.04536165 0.11647519 0.06934035 0.07131389 0.07780456
0.06614372 0.09520011 0.054182295 0.090193756 0.12118042 0.08833051 0.2063246 0.18241349
0.13577077 0.0911956 0.10609609 0.11797881 0.06547157 0.0917492 0.102522016 0.046377424
00000000: 5936 463e bef7 0d3e 5d76 743d 6775 ad3d
00000010: 1d99 773e 1419 ef3d e880 d93d 4c53 ea3d
00000020: 01bf d73d b596 993d 7b5e 733d 23cd 393d
00000030: 8b8a ee3d 5002 8e3d 040d 923d ff57 9f3d
00000040: 5c76 873d 46f8 c23d 41ee 5d3d 81b7 b83d
00000050: 712d f83d a0e6 b43d c246 533e 9aca 3a3e
00000060: 7e07 0b3e c2c4 ba3d e848 d93d e09e f13d
00000070: f515 863d 01e7 bb3d 10f7 d13d 41f6 3d3d
