outputs/performance_test/checkpoint_epoch_32.pt (torch, 945914 bytes, 81 tensors)

encoder.lob_enc.conv_in.0.weight f4 [32, 2, 3, 1]
000000 6e e5 d4 bd 03 2a a1 3e ee 2e 78 be 74 8e 70 bd
       -0.10395323 0.31477365 -0.24236652 -0.058729604
000010 8f 0d e5 3a 6d ca 55 be 39 46 6f 3c c2 8b c1 bd
       0.0017475354 -0.20878 0.014604145 -0.09450485
000020 52 c1 4d be 8a e3 a5 be 66 bc c3 bb 42 1c c0 3e
       -0.20093277 -0.3240016 -0.0059733866 0.3752156
000030 17 20 24 3e fd 44 9e be 5c 9a 53 be 62 81 8a 3e
       0.16027866 -0.3091201 -0.20664352 0.27051836
000040 a5 3e 1a be b2 4f 17 bd 28 a3 38 be 73 ab 50 3e
       -0.1506296 -0.036941238 -0.18030989 0.20377903
000050 80 12 8b be 4e c4 c6 be c5 b3 ae be 5f 2d b2 be
       -0.27162552 -0.38821644 -0.34121528 -0.3480024
000060 2d a7 61 3d 06 ce a4 3d c0 c9 05 be 5c cb 0f 3e
       0.055091072 0.08047108 -0.13065243 0.14042419
000070 fe 89 3b 3d 84 83 ba 3d a2 d6 51 3e 6b f9 b9 3d
       0.045785896 0.09107116 0.20492032 0.09080776
000080 1e 42 c6 3e 94 6b a2 3e fa d9 5e be 51 f6 9b 3e
       0.38722318 0.317227 -0.21762839 0.30461362
000090 9b 15 44 bd 4c bd c8 bc b8 54 0f 3d 91 b3 b9 be
       -0.047872167 -0.024504326 0.034992903 -0.3626981
0000a0 c6 f7 86 3e 44 f8 84 3e 9f ef c6 3e ed 30 90 3d
       0.2636091 0.25970662 0.3885469 0.07040582
0000b0 94 02 ed bd 50 93 8a bd e4 fb 10 be d4 1a c1 be
       -0.11572757 -0.06766379 -0.14158589 -0.3771578
0000c0 05 96 15 3e 66 26 7c 3d 08 af f1 bd b8 32 70 be
       0.14608009 0.061560057 -0.11800963 -0.23456848
0000d0 6d 62 b9 bd e6 1d f2 3d 5d 0e 9e 3e fd 51 4d 3e
       -0.09051976 0.11822109 0.30870333 0.20050807
0000e0 3c 5e 98 3e b7 4d a6 3e e4 a4 3e be 04 98 78 bc
       0.29759395 0.32481167 -0.18617588 -0.015172962
0000f0 18 fa ab be f2 62 68 be 81 1b 2e 3e 81 29 20 3e
       -0.33589244 -0.22693995 0.1700268 0.15640832
000100 eb 88 3e 3e 93 26 b7 3e a7 7d 27 3e 19 11 4e be
       0.18606918 0.35771617 0.16356526 -0.2012371
000110 e6 29 b9 bd ec 8f ec 3c 61 63 51 3e 79 76 5b be
       -0.090411946 0.028877221 0.20448066 -0.21431912
000120 bd aa 24 be de b8 14 3e 39 20 1d 3e 9e 35 cc 3e
       -0.16080756 0.14523646 0.15344323 0.39884657
000130 ca 42 b5 3e 97 18 30 be 87 e6 1b 3e 2c cc 6e be
       0.3540252 -0.1719688 0.15224658 -0.23320073
000140 38 29 80 bb 73 b6 96 bc 04 9e dc 3d a6 9f c1 3e
       -0.0039111637 -0.018397545 0.107723266 0.37817115
000150 c6 f7 a9 be c3 1b b9 3e f7 f1 8a 3e ae 38 59 be
       -0.3319685 0.36153993 0.2713773 -0.21213028
000160 56 b6 00 be 3f 6b d4 bd dd b0 7a 3e 7f 10 f2 bd
       -0.12569556 -0.10372018 0.2448153 -0.11819553
000170 3f d7 12 3e 54 a5 2a be 15 1e ac 3e cf 1c 18 bd
       0.14339922 -0.1666463 0.336167 -0.03713685
000180 c0 db cd 3e 3e 1e 97 be ae 5a f1 bd 6f d0 87 3e
       0.40206718 -0.2951526 -0.11784874 0.2652621
000190 58 47 11 3e f0 a2 4a be 00 01 b3 be b6 f4 9e be
       0.14187372 -0.19788718 -0.349617 -0.31046075
0001a0 bd 7f a9 be c2 c8 81 be 60 94 82 be ea 59 f7 bd
       -0.3310527 -0.2534848 -0.25503826 -0.120776966
0001b0 ae fc b4 3e 14 0d d9 bd 6d 9e 82 be 32 ba 4d 3e
       0.3534903 -0.105981976 -0.25511494 0.20090559
0001c0 6e 44 74 be f7 33 51 be fc a0 5d bd 1f 45 ab bc
       -0.23854229 -0.2042998 -0.054108605 -0.020906983
0001d0 db 1c 8b be 48 d9 a7 be 43 9c d0 be 9f 5d 34 be
       -0.27170452 -0.3278296 -0.40744218 -0.17613839
0001e0 be 99 45 3e 87 41 f3 3c 50 4b a3 3e f6 a2 57 3d
       0.19296929 0.029694332 0.31893396 0.052645646
0001f0 88 eb a2 be 61 26 89 3c 37 c9 dc bd 3d a8 68 3e
       -0.3182032 0.016741933 -0.10780566 0.22720428
000200 81 87 cd 3d 96 08 d0 3e f6 63 ba be d6 51 4f be
       0.10035611 0.4063155 -0.3640439 -0.20246062
000210 9b 8a ab be cf fc 35 3d 3a c3 81 be 19 b0 25 be
       -0.33504185 0.04443055 -0.2534426 -0.16180457
000220 f8 b9 cc 3e ef 47 0b be 8f 60 43 3e a3 92 88 3e
       0.39985633 -0.13601659 0.19079803 0.26674375
000230 98 b1 9a 3e e5 70 a4 3e cc 84 86 3e c1 fd 3a 3d
       0.30213618 0.32117382 0.2627319 0.045652155
000240 e3 bf b3 3e 4a e0 c6 3e c4 86 8b be f3 92 ba 3d
       0.35107335 0.38842994 -0.27251256 0.091100596
000250 72 48 90 3e d5 c6 8c be 0c bb 45 3e 5c a7 85 3e
       0.2818027 -0.27495447 0.19309634 0.26104248
000260 36 9e e6 bb 5b 64 d6 bd 18 1c 14 bd ad d9 a7 3e
       -0.007037903 -0.1046836 -0.036159605 0.3278326
000270 2b b0 ab be 2f 44 1e 3e 2d 57 6d be ee 3d 87 3e
       -0.33532843 0.15455697 -0.23177786 0.26414436
000280 9c ae 33 be 25 4d a2 3d 3e 14 79 3e 65 6a 4d bd
       -0.17547077 0.079248704 0.24324128 -0.050150294
000290 65 ef 14 bd b5 1b b3 3e 7f 72 ca 3e d8 39 74 3e
       -0.036361117 0.34982076 0.3954048 0.2385019
0002a0 18 cf b6 3c 5a 50 25 bc 4b 52 7c be 56 1b 90 3e
       0.022315547 -0.010089958 -0.24640767 0.28145856
0002b0 a5 47 22 3e af 42 ad 3e 5c e0 8a be 17 83 bc 3d
       0.15847643 0.33839938 -0.27124298 0.09204691
0002c0 08 11 99 3d 7b 01 09 be 91 37 4c bd 36 f9 9d 3d
       0.074739516 -0.13379471 -0.04985768 0.07713549
0002d0 2b ef f2 bd 15 42 c4 3e 37 2f be be 25 db 84 bd
       -0.11862024 0.38331667 -0.37145397 -0.06487111
0002e0 c2 37 4a be c1 f2 9a 3e 3e 9a 10 be 46 29 b8 bd
       -0.19747832 0.30263332 -0.14121339 -0.08992247
0002f0 52 09 b7 3e 12 4f b3 be da 6c 04 be 53 b1 b6 3e
       0.35749298 -0.35021263 -0.12932149 0.35682163

encoder.lob_enc.conv_in.0.bias f4 [32]
000000 c3 db 92 3e ed 1b ee bd d1 51 9d bd 1c 3a 47 be
       0.2868329 -0.1162642 -0.07681621 -0.1945576
000010 4d 73 a5 3d b1 18 f5 3d c5 32 8d 3e 3d 7f 37 3e
       0.080786325 0.119676 0.27577797 0.17919631
000020 e5 db 52 3e 69 24 85 bd cb 60 95 be e5 d1 66 3e
       0.20591696 -0.06501085 -0.2917541 0.22541006
000030 89 57 e8 bb 76 c4 88 be 31 9c 15 3d 11 cf ce 3e
       -0.007090513 -0.26712388 0.03652591 0.40392354
000040 19 fa 0c bd df 99 ae be e1 76 7c 3e 71 6c 9b 3e
       -0.0344182 -0.3410177 0.24654724 0.30356172
000050 b9 91 85 be 00 d0 b6 be 94 8c 95 be 15 e0 2b 3e
       -0.2608774 -0.35705566 -0.29208815 0.167847
000060 ef 8f 2b be a8 51 cd be b9 fc ef bc 6b 64 54 be
       -0.16754125 -0.4010136 -0.029295312 -0.20741431
000070 95 7c f7 bd 62 fc 24 be f5 44 0c be c3 16 88 be
       -0.12084309 -0.16111901 -0.1369818 -0.26579866

encoder.lob_enc.conv_in.1.weight f4 [32]
000000 71 cb 80 3f 3c b7 80 3f f0 22 81 3f e0 8f 80 3f
       1.0062085 1.0055919 1.0088787 1.0043907
000010 30 d8 7f 3f 46 e2 7f 3f bb b4 7e 3f a8 7b 81 3f
       0.9993925 0.9995464 0.9949452 1.0115862
000020 9b a6 80 3f 60 a8 80 3f b8 f9 79 3f 71 cc 7d 3f
       1.0050844 1.0051384 0.97646666 0.9914008
000030 80 54 80 3f b1 e3 7c 3f eb f2 7e 3f 4c 2f 80 3f
       1.0025787 0.9878493 0.99589413 1.0014434
000040 c6 28 7d 3f f1 45 81 3f ea e3 80 3f 25 d1 7f 3f
       0.9889034 1.009947 1.0069554 0.99928504
000050 90 8f 7d 3f 8b cd 7d 3f 4e a8 80 3f 44 48 7e 3f
       0.99047184 0.9914176 1.0051363 0.9932902
000060 a7 92 80 3f d4 fa 7e 3f 33 82 80 3f a6 32 81 3f
       1.0044755 0.99601483 1.0039734 1.0093582
000070 bf 68 80 3f 70 af 7e 3f a1 bb 82 3f 5e a6 80 3f
       1.0031966 0.99486446 1.021351 1.0050771

encoder.lob_enc.conv_in.1.bias f4 [32]
000000 40 66 3c 3b d7 12 b8 3a 83 d4 ee 3b e5 3f 58 ba
       0.002874747 0.0014043701 0.007288517 -0.0008249267
000010 98 0a a3 bb 0f a6 d0 3b e3 97 12 3c fd fb ac 3b
       -0.004975628 0.006367452 0.008947345 0.005279063
000020 e2 f1 94 3b e9 8d 00 3c da 76 19 bc b7 57 06 bb
       0.0045454362 0.007846334 -0.009366715 -0.002049906
000030 d4 71 1a bc ba a5 20 39 bf c3 5a bb e0 af 4b 3c
       -0.009426553 0.00015320527 -0.0033380834 0.012432069
000040 61 81 28 3b 85 4d ca 3b 09 d8 7c 3b 42 d2 0f ba
       0.0025711881 0.006173792 0.0038580915 -0.0005486348
000050 75 30 eb 3b b8 3d a0 ba c0 e8 6f ba bc 44 14 3c
       0.0071774074 -0.0012225425 -0.0009151809 0.009049591
000060 4d f2 38 3c 1a 59 08 3b 75 7d 42 3b b3 2d 0e 3c
       0.011288238 0.0020805062 0.002967683 0.008677888
000070 de ff 10 3c e4 c7 12 bc 3a 36 7b 3c ff 7c 03 3c
       0.008850066 -0.00895879 0.015332753 0.008025407

encoder.lob_enc.conv_in.1.running_mean f4 [32]
000000 ee 0a 4b cd 95 bb 24 cd 80 7f 42 cd dd 2d 66 ce
       -2.129057e+08 -1.727348e+08 -2.0394598e+08 -9.6544134e+08
000010 40 0f 45 4d 09 fa 3b 4e af f9 af 4c ad 05 2a cd
       2.0663194e+08 7.884314e+08 9.226175e+07 -1.7828117e+08
000020 4f 29 a4 cc b5 1f 21 4e b5 06 55 4d 60 2b 97 cc
       -8.606783e+07 6.7580243e+08 2.2337416e+08 -7.925632e+07
000030 b2 14 fc 4d 69 e3 83 4d ed 8b be cc a3 cc 8c 4d
       5.2865184e+08 2.7658986e+08 -9.990129e+07 2.9527766e+08
000040 01 9c 07 4d 81 29 8d ce ae 86 31 cd 72 48 5b ce
       1.4219675e+08 -1.1841537e+09 -1.861496e+08 -9.197395e+08
000050 d9 51 47 4d 22 be 1c 4c 57 b2 96 cd d5 36 72 4e
       2.0900187e+08 4.108916e+07 -3.1603376e+08 1.01591994e+09
000060 eb 94 c7 4d 6c 01 dd 4d 01 e8 29 cd 53 9e 46 4e
       4.1855318e+08 4.6348224e+08 -1.7815963e+08 8.330662e+08
000070 16 66 bd 4d 4f ed 11 cd 60 91 31 cc 49 5b 36 c8
       3.97198e+08 -1.5301554e+08 -4.654835e+07 -186733.14

encoder.lob_enc.conv_in.1.running_var f4 [32]
000000 5a 44 7b 5b 35 3b 39 5b 6f 05 83 5b e3 d6 73 5d
       7.0725372e+16 5.213797e+16 7.375839e+16 1.09815504e+18
000010 59 be 3a 5b 5b f0 25 5d cc 32 f0 5a 4a fd 67 5b
       5.2563635e+16 7.473223e+17 3.3804923e+16 6.5299214e+16
000020 89 f5 40 5a b5 05 f4 5c 7c 5b 97 5b 96 ec 8e 5a
       1.3578291e+16 5.4948935e+17 8.520662e+16 2.0114788e+16
000030 70 8e 96 5c 96 0f b5 5b ed 4d 18 5b 0c 6f c4 5b
       3.3902287e+17 1.01928215e+17 4.2869877e+16 1.10582386e+17
000040 cd 75 64 5b 71 24 b5 5d 4c 05 8d 5b 5e fd 5a 5d
       6.430582e+16 1.6315852e+18 7.938759e+16 9.86242e+17
000050 4e fa 70 5b 0f 3f ac 5a 24 c9 02 5c 06 5f 85 5d
       6.7829207e+16 2.4241515e+16 1.4725161e+17 1.2013008e+18
000060 3b 03 60 5c 20 07 65 5c 50 31 32 5b f5 3b 35 5d
       2.5221579e+17 2.5786241e+17 5.0156766e+16 8.162063e+17
000070 7b c7 2b 5c fc 6b 0c 5b 27 19 a8 5a 82 c6 3b 5b
       1.934062e+17 3.9525227e+16 2.3657726e+16 5.2854082e+16

encoder.lob_enc.res_blocks.0.conv1.weight f4 [32, 32, 3, 1]
000000 34 a1 29 bd 69 a5 9d bd e9 34 b7 bc 2b 3b a4 bd
       -0.0414135 -0.07697565 -0.022364097 -0.08019098
000010 1e 72 25 bc 30 22 47 3d 4c 4b 8c bd ae 8f 29 bd
       -0.010098008 0.048616588 -0.06850299 -0.04139679
000020 92 b9 ff bc 3a 7f 4d bd 9d 25 ad bd 9c 9c 69 3c
       -0.031216417 -0.05017016 -0.0845444 0.01425853
000030 01 2a bb bc 78 58 e4 bb 8f 0f 03 bd db 7b 94 bd
       -0.022847177 -0.006968554 -0.03199726 -0.07250186
000040 38 d3 40 bd 73 26 3f 3d 9e 43 70 3d f3 6c 1f bd
       -0.047076434 0.046667527 0.058658235 -0.03892226
000050 35 2d 4a 3d ba a8 ab bd 14 b2 b7 bc 8a 67 c4 bd
       0.04935952 -0.083817914 -0.022423781 -0.09590061
000060 05 88 0b bd 26 42 5c 3c 0e 3c 33 3d 82 3b db 3c
       -0.034065265 0.013443505 0.043758444 0.026761774
000070 fd d5 11 3d 20 5f e3 bc 06 b8 be 3d a2 57 b0 bd
       0.035604466 -0.02775532 0.093124434 -0.08610465
000080 47 75 eb bc 37 9f 0a bd b7 b7 60 3d 38 55 b7 3c
       -0.028742446 -0.033843245 0.054862704 0.022379503
000090 69 98 ab 3d 21 2b a3 bd 36 b7 de 3c cb ed b6 bd
       0.08378679 -0.079672106 0.027186971 -0.08932074
0000a0 ec 95 c2 3c f8 4a 4f bd b4 ca 71 bd b1 9e 13 3b
       0.023753129 -0.050608605 -0.059031203 0.0022525007
0000b0 5e d2 86 bb 60 5b bb 3d f5 93 95 3d 3e ff ab 3a
       -0.004114433 0.09148288 0.07303611 0.0013122333
0000c0 2e 3d 12 3d c7 13 f0 ba a5 68 dc bc 4f a2 b7 bd
       0.035702877 -0.0018316441 -0.026905367 -0.08966505
0000d0 c9 48 c5 bd b1 b1 68 bb 61 a4 90 bd 52 b3 8e 3d
       -0.09633023 -0.0035506303 -0.07062603 0.069677964
0000e0 b4 4f 5b bd c7 1a 3a 3c 6f 5c 82 bd 03 70 b6 3d
       -0.053542808 0.011358923 -0.063652866 0.08908083
0000f0 77 77 35 3d 06 76 36 3d cf 3e b4 3c 24 2f d4 bc
       0.044303384 0.04454615 0.022002606 -0.025901385
000100 22 19 62 bd fc f9 68 bd e8 95 d3 bd 1b 9a f8 bc
       -0.05519975 -0.05687903 -0.10331327 -0.03034692
000110 a0 b5 4e bd 0a c6 a5 3d 55 6c b2 3d de f1 95 bd
       -0.05046618 0.080944136 0.08712069 -0.07321523
000120 ca 5d 1d bc 08 f5 c1 bd f7 4e 35 3d 37 0e 8b 3d
       -0.009604881 -0.09470564 0.04426476 0.06789821
000130 35 5f 83 bd ac 26 9e bd 7b d4 03 bd 97 36 91 3d
       -0.06414644 -0.0772222 -0.03218506 0.0709049
000140 d8 01 7f 3d ce 73 86 bd 9b 0f da bb bc 9c aa bd
       0.062257618 -0.06565057 -0.0066546923 -0.08330676
000150 2d 54 a8 3d 5c de 0a 3d 01 98 3e bd 13 cd 01 3d
       0.0821918 0.033903465 -0.04653168 0.031689715
000160 bc 9b 20 bc 30 97 b1 bd 7c 29 c4 bd c5 02 b9 3d
       -0.009802755 -0.08671415 -0.09578225 0.09033731
000170 28 60 82 bd c1 32 63 3d b9 c7 0d bd 41 0b 08 3d
       -0.063659966 0.055468325 -0.0346143 0.033213858
000180 41 8a d0 3c 3f fb 1e 3d d7 5f 71 bd 67 7e 04 3d
       0.02545655 0.038813826 -0.05892929 0.03234711
000190 46 e2 30 3c 40 34 75 bc 50 06 54 bc 62 6c 6b bc
       0.010796135 -0.014966071 -0.012940958 -0.014369102
0001a0 ea 93 10 3d 71 58 2f 3d 08 db 70 bd 24 68 bd bc
       0.03529731 0.042808954 -0.058802634 -0.023120947
0001b0 78 63 7a bc ef 5a 0c bd 6f 6c 5b 3d d9 3b d1 3d
       -0.015282504 -0.03426641 0.053570207 0.10216493
0001c0 a7 25 4c 3d b7 30 b9 bc 36 ad 93 3d ab a2 d7 3d
       0.049840596 -0.022606237 0.07210772 0.10529073
0001d0 a5 9b 85 bc 7a 88 91 3d 00 85 7d 3c 2b 7a 2b bd
       -0.016309569 0.07106109 0.015473604 -0.041864555
0001e0 a0 ab 55 3c ee b7 12 3b c0 e2 1d 3c 7a 3d a4 bc
       0.013041407 0.0022387463 0.009636581 -0.020048846
0001f0 24 02 96 bd 47 f4 b4 bd b8 77 74 bd e0 5d 70 3d
       -0.07324627 -0.08835655 -0.059684485 0.058683276
000200 35 8e 01 bd 53 1b f9 bd 3a f9 a3 3d a7 6e ff bd
       -0.03162976 -0.12163415 0.080065206 -0.12472277
000210 ef e6 9d 3c 37 8b c4 3d 41 5b 3f bd 4e 3f f1 3b
       0.019275157 0.095968656 -0.046717886 0.007362283
000220 0c 3a bb 3d 0c 99 a6 3d 56 8b a3 3d 68 65 65 bb
       0.09141931 0.0813466 0.079855606 -0.003500307
000230 37 92 71 3d 02 5e 2c 3d 46 56 89 3c a2 de ac 3d
       0.058977332 0.04208184 0.016764771 0.08440901
000240 c0 da d7 3c d0 a5 ab 3d ac 09 6a bd 2e 50 3a 3c
       0.026349425 0.083812356 -0.05713813 0.011371655
000250 92 0f eb bd f9 16 80 bb d0 ff 92 3c 8d 74 40 3d
       -0.11477579 -0.0039089886 0.017944247 0.04698615
000260 94 c0 d8 3c ce 0d 84 bd 44 a1 25 3d cf f8 fb bd
       0.026459016 -0.064479455 0.040436998 -0.12303316
000270 87 41 b7 3d 1e 58 1d 3d c8 09 28 bc 70 fd f0 3c
       0.08948045 0.038414113 -0.010256238 0.029417723
000280 c9 8d 3a 3d 56 db 84 bd 9c 61 40 3d 38 5d 2e 3b
       0.045545373 -0.064871475 0.046968088 0.0026605856
000290 80 86 a7 3d 17 40 0f 3c 23 da 6f 3c 16 02 d5 3c
       0.08179951 0.008743308 0.01463941 0.026001971
0002a0 e0 43 ab 3d 32 28 91 bd 5e 95 90 3d 20 12 8b 3d
       0.083625555 -0.07087745 0.070597395 0.067905664
0002b0 61 a9 13 bc 59 87 91 bd ed f0 61 3d 25 15 ec 3c
       -0.009012551 -0.07105894 0.055161405 0.028818676
0002c0 14 be 4f bd a1 a6 b9 3c d3 b0 de bc 97 be 33 bd
       -0.050718382 0.022662463 -0.027183926 -0.043882933
0002d0 23 ba df 3d 9a 18 2b 3d eb 3f 28 3c 47 a6 72 3d
       0.10924175 0.04177151 0.0102691455 0.059240606
0002e0 7a 78 83 3d a2 d0 2c 3d 3d ed 2e 3d 3b 33 d6 bd
       0.064194635 0.042191155 0.042706717 -0.1045899
0002f0 05 5f 51 bd 3e 25 c0 3d 8d ba f5 3c 40 3f b7 3c
       -0.05111601 0.093821034 0.02999618 0.022369027
000300 0c 08 93 bd 42 1d 7d bd e8 98 1e bd 30 e9 31 3d
       -0.07179269 -0.06179548 -0.03872004 0.043435276
000310 34 87 35 bd 79 24 a2 3d 6b ae b6 bd 7e 0f 1a bd
       -0.044318393 0.07917113 -0.08919986 -0.03761243
000320 b1 d3 82 3d bf 95 3b bd c8 18 77 bb 1f a2 05 bd
       0.06388033 -0.045797106 -0.003770398 -0.032625314
000330 5f 01 fc 3c 76 64 5d bd e4 b3 a1 bd 92 c9 37 bd
       0.030762373 -0.054050885 -0.078956395 -0.044869967
000340 45 9a 13 3d 6e 9e 05 bd 51 fc a2 bd 0e 15 f0 bc
       0.036035795 -0.032621793 -0.07958282 -0.029306915
000350 fe aa 3c bd 7b 53 b0 3d 09 87 f8 bc d6 0f 05 3d
       -0.04606151 0.08609673 -0.030337827 0.032485805
000360 9c 60 cb 3d 6b c6 99 bd 8a cc 28 3d ea 71 cd 3b
       0.09930536 -0.07508548 0.04121069 0.006269683
000370 17 14 a3 3d 9a 65 7f bb bf a6 ed 3c db ad c2 bd
       0.07962816 -0.0038970471 0.029010175 -0.095058165
000380 56 34 c6 3d dc e9 96 bd df b9 42 3d df fe b7 bd
       0.09677951 -0.07368824 0.04754054 -0.0898416
000390 da b1 8a 3c 52 b0 1d bb 60 cd 95 3d 4e 01 c9 bd
       0.01693051 -0.0024061394 0.07314563 -0.09814702
0003a0 e0 5c ac 3d 19 2e c5 3d 47 81 79 3c 76 0e b1 3d
       0.08416152 0.09627933 0.015228576 0.08645336
0003b0 1c f7 a4 3d 19 af 30 3a 57 00 4f 3d c9 3f 26 3b
       0.08054945 0.0006739959 0.050537433 0.0025367609
0003c0 85 01 83 3c 4b d1 ad bd c7 04 17 bd 2e 95 78 bd
       0.015991936 -0.08487185 -0.03686979 -0.060689144
0003d0 e5 52 87 bd 2d da 91 bd 0e 1b 61 bd 6e 4a fa bb
       -0.06607608 -0.07121692 -0.054957442 -0.0076382672
0003e0 7d 91 c5 bc 4c 26 2d 3d 41 e6 22 3d e0 05 09 bd
       -0.024117226 0.04227285 0.03977037 -0.03345287
0003f0 76 97 7e 3d 52 b0 a2 bd f0 48 8b bd cd bc b5 3d
       0.062156163 -0.07943787 -0.06801021 0.088739015

encoder.lob_enc.res_blocks.0.conv1.bias f4 [32]
000000 cc d4 3c be 69 6d 48 be 87 7c 30 be d0 7f 8b be
       -0.1844055 -0.19572987 -0.17235003 -0.2724595
000010 21 38 8f be df ef 65 be 8d 7c 84 be cb 35 04 be
       -0.2797251 -0.22454785 -0.25876275 -0.12911145
000020 a7 3b 78 be 8e e5 49 be ac e0 32 be c1 66 22 be
       -0.24241506 -0.19716474 -0.17468518 -0.1585951
000030 2a 0f c6 bd e7 22 33 be 54 82 17 be d4 4f 25 be
       -0.09670861 -0.17493783 -0.1479581 -0.16143733
000040 87 f0 d3 bd 6a 79 1a be d8 88 1b be 86 cc 32 be
       -0.10348611 -0.15085378 -0.1518892 -0.17460832
000050 3c ec 19 be ee b7 40 be 32 9b 6b be 36 a1 61 be
       -0.15031523 -0.18820164 -0.23008421 -0.22034153
000060 2d 4c e7 bd 5e 00 2e be 16 9f ae bd cf a5 db bd
       -0.11293826 -0.16992328 -0.08526437 -0.10724985
000070 1e 99 cb bd 50 d5 38 be 7b c0 0b be 5a 7a 27 be
       -0.09941314 -0.18050122 -0.13647644 -0.16355267

encoder.lob_enc.res_blocks.0.bn1.weight f4 [32]
000000 fc e1 7d 3f 63 6c 7f 3f df 8d 80 3f e9 bb 7f 3f
       0.9917295 0.9977476 1.0043296 0.99896103
000010 21 81 7b 3f 0a 1a 81 3f d3 e4 7d 3f aa 9d 7f 3f
       0.9824391 1.0086071 0.99177283 0.9984995
000020 64 7a 7e 3f 0d 0b 7f 3f d1 5c 7e 3f 6a 1a 80 3f
       0.99405503 0.9962624 0.99360377 1.0008061
000030 df 85 80 3f 27 b6 7f 3f 26 be 7e 3f 29 ea 80 3f
       1.0040854 0.9988732 0.99508893 1.007146
000040 b9 38 7e 3f 1a 50 81 3f dc f9 7e 3f ef bd 7b 3f
       0.993053 1.010257 0.99600005 0.9833669
000050 0c ee 80 3f f5 b7 7c 3f cc 26 82 3f 57 83 80 3f
       1.0072646 0.98718196 1.016809 1.0040082
000060 a4 e4 80 3f 93 50 82 3f 0a 93 80 3f 3a 28 82 3f
       1.0069776 1.0180839 1.0044873 1.0168526
000070 17 75 7e 3f 23 9a 80 3f 37 6b 81 3f 5b d5 80 3f
       0.99397415 1.0047039 1.0110844 1.0065111

encoder.lob_enc.res_blocks.0.bn1.bias f4 [32]
000000 16 df ce 3b 26 44 af 3b 68 69 b8 39 fd 98 42 ba
       0.006313215 0.0053487 0.0003517375 -0.000742331
000010 42 9a b3 3a 5a 17 31 3c bb 70 f1 3b aa f5 49 3c
       0.0013702589 0.01080879 0.007368175 0.012326637
000020 d0 20 23 bb 99 c2 0c bb 40 04 18 bc 4c 95 ec 3b
       -0.0024891384 -0.0021478294 -0.009278357 0.007219946
000030 6b 26 39 3c 50 bd 9c 3b 4b 42 67 3b d9 48 61 bb
       0.011300663 0.00478331 0.0035287316 -0.0034375696
000040 d8 8c fa 3a 80 65 c6 3b 80 e6 dc bb 19 47 84 bc
       0.0019115461 0.00605458 -0.006741345 -0.016147183
000050 c1 28 12 3c 5d 3b 85 3a 7f 72 70 3c 87 91 41 3c
       0.008920849 0.0010164786 0.0146757355 0.011814482
000060 d3 c5 cc 3b 11 74 17 3c 01 c1 b4 3a 6b f5 a3 3c
       0.0062491684 0.009243981 0.001379043 0.020014485
000070 62 da c7 bb 10 72 de 3b d2 70 e8 3b 3c f5 8f 39
       -0.0060990313 0.0067884997 0.0070935274 0.000274578

encoder.lob_enc.res_blocks.0.bn1.running_mean f4 [32]
000000 72 2d 09 bf b2 45 12 3e aa 02 05 bf 8b 1b 15 bf
       -0.5358497 0.14284399 -0.5195719 -0.5824515
000010 68 43 b9 be 7a 57 06 bf ea 01 6b be 76 40 0c bd
       -0.3618424 -0.5247723 -0.22949949 -0.034241162
000020 e1 48 85 be fd bb f4 bd 1e 8f 67 3e 89 15 a9 3e
       -0.26032165 -0.119499184 0.22613189 0.33024243
000030 e4 33 a4 be 64 63 79 be fd 46 e3 be 44 a9 5b 3e
       -0.3207084 -0.24354321 -0.44390097 0.21451288
000040 0c 86 2f be 6d 8e 30 be 50 27 77 bd e5 a2 be be
       -0.17140979 -0.17241831 -0.060340226 -0.37233654
000050 cd 92 76 be 7c d1 d5 bd 53 b6 d2 be be 74 08 bf
       -0.24079438 -0.104403466 -0.41154727 -0.53303134
000060 c2 11 0b be 1e b3 34 bf ae 5a 0b be 65 22 ad be
       -0.13580993 -0.7058581 -0.1360881 -0.33815303
000070 c1 b2 ed bd 58 a1 57 be 99 56 a4 be d9 00 ad 3d
       -0.1160636 -0.21057642 -0.3209732 0.08447427

encoder.lob_enc.res_blocks.0.bn1.running_var f4 [32]
000000 b0 f2 5a 3d 7d a4 e6 3e b3 09 a6 3d 9e 3a 91 3d
       0.0534541 0.4504737 0.08107319 0.070912585
000010 34 43 5f 3d 9c a6 59 3d 95 bb 8a 3e 06 e6 c1 3d
       0.05450745 0.053137407 0.2709624 0.094677016
000020 f1 df da 3d db fb 0a 3e af 0f 9c 3e 9c ab ea 3d
       0.10687245 0.13572638 0.30480716 0.11458513
000030 e6 01 45 3e 4e b9 43 3d fe f7 9c 3d 65 75 82 3d
       0.19239005 0.047784142 0.07664488 0.063700475
000040 7e 29 7a 3e 3a 4b 86 3e 54 15 b0 3d 1b c5 eb 3d
       0.2442989 0.26229268 0.08597818 0.11512204
000050 ca 93 1c 3d 50 2a 58 3e 52 69 d3 3d 43 76 16 3f
       0.03822688 0.21109891 0.10322823 0.58774203
000060 40 59 14 3e 71 da 08 3e 3b 5d 11 3e a3 18 dd 3d
       0.14487171 0.13364579 0.14195721 0.10795715
000070 e2 9a ee 3c c3 ce 93 3e 8e 6c c2 3d 5e 4f 85 3d
       0.029126588 0.28868684 0.094933614 0.06509279

encoder.lob_enc.res_blocks.0.conv2.weight f4 [32, 32, 3, 1]
000000 71 a5 a0 3c f2 86 fa 3c ea d9 84 bd fa 2e a4 3d
       0.019610139 0.030581925 -0.06486876 0.080167726
000010 2c 47 d6 3c eb 57 12 bd f2 c4 a2 bd e7 a4 81 bd
       0.026156984 -0.035728376 -0.079477206 -0.06330281
000020 c7 56 96 bc 0a aa 84 3c 49 f5 1b 3d 20 b8 d1 3d
       -0.018351926 0.016194362 0.03807572 0.10240197
000030 d8 91 8e 3d 0d 5f e5 bb 9c da 96 bc 99 fe a9 3d
       0.06961411 -0.0069998563 -0.018414788 0.08300514
000040 64 f5 25 bb 51 93 57 3c 99 43 7e ba ff 38 b7 3d
       -0.0025323266 0.013157682 -0.0009699404 0.08946418
000050 31 c1 75 3d f7 38 ff 3c e7 ba b0 3c ca 08 c7 bc
       0.059998695 0.031155093 0.021573497 -0.024296183
000060 10 57 cf 3c 45 ef a6 bd 4a d1 9c bd 2d a2 f2 3c
       0.02531007 -0.08151106 -0.07657106 0.029618347
000070 b4 40 af 3c 3f 16 84 bd 20 86 06 3d b5 69 08 3d
       0.021393158 -0.064495556 0.032842755 0.033303935
000080 18 49 32 3d dc 49 3e bd b9 8c 75 bd 77 ac a3 bb
       0.04352674 -0.046457157 -0.059948657 -0.0049949246
000090 2d e3 46 bc 50 7f 6b bc 15 5c a9 bd f5 5e a7 3d
       -0.012139124 -0.014373615 -0.082695164 0.081724085
0000a0 a1 eb b6 3d 58 73 41 bd 6a 7a 9f 3d a7 ed b4 3c
       0.089316614 -0.04722914 0.077870205 0.022085978
0000b0 dc 10 e9 3c fb 66 e0 bb d8 b2 bf 3d 2a bb bc bc
       0.028450422 -0.0068482137 0.093602836 -0.023038466
0000c0 0a 87 61 3c 8a 45 4f bc 62 52 48 b9 bf 1c 34 bd
       0.013765106 -0.012650857 -0.00019104176 -0.043972727
0000d0 3b f3 89 bd d6 72 89 3d a4 82 b8 bd 2f 37 81 bd
       -0.06735846 0.06711356 -0.09009293 -0.063093536
0000e0 4a 0a bd 3d 8b f1 4e bd 7b 04 23 bc 3b f0 c7 bd
       0.09230478 -0.050523322 -0.009949799 -0.09762617
0000f0 27 6e f0 bc 56 b2 36 bd e8 4e 0f 3d 2f f4 2f 3d
       -0.0293494 -0.04460367 0.03498736 0.04295748
000100 01 9f ad 3d db 9d 27 bd 1e de c7 3d 2b 7e 1c 3d
       0.08477593 -0.040922027 0.09759162 0.03820626
000110 ec d7 b9 bd 5e 52 ab bd 49 d6 3d bc 85 5d b9 3d
       -0.09074387 -0.0836532 -0.011586734 0.090510406
000120 ea f5 69 3b f9 7d 7c bd 5e ca 70 3d 55 2d d9 bd
       0.0035699555 -0.061643574 0.058786742 -0.106043495
000130 63 dc 96 3d a5 a0 41 bc 11 fe 1f 3c 44 74 08 bd
       0.07366254 -0.011818086 0.009765164 -0.033314005
000140 39 60 8e 3c e6 41 b9 ba 08 18 9c 3d e4 40 b4 3d
       0.017379867 -0.0014134019 0.07621771 0.088014394
000150 d7 f3 32 3d f2 fa 6e bc 5d 99 d1 bb 4e c5 7f bd
       0.043689575 -0.014586197 -0.006396456 -0.062444024
000160 cb bf 82 3d 70 23 b6 bc e2 6b c6 bd 92 e2 f5 bc
       0.06384238 -0.022233695 -0.09688546 -0.030015264
000170 21 2a 99 bd c5 3f a5 bd 4a ad 9a 3c d1 3e 25 3c
       -0.074787386 -0.08068804 0.018881459 0.010085777
000180 f1 d1 4e bd 32 74 8c bd 1a 8d 28 3d a9 50 bf 3c
       -0.050493184 -0.068581 0.04115019 0.023353891
000190 d4 1b 91 3d fc bc 66 3d 75 4c 41 bd cf 1b 89 3d
       0.07085386 0.056332573 -0.047192056 0.06694757
0001a0 0c 5d 98 bd 52 50 a9 bd 13 1d 4f 3d 39 4a c8 3d
       -0.07439622 -0.08267273 0.050564837 0.09779782
0001b0 25 90 56 3d 76 41 2f 3b 43 db 2e bd a5 af dd 3d
       0.05238356 0.0026741899 -0.042689573 0.10824517
0001c0 2a 02 71 bd 85 97 c8 3d b6 c3 8d bd 29 c9 cd bd
       -0.058839954 0.09794525 -0.069220945 -0.10048134
0001d0 cd 35 c9 bb 2f dd 07 3d ec 89 aa bd fc a0 f1 bc
       -0.0061404468 0.03316992 -0.08327088 -0.029495709
0001e0 7b 31 0a bb 6f 09 12 bc 13 b6 46 bd f5 21 bf 3d
       -0.0021086622 -0.008913382 -0.048513483 0.09332649
0001f0 14 cf 94 bd ed 72 89 3d 40 2a 05 3d d9 bb 24 bd
       -0.072660595 0.067113735 0.032510996 -0.040218208
000200 76 f3 3d 3d 64 82 a1 bd 1a 6e 83 bd 83 16 7d 3d
       0.04637476 -0.07886198 -0.064174846 0.061789047
000210 6e bb 39 bd e6 ac 71 3d 76 c2 b3 bd 0d b9 87 3c
       -0.045344763 0.05900278 -0.08777325 0.016567731
000220 7b 15 b7 bd 7b a7 53 3d ec 33 d3 3d 44 83 8e 3d
       -0.08939644 0.051673394 0.10312638 0.06958631
000230 c2 b2 1d 3d c0 95 83 3d 14 c7 b8 3d c8 13 68 3d
       0.038500555 0.06425047 0.09022346 0.05665949
000240 9e 87 3a 3d 0d 57 0b 3d 20 e8 d5 3c 6b ea 70 3d
       0.04553949 0.034018565 0.026111662 0.05881731
000250 b2 3e 98 3d a4 df 16 bd cf 1b 0b 3c 0e 06 28 3d
       0.07433833 -0.036834374 0.008490517 0.0410214
000260 02 82 b1 bd f4 ff 8f bd 84 22 b9 bc a3 23 a1 3c
       -0.08667375 -0.07031241 -0.022599466 0.019670313
000270 6c 39 87 3d db f3 65 3d a5 f3 66 3d 7d a4 b0 bc
       0.06602749 0.05614076 0.0563847 -0.02156281
000280 7e 22 c4 bc c7 41 c7 bd 5a 01 65 3c ff dc d2 bc
       -0.023942228 -0.09729343 0.013977373 -0.025740145
000290 be fc 99 bd 36 a7 27 3d 13 77 61 3d bd 18 d1 3c
       -0.0751891 0.04093095 0.0550452 0.025524491
0002a0 3a ec 9b bd a1 7b f2 bc 0e 18 c4 bd 92 0f aa bb
       -0.07613416 -0.029599966 -0.095749006 -0.0051898444
0002b0 90 c0 95 3d 42 aa c8 3d 2b 59 ba bd 11 e5 c6 bc
       0.07312119 0.09798099 -0.09099039 -0.02427915
0002c0 51 10 68 bd fb f0 9d 3d 11 be d9 3d 95 4f aa bd
       -0.056656186 0.07711979 0.106319554 -0.0831596
0002d0 3b ba 16 bd eb 85 88 3c e3 8e ad bd 7b 24 da bd
       -0.036798697 0.01666542 -0.08474519 -0.10651489
0002e0 aa 64 91 bd 6a 83 8e 3d dd c5 51 3c 18 95 43 bd
       -0.07099278 0.06958659 0.012803522 -0.04774961
0002f0 ba cb 9d bc a5 58 ba 3d 6b c5 c5 bd 23 05 1e 3d
       -0.019262183 0.09098939 -0.09656795 0.038579118
000300 37 80 53 bc 4b 7c da bd 1c 96 9d 3d 58 b4 6d bd
       -0.012908987 -0.10668238 0.07694647 -0.058033317
000310 03 1c 93 3d 9f 5a 1a bb 17 11 91 3c 69 c4 9a bc
       0.07183077 -0.002355255 0.017708344 -0.018892484
000320 d1 91 b9 bd f6 81 39 3d f0 ee 28 bd 66 fa fd 3c
       -0.090610154 0.045289956 -0.041243494 0.031003188
000330 99 0d b4 3d d2 26 1d bd 54 4f 1e 3b 20 81 fb 3c
       0.08791656 -0.0383671 0.002415617 0.03070122
000340 e1 52 22 bd 17 d1 18 3d ed a3 5e bd 09 f2 8d 3d
       -0.03962982 0.03730878 -0.05435555 0.0693093
000350 5c 69 ef bc a7 c0 67 bc a1 fd 27 bd 74 4e de 39
       -0.029225044 -0.014145053 -0.041013364 0.00042401592
000360 b2 e0 76 3d 5b b3 06 3c 0d b6 41 bd fb 67 c5 3d
       0.06027288 0.008221473 -0.047292758 0.09638973
000370 9f 23 be 3d 9d 75 1d bd 86 0d 87 bd 54 83 a5 bd
       0.09284138 -0.038442243 -0.06594376 -0.080816895
000380 02 d5 0a 3c a0 3e d3 3d 28 c9 20 3d ab 68 3f 3d
       0.008473637 0.10314679 0.039254338 0.04673068
000390 b7 40 da bd 59 20 ef 3c fd 46 1f 3d 7f 76 e3 bc
       -0.106568746 0.02919023 0.03888606 -0.027766464
0003a0 c9 0d 8c bd a5 0d b8 bc b1 42 bb bd c1 a6 b4 3d
       -0.06838567 -0.022467444 -0.0914358 0.08820868
0003b0 af 35 8a bd 3e 59 cf 3d 7c 52 bb bd dc aa 9e 3d
       -0.067485206 0.101244435 -0.09146592 0.077474326
0003c0 a5 0c 52 bd 4c dd b3 bd b5 2d 9a 3c 65 c3 d2 3d
       -0.05128159 -0.087824434 0.018820623 0.10291175
0003d0 3b fb 24 bd 14 60 be 3c d5 69 95 bd a1 3d 71 3d
       -0.040278655 0.023239173 -0.072955765 0.058896665
0003e0 b2 40 a7 3d 02 2d 2c bd 77 50 ae 3d 80 32 29 3d
       0.081666365 -0.04203511 0.08511441 0.041307926
0003f0 8e 0d d1 3b 4c 80 51 bd 95 15 74 3d 87 25 cf bb
       0.0063797897 -0.051147744 0.059590895 -0.0063216123

encoder.lob_enc.res_blocks.0.conv2.bias f4 [32]
000000 f1 34 17 be 26 a9 3b be 84 a7 41 be 12 c9 22 be
       -0.1476629 -0.18326244 -0.18911558 -0.15897015
000010 67 5e 33 be 3e 99 5d be 3c b8 51 be 78 08 60 be
       -0.1751648 -0.21640489 -0.20480436 -0.2187823
000020 d2 ce 40 be 89 bf 84 be 4e 60 65 be c9 15 3b be
       -0.18828896 -0.2592738 -0.22400019 -0.18270029
000030 c8 7d 69 be 30 ce 1d be 7d ea 1e be a4 a9 17 be
       -0.22801888 -0.15410686 -0.15519138 -0.14810807
000040 b4 b9 74 be 6b b4 31 be 2d 46 71 be 78 c3 02 be
       -0.23898965 -0.1735398 -0.23561926 -0.12769878
000050 55 30 bc bd fd f2 83 bd e9 aa 59 be f9 31 d5 bd
       -0.09188906 -0.06442831 -0.21256603 -0.10409922
000060 0d cb 35 be 1c bb 3c be 67 39 ff bd 87 54 81 be
       -0.17753239 -0.18430752 -0.124621205 -0.25259802
000070 87 80 82 be 18 ec cc bd e3 3f 18 be f9 11 e5 bd
       -0.25488684 -0.10005969 -0.14868121 -0.11185069

encoder.lob_enc.res_blocks.0.bn2.weight f4 [32]
000000 7b 73 7e 3f 17 e8 80 3f 75 04 81 3f d3 01 7e 3f
       0.9939496 1.0070828 1.0079485 0.99221534
000010 ef ec 80 3f 2f 08 80 3f cd 02 81 3f 79 c8 80 3f
       1.0072306 1.0002497 1.007898 1.0061179
000020 41 72 80 3f 8e d3 80 3f 12 68 80 3f a3 16 80 3f
       1.0034868 1.0064561 1.003176 1.0006908
000030 c6 ca 80 3f a0 01 81 3f d5 41 7f 3f 9e 4c 81 3f
       1.0061882 1.0078621 0.99709827 1.0101507
000040 0e 58 80 3f e7 e6 7e 3f 8d dd 80 3f 8c 72 80 3f
       1.0026872 0.9957108 1.0067612 1.0034957
000050 38 70 80 3f 71 b4 80 3f 09 b9 7f 3f b6 a3 81 3f
       1.0034246 1.0055066 0.99891716 1.0128086
000060 41 dc 80 3f 0e 35 80 3f c7 41 81 3f 5c 2e 81 3f
       1.0067216 1.0016191 1.0098199 1.0092273
000070 91 d3 80 3f dd e2 7d 3f db 4a 81 3f d7 18 81 3f
       1.0064565 0.9917429 1.0100969 1.0085706

encoder.lob_enc.res_blocks.0.bn2.bias f4 [32]
000000 20 82 b0 3b 57 b6 a0 39 59 98 0e 3c a7 c9 77 bb
       0.005386606 0.00030653432 0.008703315 -0.0037809403
000010 e8 c1 fe 3b ab c0 83 3b a3 d4 0f 3c 3a 9e 13 3c
       0.0077745803 0.0040207705 0.008778724 0.009009892
000020 e3 72 03 3c a8 3f 07 3c 73 60 af bb 8c d9 2c 3b
       0.008022997 0.008254923 -0.005352074 0.0026374785
000030 99 dd 55 3b f2 8d 9a 3b 55 f1 0d bc 52 dc 25 3c
       0.0032633303 0.004716628 -0.008663495 0.010123329
000040 93 4c 00 3b 66 46 24 bb 34 7f 11 3c c4 0f 7b ba
       0.0019576892 -0.0025066375 0.008880425 -0.00095772394
000050 f4 9c ee 39 fa 5b e1 3b ea a8 db ba f0 4f d9 3b
       0.00045511837 0.0068774195 -0.0016758714 0.0066318437
000060 60 e6 fe 3b 32 a8 7f 3b 45 c3 bd 3b 00 9d 12 3c
       0.0077789277 0.0039010164 0.0057911 0.0089485645
000070 24 12 d2 3b 2a a8 e2 bb 90 c9 42 3c 25 d6 25 3c
       0.006410854 -0.0069170194 0.011888877 0.010121857

encoder.lob_enc.res_blocks.0.bn2.running_mean f4 [32]
000000 b8 cd f1 bd f5 d2 04 be f6 2c e5 bd c9 a2 97 bd
       -0.11806816 -0.12971099 -0.11190216 -0.07404096
000010 08 61 8c be 55 f5 09 bc 01 99 09 bf 48 56 33 3b
       -0.2741778 -0.008420308 -0.5374909 0.002736466
000020 b2 9a 78 bd 2e b1 95 bd 87 70 ca be a6 d5 88 be
       -0.060694404 -0.07309185 -0.39538977 -0.267255
000030 bb 83 c9 bd 75 aa b2 be b6 b3 f7 3d 54 bb a6 be
       -0.09839579 -0.34895673 0.12094824 -0.32564795
000040 d9 91 aa be d4 ec 08 3d 94 28 c4 be 45 1f 95 be
       -0.33314398 0.033428982 -0.3831221 -0.2912542
000050 69 11 cf be b3 48 8a 3d 6e bd 50 bd ba a7 6e be
       -0.4044297 0.067521475 -0.050961904 -0.2330617
000060 8d a8 13 bf 12 bc 9f be 58 a1 6f bb e1 70 ae bd
       -0.57679063 -0.31198174 -0.0036564674 -0.08517624
000070 7e 34 a8 be dd ad 15 bd fd 3c 20 be b7 4f ed bd
       -0.32852548 -0.036542762 -0.15648265 -0.1158747

encoder.lob_enc.res_blocks.0.bn2.running_var f4 [32]
000000 01 7a 24 3d 91 bc 44 3d 2e 04 00 3e fd 0e ca 3d
       0.040155414 0.048031393 0.12501594 0.0986614
000010 52 f6 7b 3d d7 f5 99 3d cf ad 2a 3e 3a e0 52 3e
       0.061514206 0.07517593 0.16667865 0.20593348
000020 a8 6c 11 3e 0f 75 b8 3d 93 86 d0 3d 76 d7 59 3d
       0.14201605 0.09006702 0.10181918 0.053183995
000030 51 6d 8d 3d 86 dc 9a 3d ac 43 5b 3d 38 a5 81 3e
       0.06905616 0.07561593 0.053531334 0.25321364
000040 74 d0 7b 3d e7 38 e8 3d 2f 39 d4 3d b4 f8 0b 3e
       0.061478093 0.11338978 0.103624694 0.13669091
000050 ce 58 89 3e 74 9d 3f 3e 6c b6 a7 3e fc 92 e2 3d
       0.26825565 0.18712407 0.32756364 0.11063191
000060 ef ee 81 3d 40 ca c5 3d 1b 1e 71 3d 5e 05 22 3e
       0.06344401 0.09657717 0.0588666 0.1582236
000070 10 7a df 3d a9 14 a3 3e 59 c3 65 3d da cb 18 3e
       0.109119534 0.318517 0.0560945 0.14921513

encoder.lob_enc.res_blocks.1.conv1.weight f4 [32, 32, 3, 1]
000000 69 81 b2 bd c1 fb 39 3c 33 9d 43 3d 57 f7 3c bd
       -0.08716089 0.011351527 0.04775734 -0.04613432
000010 c6 95 b3 bd ed 45 38 3d 0e df a0 3c 6f 45 33 3d
       -0.087688014 0.04498856 0.01963761 0.04376739
000020 3e 54 b3 3d e9 d5 db bd 09 65 6b 3d c6 19 5f bd
       0.08756302 -0.107341595 0.0574694 -0.05446794
000030 7f d3 20 3d 10 64 84 3d 50 97 a1 3d 04 ba f1 3c
       0.0392642 0.06464398 0.07890189 0.029507644
000040 92 e2 e4 3b d4 47 ad bb c5 a5 49 bd f8 b2 1f 3d
       0.006985017 -0.0052881036 -0.049230356 0.038989037
000050 bd ac 87 3d 3f 76 8b bb 99 3a c0 bd 5e 5a 1b bd
       0.06624744 -0.0042560394 -0.093861766 -0.037927978
000060 49 3c 26 bd d2 ab 24 3d c3 6e b5 bd 83 a2 50 bd
       -0.040584836 0.040202923 -0.08859017 -0.050936233
000070 13 f7 99 bd 6d c4 c1 bd 0f 19 f7 bc cd 6f 90 3d
       -0.07517829 -0.09461293 -0.030163316 0.07052574
000080 43 c8 54 3d 8e 61 b2 3d c6 79 5c 3c 9b 16 8b 3d
       0.051948797 0.08710013 0.013456767 0.06791421
000090 c1 32 2c 3d 10 ac 91 3d 36 59 7d bc 23 3a be 3d
       0.04204059 0.071128964 -0.015463164 0.092884324
0000a0 c4 ba cc bc 38 c4 02 bd c7 02 2e 3d c2 5f 14 3d
       -0.0249914 -0.03192541 0.042483117 0.036224134
0000b0 a0 dc 6e bd 84 e7 24 bd a3 46 cb bd 5e f6 9f 3d
       -0.058315873 -0.040259853 -0.09925582 0.07810663
0000c0 f8 56 c8 3c 12 e8 a7 3d 17 6a ac bd bd b7 ab 3d
       0.024455532 0.08198561 -0.084186725 0.08384655
0000d0 b6 e7 c4 3d 27 ed 96 3d b7 38 7f bd ca 3d db 3d
       0.09614508 0.07369452 -0.062309947 0.10705145
0000e0 10 14 a3 bd 5c 8a a7 bd 3e da 2b bd d6 c8 b8 3d
       -0.07962811 -0.08180687 -0.04195618 0.090226814
0000f0 ff 78 9f bc 8e 0a 12 3d f0 f1 2b bc b2 3c f3 3c
       -0.019466875 0.035654597 -0.010494694 0.029692028
000100 4f e5 4a 3c a3 66 57 3d 24 05 38 3d 57 65 88 3d
       0.012383773 0.052588116 0.044926777 0.06659954
000110 ed 61 a8 3d bc 6f d3 3c 13 39 53 3d 0f 22 a5 3d
       0.08221803 0.025810115 0.051568102 0.08063137
000120 bb 36 66 3d 3e 6c a9 bc 6d 17 aa 3d e6 eb 8a 3c
       0.05620454 -0.020681497 0.08305249 0.016958188
000130 5b 21 80 3d df a9 e9 bc dc 59 c8 bd 5a f7 8e bd
       0.06256362 -0.028523384 -0.09782764 -0.06980772
000140 8a 1c 28 bc 35 f9 91 bd 91 da 58 bd 77 c0 26 3d
       -0.0102607105 -0.071276106 -0.052942816 0.040710893
000150 3d 10 db 3c 09 cd 28 bd e2 9d 89 bc ba 41 db bd
       0.026741141 -0.04121116 -0.016798917 -0.10705896
000160 98 96 73 bc 4a c9 2f bb 08 84 8c bd 68 a7 8e 3d
       -0.014867447 -0.0026822858 -0.068611205 0.06965524
000170 f8 67 44 bd 7b f6 ab 3c 82 0d 53 bd 8a 23 3f 3d
       -0.047950715 0.020991554 -0.051526554 0.046664752
000180 5f 44 b8 bd 83 c9 d2 bb 44 c5 11 3d 99 5b 95 3d
       -0.08997416 -0.0064327135 0.035588518 0.072928615
000190 01 11 af 3a e2 a0 06 3c 7a 80 a8 3c 32 62 19 bd
       0.0013356508 0.008217068 0.020569075 -0.037447162
0001a0 ce 9d e2 3c 9c 7a b8 bd 5b 45 29 bd 90 e6 84 b9
       0.027663138 -0.09007761 -0.04132591 -0.00025348784
0001b0 99 89 0d bd ef 8b 32 3d a7 69 80 bd 21 ca 15 3d
       -0.03455505 0.043590482 -0.062701516 0.03656972
0001c0 3b 94 73 bd 76 82 a7 bd cb 94 9f 3b 2b 5b d7 3b
       -0.059467535 -0.0817918 0.0048700324 0.0065721474
0001d0 51 40 2d bd e0 a7 df 3d 80 d1 f6 bc f1 de 0a bc
       -0.042297665 0.109206915 -0.030129194 -0.008476005
0001e0 2b 6c a0 3b 96 c8 2b bd bc f4 0d 3d 44 d2 b9 3d
       0.004895707 -0.04193934 0.034657225 0.09073308
0001f0 cf 91 a0 ba 02 7a 32 bd 8e 27 6b 3d 74 1e 01 3c
       -0.0012250486 -0.043573387 0.05741077 0.007880796
000200 2b 3d 5b 3d 2e 3c 90 bc 4b ce 9e bd 1f 3a 8f bd
       0.05352513 -0.01760682 -0.07754191 -0.069935076
000210 3e 35 03 bd 94 5f a8 bd 24 30 a8 bd 7d 39 5b 3d
       -0.032033198 -0.08221355 -0.08212307 0.053521622
000220 af 5f 56 bc af 31 13 bc 77 46 bc bd 94 f8 58 3d
       -0.013084336 -0.008984013 -0.091931276 0.052971438
000230 d3 a0 94 3d da 89 77 3d 4d b7 84 bd b6 67 f2 3b
       0.07257237 0.0604342 -0.06480274 0.007397617
000240 0b 44 2c bd ad 7d 4f 3d 81 34 6f 3d a4 b4 76 bd
       -0.04205708 0.050656963 0.05839968 -0.060230866
000250 3a d3 b0 bd 81 a0 8f bd 08 1c 2c 3d 36 20 ce 3c
       -0.08634038 -0.070130356 0.04201892 0.025161844
000260 d9 16 87 3d 28 c0 52 bc dd 86 b0 3d 2c ce c2 3d
       0.06596155 -0.012863196 0.08619473 0.095119804
000270 8e 59 b1 bd 6c e9 0a bd c3 6b 0d 3c bd 20 9a 3d
       -0.08659659 -0.033914015 0.008631649 0.075257756
000280 c2 76 d1 bd 77 d3 12 3d 8f 6d bb 3b d0 53 a9 3d
       -0.102277294 0.0358462 0.0057198475 0.08267939
000290 57 92 c4 bd 9c 69 5b 3d 30 a8 46 3d 8d 31 18 bc
       -0.095982246 0.053567514 0.04850024 -0.009289158
0002a0 9f a8 1c bd 20 0b 45 3d 80 9d 05 bd ba 05 80 bc
       -0.038246747 0.048106313 -0.032620907 -0.01562773
0002b0 d2 d2 81 bd b8 3a d2 3d da 6e 8b 3d 9b cf d9 3c
       -0.06339039 0.10265106 0.06808253 0.026588252
0002c0 24 6e b7 3b 28 91 97 bd fc 19 9c 3d 40 fa 1f 3d
       0.0055978466 -0.07400733 0.076221436 0.039057016
0002d0 6c 46 05 3d b5 4a 2b 3d 6e f8 9e bd a5 77 9f bc
       0.032537863 0.041819293 -0.07762228 -0.01946623
0002e0 39 cb ac 3d ce dc d8 bc b4 26 b2 3d 4e e9 59 bd
       0.08437199 -0.026472475 0.08698788 -0.053201012
0002f0 47 a9 97 3d 8c 99 d1 3d 60 90 bb bd 7c dc 85 3d
       0.07405334 0.10234365 -0.09158397 0.06536195
000300 e9 81 6c 3c 7a 39 3a 3d 15 26 2d bd 85 29 ae 3d
       0.01443527 0.04546497 -0.042272646 0.08504013
000310 17 b7 05 3d 13 0a 80 bd 6e 08 cd 3d ef 96 af 3b
       0.03264531 -0.062519215 0.100113735 0.005358569
000320 49 87 27 bc e5 39 e4 3c 09 6e 8a 3c 0d 34 ba bd
       -0.010225126 0.027859638 0.016898172 -0.09091959
000330 56 11 b3 3d a9 fe 90 bc f4 13 c2 3c c1 f7 d6 bc
       0.08743541 -0.017699556 0.023691155 -0.026241185
000340 bd 7e ca bd 54 1d be bd 28 74 24 bd c2 73 11 bd
       -0.09887455 -0.09282938 -0.040149838 -0.035510786
000350 87 de 9b 3d 8c 1a 84 3c 31 6a de 3d 90 ac b3 3d
       0.07610803 0.01612594 0.10860098 0.08773148
000360 0a 93 39 3c b2 18 10 bd a4 44 66 3b 99 80 1d bd
       0.011326561 -0.0351798 0.0035136128 -0.03845272
000370 42 a2 c7 bd 07 17 db 3c 88 35 22 3d ae 7f 08 bd
       -0.09747745 0.026744379 0.039601833 -0.03332489
000380 b9 c5 a2 3d f5 af 61 bc dd af e5 bc d1 bb 36 bd
       0.07947869 -0.013774862 -0.02803796 -0.04461271
000390 56 51 c3 3d 3c 1b 69 3d d5 4f 88 bd bc d5 96 bd
       0.09536998 0.05691074 -0.06655852 -0.07364985
0003a0 f3 ac 9e bd bd 3b b8 3d fd fc b3 3d 2f b9 69 3d
       -0.07747831 0.08995769 0.08788488 0.05706137
0003b0 8c 4b 52 3d 0f 49 89 bd 48 ae 92 3d 5e f9 0b bc
       0.05134158 -0.06703388 0.07162148 -0.0085433405
0003c0 36 5b 6c bb 41 41 04 3c b1 02 f2 bc 1e 28 c5 3d
       -0.0036065108 0.008072198 -0.029542299 0.09626792
0003d0 3b 15 6d 3c bf d4 94 3d 1c fd 92 bd 26 c3 c4 bd
       0.014470394 0.072671406 -0.07177183 -0.09607534
0003e0 e1 80 12 bd c6 10 f0 3c 2e f4 8a bd 7f 52 4c bd
       -0.03576744 0.029304873 -0.06784855 -0.049883362
0003f0 41 ca f1 3c e4 fe b8 3d 33 ec ab 3d 3d 5d b0 3d
       0.029515387 0.090329915 0.08394661 0.08611534

encoder.lob_enc.res_blocks.1.conv1.bias f4 [32]
000000 22 bc 2a be 6e 09 0e be b1 aa be bd ef 19 19 be
       -0.1667333 -0.13870785 -0.093099006 -0.14951299
000010 6f a6 b8 bd 44 dc 10 be 5d 34 70 be 4e d5 4e be
       -0.0901612 -0.14146525 -0.23457475 -0.20198557
000020 7b a3 62 be fa 73 d8 bd d3 ac 27 be 2b e5 88 be
       -0.22132675 -0.10568996 -0.16374521 -0.2673734
000030 5d d8 ac bd 70 47 08 be 89 61 3e be 15 f4 84 be
       -0.084397055 -0.13308501 -0.18591894 -0.2596747
000040 2b 71 64 be 3f 7b 99 be 38 89 88 be db f7 81 bd
       -0.22308795 -0.29976842 -0.2666719 -0.06346103
000050 7c 19 42 be dc 98 ac bd 45 45 08 be ff 6f cf bd
       -0.18955034 -0.08427593 -0.13307674 -0.101287834
000060 f1 9b 08 be aa ec 80 be 36 ef f3 bd 8b 37 90 be
       -0.13340737 -0.2518056 -0.1191086 -0.28167376
000070 a8 7f 14 be 34 bb 1b be 5d f8 fd bd 61 7e 8b be
       -0.14501822 -0.15208131 -0.12400887 -0.27244857

encoder.lob_enc.res_blocks.1.bn1.weight f4 [32]
000000 77 43 7f 3f 98 e7 81 3f f2 2e 80 3f 79 7d 81 3f
       0.9971232 1.0148802 1.0014327 1.0116416
000010 f5 fe 7f 3f 13 d0 7b 3f e5 0a 80 3f 17 fd 7c 3f
       0.9999841 0.9836437 1.0003325 0.98823684
000020 e2 aa 7d 3f d0 ed 7b 3f dc 13 82 3f 54 78 81 3f
       0.9908887 0.9840975 1.0162311 1.0114846
000030 bf 3b 7e 3f bf 31 83 3f b7 e1 7f 3f d4 cb 7e 3f
       0.99309915 1.0249556 0.9995379 0.9952977
000040 0c 5e 80 3f 6a 28 80 3f e5 49 81 3f 6c f3 80 3f
       1.0028701 1.0012333 1.0100676 1.0074286
000050 96 4b 7f 3f ae 6a 7f 3f 2d 20 80 3f 18 91 7e 3f
       0.9972471 0.99772155 1.0009819 0.99440145
000060 8b 7a 80 3f e2 a0 7f 3f ff 4d 7e 3f 66 0c 80 3f
       1.0037397 0.9985486 0.9933776 1.0003784
000070 33 3d 7c 3f 52 39 7d 3f e6 25 7e 3f 7e 4a 82 3f
       0.9853088 0.9891559 0.9927658 1.0178983

encoder.lob_enc.res_blocks.1.bn1.bias f4 [32]
000000 33 03 ea 3a bf 12 93 bb 55 af 85 bc 68 2d 01 ba
       0.0017853737 -0.0044883187 -0.016318956 -0.00049277255
000010 9a 0c 8f 3b 1e 90 b2 bc fd a7 13 bc 9b 49 8d bb
       0.004365516 -0.021797236 -0.0090122195 -0.004311753
000020 ab 49 08 3b b2 c2 47 bc 40 93 1f 3c 8b cf 8a 3b
       0.0020795863 -0.012192415 0.009739697 0.004236167
000030 dd 82 9b 3b 68 99 b6 3c f9 ab 56 bb 30 a2 37 bc
       0.0047458247 0.022289947 -0.0032756312 -0.011208102
000040 d4 83 f6 3a 41 b4 d4 bb 27 5e 29 3b 29 00 c8 3c
       0.0018807598 -0.0064912145 0.0025843473 0.024414139
000050 a0 f5 8d 3b 29 3a 01 3c bd 36 c9 3b 32 ae ca bb
       0.0043322593 0.007887402 0.0061405585 -0.0061853165
000060 60 5c 8b 3b 73 21 ec bb ed da 0a 3c 77 9d a4 bb
       0.0042529553 -0.007206136 0.008475048 -0.005023654
000070 0d 60 87 bc 53 00 9b bb a8 17 38 bc 13 f4 e5 3b
       -0.016525293 -0.0047302633 -0.011236109 0.0070176213

encoder.lob_enc.res_blocks.1.bn1.running_mean f4 [32]
000000 b2 e1 dc bc a1 e5 69 bd a0 ad 99 3d 8e 26 58 bf
       -0.026963089 -0.057103757 0.075038195 -0.8443383
000010 e2 7c 14 bf 04 45 ca be 3c c4 04 bf 41 4e d6 3e
       -0.58003056 -0.3950578 -0.5186193 0.41856578
000020 2f 67 51 be 20 db 07 bf dc 10 0b bf 72 5c 82 bf
       -0.20449518 -0.53068733 -0.543226 -1.0184462
000030 0b 5b 6a bf d0 0d 53 bf af e8 24 3f b5 d8 1d bf
       -0.9154517 -0.8244295 0.64417547 -0.61658794
000040 f6 87 69 bf ee 7b 1f bf 6b 5e 93 bf b5 66 30 bf
       -0.91223085 -0.62298477 -1.1513189 -0.6890672
000050 9e f2 c5 be 94 af cb be d5 4f af be 9b 8f 7d 3e
       -0.38661665 -0.39782393 -0.34240595 0.24761812
000060 31 f3 32 bf 93 64 ce be f7 6b 72 bc 93 12 f0 be
       -0.6990233 -0.40311107 -0.014796249 -0.4688917
000070 2c bb a3 be 87 f5 be be bb 0a 50 be 3e 2d e6 be
       -0.31978738 -0.37296697 -0.20316593 -0.44956392

encoder.lob_enc.res_blocks.1.bn1.running_var f4 [32]
000000 24 c0 3d 3e 99 55 07 3e a0 8a 38 3e 99 00 2d 3e
       0.18530327 0.13216247 0.18021631 0.16894759
000010 e1 58 31 3f 2b 11 8a 3e 8a 32 b1 3d 97 fa 4f 3e
       0.69276243 0.26966223 0.08652218 0.20310436
000020 92 f9 c8 3e c3 bb 9f 3e e4 23 17 3e 6d 5a 26 3e
       0.39252907 0.31197938 0.14759785 0.16245432
000030 55 0c 41 3e 7e 16 0e 3e b4 35 a8 3e 20 04 b9 3d
       0.1885236 0.13875768 0.32853472 0.0903399
000040 6d e1 73 3e ec 38 0e 3e 91 29 46 3e 20 32 89 3e
       0.23816462 0.13888901 0.19351794 0.26796055
000050 09 e7 3d 3e 94 ca dc 3e 56 9e 28 3e 15 3b 00 3f
       0.18545164 0.43123305 0.1646665 0.5009015
000060 1c fa 8c 3e e9 24 d1 3e 0c 00 9a 3e c8 fa f9 3d
       0.27534568 0.40848473 0.3007816 0.12206036
000070 31 ce a6 3e b1 ef 72 3e d5 3c 85 3e b6 73 03 3e
       0.32579187 0.23724248 0.26022974 0.12837109
