outputs/performance_test/checkpoint_epoch_16.pt (torch, 945914 bytes, 81 tensors)

encoder.lob_enc.conv_in.0.weight f4 [32, 2, 3, 1]
00000000: 641c e9bd 4a4a 9c3e 3204 80be 6eb0 95bd
00000010: 00e8 37bc f748 5dbe 845e 4f3c 6708 c5bd
00000020: 18cf 4ebe d507 a7be 7573 ffbb 6831 bf3e
00000030: cfb5 1d3e e268 a1be 8677 58be 074b 873e
00000040: dd3a 22be 437a 2fbd 9c7a 46be 8e37 4c3e
00000050: 1c24 8fbe faf2 c6be d2c7 a3be 0a78 b0be
00000060: f41d 4c3d c02e 963d 20c9 04be 3ab9 183e
00000070: 54aa 403d 7f07 c53d 5e12 563e f748 b93d
00000080: 3abb ca3e f3ef a03e 05f5 5fbe 2700 983e
00000090: 071a 44bd ec26 d6bc 42cb 093d 343b b9be
000000a0: 3b07 873e 06e7 853e edfd c53e 130c 893d
000000b0: 176c f3bd fa51 8dbd ada3 12be cffc c1be
000000c0: 2570 113e 8258 703d 370c 00be a304 74be
000000d0: cbcb bbbd 7f55 e73d 2b77 a03e 6cee 483e
000000e0: 3c2f 973e de31 a53e d800 44be 44e4 9fbc
000000f0: 6113 acbe cf68 68be 4c00 2c3e e260 203e
00000100: ba2f 3f3e c152 b73e 2d30 253e 5eab 51be
00000110: 699c b8bd 3cf0 ce3c 57e5 4f3e 6d2c 5cbe
00000120: a569 23be 2fff 1b3e fd9d 1b3e 4011 ca3e
00000130: f25c b43e d948 37be 35b2 1b3e 430b 74be
00000140: 2d88 1abc ddc9 b7bc c644 d33d 8b44 be3e
00000150: f4e3 aabe 6cb8 b83e 714c 8a3e f6b4 59be
00000160: a727 00be 0b8a d5bd 8b56 7d3e 599b e4bd
00000170: 5992 173e b719 2bbe dc20 aa3e dfe8 3bbd
00000180: 6425 cb3e 0c34 98be cb97 f2bd c9a3 883e
00000190: 0ac6 103e 6ad4 4dbe f6b2 b0be 0333 a1be
000001a0: 2b82 a7be f4a8 7dbe dd15 82be 7bbb f5bd
000001b0: 5b99 b23e 5a25 e4bd d967 84be 65c4 483e
000001c0: e0c7 79be 9147 56be 3169 6dbd a17a 0bbd
000001d0: 836a 89be a675 a4be bc9d d0be 0fa7 33be
000001e0: 73c1 473e b32d e23c 2efb a43e 30c0 763d
000001f0: de35 a1be 9603 c43c 41f8 ddbd cb8d 693e
00000200: 6d85 d23d 7294 ce3e 1371 bbbe 3040 4ebe
00000210: f7ba b1be 9f8a 093d e4b2 86be e52e 30be
00000220: 7315 c73e e810 11be 4a6f 453e a76a 8a3e
00000230: e2c7 993e 1f43 a53e 7b10 863e e967 343d
00000240: e1f8 b43e dc21 c83e 9172 8bbe 81c7 be3d
00000250: 0a5b 933e bce9 89be 42c0 3b3e 6a4d 893e
00000260: 8b4e 4fbb 4f7e d8bd cc75 07bd 7602 a93e
00000270: 5471 abbe 68ad 1c3e 10cf 6cbe 7338 873e
00000280: b7e3 35be 665c a43d 3c1d 7d3e 79e0 5fbd
00000290: f44d 3bbd 4473 b53e a9da c73e ef33 733e
000002a0: 1b88 923c c12c 3fbc d411 7fbe 8e32 8f3e
000002b0: 829c 2a3e 4766 ab3e 8971 8cbe 9b7e b93d
000002c0: b0bd 913d c78f 08be a734 5abd 20b0 983d
000002d0: 457f f2bd 7abd c23e 3206 bfbe 05af 86bd
000002e0: 3ddc 4cbe 8716 9b3e 4af8 12be f652 bbbd
000002f0: b96b b53e e687 b5be 1f3d 07be e6fd b43e
-0.11382368 0.30525428 -0.250032 -0.07309042 -0.011224747 -0.21609865 0.012656812 -0.09620743
-0.20196187 -0.32623163 -0.007795746 0.3734238 0.15401386 -0.31525332 -0.21139345 0.2642443
-0.15842767 -0.042841207 -0.1938271 0.19943067 -0.27957237 -0.3885725 -0.31988388 -0.34466583
0.049833253 0.073331356 -0.12967348 0.14914408 0.047037438 0.096205704 0.20905444 0.0904712
0.39595968 0.31433067 -0.21870811 0.29687616 -0.047876384 -0.026141606 0.033641107 -0.3617798
0.26372704 0.2615282 0.38670292 0.06691756 -0.11885851 -0.069004014 -0.1432025 -0.3788819
0.14202936 0.058678158 -0.1250466 -0.23829894 -0.0916973 0.11295604 0.31340918 0.196222
0.29528224 0.32264608 -0.19140947 -0.019518025 -0.33608535 -0.22696231 0.16796988 0.15661958
0.1867055 0.35805324 0.16131659 -0.20475528 -0.09014208 0.025261037 0.2030233 -0.21501322
-0.15958269 0.15234064 0.15196986 0.39466286 0.35227162 -0.17898883 0.152047 -0.23832421
-0.009431881 -0.022435123 0.10315852 0.3716167 -0.3337704 0.36078203 0.27011445 -0.21260437
-0.12515126 -0.1042672 0.24740045 -0.11162443 0.14801921 -0.16709028 0.33228195 -0.04587638
0.39676964 -0.2972721 -0.118453585 0.26687458 0.14138046 -0.20100561 -0.34511536 -0.3148423
-0.32716498 -0.24771482 -0.25407305 -0.1199865 0.34882626 -0.11139937 -0.2586048 0.19606169
-0.24392653 -0.20925738 -0.057961646 -0.034052495 -0.26839074 -0.3212101 -0.40745342 -0.17544197
0.19507389 0.027609682 0.32222885 0.060241878 -0.3148641 0.023927491 -0.10838366 0.22807996
0.10279355 0.4034763 -0.36609706 -0.20141673 -0.34712955 0.033579465 -0.26308358 -0.17205389
0.38883552 -0.14166605 0.19280735 0.27034494 0.3003531 0.32277772 0.2618445 0.04404441
0.3534613 0.39088333 -0.27235845 0.09315396 0.28780395 -0.26936138 0.1833506 0.26816875
-0.0031632509 -0.105709665 -0.033071324 0.3300969 -0.334849 0.15300524 -0.23125863 0.26410255
-0.17762648 0.08025436 0.24718183 -0.054657433 -0.04572864 0.35439503 0.39034012 0.2375028
0.017887166 -0.011668385 -0.24909145 0.27968258 0.16661265 0.3347647 -0.2743037 0.09057351
0.07116258 -0.13336097 -0.05327287 0.07455468 -0.11840681 0.38035184 -0.37309414 -0.06576351
-0.20005889 0.30290624 -0.14352527 -0.09146683 0.35433748 -0.35455245 -0.1320691 0.3534996

encoder.lob_enc.conv_in.0.bias f4 [32]
00000000: eadb 923e 141c eebd f851 9dbd 433a 47be
00000010: 7473 a53d d818 f53d ec32 8d3e 647f 373e
00000020: 0cdc 523e 9024 85bd f260 95be 0cd2 663e
00000030: b057 e8bb 9dc4 88be 589c 153d 38cf ce3e
00000040: 40fa 0cbd 069a aebe 0877 7c3e 986c 9b3e
00000050: e091 85be 27d0 b6be bb8c 95be 3ce0 2b3e
00000060: 1690 2bbe cf51 cdbe e0fc efbc 9264 54be
00000070: bc7c f7bd 89fc 24be 1c45 0cbe ea16 88be
0.28683406 -0.11626449 -0.0768165 -0.19455819 0.080786616 0.11967629 0.27577913 0.1791969
0.20591754 -0.06501114 -0.29175526 0.22541064 -0.0070905313 -0.26712504 0.036526054 0.4039247
-0.034418344 -0.34101886 0.24654782 0.30356288 -0.26087856 -0.35705683 -0.2920893 0.16784757
-0.16754183 -0.40101478 -0.029295385 -0.2074149 -0.12084338 -0.1611196 -0.13698238 -0.26579982

encoder.lob_enc.conv_in.1.weight f4 [32]
00000000: d7d7 803f 8ce7 803f bc07 813f 1ca6 803f
00000010: e631 803f 74df 7f3f 2d85 7f3f dc5c 813f
00000020: d5cc 803f d1a4 803f fc5b 7b3f 7321 7d3f
00000030: 638c 803f ebdf 7d3f 138f 7e3f 928e 803f
00000040: d45e 7d3f ae6e 813f eaf3 803f 1553 803f
00000050: c4ce 7d3f 5cd3 7d3f 92cf 803f 23ae 7e3f
00000060: 4c8a 803f 1dd5 7e3f d3c4 803f b160 813f
00000070: 8e77 803f c5e2 7f3f a1a0 813f 7ea9 803f
1.0065869 1.0070662 1.0080485 1.0050693 1.0015228 0.9995034 0.99812585 1.0106463
1.006251 1.0050298 0.9818723 0.98879164 1.0042843 0.99169797 0.99437064 1.0043509
0.9897282 1.0111902 1.0074437 1.0025355 0.99143624 0.99150634 1.0063345 0.9948446
1.0042205 0.99543935 1.0060066 1.0107633 1.0036485 0.999554 1.0127145 1.0051725

encoder.lob_enc.conv_in.1.bias f4 [32]
00000000: 85af a33b f81a b73b 7f87 083c 66ba 953a
00000010: 8b02 97bb 75ce 1b3c face 0e3c ade5 063c
00000020: 8905 cc3b 21d2 0e3c f9fa 43bc 9348 c7b8
00000030: 6e58 48bc 5101 2539 07f9 98ba 2cd3 2b3c
00000040: 7907 213b db38 113c e3e8 cd3b 828b 793b
00000050: 1f6e 1e3c 8e27 493a 0b9d ae3b cf3d 3a3c
00000060: ee2d 103c 850c b039 68ee c93b 1e61 1f3c
00000070: fd5c 213c 1657 8ebb c847 513c ebd7 ee3b
0.004995289 0.0055879317 0.008333086 0.0011423349 -0.0046084574 0.009509672 0.008716339 0.00823347
0.006226246 0.008717091 -0.011961692 -9.5025774e-05 -0.0122281145 0.00015736117 -0.0011670896 0.010487359
0.0024571104 0.008863653 0.006283866 0.0038077538 0.00966981 0.00076734356 0.0053287796 0.011367275
0.008800013 0.00033578664 0.0061624534 0.009727744 0.00984883 -0.0043438775 0.012773462 0.007288923

encoder.lob_enc.conv_in.1.running_mean f4 [32]
00000000: 4ef3 77cd 62eb 2ccd dcb8 5bcd 1601 66ce
00000010: e4b4 484d aaef 3b4e f791 ad4c cff4 33cd
00000020: 3cd8 c8cc e786 1e4e 6f6a 554d 04eb a8cc
00000030: 3b99 f94d a041 754d cc3c c4cc 4d24 8d4d
00000040: dc01 004d 22e4 8bce f10f 47cd baea 5bce
00000050: d117 564d be8b 154c 1566 abcd 865f 724e
00000060: d614 ce4d 27e3 de4d c1f1 2bcd 8551 444e
00000070: a62f bb4d 8b81 1ccd b47e 47cc 297a 4ecb
-2.5999485e+08 -1.813192e+08 -2.3039533e+08 -9.647077e+08 2.1045613e+08 7.882615e+08 9.100076e+07 -1.8869784e+08
-1.0530045e+08 6.649103e+08 2.2378264e+08 -8.85617e+07 5.234461e+08 2.5716992e+08 -1.0288496e+08 2.959958e+08
1.3422534e+08 -1.173492e+09 -2.0873192e+08 -9.2239834e+08 2.2449282e+08 3.920255e+07 -3.5944925e+08 1.0165866e+09
4.32184e+08 4.6742858e+08 -1.8029672e+08 8.234192e+08 3.9255776e+08 -1.6410846e+08 -5.22964e+07 -1.3531689e+07

encoder.lob_enc.conv_in.1.running_var f4 [32]
00000000: 2d68 a95b 37d7 435b 476d 985b f3c5 705d
00000010: 1fff 3e5b 3812 245d 8c7d ea5a fd4e 745b
00000020: ceeb 7a5a 9528 ea5c 71a1 955b 5755 985a
00000030: fc27 925c 7bac 9d5b c464 185b 4025 c35b
00000040: 9745 575b e5e9 af5d 46cf 9c5b d0aa 595d
00000050: 9860 855b c1af a85a 3e7f 1f5c da10 845d
00000060: 22c9 685c a961 665c 4892 335b ba31 2f5d
00000070: 5bf8 255c 377b 185b 52e8 aa5a 1f15 385b
9.536763e+16 5.512425e+16 8.58087e+16 1.0843463e+18 5.3760754e+16 7.3891085e+17 3.3001592e+16 6.8766743e+16
1.7657004e+16 5.2727812e+17 8.423456e+16 2.1439014e+16 3.2911448e+17 8.876243e+16 4.289499e+16 1.09857155e+17
6.0593635e+16 1.5844893e+18 8.827599e+16 9.802861e+17 7.508476e+16 2.374052e+16 1.795777e+17 1.1895432e+18
2.6209337e+17 2.593865e+17 5.054486e+16 7.890047e+17 1.8686576e+17 4.2919673e+16 2.4053092e+16 5.181462e+16

encoder.lob_enc.res_blocks.0.conv1.weight f4 [32, 32, 3, 1]
00000000: 3808 1bbd 196c 9abd 25d4 cabc 64e3 a3bd
00000010: d2ed 0abc 7eef 5c3d a621 7ebd 8811 09bd
00000020: 7667 febc 4c90 47bd 9581 aabd 8b3f 593c
00000030: b5ca adbc 1dc3 bfbb 189b 02bd b85d 94bd
00000040: 5aeb 3cbd 7b8e 3f3d 7245 703d 7d32 17bd
00000050: a9d7 533d 695b 9fbd a716 9bbc f7d7 ccbd
00000060: 87f3 fdbc f4a8 883c ffc2 453d ac81 df3c
00000070: af88 173d 15f1 e1bc 3b43 be3d ae44 b1bd
00000080: 0ee7 e4bc 368e f0bc d47e 653d 00a9 893c
00000090: a0cf af3d f62b a2bd b81d e03c db5b b8bd
000000a0: a9a3 c93c 899b 4dbd 25d2 79bd c352 db3b
000000b0: 7f01 02ba b034 bc3d e3fb 953d b93d bd3a
000000c0: 2b5a 163d daf0 463b 8cf6 d8bc 62d6 b4bd
000000d0: 72ae c2bd 2e33 5cbb ac3b 81bd d798 9b3d
000000e0: 4d31 68bd 1aff 533c 648b 7fbd 9fc9 b53d
000000f0: a7a4 2f3d 49e6 3c3d aa02 b93c 6755 bebc
00000100: 1c8b 4cbd 3b9a 65bd ac44 d3bd 6963 ebbc
00000110: 5e20 58bd cce5 a73d 63c7 b33d 87ce 95bd
00000120: f1ce e2bb 7dce bfbd 1f4d 373d adb8 8b3d
00000130: ffb6 82bd 61e5 9dbd 19ca 01bd d9b9 943d
00000140: ac15 783d 9a5b 84bd 460f bfbb 8ccb aabd
00000150: d2b2 aa3d 102f 0e3d 78a1 3ebd 0c75 f83c
00000160: 4eab e2bb db8f a7bd 2269 cfbd f561 af3d
00000170: 1e48 83bd dbe0 663d 3283 13bd e5f3 2c3d
00000180: 8721 e23c b3d0 303d 9656 73bd a523 1c3d
00000190: f4ac 2e3c 43bb 69bc f99d 4cbc 63c6 3abc
000001a0: e8a6 293d fee1 383d 80f1 62bd 9e74 9ebc
000001b0: c125 5ebc 44dd f6bc 7a71 5f3d e1d9 d13d
000001c0: f3fe 633d 697b 9fbc aeac 953d 7e30 d93d
000001d0: 6351 53ba 2450 983d e370 8b3c 9a88 23bd
000001e0: 1278 863c f9ab be3b 3193 473c 07bb 9bbc
000001f0: 6e60 8cbd 3d0c b1bd 22b0 6abd 8c23 813d
00000200: 2d17 ccbc 88e8 d5bd 9a5e a23d 5b2b ecbd
00000210: 4bd5 c53c db34 c93d ffc4 32bd b479 e63b
00000220: e832 cb3d a39d b33d 8a5b 9e3d a77a 0cbc
00000230: 066b 643d a22e 3e3d eeaf 853c 1053 bb3d
00000240: 4fbd e03c e5d0 a43d 6157 80bd 99a2 693c
00000250: 7f1b e4bd 2a1e 75b8 6d1c 8c3c f294 493d
00000260: 1f6f 093d 69c9 7cbd 7fa4 323d 95e9 f3bd
00000270: 7a0d b53d 8cfe 3b3d 2d00 0bbc f0cf 023d
00000280: 8d09 6b3d 9b1f 8bbd 56d1 533d 02ed 233c
00000290: a16b ad3d dbcf 3d3c 0f7b 923c ebad f23c
000002a0: 4726 b23d ff6d 94bd cadd 8b3d dded 8b3d
000002b0: 9c79 abbb 974b 88bd 908a 773d cb21 1d3d
000002c0: 7acd 30bd dae5 d13c 537c bebc a7eb 24bd
000002d0: e8c3 e33d e2df 413d dac4 563c 954c 723d
000002e0: 50cb 7a3d eade 2a3d b8f5 4a3d 70ed babd
000002f0: b643 2fbd 14fd bc3d 5ad9 e93c af86 ea3c
00000300: 330d 99bd 6aa0 73bd 3e78 35bd 8ef0 263d
00000310: 2819 46bd 5f65 9b3d 953a abbd 6cb8 03bd
00000320: 8f7d 903d 574b 4dbd 1eb2 d4bb 2b99 18bd
00000330: 9a13 043d c90c 61bd 5ac0 a3bd 56da 30bd
00000340: 9be5 193d 6963 00bd d36f a6bd fc32 f7bc
00000350: dd8a 3dbd b3b3 a73d 0ab1 e6bc 0077 fd3c
00000360: 91ed bd3d 99c7 a1bd 0213 163d 1137 153c
00000370: a993 a83d 8f4b 18bb f964 d23c 7fa9 cabd
00000380: f049 c43d 8058 8cbd 03a8 753d b64c b0bd
00000390: fdd7 943c e815 23bb d8d4 933d 4a31 cabd
000003a0: 9c67 aa3d ed34 c43d 98aa 803c c15d b03d
000003b0: e51e a03d cb02 133b b5c9 553d 69f5 193b
000003c0: 0749 bf3c 1b25 a1bd 8c05 16bd a8af 81bd
000003d0: 8ddd 8bbd efb1 96bd 6c15 57bd dd24 3038
000003e0: 917d a1bc fdbe 1d3d 3a0a 163d 021f 17bd
000003f0: 67f2 863d 368b 99bd 7a36 84bd 82ec bd3d
-0.037849635 -0.07540149 -0.024759362 -0.08002356 -0.008479552 0.053939335 -0.06204381 -0.033463985
-0.031055193 -0.048721597 -0.08325497 0.013259779 -0.021214822 -0.0058521167 -0.03188619 -0.07244438
-0.046122886 0.04676674 0.05865998 -0.036913384 0.05171934 -0.07781107 -0.0189317 -0.100021295
-0.030999912 0.016682126 0.048281666 0.027283512 0.036995586 -0.027580777 0.09290167 -0.08655678
-0.027942207 -0.029364686 0.056029156 0.016804218 0.08584523 -0.07918541 0.027357921 -0.09001895
0.024614172 -0.050197158 -0.060991425 0.0066932156 -0.00049593294 0.09189737 0.07323434 0.001443795
0.036707085 0.003035596 -0.02648475 -0.08829953 -0.09505929 -0.0033599841 -0.0631021 0.07597511
-0.056687642 0.012939239 -0.062388793 0.08876347 0.042881634 0.046118055 0.022584278 -0.023234082
-0.049937353 -0.05605529 -0.103158325 -0.028733926 -0.052765243 0.08198127 0.087782644 -0.073147826
-0.006921642 -0.093655564 0.044751283 0.068223335 -0.0638256 -0.07709766 -0.031686876 0.0726201
0.060567543 -0.06462784 -0.005830678 -0.08339605 0.083348885 0.03471285 -0.046540707 0.03032925
-0.0069173938 -0.08181735 -0.10127474 0.08563606 -0.0641024 0.056366783 -0.03601379 0.042224783
0.027603878 0.04316778 -0.059408747 0.03811993 0.010661352 -0.014265838 -0.0124888355 -0.011399838
0.04141894 0.045137398 -0.055406094 -0.019342717 -0.013558806 -0.030134805 0.05455158 0.10246635
0.05566306 -0.019468026 0.07308327 0.10604952 -0.0008061139 0.074371606 0.017021602 -0.039925195
0.016414676 0.0058188406 0.012181089 -0.01901008 -0.0685433 -0.086449124 -0.05729688 0.06305608
-0.024913395 -0.104447424 0.079282 -0.11531707 0.024149558 0.098245345 -0.0436449 0.007033551
0.09921819 0.08770301 0.077323034 -0.0085741645 0.055766128 0.04643119 0.016319241 0.09146702
0.02743402 0.08047656 -0.06266666 0.014259958 -0.11138057 -5.8440644e-05 0.017103398 0.04921431
0.03355324 -0.061715517 0.043613907 -0.119097866 0.08840461 0.04589705 -0.008483929 0.031936586
0.057382155 -0.06793138 0.05171331 0.010005238 0.08467794 0.011585201 0.017880945 0.029623946
0.08698707 -0.072475426 0.06829412 0.06832478 -0.005233003 -0.066550426 0.060434878 0.038362306
-0.043164708 0.025622297 -0.023252642 -0.040263798 0.111213505 0.047332652 0.0131084565 0.059155066
0.06122905 0.041716494 0.049550742 -0.09127319 -0.042789184 0.09227958 0.028546024 0.028628675
-0.07473221 -0.059479155 -0.044304125 0.040756755 -0.048363835 0.075876944 -0.08360783 -0.0321583
0.070551984 -0.050120678 -0.00649096 -0.037255447 0.032245256 -0.054943834 -0.079956725 -0.04317697
0.037572484 -0.031344805 -0.081267975 -0.030175678 -0.04627501 0.08188572 -0.02816059 0.030940533
0.09273828 -0.07899398 0.03663922 0.009107367 0.08231289 -0.0023238396 0.025682913 -0.0989561
0.09584415 -0.068528175 0.05997468 -0.086083815 0.018169397 -0.0024884883 0.07218331 -0.098726824
0.08320543 0.09580407 0.015706345 0.08611632 0.07818393 0.0022432085 0.052194316 0.0023492223
0.023350252 -0.078684054 -0.036626384 -0.06332332 -0.06829367 -0.07358157 -0.052510664 4.1996e-05
-0.019713195 0.03851222 0.036630847 -0.036894806 0.06589203 -0.074972555 -0.06455703 0.09273626

encoder.lob_enc.res_blocks.0.conv1.bias f4 [32]
00000000: 57aa 0abe 23ca 0dbe 3549 f6bd f7b5 60be
00000010: 27ef 65be d829 2abe 9545 53be 51e9 91bd
00000020: 99cc 34be 80cc 18be f27a e5bd 894f e1bd
00000030: 7f1d 57bd c1fd 01be 26ac b7bd 667c d6bd
00000040: 12ad 25bd dbbf d2bd ef5f bbbd eec9 f7bd
00000050: dd01 a7bd c48c 05be daed 33be 1611 32be
00000060: 5446 82bd b6b1 f5bd 0198 c4bc ff37 6dbd
00000070: 3a68 3abd 6a74 06be 670b aabd f4ad d8bd
-0.13541542 -0.1384664 -0.12025682 -0.21944414 -0.2245451 -0.16617525 -0.20632012 -0.0712458
-0.17656173 -0.1492176 -0.112050906 -0.11001498 -0.052518364 -0.12694456 -0.089683816 -0.10472946
-0.040448256 -0.102905 -0.09149157 -0.12099062 -0.08154652 -0.13041979 -0.17571202 -0.1738933
-0.0636107 -0.11996786 -0.023998262 -0.05791473 -0.045509554 -0.13130346 -0.08302956 -0.10580054

encoder.lob_enc.res_blocks.0.bn1.weight f4 [32]
00000000: e565 7e3f 08ce 7f3f 374b 803f c7cc 7f3f
00000010: 060d 7c3f 3aad 803f 14f8 7d3f b166 7f3f
00000020: 5aa4 7e3f 9663 7f3f 4b91 7e3f 8c65 803f
00000030: 171f 803f f728 7f3f d315 7f3f e80a 813f
00000040: 2a43 7e3f 5447 813f 62b8 7d3f 00d4 7b3f
00000050: d7a2 803f 1300 7d3f d7a6 813f 7499 803f
00000060: a803 813f 7b61 813f f691 803f f82d 813f
00000070: 2e64 7e3f 6bf8 803f a4c2 813f e212 813f
0.9937423 0.99923754 1.0022954 0.9992184 0.9845737 1.0052865 0.9920666 0.9976607
0.9946953 0.9976133 0.9944045 1.003099 1.0009488 0.9967188 0.99642676 1.0081453
0.99321234 1.0099893 0.9910947 0.9837036 1.0049695 0.9882824 1.012904 1.004683
1.0079241 1.0107874 1.0044544 1.0092154 0.9937161 1.0075811 1.0137525 1.0083888

encoder.lob_enc.res_blocks.0.bn1.bias f4 [32]
00000000: b7bd d23b 5d02 3b3b 3c00 52ba 64b6 993b
00000010: 54d4 563b 3773 223c ceff 153c 30d4 153c
00000020: 818e 5cbb 5d64 9a3b 2510 0dbc e2c3 523c
00000030: b44e e43b 73f5 8b3b 6b6e a63b 5ef5 873a
00000040: a03b 713a 255f 033c 7533 9339 1a65 64bc
00000050: 6cf7 363c d542 5f3a 2446 453c 9bd2 2e3c
00000060: 89d1 183c 2f30 653b 2ca2 f13b 6446 803c
00000070: a35e 6ebb 5c0c 3e3c 0c13 433c b4f2 a63b
0.006431307 0.0028535344 -0.0008010899 0.004690932 0.0032780366 0.009915165 0.009155227 0.009144828
-0.0033654275 0.0047116713 -0.008609806 0.012864085 0.00696739 0.004271203 0.005079081 0.0010372808
0.0009202305 0.00801829 0.00028076363 -0.01394012 0.011167388 0.00085167337 0.012040649 0.010670329
0.009327301 0.0034971347 0.0073740687 0.015658565 -0.0036372326 0.011599626 0.011906397 0.0050948504

encoder.lob_enc.res_blocks.0.bn1.running_mean f4 [32]
00000000: edc4 ebbe 7867 9a3e 731e eabe 527a 0cbf
00000010: cdbe acbe 2384 f8be a1c4 2fbe ef61 aa3c
00000020: 200e 3ebe c066 a2bd 347a a33e 5eb0 bb3e
00000030: 6313 82be d976 3abe 797a ccbe ab0e 913e
00000040: 3291 eebc c868 cbbd c6fe 7ebd f216 73be
00000050: 3ed3 13be 61ac 773d c3c4 b8be f784 ddbe
00000060: 32f6 b0bd 75bd 26bf 1a6c bdbd d246 96be
00000070: 70dd c3bd 7693 3abe 480a 6bbe 2db4 123e
-0.4604868 0.30157065 -0.45726356 -0.54874146 -0.3373932 -0.48538312 -0.17164852 0.020798652
-0.18560076 -0.07929754 0.3192917 0.36657995 -0.25405416 -0.182094 -0.3993719 0.28331503
-0.029121969 -0.09932095 -0.06225469 -0.23739222 -0.14436051 0.060467128 -0.36087617 -0.43265507
-0.08640708 -0.6513284 -0.09249134 -0.29350907 -0.0956372 -0.18220314 -0.2295314 0.14326544

encoder.lob_enc.res_blocks.0.bn1.running_var f4 [32]
00000000: edd7 633d ea86 123f 12cf 8a3d 475d 983d
00000010: 16a3 703d 338e 693d 0925 9b3e d562 c73d
00000020: 7631 8d3e 7d51 233e 9c2c d23e 26bd a83d
00000030: d887 2b3e e183 313d 3a2e 953d d9f0 8a3d
00000040: 58b4 a43e 218e 843e 8b90 e03d 7619 e63d
00000050: 77f3 e63d d64c 943e 11dd 003e ad69 f93e
00000060: 8230 243e 0e09 c43d 51a5 573e 5554 d53d
00000070: 80d7 f13c 95aa a53e 98ad ac3d 777a 853d
0.055625845 0.5723711 0.06777777 0.07439666 0.05874928 0.057020377 0.30301693 0.097356476
0.27576798 0.15949054 0.4104966 0.08239202 0.16751039 0.04333866 0.07284208 0.06784219
0.3216884 0.25889686 0.109650694 0.11235325 0.11276906 0.2896487 0.1258433 0.48713437
0.1603413 0.095720395 0.21059157 0.10416476 0.029521704 0.32356706 0.08431548 0.06517499

encoder.lob_enc.res_blocks.0.conv2.weight f4 [32, 32, 3, 1]
00000000: 4a81 943c 9772 f43c c25d 88bd a870 ac3d
00000010: 62a0 f93c fdea fdbc f838 a1bd 91fa 7cbd
00000020: 4956 89bc b209 5c3c 8c56 0f3d 6240 cc3d
00000030: cbe2 933d e489 0dbc c3d6 8bbc 8da4 a93d
00000040: 2f55 30ba 806d 663c d79d 30bb 380f b73d
00000050: 0f23 773d e83b 163d d264 e43c 22bf a6bc
00000060: 2689 e63c 082c a0bd 551b 96bd a8ab 003d
00000070: 0275 bd3c 09ac 82bd 7a64 113d 81c0 1d3d
00000080: f6e5 483d 992d 2dbd 7608 5dbd a111 ca3a
00000090: 2f17 58bc 4d54 41bc 6a06 a5bd efca 993d
000000a0: 0c56 ba3d e1d3 43bd 59e2 983d 10d3 ad3c
000000b0: 7904 e13c 43bc edbb e98b c13d b52c bebc
000000c0: 48c4 883c 1389 eabb 2e8b af3b 1154 36bd
000000d0: 64f9 85bd 7a21 8c3d cf22 c5bd d62b 8dbd
000000e0: c1d4 b33d 3a0d 49bd 36df 31bc f7ac c8bd
000000f0: a5d9 e3bc 0bb3 32bd dfa4 1f3d 518d 433d
00000100: 05a1 b43d 22e8 13bd 7d4e c53d c2ca 263d
00000110: b239 b1bd cbd2 b2bd c8b9 41bc 0bea bb3d
00000120: adb2 ca3a 6ce3 79bd 6a43 793d c167 dabd
00000130: 9210 953d 3478 20bc c8eb fd3b e463 0ebd
00000140: 2a48 863c c9e7 feba 0f96 9b3d 762f ae3d
00000150: 45a6 293d 5139 81bc 04aa 82ba a353 81bd
00000160: 8d3e 803d 88dc b7bc 4200 cabd 43e0 00bd
00000170: ae7b 92bd c21e a5bd 8214 973c 4859 203c
00000180: eda7 52bd f675 8ebd c396 1d3d 7638 be3c
00000190: 6493 913d 7657 643d a666 57bd 561d 823d
000001a0: 605a a3bd a848 a7bd 05f3 493d 2b97 c83d
000001b0: f73d 533d 6a7d db3a 3ba9 35bd 3677 d93d
000001c0: 8b95 7cbd 696f c53d cfd3 89bd 1ff0 cbbd
000001d0: 1c20 a5bb 8690 003d eca6 a9bd 7126 ecbc
000001e0: c7d5 23bb c63b e5bb 3971 42bd 3326 c13d
000001f0: bfde 93bd 782b 8a3d e4b0 023d 756d 26bd
00000200: 1fb9 3f3d 0f11 a4bd a73c 85bd 77b0 783d
00000210: 1bde 44bd 4b3c 5d3d 13c8 b9bd e795 993c
00000220: 82c6 bcbd 1b44 513d 0a17 d33d 590d 8a3d
00000230: d7c0 0f3d 59c9 853d b402 b93d de20 673d
00000240: 6f0a 393d e038 0a3d 0364 d23c 62d3 793d
00000250: bd72 983d b4fc 15bd 2189 713c ef83 4b3d
00000260: 706d acbd af5f 94bd cce3 bdbc b0ff 9b3c
00000270: 34ce 883d 09ea 613d 5350 5f3d 5615 acbc
00000280: 3268 cabc 9740 c7bd c09b bd3b 9dcb e1bc
00000290: 1dca 9cbd 8153 303d 4828 673d 8fd5 d33c
000002a0: a876 98bd 9c3d f2bc a601 c2bd 0002 d7bb
000002b0: 95f4 8b3d ece8 c03d 7bad b5bd a0be bcbc
000002c0: db05 62bd e8ce 9d3d 4bde d33d 93dc acbd
000002d0: d932 14bd 6c8a 683c 390f b3bd 4bc0 d5bd
000002e0: 2f1e 90bd 4211 913d 3982 823c 72ba 4dbd
000002f0: 74e4 a0bc 7037 bd3d b4c0 c3bd a790 233d
00000300: 6bf3 61bc dfe4 ddbd b7a6 9b3d a972 6ebd
00000310: b144 913d 923d 5bbb 8914 873c af35 b1bc
00000320: e0b4 b9bd 12f6 2e3d b4a1 2dbd 0016 f13c
00000330: 71d0 af3d 2bab 21bd 3417 d13a 50e7 ed3c
00000340: 1e51 29bd e451 163d ff2e 5dbd 8e76 8f3d
00000350: c72b e7bc 29a5 76bc e7f1 2dbd d30a 3eba
00000360: 8c6f 763d 2769 043c 3c09 3ebd 3311 ca3d
00000370: 58f9 bf3d cb68 17bd 737e 88bd 7b05 a8bd
00000380: e7e3 f23b 5b27 cd3d a4db 163d 7428 3a3d
00000390: 88e6 d9bd e9b8 f83c 7507 273d f359 14bd
000003a0: 4b3a 95bd e689 d2bc 3fec bfbd bfef af3d
000003b0: 23d3 8bbd f99b d13d f969 bbbd 7da2 9e3d
000003c0: edd7 52bd 3385 b6bd 30db 933c e83f d53d
000003d0: 436f 1ebd 63ea cb3c e313 99bd 3c6e 663d
000003e0: 383e a43d b575 2dbd 4e7e ac3d 8537 263d
000003f0: 6b35 973b c90b 58bd baf4 6f3d 4353 d9bb
0.018128056 0.029839797 -0.06658508 0.08419925 0.030471984 -0.03099584 -0.07872194 -0.061762396
-0.016764777 0.013430046 0.034994647 0.099732175 0.07220992 -0.008638833 -0.01707018 0.08283339
-0.00067265605 0.014064193 -0.0026949549 0.089384496 0.06033617 0.036678225 0.027880106 -0.020354811
0.02814157 -0.07820898 -0.07329432 0.031413704 0.023127083 -0.06380469 0.035496213 0.038513664
0.049047433 -0.042279813 -0.053963147 0.0015416631 -0.013189121 -0.011799884 -0.08057864 0.0750941
0.090984434 -0.047809485 0.074650474 0.021218807 0.027467953 -0.0072551086 0.09450514 -0.023214677
0.016695157 -0.007157454 0.0053571677 -0.044513766 -0.06541708 0.06842323 -0.0962578 -0.06893127
0.08780814 -0.04908488 -0.01085644 -0.097986154 -0.027813742 -0.04362778 0.038975593 0.04774219
0.088197745 -0.03611005 0.09634111 0.04072071 -0.08653583 -0.08731612 -0.011824079 0.091754995
0.0015464626 -0.061007902 0.060855307 -0.10664321 0.07278551 -0.009794284 0.0077490546 -0.034763232
0.016391832 -0.001944774 0.07596981 0.08505146 0.041418333 -0.0157744 -0.0009968881 -0.063147806
0.062619306 -0.022444025 -0.098633304 -0.031463873 -0.07152496 -0.08062507 0.018442396 0.009786911
-0.051429678 -0.06956093 0.038473856 0.023220282 0.07108191 0.05574747 -0.052588128 0.06353252
-0.07976222 -0.08168155 0.049304027 0.09794458 0.051572766 0.001674575 -0.044350844 0.10618441
-0.061666053 0.096403904 -0.067298524 -0.09957909 -0.005039228 0.03138783 -0.08283791 -0.028826924
-0.0024999247 -0.006995651 -0.04747126 0.09431114 -0.0722022 0.06746572 0.031906977 -0.04063173
0.046807405 -0.08011066 -0.06505709 0.060715165 -0.04806338 0.054012578 -0.09071364 0.018748237
-0.0921755 0.05109034 0.10307129 0.06740827 0.035096016 0.06532545 0.09033719 0.05642783
0.045175966 0.033745646 0.025682455 0.060992606 0.074437596 -0.03661795 0.014742167 0.04968637
-0.08419311 -0.07244813 -0.023179911 0.01904282 0.06679955 0.055154834 0.054519963 -0.021006268
-0.024707887 -0.097291164 0.005786389 -0.02756291 -0.076557375 0.043048386 0.0564349 0.025858669
-0.07444507 -0.029570393 -0.09472971 -0.0065615177 0.0683376 0.09419426 -0.088709794 -0.023040116
-0.055181365 0.0770548 0.103451334 -0.08440509 -0.036181305 0.014193159 -0.08743138 -0.104370676
-0.07037007 0.0708337 0.015931236 -0.050226636 -0.019640185 0.092390895 -0.095582396 0.039932873
-0.0137909455 -0.10834669 0.07600158 -0.058214817 0.0709318 -0.0033453447 0.016489284 -0.021632044
-0.09067702 0.04271514 -0.04239054 0.029429436 0.08584679 -0.03946988 0.001595235 0.029040962
-0.041337125 0.03669919 -0.053999897 0.070050344 -0.028219117 -0.015054026 -0.042467024 -0.0007249538
0.060164973 0.008081711 -0.046395525 0.09866562 0.093737304 -0.036965173 -0.06664743 -0.0820417
0.007412422 0.10017272 0.03683056 0.045448735 -0.106396735 0.03036161 0.040778596 -0.036218595
-0.07286509 -0.02570052 -0.09371232 0.0859065 -0.068273805 0.102348275 -0.09151072 0.07745836
-0.051475454 -0.089121245 0.018048853 0.1041258 -0.038680326 0.024892038 -0.07474496 0.05625747
0.0801968 -0.042348582 0.08422528 0.04058029 0.004614522 -0.052745614 0.058583 -0.00663224

encoder.lob_enc.res_blocks.0.conv2.bias f4 [32]
00000000: 642e c1bd 2380 06be 7efb 06be 4221 d3bd
00000010: 5c6e f1bd 408d 1abe a82a 20be 5b49 2abe
00000020: 12ea 11be b526 53be 8448 28be b3dd 0cbe
00000030: 8544 31be 0590 dbbd f8fa c1bd 5d11 d1bd
00000040: c494 37be 5355 00be aafd 37be eef6 85bd
00000050: 7cd9 32bd 485c 85bc e92f 25be 12a6 42bd
00000060: 1277 ecbd 8957 0dbe 558c 7ebd 464a 48be
00000070: 650f 4ebe e22b 30bd 026f c3bd c8ee 87bd
-0.094326764 -0.13134818 -0.13181874 -0.10309078 -0.117886275 -0.15092945 -0.15641272 -0.16629545
-0.14249447 -0.20620234 -0.16433913 -0.13756447 -0.17311294 -0.10720829 -0.094716966 -0.1020839
-0.17927843 -0.12532549 -0.17967859 -0.06541239 -0.04366444 -0.016279355 -0.16131558 -0.04752166
-0.11546148 -0.13802923 -0.06214555 -0.19559583 -0.2012306 -0.0430106 -0.095426574 -0.06637341

encoder.lob_enc.res_blocks.0.bn2.weight f4 [32]
00000000: 10aa 7d3f 3172 803f 901d 813f 8cc0 7d3f
00000010: 14ea 803f 4b05 803f 38ff 803f 82db 803f
00000020: 6390 803f 51d2 803f 5404 803f f197 7f3f
00000030: 8cf9 803f 75b5 803f e3a1 7e3f 1fe1 803f
00000040: e514 803f 17d9 7e3f 68d0 803f eb36 803f
00000050: 520f 803f f8c1 803f 247a 7f3f 0e24 813f
00000060: 8ccf 803f 9d20 803f 7b44 813f 1428 813f
00000070: 02cf 803f dcb7 7e3f e205 813f 701c 813f
0.9908762 1.0034848 1.0087147 0.9912193 1.0071435 1.0001615 1.0077887 1.0066988
1.0044063 1.0064183 1.0001321 0.9984122 1.0076156 1.0055376 0.9946577 1.0068702
1.0006377 0.9955 1.00636 1.001676 1.0004675 1.0059195 0.99795747 1.0089128
1.0063338 1.0009953 1.0099024 1.0090356 1.0063174 0.994993 1.007992 1.0086803

encoder.lob_enc.res_blocks.0.bn2.bias f4 [32]
00000000: f855 ad3b bb58 61b9 85e7 173c d815 8ebb
00000010: 4725 013c 0acc 913b d38c 0d3c f0fb 1b3c
00000020: d001 093c 4234 ea3b 8632 ddbb d2a2 693a
00000030: 2b97 b23b fa05 863b 806d 07bc dfd2 ee3b
00000040: 7197 283b 8587 6dba e751 123c e978 833a
00000050: 1618 a9ba 63a5 f83b 03f7 2fbb 0da1 eb3b
00000060: 8948 f83b 3b09 6c3b 4c79 e73b c26e 163c
00000070: 6c3e e93b 8497 08bc 31e2 1d3c 32bd 1b3c
0.0052897893 -0.00021490727 0.009271507 -0.0043361 0.007882423 0.004449372 0.008639532 0.009520516
0.008362249 0.007147343 -0.0067504076 0.0008912507 0.0054501495 0.004090068 -0.008265853 0.0072883214
0.0025725032 -0.00090610265 0.00893066 0.0010030541 -0.0012900855 0.007588075 -0.0026850111 0.0071908296
0.0075770062 0.0036016244 0.0070640203 0.00918168 0.007118037 -0.008336905 0.009636448 0.009505557

encoder.lob_enc.res_blocks.0.bn2.running_mean f4 [32]
00000000: 506d 37bd bf4c aebd d2d4 50bd 5fc3 bdbc
00000010: 2474 48be d547 ba3d c39d f0be e8a5 883d
00000020: 0baa a239 08d3 58bc 3f01 b2be 14d3 5dbe
00000030: c36a 48bd ee78 96be 51bb 493e 9eb1 86be
00000040: 70b8 5ebe 5c5e a13d 7594 b7be 813b 4cbe
00000050: a328 bcbe 20ee ea3d ec05 92bc 1cad 48be
00000060: 619b ffbe 27f7 76be d219 0a3d 164b 17bd
00000070: 1739 7fbe 5938 3f3d 701c d9bd a9a8 3bbd
-0.044781983 -0.08510732 -0.05098421 -0.02316445 -0.19575554 0.09095732 -0.46995363 0.06672269
0.0003102574 -0.0132339075 -0.34766576 -0.21662551 -0.04892994 -0.29389137 0.19700362 -0.26307386
-0.21750045 0.07879326 -0.3585545 -0.19944574 -0.36749753 0.114712 -0.01782509 -0.19597286
-0.49923232 -0.24117719 0.03371603 -0.036936842 -0.24924122 0.046684597 -0.10601127 -0.045815144

encoder.lob_enc.res_blocks.0.bn2.running_var f4 [32]
00000000: be36 5b3d d32d 523d 3ec9 2f3e 6f30 d83d
00000010: 14c1 993d 1a89 bb3d 3e3f 2d3e d84d 603e
00000020: 4aa0 0c3e f085 c23d bbc0 093e bf6d 633d
00000030: ad69 cf3d c304 843d dc0c 693d 6dd3 693e
00000040: 345a 813d 1e60 e93d 1bef 143e d38e 573e
00000050: 4198 843e fc43 463e 82d9 763e bdf1 133e
00000060: d42e c23d ab24 a13d 5f7e 9f3d 21ad 8a3e
00000070: 8405 113e d509 f13e af4c 863d 18cb 0b3e
0.053519003 0.051313233 0.17166612 0.10556113 0.0750753 0.091570094 0.16918656 0.21904695
0.1373302 0.09498203 0.13452427 0.055524584 0.10127578 0.06446221 0.05689703 0.22834559
0.06316033 0.11395286 0.14544336 0.21050577 0.2589741 0.19361871 0.2410641 0.14447685
0.09481588 0.07868322 0.07787775 0.27085212 0.1416226 0.47077814 0.06557595 0.13651693

encoder.lob_enc.res_blocks.1.conv1.weight f4 [32, 32, 3, 1]
00000000: a0da bcbd 2771 663c 4cba 3a3d 412c 0ebd
00000010: 7422 aabd 653b 8c3d 0cf2 983c b348 3b3d
00000020: ad35 b43d 1f8b cdbd 1b69 813d ce89 42bd
00000030: d750 223d 6783 7c3d 0e76 9d3d 0d76 eb3c
00000040: fe94 d93b e8ae a9bb 8572 24bd cd4e 473d
00000050: 1e79 9d3d 3256 c5ba 2193 b9bd 107b fbbc
00000060: 0bcd 23bd 8d02 373d f95b aebd 5486 1ebd
00000070: 1c54 85bd b2b4 b4bd c263 13bd 01c8 a33d
00000080: d32b 663d b095 ab3d 3a16 c33b d2c0 833d
00000090: aa71 2c3d 7cee 8a3d dff8 4ebc cb36 bd3d
000000a0: 2596 72bc 99cd e2bc 6c60 263d 4ebd 1a3d
000000b0: 50ae 89bd 7e2e 1fbd faeb c6bd 5fce b93d
000000c0: c56c e93c f612 a83d 895d b0bd 238c ba3d
000000d0: 021d be3d 5a45 b23d cc6b 8fbd 4959 c93d
000000e0: 4a2a b7bd b8a1 a1bd 8ac6 24bd bb30 c03d
000000f0: f923 ccbc 1263 0e3d 44d8 51bc ce27 2b3d
00000100: dd24 de3c 921c 913d 7e05 3e3d 4f7b 933d
00000110: 52a1 a63d 37fa c13c 610d 483d fdd5 af3d
00000120: 13a3 443d 869a edbc 6c27 923d 566a 613c
00000130: aa7a 7a3d 3736 06bd 60b5 cebd 85f0 88bd
00000140: b62a 5cbc 2a4c 91bd 4a88 49bd ef9b 393d
00000150: cb2a 043d 2942 06bd 94e4 fabb d519 dbbd
00000160: d1e1 5dbc 959f d3bb 3864 7cbd 06f4 b03d
00000170: 9aed 60bd 008a b73c 6e39 60bd 55e2 183d
00000180: cb52 b2bd a4cd e1bb 9e7d 023d 2808 9e3d
00000190: 973d 1f3b 8d9a 2a3c ed03 963c 7b79 34bd
000001a0: 84a2 d83c e1d0 bbbd 1382 22bd 555c f7ba
000001b0: 2833 07bd e86f 363d 1ab8 8abd 14cc 043d
000001c0: df0d 82bd 4bf2 afbd fa3d dcba dbcb b2bb
000001d0: 78b2 38bd d45d d63d b559 febc e3a3 7ebc
000001e0: 907e fe3b 7206 22bd 9bc0 df3c 1fe4 c13d
000001f0: cba0 68bb 7880 36bd 8659 7d3d 5b27 703c
00000200: f5de 543d 0cbb b2b8 f079 82bd 1caa 9bbd
00000210: 2daa 13bd dbf3 b3bd ede2 b6bd c206 643d
00000220: a1af 37bc a34f 90bb f655 afbd 4859 583d
00000230: 245e 953d 7ea6 893d b0e9 72bd 20a3 1f3c
00000240: c4a4 58bd ad6b 413d a6f8 5e3d a492 7dbd
00000250: d6e2 acbd 31a0 a0bd 8da7 253d f230 c33c
00000260: 7827 893d 48c3 95bc 07b2 a23d 7665 b73d
00000270: 46ae a2bd 082b afbc b2f1 7d3c b082 8d3d
00000280: 216d c7bd d063 3a3d d89c 8c3a 9e93 943d
00000290: 5796 cdbd c761 873d aa32 733d a65a 8fbb
000002a0: bbac 0cbd 29a3 4f3d 275e edbc 0644 d2bc
000002b0: ef91 84bd 566c c23d 057d 853d 0e4b 923c
000002c0: 643c 5e3b a738 93bd bc0d 9c3d 1b28 1c3d
000002d0: 86cc 053d 7052 2c3d 4e70 abbd 4408 fdbc
000002e0: f4c2 943d 1af8 06bd 7558 ae3d d7bc 89bd
000002f0: 863e 8e3d 2393 d23d db1c b8bd b4fb 8b3d
00000300: f7a2 683c 6d7e 2c3d af21 28bd db24 9f3d
00000310: 19e8 c93c 774f 91bd 80e2 cf3d e472 ca3b
00000320: 3c37 28bc 101b ea3c 730f 8d3c 683f b9bd
00000330: 3000 b33d e24b a1bc b893 b33c a383 d8bc
00000340: f4a5 cdbd 8aa8 c0bd cc90 13bd 7a8a 05bd
00000350: 58b4 a63d d37e 8e3c 61bc df3d 91e4 b43d
00000360: 8e44 443c 5096 0dbd 5b5a 8b3b 235a 2fbd
00000370: c2bd d3bd 4de0 b73c 3e95 023d 04e3 26bd
00000380: a153 9e3d 1c10 42bc ea9c cfbc b462 27bd
00000390: 6c59 c33d b130 663d 923f 8cbd 80ca a5bd
000003a0: ffbd b0bd 534c b03d bc70 ab3d 6671 573d
000003b0: 3c70 483d ce1d 96bd 0b5d 8b3d ab02 67bc
000003c0: 21de 15bc e416 873b 17ee 0abd 5e27 c03d
000003d0: dca4 543c b09f 903d 36ff 86bd f5bf babd
000003e0: 9bbd 00bd e610 ce3c 7190 96bd eac9 63bd
000003f0: 40d3 d63c 334d b33d d677 a13d f3ac ba3d
-0.09221387 0.014065064 0.045587823 -0.034710173 -0.08307353 0.06847266 0.018670104 0.04572363
0.087993 -0.10036301 0.063188754 -0.047494702 0.039627876 0.061648753 0.07688533 0.028742814
0.0066400757 -0.005178321 -0.040148277 0.048659135 0.07689117 -0.0015055595 -0.09061266 -0.03069833
-0.039990466 0.044680167 -0.08513636 -0.038702324 -0.06510183 -0.088235274 -0.03598381 0.07997132
0.056194138 0.0837816 0.0059535773 0.06433262 0.042100586 0.067837685 -0.012632578 0.092389666
-0.014806305 -0.027685927 0.0406193 0.03777819 -0.067227006 -0.038862698 -0.09712978 0.09072565
0.028494248 0.082067415 -0.086115904 0.0910876 0.092828766 0.08704634 -0.070029825 0.09831483
-0.08943613 -0.078921735 -0.040228404 0.093842946 -0.024919497 0.03476245 -0.012807909 0.041786008
0.027117187 0.070855275 0.046391957 0.072012536 0.08136238 0.023678882 0.048840884 0.08585737
0.048007082 -0.029004347 0.071364254 0.013758263 0.061152138 -0.032766547 -0.10093188 -0.066865005
-0.013437917 -0.07094605 -0.04920224 0.045314725 0.032267373 -0.03277794 -0.007656643 -0.106982864
-0.013542608 -0.0064582326 -0.061619014 0.08640294 -0.054914095 0.02240467 -0.05474227 0.037325222
-0.08707198 -0.0068909694 0.03185808 0.077163994 0.0024298185 0.010412824 0.018312419 -0.044061165
0.026444681 -0.091707 -0.03967483 -0.0018872122 -0.03300777 0.044540316 -0.06773396 0.032421187
-0.06350302 -0.085911356 -0.0016803138 -0.0054564304 -0.045092076 0.10467115 -0.031048635 -0.015542003
0.0077665523 -0.039556928 0.027313521 0.09467339 -0.003549623 -0.04455611 0.061852954 0.014657821
0.05197044 -8.5225416e-05 -0.06370914 -0.07600805 -0.036050964 -0.08786746 -0.089300014 0.055670507
-0.011211307 -0.0044040247 -0.085613176 0.05281952 0.072933465 0.06721209 -0.059304893 0.009743482
-0.052891508 0.04722183 0.05443635 -0.061907426 -0.08441703 -0.07843054 0.040442992 0.02382705
0.06696981 -0.018281594 0.07944112 0.08954899 -0.07943396 -0.021382824 0.015499519 0.06909692
-0.097376116 0.045505345 0.0010727895 0.07254718 -0.10038441 0.066104464 0.05937449 -0.00437482
-0.034344416 0.05069271 -0.02897556 -0.025667202 -0.06473147 0.0949332 0.06517986 0.017858054
0.0033910507 -0.0718854 0.07619807 0.038124185 0.032665752 0.042070806 -0.0837103 -0.03088773
0.07263747 -0.03295145 0.085129656 -0.067254715 0.06945519 0.1028197 -0.08989879 0.06835118
0.01419901 0.042112757 -0.04104775 0.077707015 0.024646806 -0.07095235 0.10150623 0.006178247
-0.010267075 0.028577358 0.01721928 -0.09045297 0.0874027 -0.019689504 0.021921024 -0.026429957
-0.10041419 -0.09407146 -0.03602676 -0.032602765 0.081398666 0.017394459 0.10924602 0.08832658
0.011979235 -0.034567177 0.0042527146 -0.04281057 -0.10338928 0.022445822 0.03188061 -0.040743843
0.07730795 -0.011844661 -0.025343377 -0.040865615 0.0953854 0.05619878 -0.068480626 -0.080952644
-0.08629989 0.08608308 0.08371112 0.05259838 0.04893516 -0.073299035 0.06804856 -0.014099757
-0.009147198 0.004122602 -0.033918466 0.09382509 0.012978759 0.07061708 -0.065916464 -0.09118644
-0.031430822 0.025154542 -0.07351769 -0.055612482 0.026223779 0.08754959 0.07884185 0.09115019

encoder.lob_enc.res_blocks.1.conv1.bias f4 [32]
00000000: c0f5 cbbd e2a6 95bd 13f9 0ebd fd9c cabd
00000010: c5f4 1ebd 62f2 b1bd d9f2 37be 8cfa 0bbe
00000020: 62e5 2cbe 4178 5abd ecdf dfbd 6153 58be
00000030: c885 cfbc 422c 9ebd 49ac 04be 7e54 55be
00000040: 4c8c 2fbe 287f 73be c46d 5dbe 9cd5 9cbc
00000050: 341c 0dbe 74c8 f0bc a38e 97bd 3c34 2abd
00000060: d191 a9bd 8b29 47be 9a81 64bd 03ee 63be
00000070: f05e c1bd 086b c6bd 843d 8ebd 383d 55be
-0.099589825 -0.07307221 -0.034905504 -0.098932244 -0.03880765 -0.08688809 -0.17963733 -0.13669795
-0.16884378 -0.05333734 -0.109313816 -0.21125557 -0.025332347 -0.07723285 -0.12956347 -0.20833012
-0.17143363 -0.23778975 -0.21623904 -0.019144826 -0.1378029 -0.029392458 -0.07400253 -0.04155372
-0.082797654 -0.19449441 -0.05578766 -0.22258763 -0.09441936 -0.09688383 -0.06945327 -0.20824134

encoder.lob_enc.res_blocks.1.bn1.weight f4 [32]
00000000: bd9c 7e3f 3457 803f ea12 803f bbfe 803f
00000010: 295d 803f f5d6 7c3f d0de 7e3f b26e 7e3f
00000020: 4ae4 7d3f d44c 7c3f 79be 813f f76c 813f
00000030: 2faf 7f3f 1f65 823f 924c 803f 1b04 7f3f
00000040: d08a 803f 1ba2 7f3f 013e 813f 5876 803f
00000050: ebe7 7e3f 7dd7 7f3f 45f4 7f3f 6dea 7e3f
00000060: fab7 803f 3107 803f a2cb 7e3f d51c 803f
00000070: d3f1 7c3f 8d99 7d3f b1cf 7e3f 23e5 803f
0.99457914 1.0026612 1.0005772 1.0077738 1.002843 0.987655 0.99558735 0.9938766
0.99176466 0.9855473 1.0136253 1.0111378 0.99876684 1.018711 1.0023367 0.9961564
1.0042362 0.9985673 1.0097047 1.0036116 0.9957263 0.99938184 0.999821 0.99576455
1.0056145 1.0002195 0.9952947 1.0008799 0.98806494 0.99062425 0.9953566 1.0069927

encoder.lob_enc.res_blocks.1.bn1.bias f4 [32]
00000000: 1894 6abb f2eb 26bb 4145 2ebc 8038 8b38
00000010: 95ae fd3b 3840 95bc 733e c0bb 9330 4aba
00000020: e240 243b 3114 3dbc 3374 223c a138 bf3b
00000030: 30c8 183c 727f 873c 4cc7 8139 61e7 2dbc
00000040: 3226 4b3b 561f fcbb 2d7d 4b3b b82b b43c
00000050: 21bc 0e3c 1b42 2d3c e61a b23b b83d 2dbb
00000060: 5d9c b43b e231 7dbb 249f 293c cab7 b3ba
00000070: 18ec 6bbc aa9b d1ba 43d5 1bbc a09c 803a
-0.0035793837 -0.0025470224 -0.010636629 6.6385604e-05 0.007741759 -0.018219098 -0.0058668195 -0.00077129266
0.0025063087 -0.011540459 0.009915399 0.005835608 0.009325072 0.016540263 0.00024753285 -0.010614247
0.0030998108 -0.007694165 0.0031049952 0.021993503 0.008711846 0.010574843 0.0054353354 -0.0026434492
0.005511804 -0.0038634469 0.0103528835 -0.001371139 -0.014399551 -0.0015991826 -0.009511295 0.0009812303

encoder.lob_enc.res_blocks.1.bn1.running_mean f4 [32]
00000000: 52db 3a3e b46f 42bd b887 813d 73f7 3abf
00000010: 2a04 f0be 66b7 8fbe 3dc1 f4be 0b55 103f
00000020: 1515 13be d209 f2be 39eb 0ebf f9d2 6abf
00000030: 9c3a 50bf 0489 43bf 8a24 343f 46dc e9be
00000040: 2f7b 57bf 868a 07bf 1e73 8fbf d13b 29bf
00000050: 45a2 b6be d0a5 a8be b059 80be d095 a93e
00000060: e473 26bf c021 94be 323c 363e e4cf f5be
00000070: 1627 82be c3a7 afbe a55a a9bd 0522 dfbe
0.18247727 -0.04746981 0.063247144 -0.7303383 -0.46878177 -0.2806961 -0.4780368 0.56379765
-0.14363511 -0.47273117 -0.5582767 -0.9172817 -0.8133943 -0.76380944 0.70368254 -0.45675868
-0.8417234 -0.52945745 -1.1207006 -0.661069 -0.35670677 -0.32939005 -0.25068426 0.3312211
-0.65020585 -0.28932 0.177964 -0.4801017 -0.25420445 -0.3430768 -0.08269242 -0.43580642

encoder.lob_enc.res_blocks.1.bn1.running_var f4 [32]
00000000: 3e50 733e a151 3f3e 6286 a63e d539 203e
00000010: 6474 303f d49d 8e3e 3c5a b33d 3232 973e
00000020: 71fc be3e aa83 9c3e 6a54 2f3e d2f0 083e
00000030: 2f87 2f3e f5cc 063e dd1d d83e 3459 b13d
00000040: 4a3c 9c3e 636d 1e3e 8689 363e 7841 853e
00000050: d987 613e 4f58 183f 3a65 553e f44c 2f3f
00000060: c07f 933e c953 cb3e 8641 063f 5670 7f3e
00000070: b93a ae3e 95b7 803e ad02 a83e 9981 293e
0.23761079 0.18683483 0.325244 0.15647061 0.689276 0.27854788 0.08757445 0.29530483
0.37301973 0.30569202 0.17122045 0.13373116 0.17141412 0.13164122 0.42210284 0.08659592
0.30514747 0.15471415 0.17825899 0.2602651 0.22024478 0.5950975 0.20839396 0.68476796
0.28808403 0.3971236 0.5244373 0.24945197 0.34029177 0.25140062 0.3281454 0.16553344

encoder.lob_enc.res_blocks.1.conv2.weight f4 [32, 32, 3, 1]
00000000: b0eb 033d bae9 143c ac2d a2bd 5b21 1f3c
00000010: 785e 7cbc bec9 9f3d 798c debd 0331 19b9
00000020: 7126 b63d f71c 94bd 9e73 cb3d f7ad cbbc
00000030: 95f7 b03d 97cc 85bc bdec 9b3d b6db c3bd
00000040: 4afd 093d 9c10 67bd 9275 3b3d e1b0 b1bd
00000050: e4bc febc 1195 083b 192e 9cbd 7a0a 6a3d
00000060: ffb2 4ebd 96fa a3bc 3995 72bc 0965 453d
00000070: d026 2cbd ed26 003d a91b 2ebd 598d 813c
00000080: c3b0 b1bd fb06 dabc e0b8 a5bd 6aec 9dbd
00000090: 9043 ac3d 7fcd d3bd fbe9 2b3d 5756 0ebd
000000a0: 3852 d53d 2c1b f1bc 7181 27bd 38ba 243d
000000b0: b29d 91bd e045 83bd 7c85 acbd e382 a43d
000000c0: 07be ac3d c45a 76bd 2e8e 863d f716 cbbd
000000d0: dd50 643d 2470 dabd 6f47 f53d c84e debc
000000e0: 6b02 0dbd 3637 013d 660e 9dbd 24fe a73d
000000f0: 01cf 00bd 6dc3 1f3d f731 503d d10d 163d
00000100: e206 1abd f01d b63c 012e cebd 5b45 82bd
00000110: 03ab cabd bc12 1fbc d7a5 68bd fe5d 96bd
00000120: 23a0 1bbd e512 95bd a9bc 193d ede0 d5bc
00000130: 3e11 bd3d fb43 753d bcca e5bc 29d3 6cbc
00000140: 46a2 c8bd 53a7 223d e98e b6bb 4429 9b3d
00000150: 489f c5bd f904 ac3b 0c31 60bd babe 7cbd
00000160: a045 f8bb b6f8 363d ced5 353d b61d 36bd
00000170: 0598 96bd ace9 a23c 49db b8bd 6987 59bc
00000180: ff03 ca3d 5d03 b6bd 4bd7 40bd fbca 2f3c
00000190: 8bb6 0abd b971 8c3b 83bb 853d b062 2e3c
000001a0: adfd 8b3d ed47 96bd f776 a2bd 8679 b6bd
000001b0: 6a23 663b c938 9fbd a76b 8b3d 9e58 383d
000001c0: 8440 d63c fe78 60bc ce58 98bd 35e9 aa3c
000001d0: 2c58 a6bd b5b3 bfbd 57f2 38bd e585 26bd
000001e0: 56a4 a4bd 5aa7 db3b 3105 cdbd b886 b03d
000001f0: 01c2 33bd f52e 8dbc 27c1 f0bb 252e b03d
00000200: 7c61 ea3c dfaf 903d 39e8 31bc f7fc aabb
00000210: fa26 27bc 62fe 8a3d 5873 4d3d 1610 903d
00000220: 7f28 833d 32fc b8bd 291d 35bd 5169 5e3d
00000230: 3079 1e3d d79f a8bd f7d9 c63d fb5f 3c3c
00000240: 0f5e 0a3d a3fc 8b3c 756a 75bd aa2d 473d
00000250: 6693 be3c 8505 b83d 415c c03d f62a 4ebd
00000260: b265 4cbc 3b75 c1bd 9eab af3c 5379 a5bd
00000270: 2763 4e3d 03bf 81bd 13fd c73d b767 883d
00000280: 56f8 c0bd 7849 29bc da92 e43c 74ae 60bc
00000290: 923e 82bd 68a0 e7bc 33dd 83bd f475 8cbc
000002a0: b958 c33d 1c48 3bbd b07e 303d 306a 233c
000002b0: 729b 113d de19 633d 37af 243b db59 0f3c
000002c0: a473 0dbd 070c ab3d 83f8 243d ca80 183d
000002d0: d459 72bc 38b2 9bbd 953b c5bd 7370 0d3d
000002e0: 7768 4a3c b3e2 873d cc6f ad3d 39bb 003b
000002f0: 146f 8a3d b094 20bd 8e87 afbd 671e 623c
00000300: c861 32bd 8c2c a73d 86bd b33d 8277 64bd
00000310: 7d39 8c3a 39f6 af3c baac cfbd 4302 d73c
00000320: ce45 813c 29c3 6f3c 4f89 1dbd 91ae 9d3d
00000330: 54fe 9abd 4838 2b3d c69d 1a3c 9414 c3bd
00000340: b850 1d3c 6f2a 35bd 2ffd 51bd 052f 04bd
00000350: 92f7 863d a603 0a3c 9674 45bd 42b5 2fbb
00000360: 1e98 79bc 4b18 683c b517 75bb 64c9 48bd
00000370: 9683 6e3d 0e5e cabc 5f77 293d 3383 483d
00000380: a586 a73d ff06 dc3c da3e 5b3d 5d98 833c
00000390: 175f 0fbc 3198 b73d 6f5b 8ebd d0dc 6abd
000003a0: d1c8 86bd 459b d73c 97eb 6f3d b2a8 f1bd
000003b0: 62e0 74bd 9b27 87bd f51d ad3b 25d6 813a
000003c0: 15f7 64bc 7458 48bc bf79 a3bd e8ad 953d
000003d0: ea26 75bd eb74 23bc 03d0 04bc c17c 00b8
000003e0: 7af6 c83d 63e4 73bd d6b4 9bbc d24d 7e3d
000003f0: 751e 793d 4637 5ebd b195 433d d7ce a23d
0.03220719 0.009088928 -0.079188675 0.009712542 -0.0154033825 0.07802151 -0.10866637 -0.00014609475
0.08894051 -0.07232087 0.099341616 -0.024863226 0.086409725 -0.016332908 0.076135136 -0.09563391
0.03368882 -0.056412324 0.04576642 -0.08676315 -0.03109593 0.0020840804 -0.0762598 0.057138897
-0.050463673 -0.02001695 -0.014806085 0.048192058 -0.042029202 0.031287123 -0.042506848 0.01581447
-0.08676293 -0.026614657 -0.08091903 -0.07711108 0.08411324 -0.1034193 0.041971188 -0.03475031
0.104160726 -0.029431902 -0.04089493 0.040216655 -0.07110156 -0.06409812 -0.084238976 0.08032777
0.08434682 -0.060145155 0.065700874 -0.099164896 0.05574118 -0.106659204 0.119765155 -0.027137175
-0.034426134 0.031546794 -0.07668762 0.0820277 -0.031447414 0.039004732 0.0508289 0.03663427
-0.03760422 0.022231072 -0.10067368 -0.06360885 -0.09895899 -0.0097090565 -0.056798782 -0.07342146
-0.037994515 -0.072789945 0.037533436 -0.02610823 0.09231804 0.059879284 -0.028050773 -0.014454641
-0.09796576 0.039710354 -0.0055712354 0.0757623 -0.09649521 0.005249616 -0.054734275 -0.06170533
-0.0075766593 0.044670783 0.044393353 -0.04446193 -0.07353214 0.019886814 -0.090262 -0.013276913
0.098640434 -0.0888736 -0.04708032 0.010729547 -0.033865493 0.0042860177 0.06529906 0.010643646
0.06835494 -0.073379375 -0.07932847 -0.089098975 0.0035116323 -0.07774503 0.068076424 0.045006387
0.02615381 -0.013700722 -0.07438813 0.020863155 -0.08122286 -0.09360448 -0.04515299 -0.040655036
-0.08039157 0.0067032995 -0.10010756 0.086194456 -0.04388619 -0.017234305 -0.0073472443 0.08602551
0.028610937 0.07064795 -0.010858589 -0.005218144 -0.010202164 0.06786801 0.05015883 0.07034318
0.064042084 -0.090324774 -0.044217262 0.054299656 0.038689792 -0.08233612 0.09709542 0.011497493
0.033781108 0.01708824 -0.05991598 0.048627533 0.023263644 0.08985428 0.09392596 -0.05033394
-0.012475418 -0.09446188 0.021444138 -0.080797814 0.050387528 -0.06335261 0.09765067 0.06660407
-0.09422366 -0.010332458 0.027902056 -0.013713468 -0.063595906 -0.02827473 -0.06438675 -0.017146088
0.09538407 -0.045723066 0.04308957 0.009974048 0.035548635 0.05544459 0.002512885 0.008749451
-0.03453411 0.083519034 0.04027606 0.037232198 -0.0147919245 -0.07602352 -0.09630505 0.034531068
0.012354008 0.06635036 0.08468589 0.0019642843 0.06759468 -0.0392043 -0.08570777 0.013801194
-0.043550283 0.081627935 0.08776383 -0.055778034 0.0010698285 0.021479713 -0.10140367 0.026246196
0.015780356 0.014633932 -0.038461026 0.076993115 -0.075680405 0.04180172 0.00943703 -0.09525409
0.009601764 -0.04422992 -0.051266845 -0.032271404 0.06590189 0.008423721 -0.04820689 -0.002681092
-0.0152340215 0.014165948 -0.0037398164 -0.049020186 0.05823096 -0.024703052 0.041373607 0.048953246
0.08179978 0.026858805 0.053526737 0.016063863 -0.0087506985 0.08964575 -0.06951033 -0.05733949
-0.065812714 0.026319155 0.058574285 -0.11799754 -0.0597843 -0.06599351 0.005283112 0.0009905739
-0.013974925 -0.01222812 -0.079822056 0.073085606 -0.059851564 -0.009976606 -0.0081062345 -3.0633764e-05
0.09812637 -0.05954398 -0.019007128 0.062085934 0.06082006 -0.05425193 0.04775018 0.07949608

encoder.lob_enc.res_blocks.1.conv2.bias f4 [32]
00000000: 4e96 d1bd c223 b3bd c351 efbd 2dcc b2bd
00000010: 5946 43be 7b1c 05be 9326 1dbe 86b0 91bd
00000020: 4ef5 42be 1f10 c5bd fe94 40be 8456 66bd
00000030: fe44 f5bd 5fce d6bd 18b9 c8bd df9d c4bd
00000040: 7abe babd 3316 6abd 0250 2fbe 710e 3abe
00000050: fb3b aebd 2ffd 64be 7d1d b8bd 7689 8dbd
00000060: 9ebb 61bd d04d 3dbd dfba 20be a073 43be
00000070: 80f2 23be 7d95 5bbe 66d5 f6bd a791 a1bd
-0.102337465 -0.08747055 -0.11685517 -0.0873035 -0.19069804 -0.12999146 -0.15346746 -0.07113747
-0.19038889 -0.096222155 -0.18806836 -0.05623485 -0.1197605 -0.10488581 -0.09800929 -0.09600424
-0.09118362 -0.057150077 -0.17120364 -0.18169571 -0.08507534 -0.22362207 -0.089899994 -0.06910984
-0.055110566 -0.046216786 -0.15696286 -0.19087076 -0.16010475 -0.21443744 -0.12052421 -0.07889109

encoder.lob_enc.res_blocks.1.bn2.weight f4 [32]
00000000: ff9f 803f 66fb 7f3f 8342 813f 9d49 7f3f
00000010: 6ffd 803f b8d1 803f b5ea 803f dfeb 803f
00000020: 50fb 803f 60a1 803f ab66 7f3f ce51 7f3f
00000030: 7661 813f 32aa 803f f7b2 7d3f f7e9 803f
00000040: debd 803f c6b7 7f3f 6070 803f ba0e 803f
00000050: 552c 803f 51dd 803f de58 7f3f 63f4 803f
00000060: 607e 823f 00c9 803f 4ded 803f d501 813f
00000070: e4f1 803f 2cb4 7d3f 925b 813f d40e 813f
1.0048827 0.9999298 1.0098423 0.997217 1.0077342 1.0064001 1.0071627 1.0071982
1.0076694 1.0049248 0.99766034 0.997342 1.0107868 1.005194 0.99101204 1.00714
1.0057943 0.9988979 1.0034294 1.0004494 1.0013529 1.006754 0.99744976 1.0074581
1.0194817 1.006134 1.0072418 1.0078684 1.0073819 0.99103045 1.010607 1.008265

encoder.lob_enc.res_blocks.1.bn2.bias f4 [32]
00000000: 34c4 e23b 4625 56b9 f2e2 163c 2a08 c5bb
00000010: cba6 053c 39ea cf3b 7cd7 0a3c 366f 033c
00000020: 0704 0a3c e379 ff3b 922c 8ebb e985 4d38
00000030: 6c68 d13b 9d86 753b 01e7 31bc f0c6 e83b
00000040: 30a1 b13b 4336 acb9 f332 013c 84fe 8639
00000050: c2fa b8ba 38c3 063c a590 a8bb 98ef f13b
00000060: 3947 193c fc94 393b 8852 fc3b 632e 003c
00000070: f8ea 073c 6223 14bc 62c3 1a3c 7e74 123c
0.006920362 -0.00020422516 0.009209381 -0.006012936 0.008157442 0.00634506 0.008474227 0.00802212
0.008423812 0.0077965125 -0.0043388093 4.9000522e-05 0.006390622 0.003746427 -0.010858298 0.0071037933
0.0054208264 -0.00032846825 0.007885682 0.000257481 -0.0014112818 0.008225255 -0.005144196 0.007383298
0.00935536 0.0028317561 0.007700268 0.007823559 0.008295767 -0.009041639 0.009445997 0.008938907

encoder.lob_enc.res_blocks.1.bn2.running_mean f4 [32]
00000000: c05c f7be 065b 1abd 6346 6ebe 0c80 1cbe
00000010: d52b dbbd 3f65 d93c bad4 80be 1ea9 c8bd
00000020: 58bc 223d 9d8c acbe 66d2 d8bc 7232 41be
00000030: 538d 8cbe ec7c 97bd 6c80 afbe 101d dabc
00000040: 85c7 24be b1ab eb3d 4004 f0bd 9d84 a3be
00000050: 54df 203e 9b26 a8bd 3dea cdbe 8e8b 45be
00000060: ba18 10bf 6494 78bd e790 a2be 173e ebbc
00000070: 101c 5abe 43b2 c8be 52ce e9be 1386 4a3e
-0.4831295 -0.037684463 -0.23269038 -0.15283221 -0.1070172 0.026537536 -0.25162297 -0.097978815
0.0397304 -0.3370103 -0.026467513 -0.188669 -0.27451572 -0.07396874 -0.34277666 -0.026625186
-0.16091736 0.11507357 -0.117195606 -0.31937113 0.15710193 -0.082104884 -0.40217772 -0.19291517
-0.5628773 -0.06068839 -0.31751177 -0.02871613 -0.21299767 -0.39198503 -0.45665222 0.19777708

encoder.lob_enc.res_blocks.1.bn2.running_var f4 [32]
00000000: e738 613e bc03 423e 7434 833d 8c03 f23d
00000010: 15e2 bd3e 340c 093e 6695 113e c06e 0b3e
00000020: df1b 013e 829f 473d f65f 723d 00dc 4e3d
00000030: dd94 103e b68f c03d cee3 a03d a65f 753d
00000040: 8419 3d3d 9cff 213e 405d 743d 80d0 e03d
00000050: d0df 163e fc7f a53d 1530 b43e 9d3f 543e
00000060: 71d0 b83d e84a a73d 1f16 083e 1beb 113e
00000070: c262 703d e2b3 b93d 9c88 f83d 0d00 973d
0.21994363 0.18946737 0.06406489 0.11817083 0.3708655 0.13383561 0.14217147 0.13616467
0.12608288 0.048736103 0.059173547 0.050502777 0.14119287 0.09402411 0.0785595 0.05990567
0.04616691 0.15820163 0.059659243 0.10977268 0.14733815 0.08081052 0.35192934 0.20727392
0.09024132 0.08168584 0.13289689 0.14249842 0.058687933 0.09067513 0.12135431 0.073730566
