outputs/model_trained.pt (torch, 945356 bytes, 81 tensors)

encoder.lob_enc.conv_in.0.weight f4 [32, 2, 3, 1]
000000 29 1b ef bd 21 a7 9a 3e 11 27 80 be bc 20 a6 bd
       -0.11675102 0.30205634 -0.25029805 -0.08111712
000010 c2 38 85 bc f1 c3 5e be cb 89 06 3c 08 5d c7 bd
       -0.016262416 -0.21754433 0.008211563 -0.09734541
000020 ca 84 4f be 72 33 a9 be 81 7a 22 bc d6 dd bd 3e
       -0.20265499 -0.33047062 -0.0099169025 0.3708331
000030 b9 19 1b 3e 4a 51 a3 be 25 b4 5a be 26 b0 85 3e
       0.15146531 -0.31897956 -0.21357782 0.26110953
000040 c5 e3 22 be 07 d7 37 bd 31 e3 4a be d9 8a 47 3e
       -0.159072 -0.0448828 -0.19813229 0.1948656
000050 76 a2 8d be 58 91 c4 be f2 e4 9c be c8 96 b0 be
       -0.2766301 -0.38392138 -0.3064342 -0.34490037
000060 b5 b7 46 3d e6 08 8f 3d 20 7e fb bd 2f 22 25 3e
       0.04851504 0.06984119 -0.12279916 0.16126321
000070 8d f1 39 3d 72 3e d5 3d 7a 9a 60 3e f5 d0 ba 3d
       0.045396376 0.10412301 0.21933928 0.09121887
000080 bb 4f cd 3e 7f 7b 9e 3e b9 cb 62 be 9c 93 97 3e
       0.40099892 0.30953595 -0.22148027 0.29604805
000090 77 74 43 bd 1e d2 d8 bc 8b 0d 02 3d 51 e1 b8 be
       -0.04771849 -0.02646738 0.031751197 -0.36109403
0000a0 f3 53 87 3e 90 4e 86 3e 5d d8 c5 3e ed 21 85 3d
       0.26431236 0.26231813 0.38641635 0.065006115
0000b0 3a 1e f7 bd e6 27 8e bd 4c a0 12 be a7 d5 c1 be
       -0.12066312 -0.06941204 -0.14318961 -0.37858316
0000c0 69 01 0c 3e 01 f0 62 3d a5 f3 05 be 7f 0b 78 be
       0.13672413 0.055404667 -0.13081224 -0.24223135
0000d0 e6 8b c2 bd fc 7b dc 3d bc f6 a1 3e e8 8d 2f 3e
       -0.0949934 0.10765836 0.31633556 0.17143977
0000e0 af c7 99 3e 8c 89 aa 3e e7 b7 47 be 32 80 83 bc
       0.3003516 0.33308065 -0.19503747 -0.01605234
0000f0 ea 06 ab be 12 d6 66 be c8 69 2b 3e 11 91 23 3e
       -0.33403713 -0.22542599 0.16739571 0.15973307
000100 c5 d6 42 3e c2 ab b7 3e d9 0b 24 3e cc b9 52 be
       0.1902724 0.35873228 0.16020145 -0.20578688
000110 b6 eb b8 bd 51 88 ca 3c 45 41 4f 3e 96 9c 5c be
       -0.09029333 0.024723204 0.20239742 -0.21544108
000120 ba a0 27 be ab 49 25 3e d2 36 17 3e 9b a5 c5 3e
       -0.16369906 0.16141383 0.14767006 0.3860291
000130 1f 9a b1 3e 2b 20 3c be 67 09 19 3e 89 0d 78 be
       0.34687898 -0.18371646 0.14944993 -0.24223913
000140 0e e2 06 bc 0d 37 ca bc 83 63 cf 3d fb 1f bc 3e
       -0.008232607 -0.024684453 0.10126402 0.3674315
000150 10 dc a7 be 32 03 bc 3e f0 8c 8d 3e 6b e6 52 be
       -0.32785082 0.36721188 0.2764659 -0.2059571
000160 57 dc f2 bd 1b a8 c8 bd 3f 54 82 3e 42 00 c9 bd
       -0.11858433 -0.097976886 0.254549 -0.09814502
000170 e6 25 1c 3e 8d 91 20 be 51 af aa 3e 1d b1 74 bd
       0.15248832 -0.15680523 0.3333688 -0.05973922
000180 ca eb c8 3e 1d 8a 99 be 9f 1a f8 bd 87 c4 88 3e
       0.39242393 -0.29988185 -0.121144526 0.26712438
000190 9e bf 0e 3e 04 aa 51 be ba 97 ac be 8b 7d a1 be
       0.13940284 -0.20475012 -0.33709508 -0.31541094
0001a0 99 60 ae be d5 96 6c be c1 9c 78 be b6 b0 f6 bd
       -0.34058073 -0.23104413 -0.24278547 -0.12045424
0001b0 14 68 b0 3e 65 37 f0 bd 63 ee 85 be 68 27 43 3e
       0.34454405 -0.11729316 -0.26158437 0.19058001
0001c0 15 52 7f be e1 ad 5a be b5 5e 82 bd fc 2b 2a bd
       -0.24933656 -0.21355392 -0.0636572 -0.041545853
0001d0 bf d4 7e be c3 31 a1 be 18 7c d0 be db 7f 35 be
       -0.24885844 -0.31483278 -0.40719676 -0.17724554
0001e0 bb 95 4c 3e 43 b0 e3 3c 29 9f a2 3e 78 27 84 3d
       0.19978993 0.02779401 0.31762055 0.064528406
0001f0 ff 4f a1 be ba 97 03 3d 24 a1 d9 bd 63 27 69 3e
       -0.31506345 0.03212712 -0.10626438 0.22768931
000200 bb 99 de 3d 2a df ce 3e 58 4b bb be aa 01 4b be
       0.108691655 0.40404636 -0.3658092 -0.19824854
000210 bb 80 b6 be 99 25 da 3c 24 66 8a be 10 d8 37 be
       -0.3564509 0.026629256 -0.27031052 -0.17953515
000220 6a 57 c2 3e 2a 96 16 be d1 8d 45 3e 1e 98 89 3e
       0.37957317 -0.1470572 0.1929238 0.2687387
000230 25 f2 99 3e df 7a a7 3e 9f ae 85 3e 18 a5 34 3d
       0.30067554 0.3271093 0.26109788 0.04410276
000240 33 1a b5 3e 92 86 c9 3e 32 7d 8b be f7 97 c2 3d
       0.3537155 0.39360482 -0.27243954 0.09501641
000250 3f db 93 3e 48 6e 88 be f5 af 2a 3e 9f ef 86 3e
       0.2887821 -0.26646638 0.16668685 0.2635469
000260 88 9c 27 3c 44 60 e0 bd 28 78 ef bc 0b 85 b3 3e
       0.010230191 -0.10955861 -0.0292321 0.3506244
000270 cf a1 aa be 28 84 1b 3e a5 6b 6c be 56 ed 87 3e
       -0.33326575 0.15187132 -0.23087938 0.2654826
000280 81 4a 36 be 06 7f a4 3d d3 1c 82 3e 0f a0 30 bd
       -0.17801858 0.0803204 0.25412616 -0.043121394
000290 c1 3b 66 bd ff 45 b9 3e ae 1e c9 3e e6 cb 66 3e
       -0.05620933 0.36186215 0.3928122 0.22538719
0002a0 90 0c 2b 3c ec 55 5c bc 16 90 7b be 30 bf 91 3e
       0.010440007 -0.01344822 -0.24566683 0.28466177
0002b0 3f bf 37 3e b8 9c ab 3e 6e a3 8c be 76 30 bb 3d
       0.17944048 0.33518004 -0.27468437 0.091401026
0002c0 aa 1b 92 3d b0 94 06 be 35 00 58 bd 89 cd 97 3d
       0.07134183 -0.13142657 -0.052734572 0.074122496
0002d0 a5 2f ef bd 06 ff c2 3e db 0d be be c5 f1 82 bd
       -0.11679009 0.38085192 -0.37119946 -0.0639377
0002e0 66 71 4b be 48 b1 9c 3e de ba 13 be 13 17 ba bd
       -0.19867477 0.30604005 -0.14426753 -0.09086432
0002f0 fd 05 b5 3e c4 5f b5 be 99 1d 08 be df 3c b5 3e
       0.3535613 -0.35424626 -0.1329254 0.35398003

encoder.lob_enc.conv_in.0.bias f4 [32]
000000 61 dd 92 3e 8b 1d ee bd 6f 53 9d bd ba 3b 47 be
       0.28684524 -0.116267286 -0.07681929 -0.19456378
000010 eb 74 a5 3d 4f 1a f5 3d 63 34 8d 3e db 80 37 3e
       0.08078941 0.119679086 0.2757903 0.17920248
000020 83 dd 52 3e 07 26 85 bd 69 62 95 be 83 d3 66 3e
       0.20592313 -0.06501394 -0.29176643 0.22541623
000030 27 59 e8 bb 14 c6 88 be cf 9d 15 3d af d0 ce 3e
       -0.007090706 -0.26713622 0.03652745 0.40393588
000040 b7 fb 0c bd 7d 9b ae be 7f 78 7c 3e 0f 6e 9b 3e
       -0.03441974 -0.34103003 0.2465534 0.30357406
000050 57 93 85 be 9e d1 b6 be 32 8e 95 be b3 e1 2b 3e
       -0.26088974 -0.357068 -0.2921005 0.16785316
000060 8d 91 2b be 46 53 cd be 57 fe ef bc 09 66 54 be
       -0.16754742 -0.40102595 -0.029296083 -0.20742048
000070 33 7e f7 bd 00 fe 24 be 93 46 0c be 61 18 88 be
       -0.120846175 -0.16112518 -0.13698797 -0.265811

encoder.lob_enc.conv_in.1.weight f4 [32]
000000 5e da 80 3f 46 ac 80 3f 75 2e 81 3f 49 8f 80 3f
       1.006664 1.0052574 1.0092303 1.0043727
000010 b5 85 80 3f e8 97 80 3f 2a 71 80 3f 75 37 81 3f
       1.0040804 1.0046358 1.0034535 1.0095049
000020 bd ef 80 3f 26 21 81 3f d1 ae 7d 3f e4 f5 7d 3f
       1.0073162 1.0088241 0.99094874 0.99203324
000030 7a 13 81 3f 6d 4a 80 3f e7 c9 7d 3f 70 f0 80 3f
       1.0084069 1.0022713 0.99136204 1.0073376
000040 8b d8 7e 3f af 3f 81 3f 21 2b 81 3f 8c 23 80 3f
       0.9954917 1.009756 1.0091287 1.0010848
000050 c1 60 7d 3f 0a 86 7f 3f 3e 96 80 3f bb de 7e 3f
       0.9897576 0.998139 1.004585 0.9955861
000060 26 bc 80 3f 5a a6 7f 3f 6b 37 81 3f 6a 47 81 3f
       1.0057418 0.9986321 1.0095037 1.0099919
000070 71 37 80 3f 96 57 80 3f 18 c8 80 3f 25 f6 80 3f
       1.0016919 1.0026729 1.0061064 1.0075117

encoder.lob_enc.conv_in.1.bias f4 [32]
000000 9b 57 ea 3b d3 6d 8b 3b a9 28 1b 3c 9c 43 ec 3a
       0.0071515567 0.0042550354 0.009470143 0.001802552
000010 2f de 4c 38 07 e3 0f 3c 28 bd 1b 3c fd e9 1b 3c
       4.8844315e-05 0.008782155 0.009505548 0.009516236
000020 09 33 f4 3b 65 a6 1f 3c e2 fa 02 bc db 40 ae 3a
       0.007452373 0.009744261 -0.007994385 0.0013294475
000030 71 53 1a bc 92 08 d8 3b 5b 14 82 bb 91 0a 01 3c
       -0.009419308 0.0065928185 -0.0039697117 0.007876054
000040 9d 7c c1 3b 7e be 21 3c 04 8f 1b 3c 36 e2 68 3b
       0.0059047476 0.009872077 0.009494547 0.0035535223
000050 93 a8 10 3c 1f 75 16 3c a1 2e 5c 3b b6 19 26 3c
       0.008829254 0.009183197 0.003359713 0.010137966
000060 70 49 e3 3b ef bd 0c 3b 12 a6 27 3c ee 4f 1f 3c
       0.0069362447 0.0021475514 0.010232465 0.009723647
000070 d2 0b 19 3c 92 91 5e bb 6b 84 0e 3c de e0 12 3c
       0.009341197 -0.0033961278 0.008698563 0.008964745

encoder.lob_enc.conv_in.1.running_mean f4 [32]
000000 8b 04 69 cd 35 88 20 cd 9c db 4c cd 2f e7 51 ce
       -2.4433682e+08 -1.6833006e+08 -2.1480902e+08 -8.8039725e+08
000010 e0 ad 40 4d 93 d0 2d 4e 2d 59 ac 4c 21 89 1f cd
       2.0203878e+08 7.290319e+08 9.036017e+07 -1.6728526e+08
000020 3b 1e cb cc d1 34 11 4e 58 ec 42 4d 7e 06 8e cc
       -1.06492376e+08 6.090394e+08 2.043918e+08 -7.446219e+07
000030 58 5f dd 4d 68 fa 51 4d 27 39 6d cc 8c 64 88 4d
       4.6425165e+08 2.2017805e+08 -6.2186652e+07 2.8603635e+08
000040 ce f7 d8 4c 18 81 7e ce 30 b1 40 cd 09 0e 4a ce
       1.1375371e+08 -1.0674683e+09 -2.0205235e+08 -8.4747936e+08
000050 62 4a 53 4d fe c5 40 4c 48 bb a7 cd 89 cb 5f 4e
       2.215542e+08 5.053439e+07 -3.517586e+08 9.386645e+08
000060 d9 d9 bd 4d a6 89 d0 4d ff 1f 13 cd ab 66 35 4e
       3.9814634e+08 4.3733523e+08 -1.5427173e+08 7.6085114e+08
000070 d6 fd b0 4d cf 1c 04 cd 47 f6 ef cb 30 f7 56 cb
       3.7117818e+08 -1.3853003e+08 -3.1452302e+07 -1.4087984e+07

encoder.lob_enc.conv_in.1.running_var f4 [32]
000000 43 24 a0 5b 13 d2 35 5b 68 30 8e 5b 40 5b 58 5d
       9.015173e+16 5.117795e+16 8.004534e+16 9.743828e+17
000010 07 82 3d 5b 55 65 17 5d b2 a9 e1 5a e5 24 57 5b
       5.3341737e+16 6.818262e+17 3.1759226e+16 6.0557686e+16
000020 30 17 84 5a 6d 30 d4 5c 4f a1 87 5b 47 d3 82 5a
       1.8590096e+16 4.7780752e+17 7.6352965e+16 1.8412024e+16
000030 6c 10 79 5c 43 91 7f 5b b4 88 ec 5a db e4 c2 5b
       2.804213e+17 7.1935836e+16 3.32892e+16 1.0971555e+17
000040 7d aa 3c 5b 00 e9 9c 5d e3 78 98 5b 1d 14 46 5d
       5.310475e+16 1.413321e+18 8.5834226e+16 8.9206656e+17
000050 4a 51 88 5b 9d 46 a5 5a e1 97 21 5c 86 cb 72 5d
       7.673995e+16 2.3260506e+16 1.8193786e+17 1.0934515e+18
000060 34 9e 55 5c 52 f4 59 5c f5 93 13 5b 6e 90 21 5d
       2.4051246e+17 2.4539481e+17 4.15395e+16 7.276204e+17
000070 98 d6 1f 5c 46 fb f7 5a f9 3e 91 5a 24 e6 2a 5b
       1.7996188e+17 3.4900299e+16 2.0441555e+16 4.810379e+16

encoder.lob_enc.res_blocks.0.conv1.weight f4 [32, 32, 3, 1]
000000 45 09 fe bc d8 aa 97 bd 75 dd c2 bc 8d 51 97 bd
       -0.03101028 -0.07405633 -0.02378724 -0.073886015
000010 89 37 68 bb 3c c8 80 3d 76 94 54 bd e8 09 bd bc
       -0.0035433492 0.06288192 -0.051899396 -0.023076013
000020 3b ce e0 bc b8 22 34 bd 9a 0a a5 bd 13 57 81 3c
       -0.027442088 -0.043978423 -0.08058663 0.01578859
000030 c5 ed 92 bc 08 6b 8f bb d9 27 fb bc b7 27 93 bd
       -0.017935643 -0.004376773 -0.03065865 -0.071853094
000040 87 0e 34 bd e1 07 44 3d e5 d4 80 3d 6d c0 0b bd
       -0.043959167 0.047859076 0.062906064 -0.03411906
000050 50 ef 68 3d 39 d7 8c bd 0e 30 76 bc 11 99 d1 bd
       0.05686885 -0.06876988 -0.015026106 -0.10234273
000060 6a dc c8 bc 2c 0c a1 3c be d2 55 3d e7 cf e6 3c
       -0.024519164 0.019659124 0.052202933 0.028175307
000070 b2 a3 21 3d 63 42 db bc 1b db c2 3d aa a2 af bd
       0.039462753 -0.026765054 0.09514447 -0.085759476
000080 9a 18 d8 bc d9 77 a8 bc df 64 73 3d b2 ae 25 3c
       -0.026378918 -0.02056496 0.05942237 0.010112451
000090 3a 97 b7 3d 23 b6 9d bd df 13 eb 3c 47 64 b9 bd
       0.08964391 -0.077007554 0.028695999 -0.090523295
0000a0 24 8c d7 3c 19 aa 4c bd 22 6a 54 bd 12 bc 21 3c
       0.026311941 -0.049966905 -0.05185903 0.0098715
0000b0 f2 23 53 3c 57 ed bb 3d e8 cf 98 3d 5e 73 42 3a
       0.012886988 0.09176128 0.0746153 0.0007417704
0000c0 a8 9b 23 3d 85 7c 30 3c 52 da df bc 9a f0 ab bd
       0.039943367 0.010771875 -0.027325783 -0.083955005
0000d0 54 36 bc bd 49 d5 25 b9 ce 58 4d bd 82 f8 ab 3d
       -0.0919005 -0.00015815081 -0.05013352 0.083970085
0000e0 4f da 61 bd 07 e6 8f 3c 84 9c 72 bd 1d ab bb 3d
       -0.055139836 0.01756574 -0.059231296 0.09163497
0000f0 d2 76 24 3d 31 83 4c 3d ca c9 be 3c fe 75 96 bc
       0.04015238 0.0499298 0.02328958 -0.01836681
000100 7f 24 18 bd 02 ce 4e bd dc 90 c8 bd bc c6 dc bc
       -0.03714418 -0.050489433 -0.09793255 -0.026950233
000110 e2 04 52 bd ba b1 ab 3d 63 88 b7 3d 1b 92 93 bd
       -0.051274188 0.08383508 0.089615606 -0.07205602
000120 c8 5c 40 bb 42 a3 bd bd 31 42 3c 3d 55 04 8d 3d
       -0.0029352177 -0.092596546 0.045961563 0.06885592
000130 46 d3 81 bd e8 95 9a bd 3e 4e e9 bc 5c 7d 96 3d
       -0.06339125 -0.075481236 -0.028479692 0.07348129
000140 b2 83 7e 3d 02 c7 7e bd bd 2a 7e bb 53 56 a9 bd
       0.062137313 -0.062201507 -0.0038782798 -0.08268418
000150 e7 47 b1 3d 40 50 13 3d 25 1e 3a bd fd 25 14 3d
       0.086562924 0.035965204 -0.045438904 0.03616904
000160 6c cf 37 bb a5 0d 91 bd f7 e7 dc bd 5d 97 7c 3d
       -0.0028047217 -0.070826806 -0.10786431 0.06166779
000170 ee da 90 bd c5 ca 7e 3d 20 60 e7 bc 4c 2b 77 3d
       -0.070730075 0.062205095 -0.028244078 0.060344025
000180 65 03 17 3d bb 50 68 3d 8d 9f 53 bd e0 5d 5e 3d
       0.03686847 0.056717616 -0.05166583 0.054288745
000190 3c 39 8b 3c 40 23 68 bb 5f f6 1b bc 90 9f ae bb
       0.016995065 -0.0035421401 -0.009519189 -0.00532908
0001a0 7a 03 5d 3d fe 90 62 3d 9a 2c 33 bd 6a a7 04 bc
       0.053958394 0.055314057 -0.043743707 -0.008096555
0001b0 37 3e 86 bc 54 e2 f5 bc 2f 03 57 3d 61 16 cf 3d
       -0.016387088 -0.030015148 0.05249327 0.1011169
0001c0 af bb 6e 3d ea 2f 8e bc 53 db 8f 3d 17 8d d5 3d
       0.058284458 -0.017356832 0.07024255 0.104273014
0001d0 47 b9 9e 3c e6 95 a6 3d 3a 90 d3 3c 5f 1f cf bc
       0.019375456 0.081340596 0.025825609 -0.025283514
0001e0 71 34 f8 3c fd 46 91 3c 8c 7f c5 3c 6c 86 9d bc
       0.030298444 0.017734045 0.02410867 -0.019229136
0001f0 1d 6e 89 bd 44 d4 b0 bd e9 79 6c bd 4a 1c 87 3d
       -0.067104556 -0.086342365 -0.05773345 0.065971926
000200 9f 75 89 bc cd b2 b9 bd 70 f5 a4 3d b5 88 cf bd
       -0.016779719 -0.09067307 0.08054626 -0.10133497
000210 f1 59 cd 3c a9 6d c5 3d dc 35 31 bd 0d c4 c6 3b
       0.025067301 0.09640057 -0.043264255 0.0060658515
000220 cd 02 d1 3d ce fd c2 3d 26 0f 9f 3d 5c c4 58 bc
       0.10205612 0.09521066 0.07766561 -0.0132304095
000230 3c 51 7f 3d 4d 2e 47 3d b9 38 61 3c fa 7e ca 3d
       0.06233333 0.04862814 0.013746434 0.098875
000240 72 64 bd 3c b3 0f 93 3d 74 32 91 bd 20 b0 cd 3c
       0.023119185 0.07180729 -0.07089701 0.025108397
000250 d6 b4 cc bd 2d f8 35 3c 74 b9 95 3c e6 b2 5b 3d
       -0.09995429 0.011106533 0.018276908 0.053637408
000260 02 f1 4d 3d d3 76 51 bd 8e 33 60 3d 11 bb dc bd
       0.05027867 -0.05113871 0.054736666 -0.107778676
000270 71 c8 b6 3d f9 51 55 3d f7 3e ed bb c2 79 d6 3c
       0.0892495 0.05208013 -0.007240172 0.026181106
000280 b0 d3 69 3d e1 c8 95 bd ff 8d 7e 3d 32 b7 cf 3c
       0.057086647 -0.07313705 0.062147137 0.025355909
000290 b6 30 be 3d b2 5c 40 3c cf 62 94 3c cf 8e ff 3c
       0.092866346 0.01174085 0.018113522 0.031196026
0002a0 3e fc a6 3d 71 bb 9c bd 61 57 76 3d 39 1e 89 3d
       0.0815358 -0.07652939 0.060141925 0.06695218
0002b0 f9 6b 29 bb 5e 60 7d bd 07 76 95 3d b2 19 63 3d
       -0.002585171 -0.06185948 0.072979026 0.055444427
0002c0 b9 74 e3 bc e5 d3 ce 3c f4 22 bc bc 6e 5a 1d bd
       -0.027765619 0.025247524 -0.022965886 -0.03841632
0002d0 8d 1d de 3d cb 1e 43 3d 51 9a 69 3c e1 ba 8b 3d
       0.1084548 0.04763679 0.014257983 0.06822754
0002e0 35 37 89 3d c8 a7 41 3d 5d 32 61 3d a5 3b a2 bd
       0.06699983 0.04727915 0.05497967 -0.079215325
0002f0 cd ae 0d bd 6e 42 bd 3d e6 35 cb 3c 07 53 16 3d
       -0.03459053 0.09241186 0.024805974 0.036700275
000300 0d 7b 99 bd 82 f3 75 bd 2e 71 3f bd 0a 8e 1a 3d
       -0.07494173 -0.06004668 -0.046738796 0.037733115
000310 37 ef 48 bd aa aa 96 3d 5d 18 a6 bd 67 0d e7 bc
       -0.049056258 0.0735677 -0.08110116 -0.028204633
000320 7d a4 99 3d 4b 09 51 bd bb a7 e1 bb 6c d5 1d bd
       0.07502077 -0.051034253 -0.00688645 -0.038533613
000330 00 7c 03 3d a2 b3 66 bd b4 49 a6 bd 6d 5a 30 bd
       0.032100677 -0.056323655 -0.081195265 -0.043054987
000340 06 f7 19 3d b3 cc fe bc 18 3f 9f bd 1f 88 e3 bc
       0.037589096 -0.031103468 -0.07775706 -0.027774869
000350 14 90 40 bd 5c 03 ac 3d 4e 8c c5 bc 90 53 0b 3d
       -0.047012404 0.08399078 -0.024114754 0.03401524
000360 5b 17 b7 3d fa e5 a0 bd c0 ba 0f 3d cc 3f 1f 3c
       0.089400016 -0.078563645 0.035090208 0.0097198
000370 ad cf a9 3d 26 c4 ef ba 5b 8b c7 3c 19 e5 d1 bd
       0.08291564 -0.001829271 0.024358442 -0.10248775
000380 ff 6c c1 3d 7c fb 90 bd 62 54 86 3d be 2e 9d bd
       0.094446175 -0.07079217 0.065590635 -0.07674931
000390 08 e0 8c 3c 1c 49 41 bb 59 70 90 3d 4f 1b cc bd
       0.01719667 -0.002949304 0.070526786 -0.09966146
0003a0 07 0e a7 3d 64 ff c1 3d e6 a4 bd 3c 5c e7 b0 3d
       0.081569724 0.0947254 0.023149919 0.08637878
0003b0 9e e3 a3 3d 85 d4 29 3b 51 28 5a 3d 9c bd ca 3a
       0.08002399 0.0025914025 0.053261105 0.0015467885
0003c0 b5 c5 d2 3c 7d 2a 97 bd 77 a4 06 bd ca 19 83 bd
       0.02572904 -0.07381151 -0.03287169 -0.06401403
0003d0 a7 60 8d bd be f6 97 bd 67 66 42 bd 50 09 03 3c
       -0.069032006 -0.07420109 -0.04746094 0.007997826
0003e0 cf da 6f bc 8e db 19 3d d4 09 14 3d 60 3f 19 bd
       -0.01463957 0.0375629 0.036142185 -0.037413955
0003f0 85 7e 8a 3d e8 1c 96 bd ce ac 80 bd 39 8f c1 3d
       0.06762413 -0.07329732 -0.0628296 0.09451146

encoder.lob_enc.res_blocks.0.conv1.bias f4 [32]
000000 ee c9 26 bc 00 b3 be bc 04 2f 48 bc ac e4 c5 bd
       -0.01017998 -0.023278713 -0.012218241 -0.09662756
000010 98 fe d6 bd 03 1d 40 bd cb fa c9 bd 90 39 2a 3d
       -0.10497779 -0.046902668 -0.09862288 0.041558802
000020 e5 98 2a bd 7b 83 69 bd 2e c2 b1 3a 46 63 45 3c
       -0.041649718 -0.057010155 0.0013561898 0.012047594
000030 9e db 30 3d 2c 47 cf bb 79 a6 d0 3c 16 8f 73 3c
       0.043178193 -0.006325623 0.025470005 0.014865657
000040 6a 75 a3 3d 4f e1 a5 3c 23 4e f9 3c 32 d2 01 bc
       0.07981379 0.020249037 0.030432766 -0.00792365
000050 55 a3 0f 3d 76 b3 6c bc f2 8a 70 bd c3 a4 8c bd
       0.035067875 -0.014447084 -0.05872626 -0.06867363
000060 f1 38 4e 3d 58 a9 cf 39 b4 0d b8 3d e1 3b 4b 3d
       0.050347272 0.00039608288 0.08986989 0.04961765
000070 d1 72 a1 3d 50 86 a1 bc ec f3 5f 3d ac 6e 63 3b
       0.078832276 -0.019717366 0.05467598 0.0034703417

encoder.lob_enc.res_blocks.0.bn1.weight f4 [32]
000000 87 c1 7f 3f 48 82 80 3f ff ba 80 3f 6b 52 7e 3f
       0.99904674 1.0039759 1.0057067 0.9934451
000010 bf 3d 7d 3f 7e 84 80 3f 19 f5 7e 3f 48 41 7e 3f
       0.9892234 1.0040433 0.9959274 0.9931836
000020 f6 0a 7f 3f 07 0c 80 3f 5d 51 7e 3f a6 96 7e 3f
       0.996261 1.000367 0.993429 0.9944862
000030 b9 1b 80 3f 14 c3 7e 3f 05 84 7e 3f 3d 58 80 3f
       1.000846 0.99516416 0.99420196 1.0026928
000040 51 c4 7e 3f 87 4b 81 3f de ca 7d 3f 58 62 7d 3f
       0.99518305 1.0101174 0.99137676 0.98978186
000050 17 22 80 3f c5 1f 7e 3f 0f 32 81 3f a5 1d 81 3f
       1.0010403 0.99267226 1.0093402 1.0087172
000060 e0 23 81 3f 95 7f 80 3f 19 10 81 3f c2 38 80 3f
       1.0089073 1.0038935 1.0083038 1.0017321
000070 18 26 7e 3f ea 35 81 3f 67 50 81 3f 6e 17 81 3f
       0.99276876 1.0094578 1.0102662 1.0085275

encoder.lob_enc.res_blocks.0.bn1.bias f4 [32]
000000 8f d7 0e 3c f5 4d 39 bb 27 59 b3 3b 70 0a 19 3c
       0.008718385 -0.0028275226 0.0054732743 0.009340867
000010 23 66 d3 3b 0e 50 1e 3c 6b 7c 04 3c 42 64 13 3c
       0.0064513846 0.009662641 0.008086304 0.008996071
000020 4e 65 e6 bb 1e 36 21 3c 4a e4 04 bc 80 00 b4 3b
       -0.0070311194 0.009839563 -0.008111069 0.0054932237
000030 f7 71 2f b9 18 e8 13 3c b1 c5 ae 3b 58 75 b1 3b
       -0.00016731756 0.009027503 0.0053336252 0.0054156
000040 82 7f 99 ba 1a af e9 3b 60 4e ba 3b a8 4f f3 bb
       -0.0011710974 0.0071314694 0.0056856126 -0.0074252672
000050 25 1a 29 3c c9 9e 18 3c 46 76 16 3c 5c d3 21 3c
       0.010321175 0.009315201 0.009183472 0.009877052
000060 73 dc 1c 3c ec eb 94 3a 29 d1 23 3c fc 7a d5 3a
       0.009574044 0.0011361814 0.009998598 0.0016287263
000070 0f 8c 48 3a f3 bc 32 3c 35 1a 2e 3c 7e cd 25 3c
       0.0007650265 0.010909307 0.010626365 0.010119794

encoder.lob_enc.res_blocks.0.bn1.running_mean f4 [32]
000000 0b 6e 33 be 4b e6 02 3f 58 ee 8a be fe 3a af be
       -0.17522447 0.5113265 -0.27134967 -0.34224695
000010 d8 d5 03 be 93 87 3a be 15 95 aa 3d 26 28 8c 3d
       -0.12874544 -0.1821578 0.083292164 0.06843595
000020 64 0a 86 3d 4a 41 91 3c b5 02 af 3e 4d 64 b6 3e
       0.065449506 0.017731328 0.34181753 0.35623398
000030 e1 34 50 bd 56 1f 73 3c 4c 26 2d be 12 0e 83 3e
       -0.05083168 0.014839014 -0.1690914 0.25596672
000040 18 c1 3c 3e 60 dd 01 3d 3d 77 25 3c 73 56 f7 bc
       0.18433034 0.03170526 0.010099229 -0.03019259
000050 3e 12 96 3d c5 a9 5b 3e e6 d4 4b be 21 f5 d0 bd
       0.07327698 0.2145148 -0.19905433 -0.10203005
000060 79 27 ab 3d d9 c0 e2 be a0 4f b8 3d 34 17 9b bd
       0.08357138 -0.44287756 0.08999562 -0.07572785
000070 c2 2f d3 bc ff 45 f1 3b d7 e9 ba bd 44 da 1f 3e
       -0.025779609 0.0073630805 -0.09126633 0.15610605

encoder.lob_enc.res_blocks.0.bn1.running_var f4 [32]
000000 35 96 06 3e d8 dc 04 3f 9b 2d 05 3e 09 5e 0b 3e
       0.13143237 0.5189948 0.13005678 0.1361009
000010 c8 64 0d 3e e0 c9 20 3e 1a 01 59 3e 6f 0e 0b 3e
       0.13807976 0.15702009 0.21191826 0.13579725
000020 00 2a 14 3f f3 cb 22 3e 46 fc db 3e 9b 5b 0e 3e
       0.57876587 0.15898113 0.42965907 0.13902132
000030 c6 f3 d2 3d 0f eb ec 3d 69 44 f4 3d 62 34 02 3e
       0.10300402 0.11568271 0.11927111 0.12715295
000040 3c e9 0c 3f f1 bd 71 3e cc c8 24 3e 23 a3 0f 3e
       0.5504339 0.23607613 0.16092223 0.14027075
000050 7b ef 80 3e af a0 c3 3e cc 00 5b 3e e8 b2 58 3e
       0.2518271 0.3820853 0.21387023 0.21161997
000060 e2 95 23 3e a9 a7 45 3e 89 86 52 3e c8 f6 db 3d
       0.15975145 0.19302239 0.20559134 0.10740429
000070 6a fe ca 3d a8 13 49 3e d3 31 71 3e 99 46 09 3e
       0.09911807 0.19636405 0.23554163 0.13405837

encoder.lob_enc.res_blocks.0.conv2.weight f4 [32, 32, 3, 1]
000000 e7 f4 7c 3c 44 dd c3 3c b6 09 8c bd 25 ab af 3d
       0.015439249 0.023909219 -0.0683779 0.08577565
000010 3f 29 03 3d 89 94 eb bc da fc a6 bd 56 71 81 bd
       0.032021757 -0.02875735 -0.08153696 -0.06320445
000020 15 94 8f bc f7 a5 26 3c 8e 2b fb 3c ad 31 c1 3d
       -0.017526666 0.010171405 0.030660417 0.09433303
000030 ca 49 8b 3d c0 56 31 bc 9b 8a cc bc 02 5e a0 3d
       0.068011835 -0.0108239055 -0.024968436 0.078304306
000040 ba 3b 3e bb 3e 3d 5c 3c e8 3c 59 ba b5 1e bc 3d
       -0.00290273 0.013442336 -0.0008286969 0.091855444
000050 33 12 82 3d ee 19 28 3d 13 38 07 3d 70 e0 8b bc
       0.063511275 0.041040353 0.03301246 -0.017074794
000060 d4 21 de 3c 81 6b 9f bd f9 eb 94 bd 8c 69 10 3d
       0.02711574 -0.077841766 -0.07271571 0.035256907
000070 39 d1 d7 3c e0 f4 79 bd f1 40 12 3d 9d bc 20 3d
       0.026344882 -0.061024547 0.035706464 0.039242376
000080 67 d8 5c 3d a1 4c 2e bd a0 bf 43 bd 70 6c a5 3b
       0.053917315 -0.042553548 -0.04779017 0.005048327
000090 92 8d 2c bc 25 e6 b2 bb 8c fa 9d bd d9 db 8e 3d
       -0.0105318 -0.0054595643 -0.07713804 0.06975526
0000a0 a4 7b c2 3d c5 b0 48 bd 91 4c 94 3d 36 42 99 3c
       0.09496239 -0.048996706 0.072411664 0.01870833
0000b0 b4 19 c5 3c 0b 02 c0 bb 15 40 c4 3d d9 85 af bc
       0.024060108 -0.0058596185 0.09582535 -0.021426128
0000c0 bd b4 94 3c 38 57 a4 bb 51 05 21 3c 68 b7 2e bd
       0.018152589 -0.00501528 0.009827928 -0.04265538
0000d0 f9 88 7d bd 8f 12 94 3d 91 d5 cb bd db 3f 98 bd
       -0.061898205 0.07230102 -0.09952844 -0.074340545
0000e0 4a d2 bb 3d e3 e0 5a bd 32 ea 76 bc f7 ca c7 bd
       0.09170969 -0.053437125 -0.015070485 -0.09755509
0000f0 58 7f f2 bc af 21 40 bd 52 18 16 3d 8f d6 48 3d
       -0.029601738 -0.046907123 0.036644287 0.049032744
000100 2c 62 b7 3d 54 c9 10 bd 87 b4 c3 3d 05 a3 38 3d
       0.08954272 -0.03534825 0.09555917 0.045077343
000110 36 a1 97 bd 8f 58 b0 bd f5 ee 12 bc 3d 2f c6 3d
       -0.074037954 -0.08610641 -0.008968105 0.09676979
000120 8e b3 52 3b f5 8d 6b bd db e5 84 3d 2d dd da bd
       0.003215048 -0.057508428 0.06489154 -0.10686717
000130 c7 41 91 3d c7 5d cf bb 52 c2 1d 3c e3 9d 00 bd
       0.07092624 -0.006328318 0.009628849 -0.031400573
000140 e4 7b a3 3c 1d d5 41 bb 30 45 98 3d 6f 1c aa 3d
       0.019956537 -0.0029576488 0.074350715 0.083062045
000150 5d 1d 12 3d 2b 24 8e bc d4 0b af bb 61 39 71 bd
       0.035672534 -0.01735123 -0.005341986 -0.05889261
000160 fb b5 86 3d 3e 9a a4 bc 89 7d c6 bd 00 cd e8 bc
       0.06577679 -0.02009308 -0.09691913 -0.028418064
000170 88 c8 88 bd 07 a0 9f bd ea 3c a9 3c 71 7c 48 3c
       -0.06678873 -0.07794195 0.020658929 0.0122367
000180 4f ee 60 bd e5 b1 93 bd 2d 5a 0b 3d 2d 3b bb 3c
       -0.05491477 -0.07211665 0.034021545 0.022855366
000190 91 bc 8e 3d 3a 9e 5e 3d 97 40 81 bd a6 fc 61 3d
       0.0696956 0.054350115 -0.06311148 0.055172585
0001a0 b2 e5 b7 bd 4c 38 b1 bd c2 5f 30 3d 60 0a c7 3d
       -0.08979358 -0.08653316 0.04306007 0.09718776
0001b0 c1 d2 44 3d dd c7 6d bb a9 e7 41 bd a7 dd cd 3d
       0.048052553 -0.0036282458 -0.04734007 0.100520425
0001c0 d4 01 88 bd 33 1f bd 3d 2f f9 82 bd 47 4a c8 bd
       -0.06640974 0.092344664 -0.06395184 -0.09779792
0001d0 97 e9 2b bb 98 4c fd 3c 79 1f aa bd e7 c8 f7 bc
       -0.002623176 0.030920312 -0.08306784 -0.030247165
0001e0 bd e1 7c bb 92 9f e3 bb 9d ab 47 bd 65 03 c8 3d
       -0.00385867 -0.0069465125 -0.048747648 0.097662725
0001f0 5c 98 90 bd 51 81 8b 3d 8d ac f6 3c 26 12 2b bd
       -0.0706031 0.068117745 0.030111575 -0.041765355
000200 f7 34 38 3d d5 f8 aa bd ac ea 8d bd 95 51 68 3d
       0.044972386 -0.08348242 -0.06929526 0.056718428
000210 ab e4 4c bd 91 53 54 3d 4b e3 be bd 9a 51 9c 3c
       -0.050022762 0.051837508 -0.093206964 0.01908188
000220 1f 3e c1 bd 4f 24 48 3d 6c b5 c9 3d b7 c9 78 3d
       -0.09435677 0.04886275 0.098490566 0.060739245
000230 cb 4e e8 3c 70 db 89 3d 5b 6c b6 3d a3 7a 69 3d
       0.028357884 0.067313075 0.08907386 0.05700172
000240 c2 70 37 3d fb 88 07 3d e4 af bf 3c 78 c6 87 3d
       0.04478527 0.03308962 0.0233993 0.06629652
000250 ad 19 9e 3d 8f e6 06 bd 6a 88 a9 3c b2 17 6e 3d
       0.07719741 -0.03293472 0.02069493 0.058128066
000260 de 64 a6 bd 7d c8 9b bd 89 28 c9 bc 6a d1 8d 3c
       -0.08124708 -0.076065995 -0.024555461 0.01731177
000270 db 1d 88 3d 0f 51 56 3d bd ee 53 3d 00 f6 ad bc
       0.066463195 0.052323397 0.05174135 -0.021235466
000280 d1 50 d7 bc 60 da c8 bd 2a e3 ae bb 3d db ce bc
       -0.026283653 -0.09807277 -0.0053371387 -0.025251025
000290 4a f2 a0 bd de 17 43 3d 06 50 77 3d 91 48 ea 3c
       -0.07858713 0.047630183 0.06037905 0.028599055
0002a0 2b 2b 95 bd e0 65 e2 bc d3 95 ba bd be 51 3e bc
       -0.07283624 -0.027636468 -0.09110608 -0.011616169
0002b0 fd 28 61 3d 42 5c ae 3d 7a 03 ac bd 52 b9 a6 bc
       0.05497073 0.085136905 -0.083991006 -0.02035204
0002c0 24 08 4c bd 8c b2 9f 3d f1 92 cf 3d 9b b7 b4 bd
       -0.04981245 0.07797727 0.10135449 -0.088240825
0002d0 c7 d7 26 bd fc 76 81 3b f9 ac b9 bd 3f 7e ce bd
       -0.040733125 0.0039509516 -0.09066195 -0.10082673
0002e0 cf 6c 89 bd 4b 15 96 3d 90 d6 a4 3c 05 18 54 bd
       -0.06710207 0.0732828 0.020121843 -0.05178072
0002f0 84 8f 7c bc e4 f6 c6 3d b8 d3 bc bd c0 8f 30 3d
       -0.015415076 0.097150594 -0.0922007 0.04310584
000300 9e 64 6a bc 03 46 df bd d5 67 a0 3d 09 b7 60 bd
       -0.014306216 -0.109020256 0.078323044 -0.054862056
000310 97 65 95 3d ed 7c ae b8 a3 67 5c 3c 58 1c cb bc
       0.07294767 -8.320236e-05 0.013452443 -0.024793789
000320 dc b5 bc bd ce 24 27 3d 09 77 39 bd b0 67 e9 3c
       -0.092143744 0.040806584 -0.045279536 0.028491825
000330 c0 26 b0 3d 49 c8 21 bd c5 6b 16 3b 3b dd e3 3c
       0.08601141 -0.039497647 0.002295242 0.027815452
000340 1f 35 29 bd 34 0b 18 3d cf 1d 5f bd 75 14 91 3d
       -0.041310426 0.03712006 -0.054471787 0.0708398
000350 a5 ac eb bc 15 b0 3d bc c5 f6 2b bd 10 cb df 3a
       -0.028768847 -0.011577626 -0.041983385 0.0017074067
000360 af f4 80 3d 47 af 36 3c b9 c7 30 bd bd 98 c8 3d
       0.0629667 0.011150188 -0.04315922 0.097947575
000370 b1 2a c2 3d 5a f1 19 bd 72 e0 83 bd 19 7d a2 bd
       0.09480799 -0.037583686 -0.06439294 -0.07934017
000380 e1 2c 24 3c a7 b4 c7 3d 23 6b 0b 3d d9 ec 2b 3d
       0.010020466 0.097512536 0.03403772 0.041973922
000390 13 68 d8 bd 5f 6f 02 3d d6 d3 38 3d 38 1d 24 bd
       -0.105667256 0.031844493 0.045123897 -0.040066928
0003a0 1a 50 96 bd 49 50 b7 bc 23 ab c7 bd e4 d1 ab 3d
       -0.07339497 -0.02237715 -0.097494386 0.08389643
0003b0 86 10 93 bd e4 f0 cd 3d dc 3e be bd 0c 04 97 3d
       -0.07180886 0.10055712 -0.09289333 0.07373819
0003c0 21 ac 45 bd 27 65 b1 bd 4d a8 a8 3c 7d 50 d4 3d
       -0.048259858 -0.086618714 0.020588065 0.103669144
0003d0 1e 9d 1f bd 5a 45 c5 3c 8e e5 96 bd f2 72 68 3d
       -0.038968198 0.024080921 -0.07368003 0.056750245
0003e0 91 56 a8 3d d1 fb 1d bd 25 e0 b2 3d 1b ff 2e 3d
       0.08219636 -0.03857023 0.087341584 0.042723756
0003f0 47 6f cb 3b 04 37 53 bd d4 18 79 3d e5 2b 54 bb
       0.0062083337 -0.05156614 0.060814694 -0.0032374796

encoder.lob_enc.res_blocks.0.conv2.bias f4 [32]
000000 b5 b2 e9 3c ec 98 8b bc 99 e7 e8 bc c5 69 3a 3c
       0.028527597 -0.017040692 -0.028430747 0.0113777565
000010 11 51 17 3a 7d 31 52 bc fb e5 49 bd d2 75 60 bd
       0.00057722727 -0.012829182 -0.049291592 -0.054799862
000020 e3 ab 1c bd 89 76 a5 bd 08 76 4e bd 62 5c 3c bc
       -0.03824986 -0.080792494 -0.050405532 -0.011496635
000030 17 4e 69 bd 11 e7 29 3c 40 09 43 3d 8b 99 4f 3c
       -0.056959238 0.010370032 0.047616243 0.012670885
000040 94 3e 27 bd 1d 52 c9 39 1f b0 7b bd f9 65 93 3d
       -0.040831164 0.00038398887 -0.06144726 0.07197184
000050 11 49 8b 3d 5f 36 a1 3d 70 45 14 bd 57 3d 88 3d
       0.06801046 0.078716986 -0.036199033 0.06652325
000060 c2 3a 08 3c 18 1b f4 bc 40 88 73 3d f9 c4 92 bd
       0.00831479 -0.029798076 0.05945611 -0.07166476
000070 9f da cf bd 1c 9d b4 3d b8 a9 01 3d 9b 4b 40 3d
       -0.101491205 0.08819029 0.031655997 0.046947103

encoder.lob_enc.res_blocks.0.bn2.weight f4 [32]
000000 b8 3e 7e 3f 9f 05 80 3f 86 30 81 3f 22 3f 7e 3f
       0.9931445 1.0001715 1.0092933 0.99315083
000010 16 0b 81 3f 35 96 80 3f 0d 3f 81 3f 3d 30 81 3f
       1.0081508 1.004584 1.0097367 1.0092846
000020 4a cf 80 3f a1 e7 80 3f 7b 4c 80 3f 31 ca 7f 3f
       1.006326 1.0070688 1.002334 0.99917895
000030 be 19 81 3f 0a 6f 80 3f d7 83 7e 3f 1d 02 81 3f
       1.0085981 1.0033886 0.9941992 1.007877
000040 52 32 80 3f 62 0c 80 3f 64 1a 81 3f d8 87 80 3f
       1.0015357 1.0003779 1.0086179 1.0041456
000050 c7 de 7f 3f 80 21 81 3f 32 f6 7f 3f 42 31 81 3f
       0.99949306 1.0088348 0.9998504 1.0093157
000060 2a dc 80 3f 4c 45 80 3f fb 30 81 3f 19 24 81 3f
       1.0067189 1.0021148 1.0093073 1.0089141
000070 52 f2 80 3f 04 af 7e 3f 3b f6 80 3f b6 21 81 3f
       1.007395 0.994858 1.0075144 1.0088413

encoder.lob_enc.res_blocks.0.bn2.bias f4 [32]
000000 70 c8 d3 3b 5d 2f 96 37 3d 81 1a 3c 61 3a 54 bb
       0.006463103 1.7903449e-05 0.009430227 -0.003238343
000010 2c 1b 0b 3c af 37 d8 3b a2 7d 19 3c c4 de 1a 3c
       0.008490365 0.006598435 0.009368332 0.0094525255
000020 7c f1 00 3c dc 00 04 3c c3 e6 42 3a 8f 54 49 3a
       0.007870074 0.0080568455 0.0007434899 0.0007680142
000030 4b 30 10 3c 3a 85 90 3b 5f fd 02 bc eb bf 02 3c
       0.008800576 0.004410413 -0.007994979 0.007980327
000040 6c 50 9c 3b df 95 7d 3b 5b 57 19 3c 05 07 d8 3a
       0.004770329 0.0038694066 0.009359206 0.0016481584
000050 ca 84 f6 b9 8f 01 18 3c 2d c8 8a bb 94 f2 0e 3c
       -0.00047019712 0.009277715 -0.0042352886 0.008724827
000060 11 f0 f7 3b 72 3b 64 3b 95 5f 1e 3c 17 1c 19 3c
       0.00756646 0.0034825471 0.009666343 0.009345076
000070 9c 43 05 3c 1b cd 0d bc f0 5c 09 3c 86 7b 11 3c
       0.008133795 -0.008654858 0.008383974 0.008879548

encoder.lob_enc.res_blocks.0.bn2.running_mean f4 [32]
000000 d2 6f e7 3d 09 65 e0 bc bb 9d 4b 3d 45 b2 1e 3e
       0.11300625 -0.027391927 0.04971097 0.15497692
000010 93 7a 5b bc 6d dc b1 3e 33 7d 78 be 38 ad 61 3e
       -0.013395923 0.34738484 -0.2426651 0.22038734
000020 cc 4c 0b 3e 05 b5 b4 3d dc 8d 48 be c4 70 49 3d
       0.13603514 0.08823589 -0.19585365 0.049179807
000030 4f af 85 bc 22 85 c5 bd 94 16 83 3e 2e 90 26 bd
       -0.016318945 -0.09644534 0.25603163 -0.040664844
000040 81 3a b2 3d ee f5 cf 3d 1f 6c df bd 96 7a 3b 3e
       0.08702565 0.10154329 -0.10909294 0.18308482
000050 d3 65 7d be 43 09 79 3e 18 ac 09 3d 29 84 9d 3b
       -0.24745874 0.2431994 0.033611387 0.0048070145
000060 b6 b4 6b be 05 75 8c 3c 20 3c 55 3c 9a c7 dd 3d
       -0.23018155 0.017145643 0.013014823 0.108290866
000070 7f df 08 be 65 9f ee 3d a7 e1 09 3e 6d 5e 02 3e
       -0.13366507 0.11651496 0.13464986 0.12731333

encoder.lob_enc.res_blocks.0.bn2.running_var f4 [32]
000000 24 d9 29 3e 53 4d ff 3d 20 42 48 3e 4d eb 17 3e
       0.16586739 0.1246592 0.19556475 0.14835854
000010 8d 82 32 3e 17 bb ba 3e a0 31 29 3e 92 37 66 3e
       0.17432614 0.36470863 0.16522837 0.22482136
000020 90 d1 26 3e 64 79 1e 3e 07 2e 40 3e a3 ea d6 3d
       0.16290879 0.15475994 0.18767558 0.10493972
000030 03 32 19 3e 44 bf 04 3e 2c 1b 55 3e 7e 3d 29 3e
       0.14960484 0.12963587 0.20811146 0.16527364
000040 b9 13 9d 3e 3e 09 21 3e 63 fc 44 3e 12 d7 17 3f
       0.3067911 0.15726182 0.19236903 0.59312546
000050 67 4e 84 3e b3 7f 30 3e c2 9e a9 3e 11 95 50 3e
       0.25841066 0.17236213 0.33128935 0.20369364
000060 e2 f6 4f 3e 16 a9 00 3e 28 03 40 3e 0f 9e f7 3e
       0.20309022 0.12564501 0.18751204 0.48362777
000070 39 9b 26 3e 31 21 09 3f 12 db 40 3e 52 e6 20 3e
       0.1627015 0.5356627 0.18833569 0.1571286

encoder.lob_enc.res_blocks.1.conv1.weight f4 [32, 32, 3, 1]
000000 20 75 c7 bd 72 3e 96 3c dd 82 31 3d 9d 19 fe bc
       -0.09739137 0.018340323 0.04333769 -0.031018073
000010 ea 07 8b bd 6a c0 9f 3d ef ea 0a 3d e4 40 6e 3d
       -0.06788619 0.07800372 0.033915456 0.058167353
000020 f6 e0 ce 3d db 36 a6 bd b1 b0 9a 3d cc 7d 15 bd
       0.10101502 -0.081159316 0.075532325 -0.036496922
000030 d5 0d 22 3d ce b4 86 3d 39 46 98 3d dc 12 05 3d
       0.039563973 0.065774545 0.07435269 0.03248869
000040 fd ac 39 3c bf 6e ed 3a 4a 2b eb bc 92 73 6f 3d
       0.0113327475 0.001811467 -0.028707165 0.058459826
000050 1d d8 d4 3d a3 af 39 3c 55 36 a0 bd 3a cc 75 bc
       0.10392783 0.011333379 -0.07822863 -0.015002305
000060 65 f7 c8 bc a7 eb 58 3d 68 c6 98 bd fe af 0b bd
       -0.02453203 0.05295911 -0.07459718 -0.034103386
000070 98 ba 3f bd 12 d1 a4 bd a6 46 58 bd ad 62 75 3d
       -0.04680881 -0.080476895 -0.05280175 0.059908558
000080 f4 e0 b8 3c 19 5f 9a 3d d1 f1 4a bc b9 18 4b 3d
       0.022568204 0.0753767 -0.012386755 0.049584124
000090 af de 29 3d 6e 90 88 3d a4 ed 06 bc d9 de a5 3d
       0.041472133 0.06668173 -0.008235369 0.080991454
0000a0 d6 26 d9 bb f2 81 f0 bc c6 18 1d 3d 17 2c 19 3d
       -0.006626944 -0.029358838 0.038353704 0.037395563
0000b0 93 9b 87 bd 39 1c 1d bd db 98 c4 bd d5 2c be 3d
       -0.0662147 -0.038356993 -0.09599467 0.09285895
0000c0 c0 6a cd 3c f5 fc a1 3d 2b 2d b9 bd e8 9e c7 3d
       0.025075316 0.07909576 -0.09041818 0.09747106
0000d0 1e 83 c5 3d 6c 3c c7 3d 13 e8 82 bd 53 3d c9 3d
       0.09644149 0.097283214 -0.06391921 0.0982615
0000e0 e2 97 a9 bd 08 7c 9c bd 1c 67 17 bd 8f 17 cf 3d
       -0.082809225 -0.076408446 -0.036963567 0.10111915
0000f0 b2 ed f5 bc c6 32 12 3d b4 80 88 bc 2f bb 76 3d
       -0.030020569 0.035692953 -0.016662933 0.060237106
000100 ec 2b 60 3d ca 6b bc 3d a2 f0 6a 3d 61 01 b3 3d
       0.054729387 0.09200247 0.05735839 0.087404974
000110 16 42 bc 3d d6 f2 0d 3d 01 37 80 3d 40 1e ad 3d
       0.091922924 0.034655415 0.06260491 0.08453035
000120 c0 c0 33 3d 4c 34 08 bd ef 36 98 3d bd 3c 9f 3c
       0.043884993 -0.033253 0.07432353 0.019438142
000130 a4 9d 83 3d 21 c4 00 bd 56 b7 bb bd db 38 6d bd
       0.06426552 -0.031437043 -0.09165828 -0.05791555
000140 e1 f8 d9 ba 7c 68 90 bd 2a 1f 37 bd 69 6a 4b 3d
       -0.0016629958 -0.07051179 -0.044707455 0.049662028
000150 f9 34 0b 3d a9 e2 0e bd 33 8e 6c ba 32 1e c8 bd
       0.033986066 -0.03488413 -0.0009023875 -0.09771384
000160 3f e5 dc 3a 81 9e 9f 3a f7 2d 81 bd b7 f5 c5 3d
       0.0016852989 0.0012177975 -0.06307595 0.09666007
000170 9b 83 56 bd 98 08 e2 3b 39 c4 88 bd a3 e3 6e 3c
       -0.052371603 0.006897997 -0.066780515 0.01458064
000180 0e e1 a9 bd 38 4f d2 bb e4 7e 16 3d 2d 10 9c 3d
       -0.08294879 -0.006418135 0.036742106 0.07620273
000190 7f d0 36 3c f3 8d 61 3c 1a 18 4a 3c 88 8d 6d bd
       0.011158108 0.0137667535 0.012334848 -0.057996303
0001a0 69 51 96 3c 06 18 c7 bd 8f 76 2e bd 82 57 fe bb
       0.018349366 -0.09721379 -0.042593535 -0.0077618966
0001b0 6b 39 f7 bc f6 01 3a 3d 6f 49 8a bd e5 5c ea 3c
       -0.030178746 0.045412026 -0.067522876 0.028608749
0001c0 b0 7b 85 bd 25 ad b2 bd 06 86 97 bc dd da 64 bc
       -0.06517732 -0.08724431 -0.018496525 -0.013968197
0001d0 85 91 4e bd 45 bc c6 3d 03 76 1f bd 55 23 da bc
       -0.050431747 0.09703878 -0.038930904 -0.026628176
0001e0 51 24 e7 3b ed 3b 2c bd e9 10 76 3c 45 b8 c6 3d
       0.00705389 -0.042049337 0.01501868 0.097031154
0001f0 10 90 05 bb 5f b0 19 bd 9c c9 85 3d 81 33 0a 3d
       -0.0020380057 -0.037521716 0.065325946 0.033740524
000200 0a bc 6f 3d 71 5c c1 3c 31 2d 51 bd 3f 32 9b bd
       0.058528937 0.02360365 -0.05106849 -0.07577943
000210 d9 d6 2c bd 89 01 bf bd 4a 4f c5 bd 51 ae 74 3d
       -0.042197082 -0.09326465 -0.09634264 0.059736554
000220 1d 78 e0 bb 2a e5 78 ba 4d aa a5 bd 59 f7 46 3d
       -0.006850256 -0.00094945973 -0.08089123 0.048575733
000230 e3 5a 9c 3d a5 22 8c 3d 29 a7 57 bd 9e 25 80 3c
       0.07634523 0.068425454 -0.05264965 0.015642937
000240 76 59 5c bd 18 0d 37 3d cf 52 56 3d 52 b2 7e bd
       -0.053796254 0.04469022 0.052325066 -0.06218178
000250 6a fe a5 bd 6c bb a5 bd 3f 37 0c 3d c8 f3 7e 3c
       -0.08105166 -0.080923885 0.034232374 0.015561052
000260 2c 99 7d 3d 86 6c b5 bc e8 56 94 3d 72 ac af 3d
       0.061913654 -0.022146475 0.072431386 0.08577813
000270 35 cd 8f bd ce 91 09 bc 29 71 9e 3c 0e a7 83 3d
       -0.07021562 -0.008396579 0.019341068 0.064283475
000280 2a 1d c5 bd e6 15 35 3d 3a d6 95 ba 13 30 8a 3d
       -0.09624703 0.044210337 -0.0011431642 0.06747451
000290 f4 fe c8 bd 31 63 9c 3d 3d 17 a4 3d 8e 9a 94 3b
       -0.098142534 0.07636107 0.08012245 0.004535026
0002a0 1b 68 d7 bc f1 e4 56 3d ff 13 d0 bc b1 e8 ec bc
       -0.026294759 0.05246443 -0.02540016 -0.02891955
0002b0 ea fc 80 bd 38 44 b7 3d c3 8d 7a 3d 40 ae e2 3b
       -0.062982395 0.089485586 0.06117035 0.006917745
0002c0 43 49 b3 ba 34 08 8e bd e1 56 a2 3d 35 6b 23 3d
       -0.001367845 -0.06935158 0.07926727 0.039897162
0002d0 aa 8c 20 3d 10 8a 32 3d 20 d9 a8 bd 7d 7d 1c bd
       0.039196648 0.043588698 -0.08244538 -0.038205612
0002e0 ef a3 86 3d 29 76 14 bd fa ad ae 3d 59 f9 8d bd
       0.065742366 -0.0362455 0.08529277 -0.06932325
0002f0 ac 04 9e 3d 85 82 dc 3d 75 fb a1 bd 9c 42 b3 3d
       0.07715735 0.10767082 -0.0790929 0.08752939
000300 45 db 95 3c 58 93 24 3d 9c be 26 bd 85 ed 82 3d
       0.018293032 0.04017958 -0.040709123 0.063929595
000310 a8 96 5a 3c 47 50 ac bd 64 9e bb 3d ab b5 50 bb
       0.013341583 -0.08413749 0.0916107 -0.0031846564
000320 bf 24 a8 bc d9 21 98 3c 99 f4 cc 3b 24 7d ce bd
       -0.020525334 0.018570827 0.0062547443 -0.100824624
000330 cc 7a bb 3d f7 ab a7 bc 92 87 a6 3c 5b 6c e5 bc
       0.09154281 -0.020467741 0.020328317 -0.02800577
000340 d8 64 d4 bd 1b 1b c5 bd fe f2 17 bd 24 17 12 bd
       -0.10370797 -0.096243106 -0.03709697 -0.0356666
000350 fc ea aa 3d bd 80 39 3c 68 fc d0 3d 4b 5e a3 3d
       0.08345601 0.0113221975 0.10204393 0.07976969
000360 4a 60 a8 3b 51 35 30 bd d0 5f 6b bb 30 24 3a bd
       0.0051384317 -0.043019596 -0.0035915263 -0.045444667
000370 8d 88 e3 bd 59 fa 93 3c 34 4c 01 3d f0 d3 27 bd
       -0.11110029 0.018063711 0.031566814 -0.040973604
000380 9f a4 ab 3d 03 88 35 3b 47 11 74 bc 15 2a b5 bc
       0.08381008 0.0027699478 -0.014896697 -0.022114793
000390 a5 9a b5 3d 1c f0 3b 3d ce 4a a5 bd f4 9b b1 bd
       0.08867387 0.045883283 -0.080709085 -0.08672324
0003a0 fb a9 bd bd c3 31 ad 3d fb 03 9a 3d 54 b3 2b 3d
       -0.09260937 0.08456757 0.075202905 0.041919068
0003b0 bc 0c 28 3d be 93 a0 bd 54 2f 84 3d c4 25 8a bc
       0.04102777 -0.078406796 0.064543396 -0.016863711
0003c0 b7 3f 47 bc fe 4e 4a 3b ab ac 1f bd 21 7f af 3d
       -0.012161187 0.0030869837 -0.03898303 0.0856917
0003d0 2a 36 7b 3b d8 bb 6f 3d c8 28 83 bd 08 43 b4 bd
       0.0038331845 0.05852875 -0.06404263 -0.08801848
0003e0 d4 c2 e8 bc a6 f1 b8 3c fe c0 a2 bd 10 c4 82 bd
       -0.028413214 0.022576164 -0.079469666 -0.06385052
0003f0 5f f0 b9 3c c5 49 b9 3d 3e a6 9f 3d 84 90 af 3d
       0.022697626 0.090472735 0.0779538 0.08572486

encoder.lob_enc.res_blocks.1.conv1.bias f4 [32]
000000 66 02 26 3d 4c 24 56 3d 08 ce bf 3d a6 da f4 3c
       0.04052963 0.05228071 0.09365469 0.029889416
000010 74 21 94 3d 4c 24 32 3d 63 65 53 bd 1f 55 14 bc
       0.07232943 0.043491647 -0.05161036 -0.009053498
000020 78 95 77 bd 9c 54 8d 3d 74 b2 b0 3c 40 ef a2 bd
       -0.06044528 0.069009036 0.021569468 -0.079557896
000030 61 ba a9 3d 2b ba 4b 3d f7 99 aa bb 0f 7a aa bd
       0.08287502 0.04973809 -0.0052063423 -0.08324062
000040 89 8f 76 bd 1a c2 cd bd 0b 7c 99 bd 00 cb b1 3d
       -0.06019548 -0.100467876 -0.074943624 0.08681297
000050 98 a1 70 bc b2 d0 9f 3d 41 66 2e 3d 97 b9 ad 3d
       -0.014686964 0.07803477 0.042577986 0.08482664
000060 94 6b c9 3c 30 fc 8c bd 1b c6 ae 3d 97 d1 c6 bd
       0.02458743 -0.068840384 0.08533879 -0.09707945
000070 df 52 a2 3c 21 f2 95 3c 75 00 67 3d bc d2 a7 bd
       0.019814907 0.018303933 0.05639692 -0.08194491

encoder.lob_enc.res_blocks.1.bn1.weight f4 [32]
000000 c5 f4 7d 3f fc b0 80 3f fe e5 7d 3f 5b 4c 7f 3f
       0.99201614 1.0054011 0.99179065 0.99725884
000010 6e 58 81 3f 1a ae 7f 3f a0 c2 7d 3f 7c 75 7e 3f
       1.0105112 0.9987503 0.991251 0.99398017
000020 e0 bf 7e 3f ba f7 7d 3f 26 35 81 3f b2 3a 81 3f
       0.9951153 0.99206126 1.0094345 1.0096037
000030 f3 da 7f 3f 4c 2f 81 3f 16 df 7f 3f b5 10 80 3f
       0.99943465 1.0092559 0.9994978 1.0005099
000040 06 36 81 3f ca 19 7f 3f 06 02 81 3f f0 1a 7f 3f
       1.0094612 0.99648726 1.0078743 0.9965048
000050 bd 69 7e 3f f8 48 80 3f 2b 1a 80 3f 10 f8 7e 3f
       0.99380094 1.0022268 1.0007986 0.99597263
000060 39 4c 81 3f 4a ab 80 3f a2 aa 7e 3f 38 74 80 3f
       1.0101386 1.0052273 0.99479115 1.0035467
000070 f9 89 7d 3f 3f ad 7e 3f 52 09 7e 3f 9e 1b 81 3f
       0.99038655 0.994831 0.9923297 1.0086553

encoder.lob_enc.res_blocks.1.bn1.bias f4 [32]
000000 2f d2 eb bb 12 61 15 3c eb e0 fc 3a ce ca fd ba
       -0.0071966867 0.009117382 0.0019293105 -0.0019362809
000010 b4 9e 2f 3c 2c fe e0 bb 4d fd d8 ba 3b b0 f7 bb
       0.01071899 -0.006866237 -0.0016554982 -0.00755885
000020 09 b0 d3 3b 77 fc e5 bb ca 3b 12 3c 49 d4 13 3c
       0.006460194 -0.0070186215 0.008925388 0.009022781
000030 c9 89 0f 3c 5e 20 16 3c 63 df f6 3b bb b3 fb bb
       0.008760878 0.00916299 0.007533954 -0.0076813377
000040 66 be 0f 3c d9 4b 55 3b f7 81 1b 3c c4 bd 13 3c
       0.008773422 0.003254643 0.009491435 0.009017412
000050 86 7c 9e 3b d2 45 2c 3c dc d8 99 3b b1 7b b8 3a
       0.0048366217 0.010514693 0.004695041 0.0014074949
000060 23 c3 22 3c 09 18 2e bb 38 5e 01 3c 08 ec 05 3c
       0.0099342195 -0.002656462 0.007895999 0.00817395
000070 47 ab d8 bb c0 f2 87 3b a0 99 ba ba f2 22 e8 3b
       -0.0066122147 0.004148811 -0.0014236458 0.007084244

encoder.lob_enc.res_blocks.1.bn1.running_mean f4 [32]
000000 8b 20 f3 3e 2b 70 b5 3d 5e 36 fd 3d b9 ea bc be
       0.47485766 0.08859285 0.12363885 -0.3689783
000010 cc 47 6e bd d6 7f f5 bc 92 20 14 be ff a6 0d 3f
       -0.05817394 -0.029968183 -0.1446555 0.5533294
000020 e5 f9 f8 3d 1a ec 54 be 9e e7 dc be 89 87 3c bf
       0.121570386 -0.2079319 -0.4314546 -0.7364431
000030 22 7d e4 be 56 79 c6 be c8 7a 37 3f 82 6f b1 be
       -0.4462672 -0.38764447 0.71671724 -0.34655386
000040 83 87 3e bf 1e f9 a1 be 8c 0b 3c bf 58 ba c5 be
       -0.74425524 -0.31635374 -0.7345512 -0.38618731
000050 9f fe 24 be 8c 01 78 3c b5 08 0c 3d 94 69 d8 3e
       -0.16112755 0.015137088 0.03418799 0.4226805
000060 2b 34 d4 be a3 54 76 bd 9b bc c3 3e e0 b0 85 be
       -0.4144605 -0.06013931 0.38229832 -0.26111507
000070 62 42 4a 3d db e7 d3 bd c8 73 fc bd f7 4a 9f be
       0.049379714 -0.10346957 -0.12326771 -0.3111188

encoder.lob_enc.res_blocks.1.bn1.running_var f4 [32]
000000 78 2d f8 3e e5 53 8b 3e 36 56 c7 3e 07 e3 66 3e
       0.4847219 0.27212444 0.3893296 0.22547542
000010 ad 06 d3 3e ed d1 dc 3e aa e6 33 3e 3f ab 21 3f
       0.4121603 0.4312891 0.1756846 0.63151926
000020 4d 39 d0 3e c8 3f a3 3e d8 3f b2 3e df 5a a8 3e
       0.40668717 0.318846 0.34814334 0.3288183
000030 b2 68 84 3e 1e 3f 80 3e e5 7b 24 3f 25 dc 2b 3e
       0.25861126 0.25048155 0.6425155 0.16783197
000040 90 e9 9d 3e d0 cd c6 3e 71 90 ee 3e 7d 60 30 3e
       0.30842257 0.38828897 0.46594575 0.17224307
000050 11 74 bd 3e 02 de ec 3e e6 7a 7f 3e be e8 54 3f
       0.37002614 0.4626313 0.24949226 0.83167636
000060 32 0a a3 3e fe 7f ee 3e 03 c7 83 3f 33 fb 9c 3e
       0.31843716 0.46582025 1.0295109 0.306604
000070 e6 78 63 3e 15 b2 bf 3e b0 10 d5 3e 35 a7 d4 3e
       0.22214088 0.37440553 0.41614294 0.4153382
